rl_model/SCPPO_value_179.pth (torch_old, 472694 bytes, 71 tensors)

cons_embedding.0.weight f4 [4]
0.9996205 0.9995074 0.99945486 1.0001713
00000000: 21e7 7f3f b8df 7f3f 46dc 7f3f 9d05 803f

cons_embedding.0.bias f4 [4]
0.0003794268 0.0005107778 -0.000544967 0.00016395653
00000000: ceed c639 b8e5 053a 1edc 0eba bfeb 2b39

cons_embedding.1.weight f4 [64, 4]
0.11732033 0.23368944 0.28760782 -0.6485887 -0.9406451 -0.31155738 1.07479 -0.046211552
0.6370362 1.1235735 -1.1130263 1.1522654 -0.85995984 -0.52586406 1.1045675 1.208718
-0.26401567 0.653265 -0.33482745 -0.5134366 0.19103354 0.12395215 -0.24874356 -0.1901211
-0.5564251 -0.4770742 -1.1588029 -0.7389724 0.5715343 0.5957844 -0.9976025 -0.87447846
0.7814484 0.914327 0.85443485 -1.0069362 -0.09980201 -0.74152267 0.67932355 -0.5817776
-0.19570081 -0.9151536 0.1443981 0.944821 -0.1743944 0.7301565 -0.8512069 -0.5815685
0.65107626 0.96238023 -0.14213309 0.2571332 0.9033704 1.0415685 0.90150785 -0.3595864
0.6480306 0.4006484 -0.072178096 0.85923946 0.88116425 0.14737305 0.8663548 -0.69039553
-0.6955783 0.94829637 1.1453631 1.1250587 0.29640016 -1.10057 1.2104661 0.9525512
0.46851486 -0.60787183 -0.84867966 -0.008032963 0.07675889 1.1846455 0.31491634 0.5038468
0.018123467 0.37401828 -0.121328935 -0.07939999 -0.42094913 -0.55400795 -0.8103165 0.7248357
-0.60515827 0.83963597 -0.9778143 -0.5039526 -0.19496973 0.3539493 0.19301236 0.84997314
-0.03824927 -0.36319238 0.056252897 0.89563686 -1.0722117 0.306885 -0.856212 1.1909615
-0.7661248 0.290417 -0.15929216 0.6832606 -0.5688545 0.55889773 -0.84087926 0.26264402
0.6325797 -0.55523056 -0.5678505 0.6525608 0.09703704 -0.72629815 0.24902532 -0.46182072
-0.18398984 -0.3208389 0.6627807 1.0402483 0.3647509 -0.522956 0.7400957 0.01134371
0.005779612 0.2719661 -0.45520166 0.50415945 -0.13527794 -0.808109 0.5191146 -0.8183929
-1.059038 0.6258489 1.0552115 -0.9051017 -0.24478637 1.0085206 0.9203075 0.49848092
-0.040516358 0.5378793 0.66772974 -0.89978826 -0.5566627 -0.639769 -1.0732836 -0.9134894
0.8025818 -0.11047713 0.1058537 -0.35020772 0.0050764503 -1.1514735 0.91283137 0.9695407
0.24896157 1.2095053 -0.416399 -0.7826459 0.15128782 1.1863002 0.7882814 -0.2316325
-0.010120673 -0.7066631 0.11135629 -0.6385778 0.93285805 -1.1800182 1.1617757 0.5596719
0.3525603 1.0301268 1.2233353 0.4914349 -1.0788825 0.16341746 1.0640296 -0.3530942
-0.150426 -0.96195936 0.64775455 0.87745786 -0.5419376 1.212589 0.0065063965 0.4538597
0.24295047 1.1364452 -0.23197286 0.25931448 -0.12679496 -0.60431236 0.8229382 0.24335872
0.87363493 0.62253726 -0.921688 -0.13949883 0.5531772 -1.0864307 0.46232522 0.84778905
0.27453038 0.6311404 -0.76593393 -0.22819087 -0.73783284 -0.1495671 1.2185777 -0.21852845
-1.1500819 -0.17061514 -0.019590054 -0.91458255 -0.3085525 -0.30092314 -0.32929257 0.6330059
1.121114 -0.6725054 -1.0373293 0.6046386 0.04131736 0.0767925 0.4308827 -0.06443423
0.21315032 0.77776146 -0.68663394 0.34760273 0.11770987 0.60906905 0.726303 0.32106617
-0.6122275 -1.1984609 0.70394504 0.76362073 -0.13391088 0.25703347 0.5268332 -0.19321209
0.8797688 -0.59084594 0.6245477 -0.52301323 -1.1075515 -0.68950295 -0.5839804 -0.08099244
00000000: a445 f03d 494c 6f3e 5541 933e e909 26bf
00000010: 1ece 70bf 7384 9fbe b892 893f 5348 3dbd
00000020: ce14 233f 42d1 8f3f a577 8ebf 6f7d 933f
00000030: 5426 5cbf 079f 06bf 7862 8d3f 45b7 9a3f
00000040: 102d 87be 603c 273f 816e abbe 9570 03bf
00000050: 4c9e 433e a0da fd3d a2b6 7ebe 1baf 42be
00000060: e071 0ebf 1243 f4be a753 94bf 4c2d 3dbf
00000070: 1250 123f 5485 183f e162 7fbf d2dd 5fbf
00000080: 010d 483f 5611 6a3f 3ebc 5a3f 49e3 80bf
00000090: ff64 ccbd 6ed4 3dbf 26e8 2d3f 60ef 14bf
000000a0: cb65 48be 8247 6abf 18dd 133e cadf 713f
000000b0: 7294 32be 89eb 3a3f b2e8 59bf ace1 14bf
000000c0: efac 263f 8d5e 763f 568b 11be f6a6 833e
000000d0: 4843 673f 1e52 853f 38c9 663f b51b b8be
000000e0: 55e5 253f c921 cd3e 1cd2 93bd 1ef7 5b3f
000000f0: fb93 613f f6e8 163e 6ec9 5d3f c3bd 30bf
00000100: 6b11 32bf 8dc3 723f 429b 923f ec01 903f
00000110: c3c1 973e 7adf 8cbf 8ef0 9a3f 65da 733f
00000120: 2ee1 ef3e 7d9d 1bbf 1243 59bf b09c 03bc
00000130: c433 9d3d 77a2 973f b73c a13e 1bfc 003f
00000140: aa77 943c 537f bf3e 4e7b f8bd 769c a2bd
00000150: a586 d7be 77d3 0dbf e770 4fbf d58e 393f
00000160: a7eb 1abf 62f2 563f 0a52 7abf 0a03 01bf
00000170: 25a6 47be d838 b53e 08a5 453e d797 593f
00000180: 44ab 1cbd 5af4 b9be 7069 663d 7548 653f
00000190: 3c3e 89bf 0820 9d3e b630 5bbf 6d71 983f
000001a0: c120 44bf 89b1 943e 7c1d 23be 2bea 2e3f
000001b0: 73a0 11bf ec13 0f3f dd43 57bf 4779 863e
000001c0: bef0 213f 9723 0ebf a65e 11bf 390e 273f
000001d0: 5bbb c63d adee 39bf 7e00 7f3e c473 ecbe
000001e0: d567 3cbe ff44 a4be ffab 293f db26 853f
000001f0: a1c0 ba3e 72e0 05bf e976 3d3f f8da 393c
00000200: e662 bd3b 243f 8b3e 3110 e9be 9810 013f
00000210: 4d86 0abe 3be0 4ebf b2e4 043f 3282 51bf
00000220: 8f8e 87bf a237 203f 2c11 873f bfb4 67bf
00000230: 47a9 7abe 3417 813f 4699 6b3f e438 ff3e
00000240: 7bf4 25bd 75b2 093f 56f0 2a3f 8658 66bf
00000250: 7281 0ebf e7c7 23bf 5b61 89bf 71da 69bf
00000260: 0076 4d3f d541 e2bd d3c9 d83d 6d4e b3be
00000270: 5a58 a63b 7c63 93bf 51af 693f d233 783f
00000280: c8ef 7e3e 12d1 9a3f 4032 d5be 7b5b 48bf
00000290: 32eb 1a3e afd8 973f cfcc 493f 1231 6dbe
000002a0: 2ed1 25bc dfe7 34bf c40e e43d d679 23bf
000002b0: c9cf 6e3f d60a 97bf 11b5 943f a846 0f3f
000002c0: c982 b43e 32db 833f 4096 9c3f 5b9d fb3e
000002d0: d218 8abf e856 273e 1f32 883f c3c8 b4be
000002e0: 4609 1abe f842 76bf 3ed3 253f 14a1 603f
000002f0: 6cbc 0abf 1e36 9b3f 9c33 d53b 4c60 e83e
00000300: 02c8 783e 0977 913f 4b8a 6dbe dec4 843e
00000310: 8ad6 01be 37b4 1abf 14ac 523f 0733 793e
00000320: 8aa6 5f3f 9a5e 1f3f bff3 6bbf c8d8 0ebe
00000330: 059d 0d3f 2910 8bbf e4b5 ec3e b408 593f
00000340: 3f8f 8c3e 6b92 213f 3f14 44bf deaa 69be
00000350: 9de2 3cbf 1e28 19be 5bfa 9b3f ecc5 5fbe
00000360: e235 93bf bcb5 2ebe 527b a0bc 1522 6abf
00000370: 98fa 9dbe 9912 9abe 0999 a8be ad0c 223f
00000380: aa80 8f3f 5029 2cbf 35c7 84bf 98c9 1a3f
00000390: 643c 293d 6345 9d3d a89c dc3e 18f6 83bd
000003a0: 1444 5a3e 601b 473f 3ec7 2fbf fcf8 b13e
000003b0: df11 f13d f3eb 1b3f feee 393f c962 a43e
000003c0: f1ba 1cbf 2b67 99bf be35 343f a67c 433f
000003d0: ef1f 09be e499 833e 8ade 063f 64d9 45be
000003e0: 8738 613f ae41 17bf 5ce2 1f3f 32e4 05bf
000003f0: 3fc4 8dbf 4483 30bf bd7f 15bf 5ddf a5bd

cons_embedding.1.bias f4 [64]
0.49695304 -0.04462544 0.3746694 0.29570648 -0.020942539 0.117999166 0.13230377 0.46487752
0.13639571 0.31318927 -0.38448745 -0.032224316 0.46901852 0.42799804 -0.4780183 -0.32693842
0.43594047 0.38839027 0.124436185 0.41036665 0.44320747 -0.113851614 0.49889866 0.12413735
0.41539216 -0.19679129 -0.4312003 0.046949618 -0.015233218 -0.35381028 0.15866457 0.22811943
0.04634362 -0.2845941 -0.004219466 -0.03579093 -0.251522 0.3379838 -0.10623255 -0.4424079
-0.24191177 -0.3079965 0.45428896 -0.08357676 -0.24844056 -0.05245867 0.044077866 0.08341173
-0.20137031 -0.2466023 0.44481337 0.38734204 0.48908967 0.1633478 0.2997896 -0.048842285
0.41820532 -0.49123353 -0.11510148 0.22328886 0.4489394 -0.17840372 -0.46501458 -0.48671404
00000000: a170 fe3e 2ac9 36bd abd4 bf3e d766 973e
00000010: b08f abbc 8ca9 f13d a47a 073e 6d04 ee3e
00000020: 51ab 0b3e 585a a03e 8adb c4be a5fd 03bd
00000030: 3223 f03e 8f22 db3e d1be f4be 7964 a7be
00000040: 9733 df3e 17db c63e 66d8 fe3d 941b d23e
00000050: 17ec e23e 092b e9bd a56f ff3e b93b fe3d
00000060: 48ae d43e a883 49be 49c6 dcbe 3e4e 403d
00000070: bf94 79bc 9f26 b5be f778 223e 2498 693e
00000080: cfd2 3d3d 51b6 91be 7243 8abb 8399 12bd
00000090: 7ec7 80be 360c ad3e 7490 d9bd 4a83 e2be
000000a0: b8b7 77be b8b1 9dbe 9098 e83e 4b2a abbd
000000b0: 3467 7ebe e7de 56bd fe8a 343d c5d3 aa3d
000000c0: 0534 4ebe 5085 7cbe 94be e33e b251 c63e
000000d0: f669 fa3e a544 273e 067e 993e d90e 48bd
000000e0: 021f d63e f682 fbbe 53ba ebbd d6a5 643e
000000f0: 63db e53e 77af 36be 6416 eebe 9532 f9be

cons_embedding.3.weight f4 [64, 64]
0.24214329 -0.052827522 0.2895671 -0.13066727 -0.058151353 0.2728715 0.08908704 -0.22888613
0.00039931724 -0.04046171 -0.18213376 0.15808426 0.2862305 0.04874946 0.29516926 -0.2687206
-0.22039983 0.1103904 -0.22090833 -0.26067162 -0.23616491 0.09731475 0.08538536 0.19994728
0.08733717 0.06285508 -0.10469149 0.26616883 0.22777414 0.114671625 -0.3034662 -0.036813993
-0.22619352 0.022791924 -0.030301567 -0.06656316 0.06662714 0.26678804 -0.22205861 -0.07368376
0.1473088 -0.23261818 0.26017275 -0.049256165 -0.13937321 -0.0048871557 0.27038836 0.24581055
0.14563258 -0.040161196 -0.14073886 0.17635375 0.29837468 -0.12899715 0.2612089 -0.098805465
0.2205351 -0.16789697 0.028274534 0.028495643 -0.09214005 -0.22071107 -0.21946539 -0.14922735
-0.025855016 -0.14919958 0.25654835 0.14836937 -0.15253855 -0.09542779 0.09555211 0.19445516
-0.15888454 -0.19218248 -0.27830887 0.25612313 -0.29917762 -0.18499991 0.099448696 0.056647696
-0.1224415 -0.16726473 -0.020750482 -0.16563576 -0.12566194 -0.19567938 0.29917613 -0.11926029
-0.016816428 -0.111223675 -0.17072015 0.24573964 -0.07558643 0.23278055 -0.03289685 0.25855193
0.18180366 -0.13863221 -0.23931716 -0.05495625 0.063770995 -0.11662024 0.23945884 0.09262841
-0.033128213 -0.0011352262 -0.011572661 0.29317352 0.29671967 0.02825639 -0.17027155 -0.27468914
0.29039618 0.15045878 0.20357053 0.15369727 0.067248285 0.03000176 0.10577442 0.26088986
0.18682688 0.06752441 0.29928282 -0.15247467 -0.011087824 0.19882214 -0.058023687 -0.22810702
-0.12260771 0.14874248 0.24479204 0.12177214 -0.15999746 -0.09537545 -0.22816521 -0.2124549
0.06359568 -0.24899024 0.13815963 0.024993788 -0.03573061 0.2180684 -0.071378075 0.12791047
0.08208469 0.29738003 -0.02045937 0.22812696 0.076681636 -0.27690512 -0.05342288 0.068963185
0.21777067 -0.018142486 -0.15946896 0.14282824 -0.119960725 -0.24725278 -0.02006585 -0.23038515
0.21832544 -0.06179739 -0.15984072 0.105821125 0.03747569 0.16263327 -0.15286401 -0.183989
-0.13727644 0.19663823 -0.20585102 -0.09116085 -0.026420727 -0.2495898 0.072202235 0.1987629
0.29994217 0.061612774 -0.009107587 -0.0709664 -0.19264148 -0.18270487 -0.23406984 0.15886639
-0.19407474 -0.24473898 -0.29257363 0.07477909 0.03531186 -0.21226339 0.05670638 -0.22814955
-0.07836864 0.2115825 0.2746579 -0.18961598 0.001454241 -0.018239502 -0.004924054 -0.20645747
0.08433722 0.10719051 -0.26411617 0.20629181 -0.13874276 -0.053515226 -0.015258064 -0.19747715
0.14323677 0.111931585 0.013323749 0.13585432 0.26237687 -0.09847436 -0.25284243 -0.20156755
-0.30195728 -0.20501123 0.26654577 0.10104702 -0.019410472 0.08008657 -0.1657043 -0.23611131
0.07676047 -0.050977577 -0.21416092 0.25768822 0.13614789 -0.29103234 -0.24132352 -0.24837376
-0.08897922 -0.16573755 -0.0017756341 0.14213572 0.033341035 0.09689246 -0.028806908 -0.0029411442
0.29940245 0.1865422 0.058696188 0.061150704 0.18238015 -0.26943886 0.10271553 0.06794956
0.26920673 0.23715441 -0.29895726 0.25720567 0.10297578 0.19927493 -0.029688148 0.14959383
00000000: 69f4 773e ac61 58bd 2442 943e a4cd 05be
00000010: 1d30 6ebd d0b5 8b3e 4473 b63d 2061 6abe
00000020: 745b d139 2ebb 25bd 4681 3abe d7e0 213e
00000030: ce8c 923e 84ad 473d 6d20 973e bf95 89be
00000040: 7eb0 61be 5d14 e23d cb35 62be c076 85be
00000050: 37d5 71be f54c c73d 85de ae3d fbbe 4c3e
00000060: d5dd b23d 2aba 803d 7e68 d6bd 4847 883e
00000070: a03d 693e f5d8 ea3d ec5f 9bbe 45ca 16bd
00000080: 469f 67be 21b6 ba3c fe3a f8bc 4452 88bd
00000090: cf73 883d 7198 883e 5563 63be 83e7 96bd
000000a0: 1ed8 163e 7633 6ebe 5d35 853e d5c0 49bd
000000b0: dab7 0ebe 6f24 a0bb 5870 8a3e c3b5 7b3e
000000c0: b520 153e 1180 24bd d91d 10be 1496 343e
000000d0: 91c4 983e d417 04be 2cbd 853e 855a cabd
000000e0: f4d3 613e 2fed 2bbe ff9f e73c b26f e93c
000000f0: ecb3 bcbd 1502 62be 89bb 60be 0ecf 18be
00000100: e6cd d3bc c6c7 18be 4e5a 833e 24ee 173e
00000110: 1133 1cbe a56f c3bd d3b0 c33d 411f 473e
00000120: a1b2 22be 7ccb 44be 807e 8ebe 9222 833e
00000130: cf2d 99be 9e70 3dbe c2ab cb3d 6a07 683d
00000140: 9cc2 fabd 7247 2bbe eafc a9bc 6c9c 29be
00000150: 86ad 00be 2d60 48be 9d2d 993e bd3e f4bd
00000160: 9bc2 89bc 3dc9 e3bd 43d1 2ebe 2ca3 7b3e
00000170: 0fcd 9abd 065e 6e3e d9be 06bd eb60 843e
00000180: bd2a 3a3e 9af5 0dbe 8f0f 75be ce19 61bd
00000190: 5e9a 823d 98d6 eebd b334 753e f7b3 bd3d
000001a0: 73b1 07bd dfcb 94ba 429b 3dbc d71a 963e
000001b0: a4eb 973e f279 e73c aa5b 2ebe 0ea4 8cbe
000001c0: cfae 943e de11 1a3e cb74 503e d162 1d3e
000001d0: 78b9 893d 40c6 f53c 42a0 d83d 5b93 853e
000001e0: 8c4f 3f3e 3d4a 8a3d 993b 993e 5222 1cbe
000001f0: b4a9 35bc 0898 4b3e 3faa 6dbd e394 69be
00000200: c019 fbbd f34f 183e c4aa 7a3e ac63 f93d
00000210: 60d6 23be 3454 c3bd 24a4 69be c78d 59be
00000220: 743e 823d 4cf7 7ebe b879 0d3e c6bf cc3c
00000230: 435a 12bd 534d 5f3e ab2e 92bd f6fa 023e
00000240: 051c a83d 3242 983e 699a a7bc 1d9a 693e
00000250: 430b 9d3d 82c6 8dbe f3d1 5abd 923c 8d3d
00000260: 46ff 5e3e 8d9f 94bc d54b 23be 9141 123e
00000270: f8ad f5bd d52f 7dbe 2361 a4bc 16ea 6bbe
00000280: b490 5f3e 431f 7dbd 49ad 23be bfb8 d83d
00000290: 1c80 193d 5689 263e 6288 1cbe 9d67 3cbe
000002a0: 3292 0cbe 885b 493e 9cca 52be 8ab2 babd
000002b0: 4870 d8bc 7894 7fbe c4de 933d 8088 4b3e
000002c0: 0592 993e ad5d 7c3d fd37 15bc d556 91bd
000002d0: cf43 45be fc16 3bbe 01b0 6fbe dfad 223e
000002e0: 87bb 46be db9c 7abe 36cc 95be c825 993d
000002f0: 2ba3 103d 935b 59be f344 683d 09a0 69be
00000300: bd7f a0bd 15a9 583e f69f 8c3e b12a 42be
00000310: 3b9c be3a 026b 95bc f559 a1bb 9669 53be
00000320: feb8 ac3d b386 db3d 3c3a 87be 293e 533e
00000330: 9512 0ebe c832 5bbd f5fc 79bc 7337 4abe
00000340: a9ac 123e 633c e53d db4b 5a3c 651d 0b3e
00000350: 4356 863e edac c9bd 9074 81be b967 4ebe
00000360: 259a 9abe 77ee 51be b078 883e bdf1 ce3d
00000370: b602 9fbc 6d04 a43d 63ae 29be 2ac7 71be
00000380: 9834 9d3d ddcd 50bd 004d 5bbe b6ef 833e
00000390: 5a6a 0b3e 3102 95be 831d 77be b155 7ebe
000003a0: bd3a b6bd 1bb7 29be 65bc e8ba 078c 113e
000003b0: 9c90 083d 8e6f c63d 77fc ebbc 36c0 40bb
000003c0: 474b 993e eb04 3f3e 6a6b 703d 2979 7a3d
000003d0: ddc1 3a3e e4f3 89be 855c d23d 2429 8b3d
000003e0: 77d5 893e 9bd8 723e ed10 99be 76b0 833e
000003f0: f7e4 d23d ba0e 4c3e 8f34 f3bc 202f 193e

cons_embedding.3.bias f4 [64]
0.09085569 0.034552757 -0.011359556 0.0018080951 0.04986141 0.12351305 0.032220654 -0.12156656
0.08040675 -0.0019102718 -0.029536862 0.07512632 -0.034208503 -0.07011204 0.12379507 -0.02298418
-0.014740167 -0.019670658 0.066438146 -0.11203173 -0.013928427 0.07690792 0.07671197 0.058017198
0.099905245 -0.12311407 -0.003268324 0.042029876 0.060556825 0.044580664 0.011740077 0.056808285
-0.045745827 0.09681865 -0.07116483 -0.111403376 -0.023079999 -0.03845443 -0.10137442 -0.0034145068
0.029900359 -0.05647003 -0.0011615353 -0.060035642 0.09221914 0.1039668 0.11252297 -0.098635934
0.124122046 0.07508213 0.020430125 -0.04267722 -0.047903635 0.11051515 -0.009123638 0.110603765
0.016001064 -0.031390067 0.1051293 -0.08366852 -0.03224092 -0.0074175135 0.08001469 0.053629458
00000000: 8c12 ba3d 3187 0d3d 6e1d 3abc 9bfd ec3a
00000010: 7a3b 4c3d 69f4 fc3d cef9 033d e3f7 f8bd
00000020: 4bac a43d 1662 faba 4af7 f1bc d4db 993d
00000030: 371e 0cbd e796 8fbd 4588 fd3d 5249 bcbc
00000040: be80 71bc 5c24 a1bc b910 883d e470 e5bd
00000050: 0f34 64bc e681 9d3d 2a1b 9d3d 71a3 6d3d
00000060: 1f9b cc3d 3b23 fcbd 6131 56bb 8527 2c3d
00000070: 6f0a 783d 379a 363d 7459 403c ceaf 683d
00000080: fa5f 3bbd db48 c63d debe 91bd 7427 e4bd
00000090: 4412 bdbc 6482 1dbd 649d cfbd ebc5 5fbb
000000a0: 99f1 f43c 1e4d 67bd a83e 98ba efe7 75bd
000000b0: 63dd bc3d 8cec d43d 7172 e63d a301 cabd
000000c0: b333 fe3d a9c4 993d 145d a73c 4fce 2ebd
000000d0: 9a36 44bd c455 e23d 507b 15bc 3a84 e23d
000000e0: aa14 833c df92 00bd 084e d73d 675a abbd
000000f0: 0e0f 04bd 9d0e f3bb bede a33d 90aa 5b3d

var_embedding.0.weight f4 [7]
1.0005513 1.0005066 0.99961954 0.9995047 0.9993344 0.99866664 1.0009476
00000000: 1112 803f 9a10 803f 11e7 7f3f 8adf 7f3f
00000010: 61d4 7f3f 9ea8 7f3f 0d1f 803f

var_embedding.0.bias f4 [7]
0.00080078305 0.0004492698 -0.0004039049 0.00041494775 0.000638403 0.0012766619 0.00025341433
00000000: a4eb 513a f98b eb39 33c3 d3b9 588d d939
00000010: 805a 273a aa55 a73a b2dc 8439

var_embedding.1.weight f4 [64, 7]
0.36596715 -0.4782641 0.9152977 -0.9136859 -0.04256087 -0.40591848 0.19145066 -0.097090445
-0.18357067 -0.24446024 -0.24766935 0.6509148 -0.8620505 0.44986978 -0.41503945 -0.8170991
0.5882579 0.4386649 0.85495675 -0.46451026 0.7179225 0.1823364 -0.44424582 -0.5946775
0.29008135 0.3154374 0.6439586 0.6784253 0.5288511 0.25827762 -0.018186415 -0.85630846
-0.2228 -0.087984264 -0.8372947 -0.17155159 0.12547897 -0.10608785 -0.5638097 -0.066707246
-0.2786386 0.1843996 0.1980732 -0.4419987 0.0079105105 0.58256876 -0.3981944 -0.5293238
0.27503246 -0.8230928 -0.48638177 -0.3959396 0.53958607 -0.72988147 -0.25481734 -0.5018196
0.7720963 -0.059905197 -0.8534783 -0.16177912 -0.024856582 -0.1048362 -0.6627622 0.12277452
-0.54587245 0.14471357 0.8250097 -0.7236826 -0.80713 0.16097763 -0.048100725 -0.4888786
0.92149615 -0.61259407 -0.21378587 -0.45700377 0.76227707 -0.35595787 0.15921398 0.4031237
0.7481763 -0.5631412 0.018995628 -0.513111 0.6886809 0.14119186 -0.5125097 -0.20500405
-0.7598863 -0.63658655 0.19948441 -0.4923249 0.9090074 0.8370972 0.4878876 -0.6827133
0.41147164 -0.7953532 -0.5396599 -0.72453994 0.47231048 -0.17141819 0.6373062 -0.38190737
-0.3155775 -0.8734741 0.14581405 -0.34024638 0.52484566 -0.9228942 0.9221679 -0.54286915
-0.44961008 0.5234992 -0.17378862 0.52138376 0.3626035 0.37479785 0.14527772 0.31827778
-0.90129274 -0.091499135 -0.6555278 0.46343526 -0.8802775 0.4686224 0.029548462 0.3934868
0.53836846 0.7297082 -0.9189123 0.61828417 0.5090109 0.33905864 -0.6816091 0.11329117
-0.44677246 -0.8619699 -0.70388174 0.92180014 0.46810544 0.54173934 0.9039834 -0.207149
0.19306207 0.33968398 -0.8237383 0.56581634 -0.7520056 -0.28189787 -0.8913096 -0.56259125
-0.8538229 -0.020469274 -0.029340833 0.29858208 0.53124994 0.26497665 0.8103455 0.89421475
-0.619108 0.50811225 0.8317132 0.046264667 0.40653586 -0.7634425 -0.61148167 0.4519343
0.83278537 0.4595331 -0.12799071 0.4562193 0.32432273 -0.06936985 0.914958 0.46542373
0.39031294 -0.08759125 -0.81221294 -0.755 0.71025616 0.8628852 -0.8716375 0.6472564
0.6926408 0.40173075 0.33501306 -0.10801327 0.82602006 -0.17489928 -0.5678126 0.5596018
-0.75671726 0.66241217 0.3460652 -0.44335198 0.44530496 -0.87036914 0.63043606 0.33161244
-0.5686158 -0.10060651 0.6888153 0.00785259 -0.030627457 0.083430305 0.7194952 0.73301125
-0.74449986 -0.4923887 0.116319045 -0.61590123 0.51333 -0.7934351 -0.27671275 0.24560541
-0.10918412 0.439944 -0.25469804 0.90099615 0.22533341 -0.11260926 0.34783217 0.1306481
0.5976131 -0.7364573 -0.30372345 -0.07100525 0.89472646 -0.90900195 -0.49060056 -0.73439413
0.34661198 0.18064003 0.022125542 -0.68787575 0.9214511 0.48329487 0.5906078 0.7866979
-0.095886804 0.7136295 0.19741891 -0.11084439 -0.1617516 -0.65414304 0.0206527 0.014794829
-0.77049994 -0.36137608 0.1712856 0.07354576 -0.06811597 -0.9258273 0.018006109 -0.15210657
00000000: 0c60 bb3e 08df f4be f350 6a3f 52e7 69bf
00000010: 4f54 2ebd 8cd4 cfbe a40b 443e 5bd7 c6bd
00000020: f3f9 3bbe c953 7abe 099d 7dbe 5aa2 263f
00000030: 57af 5cbf 5555 e63e 0d80 d4be 682d 51bf
00000040: 1298 163f b098 e03e 72de 5a3f 4ad4 edbe
00000050: c5c9 373f 65b6 3a3e 3074 e3be c93c 18bf
00000060: 8b85 943e 0381 a13e 79da 243f 48ad 2d3f
00000070: c962 073f f73c 843e adfb 94bc 0837 5bbf
00000080: af25 64be 1831 b4bd f258 56bf 38ab 2fbe
00000090: 8f7d 003e 9644 d9bd d555 10bf cf9d 88bd
000000a0: b8a9 8ebe 40d3 3c3e b3d3 4a3e a74d e2be
000000b0: 169b 013c 3a23 153f 23e0 cbbe c481 07bf
000000c0: 0ed1 8c3e 36b6 52bf 0807 f9be 98b8 cabe
000000d0: 5022 0a3f 83d9 3abf 6b77 82be 4077 00bf
000000e0: 1aa8 453f 275f 75bd 8e7d 5abf 6da9 25be
000000f0: 08a0 cbbc 5db4 d6bd c9aa 29bf 3571 fb3d
00000100: 4cbe 0bbf cb2f 143e d633 533f 4343 39bf
00000110: 12a0 4ebf 52d7 243e 4405 45bd 4c4e fabe
00000120: 2ce7 6b3f f7d2 1cbf afea 5abe 66fc e9be
00000130: 9724 433f 1c40 b6be fd08 233e 3b66 ce3e
00000140: 7b88 3f3f 062a 10bf b89c 9b3c 3e5b 03bf
00000150: 644d 303f 9994 103e d633 03bf 95ec 51be
00000160: e987 42bf 56f7 22bf a445 4c3e 0212 fcbe
00000170: b5b4 683f 014c 563f 67cc f93e 4dc6 2ebf
00000180: 69ac d23e 449c 4bbf 2727 0abf 737b 39bf
00000190: aed2 f13e 4088 2fbe 8026 233f 5d89 c3be
000001a0: 6093 a1be 009c 5fbf 4750 153e c634 aebe
000001b0: 495c 063f cb42 6cbf 3213 6c3f 79f9 0abf
000001c0: 4b33 e6be 0b04 063f a5f5 31be 6879 053f
000001d0: 2aa7 b93e 81e5 bf3e afc3 143e 4ef5 a23e
000001e0: 1fbb 66bf e663 bbbd abd0 27bf 6347 ed3e
000001f0: de59 61bf 46ef ef3e 9e0f f23c 1a77 c93e
00000200: 84d2 093f 28ce 3a3f d63d 6bbf df47 1e3f
00000210: 8a4e 023f 1899 ad3e ef7d 2ebf 3305 e83d
00000220: 5cbf e4be 0faa 5cbf 9831 34bf 18fb 6b3f
00000230: 84ab ef3e 6eaf 0a3f 756b 673f de1e 54be
00000240: 10b2 453e 0feb ad3e 83e0 52bf 57d9 103f
00000250: 7083 40bf eb54 90be de2c 64bf fb05 10bf
00000260: 2394 5abf 2eaf a7bc 305c f0bc c0df 983e
00000270: ffff 073f 05ab 873e cd72 4f3f 42eb 643f
00000280: dd7d 1ebf a513 023f 28eb 543f 0580 3d3d
00000290: 7825 d03e f870 43bf 108a 1cbf ef63 e73e
000002a0: 6c31 553f ec47 eb3e ff0f 03be 9395 e93e
000002b0: a10d a63e c811 8ebd b03a 6a3f 054c ee3e
000002c0: 19d7 c73e 0b63 b3bd 30ed 4fbf ae47 41bf
000002d0: 59d3 353f 0be6 5c3f a323 5fbf 98b2 253f
000002e0: e850 313f a7af cd3e d586 ab3e 1036 ddbd
000002f0: 0d76 533f cc18 33be 2b5c 11bf 1042 0f3f
00000300: 39b8 41bf d893 293f 752f b13e 08ff e2be
00000310: 03ff e33e 83d0 5ebf 4264 213f 1bc9 a93e
00000320: ce90 11bf c90a cebd 3356 303f 26a8 003c
00000330: 6fe6 fabc 82dd aa3d d630 383f a0a6 3b3f
00000340: 8b97 3ebf 5f1a fcbe ae38 ee3d b4ab 1dbf
00000350: 9869 033f 901e 4bbf 4bad 8dbe fc7f 7b3e
00000360: ed9b dfbd 5740 e13e c867 82be afa7 663f
00000370: cdbd 663e af9f e6bd 0f17 b23e 9ec8 053e
00000380: 2cfd 183f 7788 3cbf a481 9bbe 336b 91bd
00000390: cb0c 653f 5ab4 68bf ff2f fbbe 4101 3cbf
000003a0: 2077 b13e b3f9 383e a040 b53c a018 30bf
000003b0: 38e4 6b3f 6d72 f73e 1332 173f 0965 493f
000003c0: 4d60 c4bd 6cb0 363f 2f28 4a3e 6202 e3bd
000003d0: 36a2 25be eb75 27bf da2f a93c 0366 723c
000003e0: 7c3f 45bf 4906 b9be 7e65 2f3e 299f 963d
000003f0: 6380 8bbd 0503 6dbf 8c81 933c d3c1 1bbe

var_embedding.1.bias f4 [64]
0.2626203 0.33596432 -0.37538978 -0.3551484 -0.3327227 0.23016973 -0.24625812 0.051408276
-0.33944213 -0.2598436 -0.056529906 0.3580674 0.31639743 0.2479356 0.06615456 -0.23101833
-0.33350214 -0.33975244 0.032486066 -0.06609893 0.33875695 0.04007449 0.16009393 0.06076341
-0.08213455 0.22946835 0.002745647 -0.37336278 0.14792354 0.014954736 -0.36143592 0.26309568
0.1793261 -0.075285725 0.20963146 -0.20105748 0.0048604715 0.01681047 0.037989546 0.08168997
-0.16644232 -0.30720136 0.29364526 -0.25860316 0.08859368 -0.34809452 -0.33156264 0.10641325
-0.32157323 0.34942672 0.04311253 0.006934473 0.14951496 -0.030914394 0.12905727 -0.13133107
0.07657244 -0.1826245 -0.11727283 0.24051617 0.19886374 0.25479037 0.12907608 -0.35686058
00000000: 2b76 863e 8403 ac3e 1733 c0be 03d6 b5be
00000010: a15a aabe 9db1 6b3e 172b 7cbe 7c91 523d
00000020: 5ccb adbe 380a 85be e78b 67bd 9c54 b73e
00000030: d8fe a13e d4e2 7d3e 0b7c 873d 1290 6cbe
00000040: cbc0 aabe 08f4 adbe 1c10 053d e05e 87bd
00000050: 8d71 ad3e 2625 243d aaef 233e 0ee3 783d
00000060: 2936 a8bd c0f9 6a3e 50f0 333b 6829 bfbe
00000070: 4579 173e b604 753c 210e b9be 7ab4 863e
00000080: 43a1 373e 672f 9abd a1a9 563e 03e2 4dbe
00000090: 9744 9f3b 1cb6 893c ed9a 1b3d 124d a73d
000000a0: db6f 2abe 7f49 9dbe ac58 963e a267 84be
000000b0: 9a70 b53d 7239 b2be 94c2 a9be 31ef d93d
000000c0: 3fa5 a4be 0fe8 b23e c496 303d 933a e33b
000000d0: 731a 193e 2f40 fdbc 9727 043e a77b 06be
000000e0: 03d2 9c3d eb01 3bbe bd2c f0bd df49 763e
000000f0: f0a2 4b3e e273 823e 852c 043e 6eb6 b6be

var_embedding.3.weight f4 [64, 64]
-0.0471097 -0.006218182 0.057091665 0.28295147 -0.07597239 -0.18639861 0.23354831 -0.17931661
-0.09552224 0.22668807 -0.055201177 0.007900055 -0.13176227 -0.28359085 0.25868258 0.08263425
0.1732201 -0.03144116 0.26058513 0.22477655 0.15939148 -0.11582068 -0.16993995 -0.2853726
0.057667464 0.30011144 0.2759404 -0.03073001 -0.18962282 0.07888106 0.18815915 0.25487092
0.18620053 0.30454645 0.0071991947 -0.058616508 0.22790207 0.02648052 -0.26053602 -0.2172755
0.23294322 -0.01603568 0.08448651 0.093464054 0.27502003 -0.120043546 0.0031286045 -0.30174607
0.054717142 0.25753528 -0.16700365 0.06954303 -0.060171504 -0.17311592 -0.19195764 0.17176676
-0.17209025 0.036819495 0.03367374 0.12161101 0.277494 0.19063526 -0.25146848 0.09895565
-0.22034663 -0.280663 -0.22069308 -0.1250932 -0.19191286 0.13223709 0.07606407 -0.033960078
0.12874211 -0.026662078 -0.033685625 -0.2891403 -0.032808818 -0.2021166 0.2974059 0.11670003
-0.12832177 -0.081449084 0.149235 0.2051241 0.09588878 -0.19342919 -0.10067937 0.13794154
-0.10159533 0.092741944 -0.1289702 0.1863707 -0.03912533 -0.10179171 -0.23485623 0.098642536
0.033026576 -0.17434135 -0.2895995 -0.22841947 0.20888443 0.23694474 0.22039492 -0.28515878
0.13666071 0.2748607 0.13321316 0.053708136 0.10655135 -0.24605316 -0.030531336 -0.25225222
0.1392411 -0.076967575 -0.20518455 -0.20580642 0.2436592 -0.17441101 0.15357818 0.009875532
-0.016695958 -0.24652924 0.10069168 0.15474308 0.1814178 -0.15993409 0.18959914 -0.27038896
0.26884246 -0.111410424 0.050716557 0.25245953 0.14755143 -0.10723167 0.23106031 -0.15365097
0.29925865 -0.013881947 0.2735908 -0.2750752 -0.09370069 0.16428064 -0.20344557 -0.1144074
-0.03529637 -0.03007486 -0.015540409 0.10623565 0.26255938 -0.2618263 -0.19696482 -0.2023066
0.232865 -0.108927116 -0.019859351 0.120228454 0.17694288 -0.03796651 0.10743879 -0.27855438
-0.29048407 -0.16012119 -0.25668588 -0.28862113 0.29256925 0.1424842 0.13326252 0.29717872
0.104061216 -0.28962198 0.1900592 -0.01993533 -0.30143368 0.14139207 -0.14882685 -0.00049686176
0.29737315 0.08320734 0.24736358 -0.23146263 -0.17138758 0.02628588 -0.08867992 -0.29308817
-0.0011032417 -0.2873766 -0.15005082 -0.19257915 0.17300348 -0.061460145 -0.13515827 -0.08432335
0.00796131 0.09427026 -0.16581772 0.14113818 0.24690747 -0.28758517 -0.14354874 -0.027076615
0.30447844 -0.26323733 -0.28435078 -0.12917767 -0.2636312 0.07263393 0.18052307 -0.27837414
0.013993344 0.28238174 -0.023086686 0.30016246 -0.26677588 -0.041093268 0.08118833 0.19570823
0.14713565 -0.09293466 -0.23698242 -0.20197979 0.09666526 -0.057521567 -0.27097818 -0.30358523
-0.2271128 -0.13910171 -0.21036144 -0.16270815 0.15229098 -0.2549461 0.29785147 0.25251132
-0.2863682 0.19171563 0.27118897 -0.043150615 -0.27918568 -0.2260349 -0.25855812 -0.22776239
0.14392208 -0.009732662 -0.1254279 -0.18716285 -0.28141513 -0.2286257 -0.003375987 -0.0457542
0.06475397 -0.023155183 0.26562166 0.25219905 -0.26603448 0.1924527 -0.10800494 -0.059304304
00000000: 1af6 40bd e4c1 cbbb f3d8 693d 04df 903e
00000010: 6a97 9bbd 47df 3ebe 4a27 6f3e c69e 37be
00000020: 2aa1 c3bd eb20 683e a11a 62bd 3b6f 013c
00000030: b0ec 06be d232 91be 0b72 843e 253c a93d
00000040: 9c60 313e 72c8 00bd 6a6b 853e d32b 663e
00000050: 8537 233e 6533 edbd bd04 2ebe 5c1c 92be
00000060: b834 6c3d 35a8 993e 0f48 8d3e 80bd fbbc
00000070: 7c2c 42be 658c a13d cbac 403e 717e 823e
00000080: 5aab 3e3e 83ed 9b3e 39e7 eb3b dd17 70bd
00000090: 295f 693e aded d83c fa64 85be 787d 5ebe
000000a0: ab88 6e3e 425d 83bc 4307 ad3d 156a bf3d
000000b0: 6dcf 8c3e 64d9 f5bd 4609 4d3b 767e 9abe
000000c0: 151f 603d aadb 833e 0103 2bbe 936c 8e3d
000000d0: 6576 76bd 4d45 31be 8b90 44be a0e3 2f3e
000000e0: 6d38 30be 0ad0 163d 7aed 093d 310f f93d
000000f0: b213 8e3e e435 433e 7ac0 80be 43a9 ca3d
00000100: 8ca2 61be 10b3 8fbe 5efd 61be 6f18 00be
00000110: ce84 44be 2969 073e 7bc7 9b3d b919 0bbd
00000120: f9d4 033e 6e6a dabc f0f9 09bd 330a 94be
00000130: 8a62 06bd a7f7 4ebe 9645 983e 6d00 ef3d
00000140: c866 03be c7ce a6bd 0fd1 183e 0d0c 523e
00000150: 5661 c43d 4d12 46be fc30 cebd 8c40 0d3e
00000160: 3611 d0bd 7def bd3d c410 04be f6d7 3e3e
00000170: e241 20bd 2c78 d0bd 277e 70be 1905 ca3d
00000180: e046 073d 8a86 32be 6346 94be cbe6 69be
00000190: cde5 553e a4a1 723e 35af 613e 5500 92be
000001a0: c9f0 0b3e 8bba 8c3e 0869 083e 10fd 5b3d
000001b0: 9837 da3d 5cf5 7bbe da1c fabc 3427 81be
000001c0: 3895 0e3e 2da1 9dbd e61b 52be ebbe 52be
000001d0: cc81 793e cd98 32be 9943 1d3e fccc 213c
000001e0: f6c5 88bc 2972 7cbe 7137 ce3d f874 1e3e
000001f0: 96c5 393e c3c5 23be 4726 423e 6c70 8abe
00000200: b8a5 893e 262b e4bd 2abc 4f3d 6042 813e
00000210: b917 173e 479c dbbd 139b 6c3e ae56 1dbe
00000220: 6e38 993e 1b71 63bc 1814 8c3e a8d6 8cbe
00000230: 26e6 bfbd 2f39 283e 0954 50be 6d4e eabd
00000240: ed92 10bd 8e5f f6bc 339d 7ebc 1492 d93d
00000250: 2f6e 863e 190e 86be 25b1 49be 7629 4fbe
00000260: 2a74 6e3e 2e15 dfbd 14b0 a2bc 563a f63d
00000270: 8430 353e c582 1bbd de08 dc3d ae9e 8ebe
00000280: 54ba 94be cff6 23be 556c 83be 26c6 93be
00000290: a3cb 953e 61e7 113e f875 083e cf27 983e
000002a0: 0c1e d53d 5549 94be e19e 423e 6b4f a3bc
000002b0: 8455 9abe 15c9 103e 1166 18be d43f 02ba
000002c0: 4b41 983e 9c68 aa3d e14c 7d3e 8a04 6dbe
000002d0: 3a80 2fbe 7c55 d73c d19d b5bd a70f 96be
000002e0: a69a 90ba 0723 93be eca6 19be 7833 45be
000002f0: d327 313e a2bd 7bbd ee66 0abe b8b1 acbd
00000300: 2870 023c c410 c13d 1fcc 29be 8786 103e
00000310: 50d5 7c3e 5d3e 93be 71fe 12be c7cf ddbc
00000320: 99e4 9b3e 0bc7 86be 6d96 91be 2747 04be
00000330: abfa 86be 19c1 943d 0adb 383e 0e87 8ebe
00000340: 5744 653c 5794 903e 4a20 bdbc e5ae 993e
00000350: d996 88be 6a51 28bd 1146 a63d bd67 483e
00000360: baaa 163e 8754 bebd 85ab 72be cad3 4ebe
00000370: 70f8 c53d bc9b 6bbd a7bd 8abe 866f 9bbe
00000380: 4290 68be ae70 0ebe fd68 57be f79c 26be
00000390: 2bf2 1b3e 4c88 82be fd7f 983e 2a49 813e
000003a0: da9e 92be 1a51 443e 48d9 8a3e b3be 30bd
000003b0: 6df1 8ebe b175 67be bb61 84be 8b3a 69be
000003c0: 4f60 133e be75 1fbc 2c70 00be 9ea7 3fbe
000003d0: a515 90be db1c 6abe aa3f 5dbb c268 3bbd
000003e0: bb9d 843d f0af bdbc 90ff 873e 3c20 813e
000003f0: ac35 88be 5212 453e b231 ddbd 12e9 72bd

var_embedding.3.bias f4 [64]
0.08923256 0.0064359047 0.10856537 -0.09360743 0.09410019 0.028706945 -0.09815259 0.06946751
0.1126865 -0.013154193 -0.02533006 -0.10795352 0.030829085 -0.10138251 -0.114877 0.033171836
0.016394505 0.023229584 -0.0025173288 0.09221043 -0.11857189 0.11937406 0.10791189 -0.04099464
0.03553113 0.010932864 0.020656921 0.06277536 -0.036209933 -0.057078477 -0.00620706 0.11954633
0.10408575 0.10179364 0.097502396 0.020701446 0.035635028 -0.10402464 0.07596152 0.0692065
0.023268888 0.06861977 0.07364402 -0.069931865 -0.023450725 0.023046544 -0.042729404 -0.0684871
-0.04013176 -0.04901979 -0.041328713 0.07646218 -0.11288898 0.017872363 0.08482555 0.02709459
0.021388259 -0.106694326 0.061619718 0.06985851 -0.047574475 0.014563263 0.0039553745 0.051310543
00000000: 8fbf b63d 48e4 d23b 8557 de3d 41b5 bfbd
00000010: 9ab7 c03d d42a eb3c 3a04 c9bd fb44 8e3d
00000020: 2ec8 e63d af84 57bc fc80 cfbc bc16 ddbd
00000030: 478d fc3c a2a1 cfbd a244 ebbd 31df 073d
00000040: c54d 863c f84b be3c c5f9 24bb d2d8 bc3d
00000050: d2d5 f2bd 637a f43d e900 dd3d ffe9 27bd
00000060: 1789 113d c11f 333c b438 a93c 5e90 803d
00000070: de50 14bd 1fcb 69bd 9864 cbbb b5d4 f43d
00000080: e92a d53d 2f79 d03d 56af c73d 1496 a93c
00000090: 09f6 113d df0a d5bd b791 9b3d 23bc 8d3d
000000a0: 659e be3c 8688 8c3d add2 963d 7038 8fbd
000000b0: bc1b c0bc 1bcc bc3c 0705 2fbd f742 8cbd
000000c0: 3361 24bd fac8 48bd 4c48 29bd 3498 9c3d
000000d0: 5632 e7bd 1069 923c 05b9 ad3d 79f5 dd3c
000000e0: 6e36 af3c 8e82 dabd f564 7c3d fa11 8f3d
000000f0: 74dd 42bd c19a 6e3c 169c 813b 012b 523d

conv_v_to_c.feature_module_left.0.weight f4 [64, 64]
-0.13657293 -0.10581562 0.10133 0.24132231 -0.08355524 -0.27125192 0.15703481 0.123752765
0.2960998 0.1947693 -0.097999945 -0.15314457 0.056309488 -0.008662288 -0.25616634 0.04620601
0.28438744 0.09902824 0.037018992 0.27970773 0.036104184 0.21809664 0.07232722 -0.11836063
0.022401467 0.12956806 -0.2538123 -0.10120714 0.08528074 0.05277267 -0.13309309 0.060795683
-0.19960478 -0.13002384 -0.07613121 0.15080033 -0.023966758 0.14742501 0.11332752 -0.09538651
-0.08675743 0.20938338 0.018446358 -0.24990726 0.29037833 -0.02257153 -0.24948594 -0.1351039
0.18835999 -0.20087506 -0.23181121 0.17652369 0.14778596 0.2721441 -0.18747593 -0.08126252
-0.21121621 -0.049928393 -0.2819041 0.21939135 0.04239885 0.2589676 -0.07938154 0.02364819
0.0217022 0.14965466 -0.11787519 0.12626255 -0.14691328 0.0011076943 -0.16266279 0.019838814
-0.1637454 -0.17476477 -0.06114682 0.11125666 0.10111336 0.010092038 0.06662061 0.1996447
0.09103903 -0.27603996 0.0113363555 0.14643972 0.0133439135 -0.1517716 -0.10459534 0.13688578
0.05014062 0.15984637 0.12535216 -0.047414575 -0.15607223 0.26545677 -0.11679992 0.16472524
0.2640139 0.15055254 0.033251006 0.039691422 -0.2764443 0.20919208 0.26206213 0.035971116
0.04987695 -0.12432718 0.1508012 -0.26693895 0.22970097 -0.118703134 0.08385639 0.10509016
-0.17476265 -0.11429122 -0.037503675 0.30140615 0.045821927 -0.2587754 -0.30395302 -0.21326973
0.28353173 -0.26626587 0.19938952 -0.12777351 -0.07985482 -0.13632809 -0.27219155 -0.14444557
-0.29443693 -0.18908706 -0.17477103 -0.027667329 0.29354227 -0.28185657 -0.24525328 0.055863865
-0.08824218 -0.08908597 0.14603731 0.03258044 -0.1256601 -0.27578706 -0.18534999 -0.24638867
0.036746386 0.025708716 -0.038469985 0.25727174 -0.21900319 -0.05018461 -0.27538028 0.08002513
-0.28201997 -0.13240822 -0.2856825 0.15637468 -0.1439398 -0.03756789 -0.13414684 -0.15025209
0.20207408 0.05859995 -0.06337171 0.2939099 -0.103055075 0.029845871 0.3051649 0.10693608
-0.16131693 0.051832236 0.021159392 0.2267949 0.11522036 -0.08674488 0.1285445 0.3000519
-0.24467367 -0.2147848 -0.3053287 -0.2135363 0.19639279 0.13108638 0.037863407 0.29685548
0.30258933 -0.025518 -0.24463984 0.29233888 0.18463475 0.106015034 -0.25925493 0.1704252
-0.07914464 0.13409095 -0.053913333 0.1319912 -0.0598914 0.13010706 0.13262396 -0.19801664
-0.0030534028 -0.060662076 0.24784532 -0.027557757 0.29197943 0.017148545 -0.069972284 0.2669104
-0.19206282 -0.29650146 0.26814312 -0.021195121 0.16010803 0.26966006 0.0190316 -0.10876341
-0.27800444 0.23063153 0.24024075 0.2091545 -0.20111988 -0.24583732 -0.24482876 -0.29375818
-0.21403587 -0.25775966 -0.060105298 -0.24300055 -0.29359734 -0.20115441 -0.13137613 0.13620503
0.16863593 -0.28390768 -0.27856737 -0.114246964 -0.17014144 0.23835425 0.2970393 0.107728384
-0.18408427 0.1658431 -0.031088881 0.2768288 0.20961444 0.0453186 -0.2997519 0.044991914
0.19225371 -0.14935695 -0.17554703 0.30569783 -0.024066549 -0.257114 -0.062893696 0.048606865
00000000: c6d9 0bbe dcb5 d8bd 1a86 cf3d 321d 773e
00000010: 021f abbd 88e1 8abe bccd 203e 1772 fd3d
00000020: 659a 973e 9a71 473e 32b4 c8bd eed1 1cbe
00000030: c7a4 663d 45ec 0dbc 3c28 83be 8342 3d3d
00000040: 3b9b 913e 51cf ca3d 3aa1 173d da35 8f3e
00000050: fbe1 133d ba54 5f3e 4b20 943d 0f67 f2bd
00000060: 4883 b73c 7dad 043e b0f3 81be b045 cfbd
00000070: aba7 ae3d 2828 583d 8e49 08be e504 793d
00000080: 3265 4cbe f824 05be aeea 9bbd 676b 1a3e
00000090: ef55 c4bc 95f6 163e 4218 e83d 015a c3bd
000000a0: e1ad b1bd 9968 563e d11c 973c b0e7 7fbe
000000b0: 78ac 943e eee7 b8bc 3e79 7fbe ad58 0abe
000000c0: 71e1 403e 31b2 4dbe eb5f 6dbe a0c2 343e
000000d0: 3455 173e 7956 8b3e b1f9 3fbe f76c a6bd
000000e0: 1049 58be b781 4cbd bc55 90be 20a8 603e
000000f0: 6baa 2d3d 6797 843e ca92 a2bd d9b9 c13c
00000100: d0c8 b13c 123f 193e 8c68 f1bd f84a 013e
00000110: 6f70 16be 0e30 913a 1391 26be 0285 a23c
00000120: e0ac 27be 89f5 32be 1775 7abd 88da e33d
00000130: 8514 cf3d 1359 253c 6370 883d a96f 4c3e
00000140: ac72 ba3d 1c55 8dbe 1fbc 393c 4bf4 153e
00000150: 6ea0 5a3c 046a 1bbe 1536 d6bd c92b 0c3e
00000160: 4060 4d3d c4ae 233e 515c 003e c935 42bd
00000170: 66d1 1fbe f3e9 873e cc34 efbd bcad 283e
00000180: d42c 873e 722a 1a3e 3532 083d 7993 223d
00000190: 1b8a 8dbe 7336 563e 022d 863e 7356 133d
000001a0: c64b 4c3d 409f febd a16b 1a3e 39ac 88be
000001b0: bb36 6b3e a11a f3bd e6bc ab3d 8339 d73d
000001c0: fbf4 32be 8411 eabd 749d 19bd e851 9a3e
000001d0: c6af 3b3d 367e 84be bb9f 9bbe 6163 5abe
000001e0: 122b 913e 0054 88be c42c 4c3e 0fd7 02be
000001f0: ed8a a3bd 9799 0bbe b15c 8bbe 8ae9 13be
00000200: 70c0 96be 0aa0 41be 2df7 32be 98a6 e2bc
00000210: 2c4b 963e 814f 90be ad23 7bbe 82d1 643d
00000220: 51b8 b4bd b472 b6bd ce8a 153e 1173 053d
00000230: 0bad 00be f633 8dbe 63cc 3dbe 504d 7cbe
00000240: 6183 163d 169b d23c b492 1dbd 1fb9 833e
00000250: 5f42 60be 618e 4dbd a5fe 8cbe 37e4 a33d
00000260: ec64 90be 0596 07be fa44 92be af20 203e
00000270: f464 13be cae0 19bd ca5d 09be afdb 19be
00000280: 82ec 4e3e 8006 703d 07c9 81bd 5c7b 963e
00000290: 8a0e d3bd 547f f43c 933e 9c3e 4e01 db3d
000002a0: 4430 25be 0a4e 543d 7656 ad3c ec3c 683e
000002b0: a7f8 eb3d 4da7 b1bd 2ba1 033e 67a0 993e
000002c0: bc8b 7abe 8cf0 5bbe 0b54 9cbe 43a9 5abe
000002d0: 311b 493e 823b 063e a916 1b3d 71fd 973e
000002e0: fdec 9a3e 200b d1bc de82 7abe 71ad 953e
000002f0: e410 3d3e 691e d93d 10bd 84be f283 2e3e
00000300: 9616 a2bd 234f 093e 3ad4 5cbd b328 073e
00000310: af50 75bd c93a 053e 93ce 073e e0c4 4abe
00000320: 991b 48bb cc78 78bd 2acb 7d3e cec0 e1bc
00000330: 547e 953e 1b7b 8c3c a14d 8fbd 7ba8 883e
00000340: 1eac 44be 0acf 97be 0e4a 893e 64a1 adbc
00000350: 5cf3 233e e210 8a3e 28e8 9b3c 5abf debd
00000360: 9956 8ebe ac2a 6c3e ac01 763e 992c 563e
00000370: 5ff2 4dbe c7bc 7bbe 64b4 7abe 7967 96be
00000380: 382c 5bbe 13f9 83be f930 76bd 23d5 78be
00000390: 6452 96be 6cfb 4dbe 7787 06be 5579 0b3e
000003a0: e6ae 2c3e 595c 91be 62a0 8ebe 50fa e9bd
000003b0: 8f39 2ebe 2313 743e 8915 983e b3a0 dc3d
000003c0: 9680 3cbe c6d2 293e 1cae febc 81bc 8d3e
000003d0: 2ba5 563e ff9f 393d 1579 99be 7149 383d
000003e0: 28de 443e 07f1 18be 9ac2 33be 6d84 9c3e
000003f0: 3627 c5bc 72a4 83be 69ce 80bd fe17 473d

conv_v_to_c.feature_module_left.0.bias f4 [64]
-0.021950662 0.058593888 0.056291297 -0.0840889 -0.00338103 0.051742733 -0.028227832 -0.012559601
0.049567822 -0.04992973 -0.007128831 0.040787302 -0.090006426 -0.06972402 0.121439494 0.084837325
0.094713 0.071180195 0.0004912317 0.061890345 0.04189249 -0.0783724 0.06882007 -0.06565933
0.049315542 -0.056485813 -0.12393598 -0.02623973 0.09690979 0.077677116 -0.08005173 -0.058269057
0.04017829 0.069429584 -0.0008731802 -0.02549234 -0.11343838 -0.10231874 -0.09541285 0.029232176
0.041408237 -0.014488382 -0.06791974 -0.008410592 0.0037724515 -0.112149216 0.04360294 0.013533199
0.12477788 0.06598445 -0.07304676 -0.06192302 -0.08747298 -0.03320724 0.07288213 -0.054683946
-0.112223625 0.07998694 0.03556332 0.04215028 0.033076845 -0.014284595 0.11526668 0.122036874
00000000: e0d1 b3bc 2500 703d b491 663d cd36 acbd
00000010: 4594 5dbb 30f0 533d 0e3e e7bc c9c6 4dbc
00000020: a107 4b3d 1e83 4cbd f898 e9bb 9610 273d
00000030: 4a55 b8bd 78cb 8ebd 45b5 f83d 31bf ad3d
00000040: e4f8 c13d ecc6 913d 00c6 003a bb80 7d3d
00000050: 7697 2b3d b581 a0bd 89f1 8c3d 6678 86bd
00000060: 18ff 493d ab5d 67bd 26d2 fdbd b4f4 d6bc
00000070: a478 c63d 2e15 9f3d 29f2 a3bd 89ab 6ebd
00000080: fe91 243d 1931 8e3d 22e6 64ba 50d5 d0bc
00000090: 6252 e8bd 7d8c d1bd d067 c3bd 5178 ef3c
000000a0: af9b 293d ae60 6dbc 8119 8bbd 94cc 09bc
000000b0: 3c3b 773b 7dae e5bd ff98 323d 5aba 5d3c
000000c0: 8c8b ff3d db22 873d 8a99 95bd fea2 7dbd
000000d0: 0925 b3bd 5104 08bd 3a43 953d 46fc 5fbd
000000e0: 80d5 e5bd 31d0 a33d d8aa 113d c6a5 2c3d
000000f0: 967b 073d ef09 6abc f010 ec3d 78ee f93d

conv_v_to_c.feature_module_edge.0.weight f4 [64, 1]
-0.75586677 -1.516289 -2.1228278 2.2526832 -1.2101228 0.24746275 -2.332095 -2.0736258
-1.5628157 -1.9793615 0.64792436 -2.265835 1.5490701 -0.8586131 -0.72301155 0.031278186
-2.22059 0.6518122 1.6855143 2.3957028 1.5778329 0.46869278 2.3673666 -2.3007517
2.329722 -0.96883965 1.8540622 0.49142268 -0.006180047 0.24601577 0.5885219 -1.3517919
1.315048 -1.0330374 1.0881267 -0.48809585 2.4100544 -1.39755 -1.4882146 0.4406585
0.57176346 -1.4504108 -0.30132288 -0.9422593 -1.136036 1.7492241 -0.12606756 1.3877325
-0.93876505 1.9361081 -1.9289099 0.824599 0.59678584 -2.162832 -0.20032495 -1.5462533
0.6893861 -1.8380493 -0.070800096 0.1111456 0.8532704 -1.5742853 1.7233069 -1.5359051
00000000: 7c80 41bf c215 c2bf 69dc 07c0 f62b 1040
00000010: 4ee5 9abf e066 7d3e 0b41 15c0 49b6 04c0
00000020: 580a c8bf b85b fdbf 5fde 253f 7103 11c0
00000030: ee47 c63f 11ce 5bbf 4917 39bf 8e1d 003d
00000040: 261e 0ec0 2add 263f efbe d73f 3253 1940
00000050: 6ef6 c93f 80f8 ef3e ef82 1740 843f 13c0
00000060: 2a1a 1540 e005 78bf e951 ed3f c19b fb3e
00000070: fe81 cabb 8feb 7b3e 5fa9 163f 8407 adbf
00000080: 7e53 a83f 923a 84bf bc47 8b3f b3e7 f9be
00000090: 553e 1a40 ebe2 b2bf d17d bebf fe9d e13e
000000a0: 175f 123f 10a7 b9bf fe46 9abe e837 71bf
000000b0: a169 91bf 93e6 df3f db17 01be 38a1 b13f
000000c0: e852 70bf 64d2 f73f 85e6 f6bf ec18 533f
000000d0: f5c6 183f d76b 0ac0 fc21 4dbe a1eb c5bf
000000e0: 9c7b 303f 3345 ebbf a4ff 90bd 4ea0 e33d
000000f0: ee6f 5a3f 2e82 c9bf 5295 dc3f 8a98 c4bf

conv_v_to_c.feature_module_right.0.weight f4 [64, 64]
-0.19245216 0.25522912 -0.17313735 -0.044553723 0.15859874 -0.18368548 -0.0047067706 -0.21740888
-0.14227137 0.28987053 0.066086784 0.2582663 -0.07829856 0.030870693 0.040562823 -0.16382383
-0.16252175 0.11185871 0.0959465 -0.2513753 -0.039434947 -0.3007162 0.1367213 -0.05113692
-0.20320295 0.12106895 -0.10844815 -0.20387736 -0.08410726 0.29758495 0.0554732 0.2741296
-0.14839238 -0.07297671 0.13316992 -0.22618662 0.0045424723 -0.19032796 1.2562106e-07 -0.17465803
-0.17150855 0.15193066 0.2970174 -0.30142418 0.2755557 0.13948086 -0.07991931 0.10863712
-0.24386257 -0.21149687 -0.3002629 0.18179682 -0.16649161 -0.26393887 0.20122656 -0.05908609
-0.052953184 -0.056292705 0.097879164 -0.082889415 -0.17843089 -0.12108489 -0.13151865 0.013741566
0.101239815 0.13741633 0.24241677 -0.100037195 -0.036530983 0.20930773 0.1414046 0.049691163
-0.028541345 -0.26054585 -0.029165246 -0.00259965 -0.006725721 -0.050955977 -0.008660832 -0.11683737
-0.2778198 -0.07259559 0.15270454 -0.20904714 0.12882735 0.14257881 -0.07297187 -0.029789425
-0.09817941 -0.21535759 0.25006235 -0.17830874 0.19498014 -0.28642625 -0.00789542 -0.122032925
0.2176458 0.2171539 -0.13577363 0.026614998 -0.25368145 0.2848562 0.27315387 0.031478353
0.20578824 0.03357035 -0.11911787 0.08282287 0.15213285 -0.08148215 0.20975037 0.17848626
-0.14928015 0.24756101 -0.24116416 0.29535177 -0.12622072 0.30089083 0.26230124 0.12760347
0.26967436 -0.012890339 -0.2779881 -0.30459568 -0.12001273 0.17217395 -0.10380921 -0.07678458
-0.30099663 0.27052453 -0.3050678 -0.016978575 -0.17519855 0.27305382 -0.28803146 -0.28889227
-0.25670555 0.039252345 -0.0053836047 -0.2589914 -0.17583317 0.066547915 -0.08347948 0.23830108
0.19596516 0.20909414 -0.20649996 0.14753233 -0.1581759 0.060827743 0.29502103 -0.18124974
0.071398154 -0.18907584 -0.061160937 0.30680403 0.2092644 0.12343749 -0.27628738 -0.068125084
0.1195581 0.2353851 0.22836056 0.18017505 0.02206334 0.28748426 -0.009785975 -0.12368252
0.29129505 -0.0044377274 0.21549352 -0.28552666 -0.07961993 0.100333504 -0.025971478 0.011737863
-0.051848248 0.19020922 -0.21384405 0.2580451 -0.04023177 0.14558351 0.10086314 0.102451645
0.08619906 -0.12638965 -0.27159944 -0.08874436 -0.21696943 -0.1685855 0.016954169 -0.16232364
0.0642723 0.00033051625 0.03606937 -0.26700097 -0.23778035 0.1251743 -0.057267275 -0.23567446
-0.09569664 -0.10641861 0.22260688 -0.15377656 0.068603605 -0.20943022 -0.004724179 0.17448883
-0.050370675 0.16292438 0.30424654 -0.0559141 0.24744813 -0.29430872 0.07827995 0.11000521
-0.05608691 0.064393796 -0.18501972 -0.13180095 0.105024345 -0.27518958 -0.18734021 0.28008634
-0.009000423 -0.2145292 -0.2657095 -0.22803667 0.28390855 -0.15936679 -0.16796184 0.22650686
-0.30401936 0.11492683 -0.13450967 -0.102807105 -0.116931975 -0.27215022 -0.24160585 -0.15287791
0.075958215 -0.108946316 -0.25994387 0.17044054 0.24024943 0.144269 0.0060611004 0.11037409
-0.117109306 -0.061845668 -0.2085835 -0.0018372523 0.20833223 -0.026054721 -0.18944167 -0.11288969
00000000: 2e12 45be 64ad 823e eb4a 31be f77d 36bd
00000010: b567 223e 0c18 3cbe 413b 9abb 6fa0 5ebe
00000020: 96af 11be e969 943e 8258 873d 7b3b 843e
00000030: ff5a a0bd 89e4 fc3c 3425 263d 6fc1 27be
00000040: 1a6c 26be 2e16 e53d 997f c43d 43b4 80be
00000050: 8a86 21bd 79f7 99be ab00 0c3e f274 51bd
00000060: 6f14 50be fff2 f73d 101a debd 3ac5 50be
00000070: 6d40 acbd 0e5d 983e de37 633d b75a 8c3e
00000080: 2cf4 17be d074 95bd b25d 083e 779d 67be
00000090: 05d9 943b 55e5 42be 74e2 0634 8ed9 32be
000000a0: f09f 2fbe b693 1b3e aa12 983e 4554 9abe
000000b0: a315 8d3e 12d4 0e3e bcac a3bd 237d de3d
000000c0: 1cb7 79be a392 58be 0fbc 99be f228 3a3e
000000d0: c77c 2abe ff22 87be 560e 4e3e 4204 72bd
000000e0: 70e5 58bd 2e93 66bd df74 c83d edc1 a9bd
000000f0: 96b6 36be 5bfb f7bd d3ac 06be 4e24 613c
00000100: d256 cf3d deb6 0c3e 1a3c 783e 4de0 ccbd
00000110: 83a1 15bd c454 563e 5ecc 103e f688 4b3d
00000120: 8acf e9bc 4466 85be f4eb eebc e45e 2abb
00000130: 7063 dcbb 37b7 50bd 2ae6 0dbc 6e48 efbd
00000140: 663e 8ebe ffac 94bd 945e 1c3e 7410 56be
00000150: 51eb 033e 2e00 123e 4772 95bd f408 f4bc
00000160: 4912 c9bd b386 5cbe 2c08 803e 9196 36be
00000170: e0a8 473e 76a6 92be cb5b 01bc 66ec f9bd
00000180: 8ade 5e3e 985d 5e3e 3e08 0bbe b207 da3c
00000190: 89e2 81be acd8 913e d3da 8b3e 72ef 003d
000001a0: 27ba 523e 1081 093d 12f4 f3bd 099f a93d
000001b0: b7c8 1b3e 1de0 a6bd cdc8 563e 1ac5 363e
000001c0: e5dc 18be a280 7d3e bdf3 76be 5938 973e
000001d0: 0140 01be 5d0e 9a3e 594c 863e 7caa 023e
000001e0: c212 8a3e 0032 53bc 7554 8ebe f7f3 9bbe
000001f0: 3cc9 f5bd 5e4e 303e ec99 d4bd 3c41 9dbd
00000200: 3b1c 9abe 3182 8a3e d931 9cbe a716 8bbc
00000210: 4067 33be b6cd 8b3e dc78 93be b0e9 93be
00000220: e96e 83be 11c7 203d f368 b0bb 859a 84be
00000230: 9c0d 34be 464a 883d 4af7 aabd 3305 743e
00000240: 17ab 483e c61c 563e ba74 53be b712 173e
00000250: ddf8 21be 8326 793d ff0c 973e 8899 39be
00000260: 3239 923d 199d 41be e483 7abd 6b15 9d3e
00000270: 6849 563e cbcc fc3d 8a75 8dbe 2a85 8bbd
00000280: e1da f43d cb08 713e 5ad7 693e cf7f 383e
00000290: 2dbe b43c 2331 933e 5b55 20bc 434d fdbd
000002a0: a024 953e 5b6a 91bb 55aa 5c3e 8d30 92be
000002b0: c60f a3bd a77b cd3d 23c2 d4bc 2a50 403c
000002c0: d45e 54bd 35c6 423e eff9 5abe 7d1e 843e
000002d0: 12ca 24bd d813 153e 5591 ce3d 2bd2 d13d
000002e0: 2289 b03d 4a6c 01be 150f 8bbe 9abf b5bd
000002f0: 3c2d 5ebe ada1 2cbe 78e3 8a3c 2b38 26be
00000300: 32a1 833d 2449 ad39 7abd 133d 5ab4 88be
00000310: b17c 73be b12d 003e 1791 6abd a554 71be
00000320: 9afc c3bd 00f2 d9bd 0ff3 633e 9a77 1dbe
00000330: 0c80 8c3d e074 56be 49cd 9abb 33ad 323e
00000340: 7b51 4ebd a6d5 263e 34c6 9b3e 2f06 65bd
00000350: 0b63 7d3e a2af 96be 3d51 a03d 694a e13d
00000360: 63bb 65bd e5e0 833d cf75 3dbe d4f6 06be
00000370: 0117 d73d a6e5 8cbe 1dd6 3fbe 7a67 8f3e
00000380: 8376 13bc 8bad 5bbe 130b 88be 7282 69be
00000390: 765c 913e 0c31 23be 30fe 2bbe 6af1 673e
000003a0: 6da8 9bbe c25e eb3d e7bc 09be 888c d2bd
000003b0: 087a efbd 4657 8bbe 8667 77be 078c 1cbe
000003c0: fb8f 9b3d 3f1f dfbd 5d17 85be f787 2e3e
000003d0: f203 763e 41bb 133e 329c c63b d00b e23d
000003e0: 01d7 efbd e251 7dbd ea96 55be f5cf f0ba
000003f0: 0b55 553e b670 d5bc fffc 41be b632 e7bd

conv_v_to_c.feature_module_final.0.weight f4 [64]
0.9993459 0.999579 0.99939865 0.99960625 1.0006855 0.9991433 1.0017315 1.0002948
1.0007634 0.9996787 0.9983965 0.9992739 1.0013378 1.0004264 0.99871784 1.0007619
0.9993089 0.99794084 0.999449 1.0002898 1.0010204 1.000556 0.9991993 0.9999556
0.9999225 0.99968284 0.99883765 0.9998129 1.0009882 1.0002416 1.0003244 0.9989383
0.9989138 0.9992776 1.0002062 0.9990765 0.999583 1.0002649 0.99919814 0.99920666
1.0008633 0.99874246 0.9994637 1.0009673 1.0005559 1.000861 1.0010079 0.9992305
0.9988349 0.9994903 0.99939686 1.0004137 0.9996108 0.9998291 1.0000494 1.0010673
0.99961543 0.9990407 1.0010319 1.0012374 0.99921244 0.9985779 1.0004399 1.0005097
00000000: 22d5 7f3f 69e4 7f3f 97d8 7f3f 32e6 7f3f
00000010: 7616 803f dbc7 7f3f bd38 803f a909 803f
00000020: 0419 803f f1ea 7f3f ea96 7f3f 6ad0 7f3f
00000030: d62b 803f f90d 803f f9ab 7f3f f718 803f
00000040: b5d2 7f3f 0d79 7f3f e4db 7f3f 7f09 803f
00000050: 7021 803f 3812 803f 86cb 7f3f 17fd 7f3f
00000060: ecfa 7f3f 37eb 7f3f d3b3 7f3f bdf3 7f3f
00000070: 6220 803f eb07 803f a10a 803f 6cba 7f3f
00000080: d1b8 7f3f a8d0 7f3f c206 803f 7ac3 7f3f
00000090: ace4 7f3f ae08 803f 73cb 7f3f 02cc 7f3f
000000a0: 4a1c 803f 96ad 7f3f dadc 7f3f b21f 803f
000000b0: 3712 803f 371c 803f 0721 803f 92cd 7f3f
000000c0: a5b3 7f3f 99de 7f3f 79d8 7f3f 8e0d 803f
000000d0: 7ee6 7f3f cdf4 7f3f 9e01 803f f922 803f
000000e0: cce6 7f3f 22c1 7f3f d021 803f 8c28 803f
000000f0: 63cc 7f3f cda2 7f3f 6a0e 803f b410 803f

conv_v_to_c.feature_module_final.0.bias f4 [64]
-0.0006614669 -0.0004009655 -0.0007639712 -0.00034573695 0.0009865748 -0.0009923971 0.0013114049 -0.00023234954
0.0007042628 -0.00034006327 -0.0011662339 -0.0008405825 0.0011564365 0.00030988862 -0.0012919224 0.0007232923
-0.0007104851 -0.0018886394 -0.0005243231 0.0003287333 0.00086633605 0.00055357604 -0.0008785183 -4.3225744e-05
-0.00040836018 -0.00026317485 -0.0012538594 -0.00023715955 0.0010153766 -7.075649e-05 0.00032183662 -0.0008544459
-0.000889345 -0.0007726629 0.00024133851 -0.00088832725 -0.00036185008 0.0003272644 -0.0008885628 -0.00080789695
0.0008783454 -0.0013047921 -0.00053857954 0.0008066102 0.00045921066 0.0008349325 0.00072587654 -0.0007838925
-0.001395338 -0.00043244637 -0.00047112457 0.000856702 -0.00040527433 -0.00022405216 -8.481039e-05 0.0011464367
-0.0006311275 -0.0009835114 0.0010569686 0.00080264104 -0.0006771378 -0.0011060318 0.0004298759 0.00042788673
00000000: 4b66 2dba ae38 d2b9 3d45 48ba 0744 b5b9
00000010: f54f 813a 5213 82ba 72e3 ab3a dba2 73b9
00000020: 479e 383a 854a b2b9 51dc 98ba 895a 5cba
00000030: 9293 973a 8c78 a239 b955 a9ba 539b 3d3a
00000040: d93f 3aba 398c f7ba ba72 09ba d659 ac39
00000050: d41a 633a dc1d 113a 5d4c 66ba 4a4d 35b8
00000060: 2d19 d6b9 bbfa 89b9 8a58 a4ba 08ae 78b9
00000070: 6316 853a 1a63 94b8 2ebc a839 e5fc 5fba
00000080: ef22 69ba 888c 4aba d00f 7d39 a2de 68ba
00000090: b2b6 bdb9 af94 ab39 71ee 68ba 0cc9 53ba
000000a0: c340 663a 8f05 abba 762f 0dba b272 533a
000000b0: 36c2 f039 5fdf 5a3a c048 3e3a 237e 4dba
000000c0: c6e3 b6ba f8b9 e2b9 4501 f7b9 4c94 603a
000000d0: 007b d4b9 8bef 6ab9 3bdc b1b8 0844 963a
000000e0: 4072 25ba 2be9 80ba fb89 8a3a 5468 523a
000000f0: f381 31ba 45f8 90ba f760 e139 fc55 e039
