rl_model/SCPPO_value_89.pth (torch_old, 472694 bytes, 71 tensors)

cons_embedding.0.weight f4 [4]
000000 d3 e3 7f 3f 0b d7 7f 3f e1 dd 7f 3f cf 0e 80 3f
       0.9995701 0.99937505 0.99947935 1.0004519

cons_embedding.0.bias f4 [4]
000000 aa f6 de 39 14 34 28 3a 77 e9 06 ba cf 93 e5 39
       0.0004252692 0.00064164517 -0.00051464833 0.0004378841

cons_embedding.1.weight f4 [64, 4]
000000 63 3c f0 3d 62 46 6f 3e e8 43 93 3e 83 08 26 bf
       0.11730268 0.23366693 0.28762746 -0.6485674
000010 6a bf 70 bf 1e 66 9f be 51 8b 89 3f 9b 36 3e bd
       -0.94042075 -0.31132597 1.0745641 -0.046438795
000020 9d 1c 23 3f 58 d5 8f 3f ad 7b 8e bf 66 79 93 3f
       0.63715535 1.1236982 -1.1131493 1.1521423
000030 89 18 5c bf 79 91 06 bf 5a 5b 8d 3f 27 b0 9a 3f
       -0.8597494 -0.52565724 1.1043503 1.2085007
000040 27 50 87 be ff 29 27 3f aa 4a ab be 9b 5e 03 bf
       -0.2642834 0.65298456 -0.33455402 -0.5131623
000050 1a b0 43 3e fb 01 fe 3d 41 c9 7e be bc c1 42 be
       0.19110146 0.124027215 -0.2488146 -0.19019216
000060 01 7d 0e bf 6b 59 f4 be 22 4e 94 bf 17 22 3d bf
       -0.5565949 -0.4772447 -1.1586344 -0.7388014
000070 a0 4b 12 3f c5 80 18 3f 58 5e 7f bf 4f d9 5f bf
       0.57146645 0.59571487 -0.9975333 -0.8744096
000080 0e 0a 48 3f 46 0e 6a 3f 3d bf 5a 3f b9 e1 80 bf
       0.7814034 0.9142803 0.85448056 -1.0068885
000090 0d 36 cc bd 5f ce 3d bf 3a e2 2d 3f 4e f5 14 bf
       -0.09971247 -0.7414302 0.6792332 -0.58186805
0000a0 01 72 48 be d2 49 6a bf 75 e7 13 3e 90 e2 71 3f
       -0.19574739 -0.9151889 0.14443763 0.9448633
0000b0 e3 b1 32 be 38 e4 3a 3f 55 e1 59 bf 50 da 14 bf
       -0.17450671 0.73004484 -0.85109454 -0.5814562
0000c0 b8 a1 26 3f b8 52 76 3f 42 5d 11 be 08 be 83 3e
       0.65090513 0.9621997 -0.14195731 0.2573092
0000d0 f6 48 67 3f 08 55 85 3f 61 c3 66 3f db 26 b8 be
       0.90345705 1.0416574 0.90141875 -0.35967144
0000e0 f8 d4 25 3f 62 00 cd 3e 3b 4d 93 bd 8a 07 5c 3f
       0.6477809 0.40039355 -0.07192465 0.85949004
0000f0 ea 89 61 3f 3a c0 16 3e 90 d3 5d 3f a1 b3 30 bf
       0.88101065 0.14721766 0.86650944 -0.6902409
000100 59 14 32 bf 0b c1 72 3f b5 9c 92 3f 5f 03 90 3f
       -0.695623 0.9482581 1.1454073 1.1251029
000110 2c 7e 97 3e 4f f0 8c bf 70 01 9b 3f f9 fb 73 3f
       0.2958845 -1.1010836 1.2109814 0.95306355
000120 4d e8 ef 3e 01 9a 1b bf 69 46 59 bf d0 84 04 bc
       0.4685692 -0.60781866 -0.8487306 -0.008088306
000130 b9 c6 9d 3d 71 ab 97 3f 3e 18 a1 3e 1e ea 00 3f
       0.07703919 1.1849195 0.31463808 0.50357234
000140 03 ef 97 3c ee b7 bf 3e 4d 5b f9 bd 76 7c a3 bd
       0.018546587 0.37445015 -0.12175617 -0.079827234
000150 c8 9a d7 be c2 dd 0d bf cc 66 4f bf f5 98 39 3f
       -0.42110276 -0.554165 -0.8101623 0.7249902
000160 d3 f1 1a bf d8 ec 56 3f 27 4c 7a bf 28 fd 00 bf
       -0.60525244 0.83955145 -0.9777245 -0.50386286
000170 6b b2 47 be 25 32 b5 3e ae b1 45 3e 27 9b 59 3f
       -0.19501655 0.3538982 0.1930606 0.8500237
000180 b1 24 1c bd 8c e3 b9 be 62 e3 65 3d 4e 40 65 3f
       -0.03812093 -0.36306417 0.056125052 0.89551246
000190 b1 3d 89 bf d2 22 9d 3e 22 32 5b bf e0 70 98 3f
       -1.0721952 0.30690628 -0.8562337 1.1909447
0001a0 f7 24 44 bf 53 aa 94 3e 19 0e 23 be 2f ee 2e 3f
       -0.76618904 0.29036197 -0.15923347 0.6833219
0001b0 1b 9c 11 bf fd 17 0f 3f 24 48 57 bf 10 71 86 3e
       -0.56878823 0.5589598 -0.8409445 0.26258135
0001c0 78 ef 21 3f e5 24 0e bf 58 5d 11 bf 86 0f 27 3f
       0.63256025 -0.55525047 -0.56783056 0.6525806
0001d0 bb ae c6 3d 34 f0 39 bf 69 06 7f 3e c8 70 ec be
       0.09701296 -0.72632146 0.24904789 -0.46179795
0001e0 44 ab 3c be 1c 67 a4 be fa bc 29 3f 4f 2f 85 3f
       -0.18424708 -0.32109916 0.6630398 1.0405062
0001f0 fd fa ba 3e 63 c3 05 bf e0 59 3d 3f bc 91 32 3c
       0.36519614 -0.5225126 0.73965263 0.010899004
000200 e4 93 bf 3b 6d 47 8b 3e cc 18 e9 be 52 0c 01 3f
       0.0058464874 0.2720293 -0.4552673 0.50409424
000210 4e 3e 0a be 38 ce 4e bf a2 d2 04 3f 41 94 51 bf
       -0.1350033 -0.80783415 0.518839 -0.8186684
000220 0b 93 87 bf d3 2d 20 3f e8 15 87 3f 69 ab 67 bf
       -1.0591749 0.6256992 1.055356 -0.90495926
000230 a1 d4 7a be d4 11 81 3f 3b a4 6b 3f b0 4e ff 3e
       -0.24495174 1.0083566 0.9204747 0.4986472
000240 35 70 25 bd 38 bb 09 3f d9 e7 2a 3f 00 61 66 bf
       -0.040390212 0.538013 0.6676002 -0.8999176
000250 2f 7e 0e bf 75 c4 23 bf e1 62 89 bf c7 dd 69 bf
       -0.5566129 -0.63971645 -1.07333 -0.9135403
000260 2f 73 4d 3f ca 5c e2 bd ca e3 d8 3d cd 47 b3 be
       0.8025388 -0.11052854 0.10590322 -0.35015717
000270 c7 54 b6 3b 71 53 93 bf 38 8f 69 3f b9 13 78 3f
       0.0055643055 -1.1509839 0.9123416 0.96905094
000280 67 20 7f 3e 1f d7 9a 3f 85 4a d5 be 8c 67 48 bf
       0.24914704 1.20969 -0.41658416 -0.78283
000290 7f d8 1a 3e 1a d6 97 3f 6f d1 49 3f d7 1d 6d be
       0.15121649 1.1862214 0.78835195 -0.23155914
0002a0 37 d9 28 bc a7 f4 34 bf 69 72 e4 3d 64 6d 23 bf
       -0.010305694 -0.7068581 0.111546345 -0.6383879
0002b0 c7 a0 6e 3f 64 22 97 bf 87 cc 94 3f e1 75 0f 3f
       0.93214077 -1.180737 1.1624917 0.56039244
0002c0 8b 82 b4 3e b9 da 83 3f a0 96 9c 3f fb 9d fb 3e
       0.35255846 1.0301124 1.2233467 0.49143967
0002d0 ae 1e 8a bf a3 29 27 3e ec 37 88 3f 98 b1 b4 be
       -1.0790613 0.16324477 1.0642066 -0.35291743
0002e0 d5 60 1a be 95 59 76 bf 91 e9 25 3f 68 b7 60 3f
       -0.15076001 -0.9623044 0.6480952 0.87779856
0002f0 7b b7 0a bf ca 38 9b 3f de a3 d2 3b 1e 56 e8 3e
       -0.5418622 1.2126706 0.006428226 0.45378202
000300 b0 eb 78 3e b2 7b 91 3f 89 ae 6d be 6d b2 84 3e
       0.24308658 1.1365874 -0.23211111 0.25917378
000310 f6 c7 01 be 78 b0 1a bf 73 a8 52 3f 2a 24 79 3e
       -0.12673935 -0.6042552 0.82288283 0.24330202
000320 ac a9 5f 3f 40 62 1f 3f 21 f7 6b bf 5c e6 0e be
       0.87368274 0.6225929 -0.92173964 -0.13955063
000330 b0 9b 0d 3f c2 10 8b bf 2f b8 ec 3e e0 09 59 3f
       0.55315685 -1.0864489 0.4623427 0.84780693
000340 da 59 8c 3e 73 77 21 3f 93 f9 43 bf a3 3f 69 be
       0.274123 0.6307289 -0.76552695 -0.22778182
000350 e8 e4 3c bf 11 30 19 be 7c fb 9b 3f 4d bd 5f be
       -0.73786783 -0.14959742 1.2186122 -0.21849556
000360 b0 27 93 bf 6f 44 2e be 16 00 a4 bc 16 3e 6a bf
       -1.1496487 -0.17018293 -0.020019572 -0.91500986
000370 36 ea 9d be 68 01 9a be c9 a9 a8 be 3b 04 22 3f
       -0.3084275 -0.30079198 -0.32942036 0.63287705
000380 62 88 8f 3f 4b 19 2c bf 0d cf 84 bf f3 b9 1a 3f
       1.1213496 -0.67226094 -1.0375687 0.60439986
000390 8b b9 2c 3d f9 fd 9e 3d bf 2d dc 3e b9 b1 85 bd
       0.042169135 0.07763285 0.43003651 -0.065280385
0003a0 39 44 5a 3e 66 1b 47 3f 56 c7 2f bf 3f f9 b1 3e
       0.21315087 0.7777618 -0.6866354 0.34760472
0003b0 ea 1b f2 3d 9e 0d 1c 3f 98 cd 39 3f d2 1f a4 3e
       0.118217304 0.6095828 0.72579336 0.32055527
0003c0 94 aa 1c bf 3c 5f 99 bf 93 25 34 3f 79 6c 43 3f
       -0.6119778 -1.1982188 0.70369834 0.7633739
0003d0 19 24 09 be 56 98 83 3e 2a df 06 3f fb d5 45 be
       -0.13392676 0.2570216 0.5268427 -0.19319908
0003e0 ec 3f 61 3f cf 39 17 bf bd da 1f 3f d3 eb 05 bf
       0.8798816 -0.59072584 0.62443143 -0.52312964
0003f0 ac b1 8d bf 2b 5d 30 bf 8c a5 15 bf 89 0d a7 bd
       -1.1069846 -0.68892163 -0.5845573 -0.081568785

cons_embedding.1.bias f4 [64]
000000 00 73 fe 3e 87 b8 37 bd c3 c4 bf 3e fa 49 97 3e
       0.49697113 -0.044853713 0.37454805 0.29548627
000010 93 46 a9 bc 5a 84 f1 3d 99 a6 07 3e 41 0d ee 3e
       -0.020663535 0.11792822 0.13247146 0.46494487
000020 67 b7 0b 3e ff 4d a0 3e 25 d6 c4 be 4a 86 03 bd
       0.13644181 0.31309506 -0.3844463 -0.03211049
000030 35 3a f0 3e 57 17 db 3e ff 9c f4 be 49 4f a7 be
       0.46919408 0.42791244 -0.4777603 -0.32677677
000040 2d 39 df 3e 54 29 c7 3e 5c bc fe 3d 23 f7 d1 3e
       0.4359831 0.38898718 0.124382704 0.41008863
000050 02 b4 e2 3e 5f d7 e8 bd 3a 7b ff 3e e9 51 fe 3d
       0.4427796 -0.11369204 0.49898702 0.12417967
000060 1f 9d d4 3e 66 89 49 be 57 be dc be e6 0b 40 3d
       0.41526124 -0.1968132 -0.43113968 0.046886347
000070 cc 51 79 bc c7 23 b5 be 98 bc 22 3e 0c 21 69 3e
       -0.015217256 -0.35378858 0.15892255 0.22766513
000080 33 8d 3d 3d 4c da 91 be cf ac 85 bb 91 e9 11 bd
       0.046277236 -0.2848686 -0.0040794383 -0.035623137
000090 0f d8 80 be 61 05 ad 3e 7b 75 d9 bd 7d c3 e2 be
       -0.2516484 0.33793166 -0.10618111 -0.4428977
0000a0 8c ea 77 be 88 a6 9d be e4 b1 e8 3e ad ac a9 bd
       -0.24210566 -0.30791116 0.4544822 -0.082848884
0000b0 f6 64 7e be 09 24 56 bd fa f0 35 3d fa ab aa 3d
       -0.24843201 -0.05228046 0.044419266 0.08333583
0000c0 79 57 4e be 87 93 7c be 07 b8 e3 3e 9f 52 c6 3e
       -0.20150556 -0.24665652 0.4447634 0.3873491
0000d0 eb 9f fa 3e e5 4d 27 3e 9a 46 99 3e 2a 95 48 bd
       0.48950133 0.16338308 0.29936677 -0.04897038
0000e0 6b ff d5 3e 2e f2 fb be fd b9 eb bd f2 20 64 3e
       0.4179643 -0.49208206 -0.11510084 0.22278193
0000f0 78 b8 e5 3e e1 ad 36 be 9a 25 ee be 0d 7f f9 be
       0.448673 -0.17839767 -0.46513063 -0.48729745

cons_embedding.3.weight f4 [64, 64]
000000 04 10 78 3e ea d1 58 bd 3a 50 94 3e 90 e9 05 be
       0.2422486 -0.052934565 0.28967458 -0.13077378
000010 18 c0 6d bd eb c3 8b 3e 6c ab b6 3d 36 45 6a be
       -0.058044523 0.2729791 0.08919415 -0.22877964
000020 32 bc 04 3a 5b 2b 26 bd 30 9d 3a be c2 fc 21 3e
       0.00050634437 -0.04056869 -0.18224025 0.15819076
000030 e5 9a 92 3e 75 1d 48 3d 99 2e 97 3e 9b 87 89 be
       0.286338 0.048856217 0.2952774 -0.2686127
000040 69 cc 61 be 14 dc e1 3d 7e 19 62 be d3 9a 85 be
       -0.22050633 0.11028305 -0.22080037 -0.26094684
000050 58 ba 71 be d0 14 c7 3d 8b 16 af 3d 02 a3 4c 3e
       -0.23606241 0.097207665 0.085492216 0.19984058
000060 7f a5 b2 3d 82 81 80 3d 1a a1 d6 bd 0d 55 88 3e
       0.08722972 0.06274702 -0.104799464 0.2662739
000070 e2 5f 69 3e d5 b0 ea 3d 06 6e 9b be 56 3a 17 bd
       0.22790483 0.11459509 -0.3035738 -0.036920868
000080 98 83 67 be 50 da b9 3c 95 1f f9 bc 20 8b 88 bd
       -0.22608793 0.022687107 -0.030410567 -0.06667161
000090 12 ac 88 3d 7b a6 88 3e 4b 47 63 be ca 1f 97 bd
       0.06673445 0.26689515 -0.22195165 -0.0737911
0000a0 08 f4 16 3e ac 17 6e be 4d 27 85 3e e0 30 4a bd
       0.14741528 -0.23251218 0.26006547 -0.049363017
0000b0 26 d5 0e be 38 a8 a3 bb 41 62 8a 3e 5a cb 7b 3e
       -0.13948497 -0.0049944185 0.27028087 0.24589291
0000c0 94 3c 15 3e 38 f0 24 bd f1 01 10 be 21 7a 34 3e
       0.1457389 -0.040268153 -0.1406324 0.17624713
0000d0 a4 d2 98 3e bc 33 04 be d9 ae 85 3e c4 92 ca bd
       0.29848206 -0.1291036 0.2610996 -0.098912746
0000e0 a9 f0 61 3e e4 d0 2b be 2f 80 e8 3c 31 8d e8 3c
       0.22064461 -0.16778904 0.028381435 0.028387638
0000f0 39 ec bc bd 84 1f 62 be f0 9e 60 be 0a eb 18 be
       -0.092247434 -0.22082335 -0.2193563 -0.1493341
000100 bc 59 d5 bc a4 95 18 be 4e 41 83 3e 46 20 18 3e
       -0.026043765 -0.14900833 0.2563576 0.14856061
000110 3e 65 1c be 54 d4 c3 bd 1e 4c c3 3d 1f ed 46 3e
       -0.15272996 -0.09561983 0.095360026 0.19426392
000120 c3 e4 22 be 36 99 44 be 76 65 8e be 84 09 83 3e
       -0.15907578 -0.1919907 -0.27811784 0.25593197
000130 c8 46 99 be b4 a2 3d be c4 46 cb 3d c3 3d 67 3d
       -0.29936814 -0.18519098 0.09925607 0.056455385
000140 c9 5d fa bd 50 15 2b be 6c 8f ab bc 3a 5e 29 be
       -0.12224919 -0.16707349 -0.020942412 -0.16539851
000150 7b de 00 be 14 2e 48 be ab 14 99 3e f9 d9 f3 bd
       -0.1258487 -0.19548827 0.2989858 -0.11906809
000160 b8 2f 88 bc 7f 64 e3 bd 04 9f 2e be 71 71 7b 3e
       -0.016624317 -0.111031525 -0.17052847 0.24554993
000170 40 35 9b bd ed 89 6e 3e 99 f5 05 bd ec 79 84 3e
       -0.07578516 0.23294802 -0.032704923 0.2587427
000180 fd f8 39 3e fc c3 0d be 27 dd 74 be 28 50 60 bd
       0.18161388 -0.13844293 -0.23912488 -0.054763943
000190 7e 35 82 3d 00 3b ef bd 65 02 75 3e c2 18 be 3d
       0.06357859 -0.11681175 0.23926695 0.09282066
0001a0 af 7a 08 bd b4 fb ad ba b4 72 3a bc d8 33 96 3e
       -0.033320125 -0.0013273866 -0.011379886 0.2933643
0001b0 5b 04 98 3e 9a 0c e9 3c 85 29 2e be 7f bb 8c be
       0.29690823 0.028448392 -0.17008026 -0.27486798
0001c0 ca 95 94 3e 03 44 1a 3e a9 42 50 3e fa 94 1d 3e
       0.2902053 0.15065007 0.20337929 0.15388861
0001d0 9c 54 89 3d a6 58 f7 3c 4f 05 d9 3d 69 ac 85 3e
       0.06705591 0.030193638 0.10596716 0.261081
0001e0 2a 1d 3f 3e 6b e4 89 3d 93 22 99 3e c1 ef 1b be
       0.18663469 0.067330204 0.2990919 -0.15228178
0001f0 60 84 32 bc b9 c8 4b 3e 2c 75 6e bd ad 62 69 be
       -0.0108958185 0.19900788 -0.058217213 -0.22791548
000200 4c ce fa bd 90 2b 18 3e 3f cf 7a 3e 59 1b f9 3d
       -0.12246379 0.14860368 0.2449312 0.12163419
000210 df b1 23 be b4 0b c3 bd a8 7f 69 be 5f 69 59 be
       -0.15985821 -0.095237166 -0.22802603 -0.21231602
000220 d1 86 82 3d b4 1b 7f be 49 55 0d 3e ee e1 cd 3c
       0.063733704 -0.24912912 0.13802065 0.025132146
000230 43 c8 11 bd c6 71 5f 3e 5d e7 91 bd 17 1f 03 3e
       -0.035591375 0.21820745 -0.07124207 0.12804829
000240 cb d3 a7 3d 0a 30 98 3e 7c 7c a6 bc 90 e6 69 3e
       0.08194693 0.2972415 -0.02032303 0.22841859
000250 98 59 9d 3d c7 d8 8d be 67 3f 5a bd 96 f4 8c 3d
       0.07683104 -0.2770445 -0.05328312 0.068825886
000260 f6 da 5e 3e d1 be 95 bc c6 6f 23 be f0 66 12 3e
       0.21763214 -0.018279465 -0.15960607 0.1429708
000270 3f 7e f5 bd b6 66 7d be e4 82 a5 bc 86 0e 6c be
       -0.1198697 -0.24746212 -0.020204015 -0.23052415
000280 e8 b5 5f 3e e7 b5 7d bd a6 d0 23 be c0 71 d8 3d
       0.21846735 -0.061941054 -0.15997562 0.10568571
000290 0e 11 1a 3d ed ad 26 3e 3a 64 1c be 02 8c 3c be
       0.03761392 0.16277285 -0.15272608 -0.18412784
0002a0 cb 6d 0c be f2 7f 49 3e e0 ee 52 be 2d fb ba bd
       -0.13713758 0.19677714 -0.20598936 -0.09129939
0002b0 44 88 d9 bc cc b8 7f be 6c 96 93 3d bf b9 4b 3e
       -0.026554234 -0.24972838 0.07206425 0.19895075
0002c0 37 a4 99 3e 56 cc 7b 3d fd f3 12 bc 38 9f 91 bd
       0.30008098 0.061474167 -0.008969304 -0.07110447
0002d0 5c 1f 45 be 5d 3b 3b be 9f d3 6f be 78 89 22 3e
       -0.19250244 -0.18284364 -0.23420571 0.15872753
0002e0 16 98 46 be 0a 7a 7a be 05 ba 95 be 9b de 98 3d
       -0.19393954 -0.24460617 -0.29243484 0.074643336
0002f0 18 12 10 3d eb 7e 59 be e8 d0 68 3d 73 c4 69 be
       0.035173506 -0.21239822 0.056839854 -0.22828846
000300 be 25 a0 bd 24 7d 58 3e f0 b5 8c 3e a7 56 42 be
       -0.07819699 0.21141487 0.27482557 -0.18978368
000310 a1 b3 d4 3a 78 0c 94 bc 30 db 9b bb a0 3d 53 be
       0.001622785 -0.018072352 -0.004756354 -0.20628977
000320 d3 10 ad 3d a1 2e db 3d 27 50 87 be 3b 6a 53 3e
       0.084504746 0.10702253 -0.2642834 0.20645992
000330 60 e6 0d be df 82 5a bd d1 47 77 bc e5 0b 4a be
       -0.13857412 -0.053347465 -0.015092806 -0.197311
000340 c6 80 12 3e 9c e4 e4 3d a5 f2 5c 3c 81 bb 0b 3e
       0.14306936 0.11176416 0.013485585 0.13645746
000350 13 6e 86 3e 11 05 ca bd 69 5e 81 be 52 93 4e be
       0.26255855 -0.098642476 -0.25267342 -0.20173386
000360 0d b0 9a be 6d 19 52 be 7b 63 88 3e f4 4d cf 3d
       -0.3021244 -0.20517512 0.26638398 0.1012229
000370 74 86 9e bc 90 70 a3 3d 59 da 29 be 70 f3 71 be
       -0.019351222 0.07980454 -0.165872 -0.2362802
000380 d2 8f 9d 3d 60 86 51 bd 83 76 5b be 8d da 83 3e
       0.07693447 -0.05115354 -0.21431927 0.2575268
000390 90 96 0b 3e 5d ec 94 be 16 f2 76 be b4 81 7e be
       0.13631654 -0.2908658 -0.24115786 -0.24854165
0003a0 f4 e2 b5 bd bd 8a 29 be b4 fc fe ba d5 5f 11 3e
       -0.088811785 -0.1655683 -0.0019453974 0.14196713
0003b0 b2 fa 07 3d 48 18 c6 3d 55 5b ed bc 51 ba 2e bb
       0.033198066 0.096726 -0.028974215 -0.0026661346
0003c0 3f 61 99 3e d3 d8 3e 3e 7d 1a 71 3d a4 c9 79 3d
       0.29957005 0.186374 0.05886315 0.060983315
0003d0 f6 ed 3a 3e bf 09 8a be 3c 07 d2 3d 51 d1 8a 3d
       0.18254837 -0.2696056 0.10255286 0.06778205
0003e0 c1 e9 89 3e ee 03 73 3e f8 fa 98 be 0d 9b 83 3e
       0.26936153 0.23731968 -0.29878974 0.25704232
0003f0 34 8d d2 3d 31 eb 4b 3e ad e5 f1 bc 91 03 19 3e
       0.102808386 0.19913937 -0.029528463 0.14942767

cons_embedding.3.bias f4 [64]
000000 b3 d9 b9 3d 4a 52 0e 3d 89 54 3c bc 88 44 d7 3a
       0.09074726 0.034746446 -0.011494764 0.0016423622
000010 bd d7 4c 3d 42 cf fc 3d 9a e3 05 3d d7 94 f8 bd
       0.05001043 0.12344219 0.03268776 -0.12137764
000020 71 aa a4 3d f7 eb ff ba ed 5e f0 bc ec 2c 9b 3d
       0.080403216 -0.0019525279 -0.02934214 0.075769275
000030 1c 3d 0c bd 81 9a 91 bd 94 83 fd 3d 23 13 bd bc
       -0.034237966 -0.071095474 0.12378612 -0.023080414
000040 0f 27 74 bc 44 39 9e bc 53 9f 88 3d 90 b4 e4 bd
       -0.01490189 -0.019314416 0.06671014 -0.11167252
000050 53 2f 62 bc 60 c1 9d 3d 10 06 9d 3d 2a ff 6e 3d
       -0.013805228 0.07702899 0.07667172 0.058348812
000060 2f 82 cc 3d 16 7d fc bd 54 03 51 bb 79 4e 2c 3d
       0.09985768 -0.12328546 -0.0031892853 0.042067025
000070 19 ab 77 3d 6f 7c 36 3d 45 2d 3d 3c 40 5f 69 3d
       0.060465906 0.044552263 0.011546438 0.056975603
000080 71 8a 3d bd 1e 9e c6 3d cf 49 92 bd ce 6b e4 bd
       -0.046274606 0.09698127 -0.07142984 -0.111533746
000090 92 7f bd bc e2 9a 1e bd 6f 81 cf bd 02 af 68 bb
       -0.02313212 -0.038721927 -0.101321094 -0.0035504703
0000a0 61 e2 f3 3c 3c b4 66 bd 68 82 a1 ba 67 77 74 bd
       0.029771032 -0.05632423 -0.0012322189 -0.059684183
0000b0 ee b8 bc 3d 37 1e d5 3d 4f 5b e6 3d 68 fc c9 bd
       0.0921496 0.10406154 0.112478845 -0.09862596
0000c0 cb 39 fe 3d 52 6d 99 3d 6e 97 aa 3c 77 65 2f bd
       0.12413367 0.07491554 0.02082416 -0.042821374
0000d0 c1 1b 44 bd 95 19 e2 3d 3c 77 14 bc 10 5b e2 3d
       -0.04787803 0.11040036 -0.009061631 0.11052525
0000e0 4d fd 82 3c e4 f4 00 bd 53 f7 d5 3d 0e 38 aa bd
       0.015989924 -0.031483546 0.10447564 -0.08311473
0000f0 58 d0 ff bc b5 50 e2 bb 22 ff a3 3d 28 a9 5b 3d
       -0.031227276 -0.0069065937 0.08007647 0.053628117

var_embedding.0.weight f4 [7]
000000 6d 13 80 3f dc 14 80 3f 8e dc 7f 3f 1a d9 7f 3f
       1.0005928 1.0006366 0.99945915 0.99940646
000010 c4 d4 7f 3f 28 c5 7f 3f 33 1a 80 3f
       0.9993403 0.9991021 1.0007995

var_embedding.0.bias f4 [7]
000000 00 1e 56 3a ca af 17 3a ca 82 08 ba b5 c8 06 3a
       0.00081679225 0.00057863875 -0.00052074774 0.0005141602
000010 3c ed 28 3a e3 d8 62 3a 57 57 17 3a
       0.0006444042 0.00086535345 0.00057732075

var_embedding.1.weight f4 [64, 7]
000000 30 5a bb 3e 22 ec f4 be 57 4a 6a 3f 86 e4 69 bf
       0.36592245 -0.47836405 0.91519684 -0.91364324
000010 c9 27 2e bd 14 cf cf be 06 40 44 3e 0e d9 c6 bd
       -0.04251841 -0.40587676 0.19165048 -0.09709369
000020 b9 17 3c be 8a 71 7a be 63 7d 7d be 2f aa 26 3f
       -0.18368424 -0.24457374 -0.24754862 0.6510343
000030 84 a7 5c bf 35 61 e6 3e cf 85 d4 be 76 1f 51 bf
       -0.8619311 0.44996038 -0.41508338 -0.8168863
000040 06 a6 16 3f 98 12 e0 3e 3d 9b 5a 3f 60 5a ee be
       0.5884708 0.43764186 0.85393125 -0.46553326
000050 d9 dc 37 3f b9 ee 39 3e 1b 7b e3 be 2f 40 18 bf
       0.7182136 0.18157472 -0.4442986 -0.59472936
000060 3a a2 94 3e b3 9d a1 3e 70 e8 24 3f a6 9f 2d 3f
       0.2903002 0.31565627 0.6441717 0.6782173
000070 05 85 07 3f be ff 83 3e c2 d2 98 bc 45 10 5b bf
       0.52937347 0.25781053 -0.018655185 -0.855717
000080 c4 8b 63 be 88 fd b2 bd d4 73 56 bf 9b 0b 30 be
       -0.22221285 -0.087397635 -0.8377049 -0.17191927
000090 12 00 01 3e 89 3f d8 bd 71 6b 10 bf f5 48 89 bd
       0.12597683 -0.10558993 -0.5641394 -0.067033686
0000a0 c4 d4 8e be 8e 30 3d 3e db b7 4b 3e e9 53 e2 be
       -0.27896702 0.18475553 0.19894354 -0.44204643
0000b0 15 c8 00 3c 4c f7 14 3f dd 37 cc be b0 ad 07 bf
       0.007860203 0.58189845 -0.3988637 -0.529994
0000c0 cf bd 8c 3e 57 c4 52 bf 8b fa f8 be 1a ac ca be
       0.27488562 -0.8233084 -0.4862865 -0.39584428
0000d0 64 22 0a 3f 6f d9 3a bf 1c 77 82 be 92 7e 00 bf
       0.53958726 -0.7298803 -0.25481498 -0.5019313
0000e0 11 cc 45 3f 15 21 72 bd ae 49 5a bf 58 67 26 be
       0.77264506 -0.05911358 -0.85268676 -0.1625036
0000f0 ce 8e d1 bc 1c 30 d8 bd 2d d3 29 bf 1d 78 fb 3d
       -0.02558079 -0.10556051 -0.66337854 0.12278769
000100 43 c1 0b bf e6 23 14 3e 0e 34 53 3f 0a 43 39 bf
       -0.5459177 0.14466819 0.82501304 -0.7236792
000110 d8 9f 4e bf 30 e6 24 3e c2 2f 45 bd 43 58 fa be
       -0.8071265 0.16103435 -0.04814125 -0.48895463
000120 5f e2 6b 3f 2e cf 1c bf 03 db 5a be b1 f4 e9 be
       0.9214229 -0.6125363 -0.21372609 -0.45694497
000130 e3 27 43 3f 65 3e b6 be 1e 1a 23 3e e4 6e ce 3e
       0.7623274 -0.35594478 0.15927932 0.40318978
000140 b5 82 3f 3f cd 2f 10 bf 5b df 9a 3c 61 41 03 bf
       0.7480882 -0.5632294 0.018905332 -0.51271635
000150 f4 4b 30 3f 95 a6 10 3e 69 2f 03 bf a1 03 52 be
       0.68865895 0.14126046 -0.5124422 -0.20509197
000160 c6 8d 42 bf 31 fd 22 bf 0d 39 4c 3e 74 45 fc be
       -0.7599758 -0.6366759 0.19943638 -0.4927174
000170 2e bf 68 3f 80 56 56 3f 3f c6 f9 3e 43 c9 2e bf
       0.9091672 0.8372574 0.48784062 -0.6827585
000180 3b a6 d2 3e 90 47 4b bf f9 26 0a bf a2 7e 39 bf
       0.4114245 -0.7940607 -0.5396572 -0.7245885
000190 62 cc f1 3e c4 7b 2f be b8 29 23 3f 10 83 c3 be
       0.47226244 -0.17137057 0.6373553 -0.3818593
0001a0 37 95 a1 be 5d 8d 5f bf df bc 15 3e 96 fe ad be
       -0.31559154 -0.8732508 0.1462283 -0.33983296
0001b0 c6 47 06 3f 4e 57 6c bf b0 fe 6b 3f 6a 1f 0b bf
       0.5245327 -0.92320716 0.921855 -0.5434481
0001c0 1b 2c e6 be 9d f8 05 3f 79 23 32 be fc 8c 05 3f
       -0.44955525 0.5233248 -0.17396344 0.5216825
0001d0 9d ce b9 3e f5 0c c0 3e 4a b9 14 3e 77 04 a3 3e
       0.36290446 0.37509885 0.14523807 0.31839344
0001e0 4a b2 66 bf d9 1c bb bd ce d7 27 bf 5c 38 ed 3e
       -0.901158 -0.09136362 -0.65563667 0.4633206
0001f0 ff 60 61 bf 7b d9 ef 3e e9 a7 f1 3c 1a 6b c9 3e
       -0.8803863 0.46845612 0.029499011 0.39339525
000200 a1 cc 09 3f 52 d9 3a 3f ad 32 6b bf 07 53 1e 3f
       0.53827864 0.72987854 -0.918742 0.6184544
000210 a7 3d 02 3f da ff ad 3e 85 72 2e bf 6a 61 e8 3d
       0.50875324 0.33984262 -0.6814349 0.11346705
000220 48 e5 e4 be 0d bd 5c bf 96 44 34 bf 40 e7 6b 3f
       -0.44706178 -0.8622597 -0.70417154 0.92149734
000230 c3 17 f0 3e 7e b0 0a 3f 7e 6c 67 3f a8 51 54 be
       0.4689313 0.54175556 0.9039992 -0.20734274
000240 44 7f 45 3e b9 d1 ad 3e 01 d9 52 bf 8c e6 10 3f
       0.19286829 0.33949068 -0.8236237 0.56601787
000250 f1 72 40 bf 16 34 90 be 49 3d 64 bf 66 16 10 bf
       -0.75175387 -0.28164738 -0.89156014 -0.5628418
000260 88 a4 5a bf 07 de a9 bc c5 49 ee bc 1b ed 98 3e
       -0.85407305 -0.020735754 -0.02908791 0.29868397
000270 c0 06 08 3f 49 9a 87 3e 5c 6a 4f 3f d1 e2 64 3f
       0.531353 0.26484898 0.81021667 0.89408594
000280 7f 86 1e bf 78 14 02 3f ac f3 54 3f d7 06 3e 3d
       -0.61923975 0.5081248 0.83184314 0.04639324
000290 e7 21 d0 3e ec 72 43 bf 08 8c 1c bf 8a 52 e7 3e
       0.40650865 -0.7634723 -0.6115117 0.4518016
0002a0 3c 0f 55 3f 3f 54 eb 3e 20 f7 02 be 27 87 e9 3e
       0.8322637 0.45962712 -0.12789583 0.45610926
0002b0 36 ff a5 3e e7 4a 8e bd d9 44 6a 3f 43 3c ee 3e
       0.32421273 -0.0694788 0.91511303 0.4653035
0002c0 c8 d7 c7 3e 92 60 b3 bd 41 eb 4f bf bf 45 41 bf
       0.39031816 -0.08758654 -0.81218344 -0.7549705
0002d0 46 d5 35 3f cb e7 5c 3f 01 17 5f bf 69 f0 25 3f
       0.71028554 0.8629119 -0.87144476 0.6481996
0002e0 b0 8e 31 3f 5e 30 cd 3e 91 07 ab 3e 4c 33 df bd
       0.6935835 0.40075964 0.3340421 -0.10898456
0002f0 87 7e 53 3f e9 12 33 be b6 62 11 bf 83 3b 0f 3f
       0.8261494 -0.17487682 -0.56791246 0.5595018
000300 23 b5 41 bf ed 96 29 3f a0 35 b1 3e af f4 e2 be
       -0.7566702 0.6624592 0.34611225 -0.44327304
000310 aa 01 e4 3e ef cd 5e bf da 66 21 3f c3 c4 a9 3e
       0.4453252 -0.8703298 0.63047564 0.3315793
000320 fb 92 11 bf b5 1c ce bd f8 54 30 3f 17 53 00 3c
       -0.568649 -0.10064069 0.6887965 0.00783231
000330 7e 80 fc bc 01 77 aa 3d ac 38 38 3f 76 ae 3b 3f
       -0.030822989 0.083234794 0.71961474 0.7331308
000340 b5 8f 3e bf 6d 03 fc be 52 fb ed 3d 45 aa 1d bf
       -0.7443803 -0.49221364 0.11620201 -0.61587936
000350 06 6b 03 3f 9b 1d 4b bf 10 ab 8d be 70 84 7b 3e
       0.5133518 -0.7934205 -0.27669573 0.2456224
000360 92 0f df bd 50 fa e0 3e 92 73 82 be c7 a1 66 3f
       -0.10891642 0.43940973 -0.25478798 0.900906
000370 c0 52 67 3e ea 75 e5 bd 68 61 b2 3e 94 73 05 3e
       0.2259016 -0.11204131 0.3483994 0.13032371
000380 fa 05 19 3f 81 80 3c bf 00 72 9b be b3 b0 91 bd
       0.59774745 -0.7363358 -0.30360413 -0.07113781
000390 13 04 65 3f 14 bd 68 bf d7 40 fb be 86 32 3c bf
       0.8945934 -0.9091351 -0.49072906 -0.7351459
0003a0 1c 72 b1 3e a6 ef 38 3e 51 4d b8 3c 61 00 30 bf
       0.3465737 0.18060169 0.022497805 -0.6875058
0003b0 77 fc 6b 3f bb 61 f7 3e b2 21 17 3f ea 6b 49 3f
       0.92182106 0.4831675 0.5903579 0.7868029
0003c0 23 28 c4 bd c2 a8 36 3f fb 08 4a 3e b4 40 e3 bd
       -0.09577968 0.71351254 0.19729988 -0.110963255
0003d0 d0 81 25 be 20 74 27 bf a3 0e a9 3c 63 23 72 3c
       -0.16162801 -0.6541157 0.020636862 0.014778945
0003e0 65 3c 45 bf d8 ff b8 be 1b 72 2f 3e a3 00 96 3d
       -0.7704528 -0.36132693 0.17133372 0.0732434
0003f0 d6 4f 8b bd 13 fd 6c bf bd 3c 94 3c 25 e1 1b be
       -0.06802337 -0.9257366 0.018095369 -0.15222605

var_embedding.1.bias f4 [64]
000000 92 73 86 3e 0d f1 ab 3e 4f c0 bf be 75 ee b5 be
       0.26260048 0.33582345 -0.37451407 -0.3553349
000010 c7 85 aa be a2 db 6b 3e 51 65 7b be 5f 91 52 3d
       -0.3330519 0.23033002 -0.24550368 0.051408168
000020 11 6a ad be ae 09 85 be 2c ca 67 bd 13 54 b7 3e
       -0.33869985 -0.25983948 -0.05658929 0.3580633
000030 77 09 a2 3e d6 d6 7d 3e 91 6a 87 3d 9a 44 6c be
       0.31647846 0.24788985 0.06612123 -0.23073044
000040 eb e5 aa be 10 e4 ad be db 85 04 3d 26 c2 86 bd
       -0.33378538 -0.3396306 0.032354217 -0.065799996
000050 ff 86 ad 3e 78 21 25 3d ff 0b 24 3e 9d 6c 78 3d
       0.33892056 0.04031512 0.16020201 0.060650457
000060 0b 0b a8 bd c9 f2 6a 3e e3 42 80 3b 96 2e bf be
       -0.08205231 0.22944178 0.0039142235 -0.3734023
000070 61 82 17 3e 3e fa 72 3c f2 11 b9 be f6 7b 86 3e
       0.1479583 0.01483017 -0.36146504 0.2626645
000080 0e c1 37 3e 1c ba 9a bd 92 c2 56 3e b0 ee 4d be
       0.17944738 -0.07555029 0.2097266 -0.20110583
000090 26 0f a3 3b 44 38 89 3c f6 a9 1a 3d 94 85 a7 3d
       0.004976171 0.016750462 0.037759744 0.08179775
0000a0 87 95 2a be de e8 9c be cb 61 96 3e 87 50 84 be
       -0.16658603 -0.30646414 0.29371485 -0.25842687
0000b0 b5 75 b5 3d 82 01 b2 be 83 b7 a9 be 1f c1 d9 3d
       0.088603415 -0.34766775 -0.3314782 0.10632538
0000c0 97 d0 a4 be 2b dc b2 3e 21 2c 30 3d 48 f3 d4 3b
       -0.3219039 0.349336 0.043010835 0.006498728
0000d0 5a 31 19 3e 33 15 fd bc 93 bb 04 3e 57 75 06 be
       0.14960232 -0.030893898 0.12962179 -0.13130699
0000e0 92 36 9b 3d ad be 3a be aa 1e f0 bd 16 7d 76 3e
       0.07578768 -0.182368 -0.11724599 0.24071154
0000f0 5b 83 4a 3e 61 72 82 3e 96 12 04 3e 8a 25 b7 be
       0.1977667 0.2547789 0.12897715 -0.35770828

var_embedding.3.weight f4 [64, 64]
000000 ba 0a 41 bd 1c 5b d8 bb 54 66 69 3d a6 e1 90 3e
       -0.04712937 -0.006602658 0.056982353 0.28297156
000010 bd 42 9b bd 61 06 3f be a0 65 6f 3e 91 a7 37 be
       -0.07581089 -0.18654777 0.2337861 -0.17935015
000020 08 26 c3 bd 3c 30 68 3e 11 c8 62 bd 54 71 f4 3b
       -0.09528738 0.2267465 -0.05536658 0.007459799
000030 3a ec 06 be 3d 5e 91 be ef 69 84 3e 6f 36 a9 3d
       -0.13176051 -0.2839221 0.2586207 0.082623355
000040 93 58 31 3e be a5 00 bd 76 29 85 3e b1 2b 66 3e
       0.17318945 -0.031408064 0.26008195 0.22477604
000050 4b 50 23 3e 71 21 ed bd 3b f0 2d be 58 1f 92 be
       0.15948598 -0.11578644 -0.16986172 -0.28539538
000060 1e 79 6c 3d 30 a5 99 3e 21 26 8d 3e ea 3b fb bc
       0.057732694 0.3000884 0.27568153 -0.030668218
000070 80 2c 42 be f7 89 a2 3d 90 c8 40 3e 32 84 82 3e
       -0.18962288 0.07936471 0.18826509 0.25491482
000080 62 f7 3e 3e 88 cd 9b 3e 34 6c f0 3b 0c 3c 71 bd
       0.18649057 0.30430245 0.0073371176 -0.058895156
000090 5b 07 69 3e 9a 47 da 3c 7f 4b 85 be 8d c5 5e be
       0.22756712 0.02664547 -0.2603416 -0.21755047
0000a0 a9 9f 6e 3e ee 42 84 bc ee c0 ac 3d a6 15 bf 3d
       0.23303093 -0.016145196 0.08435236 0.09330301
0000b0 54 e3 8c 3e c8 11 f6 bd 82 a8 42 3b 0a 61 9a be
       0.27517188 -0.1201511 0.002970249 -0.3015216
0000c0 10 d8 5f 3d 0b 32 84 3e d1 39 2b be b9 d7 8e 3d
       0.054649413 0.2581943 -0.16721274 0.069747396
0000d0 a1 87 75 bd e0 75 31 be a2 62 44 be dc e1 2f 3e
       -0.0599438 -0.17330122 -0.1917825 0.17176002
0000e0 49 2d 30 be a0 da 16 3d 1b a5 0a 3d 4a 04 f9 3d
       -0.17204775 0.03682959 0.033848863 0.12159021
0000f0 15 12 8e 3e 53 7c 43 3e 61 df 80 be ce 78 ca 3d
       0.2774817 0.19090395 -0.25170425 0.09886323
000100 df ac 61 be fd f5 8f be 0a 0f 62 be a4 1a 00 be
       -0.22038601 -0.28117362 -0.2207605 -0.12510163
000110 23 68 44 be b0 51 07 3e 6d 6c 9b 3d 48 dd 0a bd
       -0.1918035 0.13214755 0.0758904 -0.033902436
000120 6a 06 04 3e 68 ed dc bc 4c 53 0a bd 0c f4 93 be
       0.12893072 -0.026968673 -0.033770844 -0.2889713
000130 a2 a4 06 bd b4 d1 4e be 2b 60 98 3e df 34 ef 3d
       -0.03287185 -0.20197183 0.2976087 0.11680006
000140 28 5d 03 be d2 4d a7 bd 77 b1 18 3e 88 2e 51 3e
       -0.12828505 -0.0816914 0.14911447 0.20427907
000150 ca 9e c4 3d bf 3b 46 be de 80 cc bd 02 36 0d 3e
       0.09600599 -0.19358729 -0.09985517 0.13790134
000160 86 c7 d0 bd 74 bc bd 3d 27 37 04 be 5b 1f 3f 3e
       -0.10194306 0.0926446 -0.12911664 0.18664305
000170 be f2 22 bd 2d 72 ce bd f1 82 70 be dc 0b ca 3d
       -0.03978228 -0.10080371 -0.2348745 0.09865543
000180 e2 e1 07 3d 31 a6 32 be 5e 34 94 be f4 26 6a be
       0.033174403 -0.1744621 -0.28946203 -0.22866422
000190 65 a1 55 3e f7 b4 72 3e f4 d4 61 3e cc e5 91 be
       0.20862348 0.23701845 0.22053891 -0.28495634
0001a0 85 2a 0c 3e cd b3 8c 3e 01 40 08 3e 08 c0 5b 3d
       0.13688095 0.27480927 0.13305666 0.053649932
0001b0 36 b2 da 3d 8a e8 7b be e3 ba fd bc 50 02 81 be
       0.10678522 -0.24600425 -0.030972904 -0.25197077
0001c0 88 79 0e 3e 7a c2 9d bd 61 c9 51 be 9d a3 52 be
       0.13913548 -0.07703109 -0.20486976 -0.20570226
0001d0 c0 47 79 3e 7f 32 32 be 4b 63 1d 3e 32 a6 21 3c
       0.24343777 -0.17402075 0.15369909 0.009866284
0001e0 fe 9c 87 bc 67 74 7c be 22 a7 cf 3d c1 6b 1e 3e
       -0.016554352 -0.24653779 0.101393 0.15470792
0001f0 78 c6 39 3e 11 fe 23 be f5 00 42 3e 87 84 8a be
       0.18142116 -0.16014887 0.18945678 -0.27054235
000200 0b 98 89 3e aa a2 e4 bd ce 81 50 3d b8 43 81 3e
       0.26873812 -0.11163838 0.05090504 0.25246978
000210 15 e0 16 3e 0b dc db bd 98 e2 6b 3e a9 37 1d be
       0.14733918 -0.10735329 0.23035657 -0.15353264
000220 6e 65 99 3e b2 e2 66 bc 86 03 8c 3e 3b 81 8c be
       0.29960197 -0.014092134 0.27346438 -0.27442345
000230 68 1a c0 bd 7c ae 28 3e be 34 50 be c9 1c ea bd
       -0.093800366 0.1647281 -0.2033262 -0.114312716
000240 c6 10 10 bd 8a 43 f8 bc 4a 90 80 bc 3c 70 d9 3d
       -0.035172246 -0.030305643 -0.015693802 0.1061711
000250 f1 6d 86 3e c9 1a 86 be 97 9b 49 be 7c 44 4f be
       0.26255754 -0.2619231 -0.19688259 -0.20240968
000260 36 58 6e 3e 9e 47 df bd d7 89 a2 bc ac 76 f6 3d
       0.23275837 -0.10902332 -0.019841118 0.120343536
000270 07 1c 35 3e 42 da 1a bd 5f c4 db 3d 56 ad 8e be
       0.17686473 -0.037805803 0.10730814 -0.2786662
000280 b5 ab 94 be 89 c7 23 be 5b 7a 83 be 8b d5 93 be
       -0.29037252 -0.15994085 -0.25679287 -0.28873858
000290 5f a7 95 3e 86 b2 11 3e d0 2d 08 3e 22 3d 98 3e
       0.29229257 0.14228258 0.13298726 0.2973414
0002a0 33 62 d5 3d 72 56 94 be 84 a7 42 3e 86 29 a1 bc
       0.10419121 -0.28972203 0.19009215 -0.01967312
0002b0 74 57 9a be 92 d0 10 3e cf 04 19 be c2 46 66 b9
       -0.30144846 0.14142063 -0.1494324 -0.00021960869
0002c0 f0 43 98 3e 0b ac a9 3d f4 74 7d 3e 64 5f 6d be
       0.29739332 0.08284768 0.24751645 -0.2318092
0002d0 3f a8 2f be 90 a7 d8 3c a1 1c b6 bd 28 1d 96 be
       -0.17154025 0.026447088 -0.08892179 -0.2931912
0002e0 05 eb 78 ba a8 1a 93 be b6 64 19 be 96 4e 45 be
       -0.000949547 -0.28731275 -0.14979824 -0.1926826
0002f0 66 4a 31 3e 99 50 7c bd 07 09 0b be 8e c2 ac bd
       0.17313537 -0.0616003 -0.13577662 -0.08435546
000300 0b 09 03 3c 1e 4e bf 3d 02 e0 29 be 50 72 10 3e
       0.0079977615 0.093410715 -0.16589358 0.14106107
000310 84 f2 7c 3e 66 3f 93 be 99 77 13 be 4a 19 de bc
       0.24701887 -0.28759307 -0.14401092 -0.027111668
000320 0a ff 9b 3e c1 f8 86 be 85 97 91 be a9 f2 03 be
       0.30468017 -0.2636166 -0.28435913 -0.12885536
000330 14 f6 86 be ad 4b 95 3d ce d4 38 3e 60 8b 8e be
       -0.26359618 0.07289825 0.18049929 -0.2784071
000340 5a a5 64 3c 71 04 90 3e b7 de bf bc 72 af 99 3e
       0.0139554385 0.2812839 -0.023421628 0.30016667
000350 c2 82 88 be 9d 2f 28 bd a9 8a a6 3d 4d 71 48 3e
       -0.2666226 -0.041061033 0.08131916 0.19574471
000360 d6 7d 16 3e 6b 48 be bd 24 d2 72 be 59 cb 4e be
       0.1469644 -0.092911564 -0.23712975 -0.20194758
000370 c2 cb c5 3d ad 1f 6a bd 69 b6 8a be 8a 67 9b be
       0.09658004 -0.057159115 -0.27092293 -0.30352432
000380 1f 67 68 be 6f 8c 0e be 6b 47 57 be 96 c7 26 be
       -0.22695588 -0.13920759 -0.21023338 -0.16287073
000390 32 27 1b 3e ab 7e 82 be cd 8d 98 3e 9e 43 81 3e
       0.1515167 -0.25487265 0.29795685 0.252469
0003a0 08 85 92 be a2 58 44 3e ff c4 8a 3e 68 f8 30 bd
       -0.2861712 0.19174436 0.2710342 -0.04320565
0003b0 c1 db 8e be 04 55 67 be bd 83 84 be 5e a7 68 be
       -0.27902034 -0.22591025 -0.25881758 -0.22720096
0003c0 34 3d 13 3e 89 23 28 bc f9 81 00 be f5 95 3f be
       0.14378816 -0.0102623785 -0.1254958 -0.18709548
0003d0 b9 14 90 be 1c 28 6a be bb fc 56 bb b8 3e 3b bd
       -0.2814081 -0.22866863 -0.0032804448 -0.04571411
0003e0 d5 fd 84 3d 97 40 be bc 4e 33 88 3e 0b 25 81 3e
       0.06493727 -0.023224158 0.26601642 0.25223574
0003f0 46 3a 88 be 93 16 45 3e 97 c1 dd bd be 9d 73 bd
       -0.2660696 0.19246893 -0.1082794 -0.059476607

var_embedding.3.bias f4 [64]
000000 04 b4 b6 3d 15 96 d1 3b 92 20 de 3d 15 a2 bf bd
       0.08921054 0.006396065 0.10846056 -0.093570866
000010 eb 99 c0 3d da 72 e8 3c ff 9f c9 bd 9a 4b 8e 3d
       0.094043575 0.028375078 -0.0984497 0.069480136
000020 e3 d8 e6 3d b7 f0 4f bc d9 42 cf bc 92 2f df bd
       0.112718366 -0.012691668 -0.02530043 -0.10897745
000030 ae 4b ff 3c 1c 3c d0 bd f5 82 ea bd 21 ff 06 3d
       0.031164017 -0.10167715 -0.11450759 0.032958154
000040 61 a9 86 3c c6 e8 bd 3c 3d 66 44 bb cc bc bd 3d
       0.016438188 0.023182284 -0.0029968165 0.09264526
000050 7c aa f3 bd f9 08 f5 3d e2 80 dd 3d 28 62 28 bd
       -0.11897752 0.11964602 0.10815598 -0.041109234
000060 f5 70 12 3d a8 33 32 3c 01 a7 a9 3c 0d d7 80 3d
       0.035752255 0.010876574 0.020709516 0.06291018
000070 ca 3a 15 bd dc d7 6a bd 82 dd cd bb 33 77 f4 3d
       -0.03643302 -0.057334766 -0.0062825093 0.11936798
000080 fa b5 d5 3d 5e 51 d0 3d c6 c2 c7 3d 2d 5a ab 3c
       0.104351 0.101717696 0.09753947 0.020917023
000090 47 67 11 3d a6 d5 d4 bd 18 56 9c 3d fb c3 8b 3d
       0.035498884 -0.10392313 0.076336086 0.0682449
0000a0 d1 18 be 3c d8 8a 8c 3d f7 54 97 3d d6 db 8d bd
       0.023205193 0.0686242 0.07389253 -0.06926696
0000b0 fd 11 bf bc fa f2 b9 3c 18 39 2f bd 7c 80 8c bd
       -0.023324007 0.022698868 -0.04277906 -0.06860444
0000c0 55 93 25 bd 0c 72 4a bd 15 b3 29 bd 9b 4b 9d 3d
       -0.04042371 -0.04942517 -0.04143055 0.07680436
0000d0 40 44 e7 bd d1 99 92 3c ea 9d ad 3d 19 cd dd 3c
       -0.112923145 0.017895611 0.08477385 0.027075337
0000e0 5b aa ae 3c 2c 2a da bd b0 d6 7b 3d 48 bb 8e 3d
       0.021321466 -0.10652575 0.06148404 0.06969315
0000f0 ec 14 44 bd b9 2f 6c 3c 31 53 82 3b 10 18 53 3d
       -0.047871515 0.014415675 0.0039772023 0.05153662

conv_v_to_c.feature_module_left.0.weight f4 [64, 64]
000000 46 fa 0b be d3 f6 d8 bd ac 4b cf 3d 68 fe 76 3e
       -0.1366969 -0.10593953 0.10121855 0.24120486
000010 33 60 ab bd 60 f1 8a be 91 ad 20 3e 35 b8 fd 3d
       -0.08367958 -0.2713728 0.1569121 0.1238865
000020 bf 8a 97 3e 4a 62 47 3e 7f f5 c8 bd 90 f2 1c be
       0.29598042 0.19471088 -0.0981245 -0.15326905
000030 9c 23 66 3d b1 e7 0b bc 89 38 83 be 2c c8 3c 3d
       0.056186303 -0.008539126 -0.2562907 0.046089336
000040 1b 8b 91 3e 08 8d ca 3d e4 1f 17 3d 7b 44 8f 3e
       0.28426442 0.09890181 0.036895648 0.27981934
000050 58 6c 13 3d 3f 2d 5f 3e 43 61 94 3d 21 3d f2 bd
       0.035991997 0.21794604 0.07245114 -0.11828066
000060 a4 87 b8 3c 09 cb 04 3e 8d e3 81 be 3a 03 cf bd
       0.022525616 0.12968077 -0.2536892 -0.10108037
000070 d7 66 ae 3d 1f a3 58 3d f7 6a 08 be ca 66 79 3d
       0.08515709 0.05288994 -0.13322054 0.060889043
000080 c2 85 4c be 7a 45 05 be a7 2f 9c bd 52 82 1a 3e
       -0.199729 -0.13014784 -0.076262765 0.15088776
000090 b2 58 c5 bc e9 d5 16 3e 6e 59 e8 3d 53 9b c3 bd
       -0.024090145 0.14730038 0.11345182 -0.0955111
0000a0 e5 ee b1 bd af 88 56 3e d6 18 96 3c be 04 80 be
       -0.08688144 0.20950578 0.01832239 -0.25003618
0000b0 31 a2 94 3e 84 e4 b7 bc d8 99 7f be 42 42 0a be
       0.29029992 -0.022447832 -0.2496103 -0.13501838
0000c0 49 c0 40 3e 09 8f 4d be 45 80 6d be 72 92 34 3e
       0.18823351 -0.20074095 -0.23193462 0.1763399
0000d0 7f 34 17 3e cb 66 8b 3e da 19 40 be ec 2b a6 bd
       0.1476612 0.27226862 -0.18759862 -0.08113846
0000e0 44 28 58 be 2a 2c 4d bd cf 45 90 be 98 c8 60 3e
       -0.2110911 -0.050090946 -0.2817826 0.2195152
0000f0 c2 29 2e 3d 47 87 84 3e c3 d1 a2 bd a2 bf c2 3c
       0.042520292 0.25884458 -0.07950165 0.023773018
000100 99 7e b1 3c c7 35 19 3e 46 7f f1 bd b3 40 01 3e
       0.021666812 0.1496192 -0.117918536 0.12622337
000110 b0 79 16 be 5c 89 8c 3a df 9a 26 be db bf a2 3c
       -0.14694858 0.0010722089 -0.16270016 0.019866874
000120 84 b6 27 be d2 03 33 be ce 9a 7a bd 1b c8 e3 3d
       -0.16378218 -0.17481926 -0.06118279 0.111221515
000130 a1 01 cf 3d 21 f1 25 3c 60 5e 88 3d ca 65 4c 3e
       0.101077326 0.01012829 0.066586256 0.19960704
000140 33 60 ba 3d d2 59 8d be 55 22 39 3c 8f fe 15 3e
       0.0910038 -0.2760759 0.011299689 0.14647888
000150 4d e0 59 3c 00 6e 1b be 93 23 d6 bd 9b 4a 0c 3e
       0.013298106 -0.1517868 -0.10456004 0.13700335
000160 ef 85 4d 3d a5 bc 23 3e a4 65 00 3e 30 1d 42 bd
       0.050176557 0.15989931 0.12538773 -0.047391117
000170 b8 da 1f be 8c ef 87 3e 4e 47 ef bd ac ba 28 3e
       -0.15610778 0.26549947 -0.11683522 0.1647746
000180 0a 28 87 3e 21 21 1a 3e ee 0d 08 3d 43 a3 22 3d
       0.26397735 0.150517 0.03321641 0.03970648
000190 f6 8e 8d be 6c 2d 56 3e ae 31 86 3e 58 31 13 3d
       -0.27648133 0.20915765 0.26209778 0.03593573
0001a0 61 26 4c 3d 42 8c fe bd 55 62 1a 3e 9e b0 88 be
       0.04984129 -0.12429096 0.15076573 -0.26697248
0001b0 41 28 6b 3e f4 07 f3 bd 59 aa ab 3d 74 59 d7 3d
       0.22964574 -0.11866751 0.083821006 0.10515109
0001c0 2f fe 32 be a4 02 ea bd 86 c3 19 bd e9 51 9a 3e
       -0.17479776 -0.11426285 -0.03753998 0.30140617
0001d0 c6 8d 3b 3d 01 79 84 be 9a a4 9b be 1f 5a 5a be
       0.045789503 -0.2587357 -0.3039902 -0.21323441
0001e0 bd 2f 91 3e 76 54 88 be 8b 36 4c 3e 9b cd 02 be
       0.28356734 -0.2662694 0.19942681 -0.12773745
0001f0 18 78 a3 bd 68 a3 0b be 8e 61 8b be 68 e0 13 be
       -0.079818904 -0.13636553 -0.27222866 -0.14441073
000200 d2 c1 96 be 3d a2 41 be 99 fd 32 be b6 c6 e2 bc
       -0.29444748 -0.18909545 -0.17479552 -0.027682643
000210 e1 49 96 3e be 50 90 be 0e 27 7b be 27 cc 64 3d
       0.2935324 -0.281866 -0.24526617 0.055858757
000220 9f bd b4 bd 07 88 b6 bd a1 88 15 3e 9f 6a 05 3d
       -0.0882523 -0.08912664 0.14602901 0.032572385
000230 97 af 00 be 7d 32 8d be f9 cd 3d be 3e 50 7c be
       -0.12566982 -0.27577582 -0.18535604 -0.24639985
000240 a4 7a 16 3d de 8a d2 3c b2 9d 1d bd 7c bb 83 3e
       0.036738053 0.025700983 -0.038480468 0.25728977
000250 98 49 60 be 49 70 4d bd 4c fd 8c be b5 56 a4 3d
       -0.21903074 -0.05015591 -0.27537 0.080243506
000260 93 63 90 be b0 8b 07 be 94 43 92 be 73 1d 20 3e
       -0.2820097 -0.1323688 -0.28567183 0.15636234
000270 37 67 13 be a7 cb 19 bd b9 5f 09 be da d2 19 be
       -0.14394842 -0.037547734 -0.13415422 -0.1502184
000280 3e ea 4e 3e 98 fd 6f 3d ea cb 81 bd 77 79 96 3e
       0.20206544 0.058591455 -0.06337722 0.29389545
000290 8c 13 d3 bd a8 70 f4 3c cc 3f 9c 3e 40 fd da 3d
       -0.10306463 0.029838875 0.30517423 0.10692835
0002a0 4a 32 25 be 71 58 54 3d 20 44 ad 3c f0 3b 68 3e
       -0.16132465 0.051842157 0.021150649 0.22679114
0002b0 fe e1 eb 3d 74 a2 b1 bd fd 9e 03 3e c4 a7 99 3e
       0.11517714 -0.086735636 0.12853618 0.30010808
0002c0 e9 8d 7a be 69 f1 5b be 7a 55 9c be f0 9d 5a be
       -0.24468197 -0.2147881 -0.30533963 -0.21349311
0002d0 a6 1a 49 3e 35 3f 06 3e 1d 0d 1b 3d bb fe 97 3e
       0.19639072 0.13110049 0.037854303 0.2968653
0002e0 28 ee 9a 3e b6 98 d0 bc a5 7f 7a be e6 ae 95 3e
       0.30259824 -0.025463443 -0.24462755 0.29235
0002f0 ae 13 3d 3e 65 18 d9 3d 44 be 84 be d4 85 2e 3e
       0.18464538 0.10600356 -0.2592641 0.17043239
000300 5b 70 a1 bd 83 a2 09 3e 4a 6f 5b bd 5a 7f 07 3e
       -0.07882758 0.134409 -0.05357293 0.13232175
000310 f4 03 74 bd 34 8e 05 3e d9 23 08 3e 38 13 4b be
       -0.059574082 0.13042527 0.13294925 -0.1983155
000320 24 14 33 bb 1a ea 76 bd 9b 1e 7e 3e c6 27 df bc
       -0.0027325237 -0.06028185 0.24816363 -0.027240645
000330 57 a8 95 3e 1c dd 89 3c 58 a9 8e bd f0 d2 88 3e
       0.29229996 0.016829066 -0.069658935 0.26723433
000340 c9 58 44 be 6e a5 97 be 58 74 89 3e 4b 47 b0 bc
       -0.19174494 -0.296184 0.26846576 -0.02151837
000350 09 4e 24 3e 70 32 8a 3e aa 4e 99 3c 7c db df bd
       0.16045393 0.26991606 0.018714268 -0.10930535
000360 5b 80 8e be d2 c9 6b 3e 2f ae 75 3e 10 e1 55 3e
       -0.27832302 0.23026207 0.23992227 0.20886636
000370 f3 9e 4d be 60 14 7c be e5 60 7a be f9 95 96 be
       -0.20080166 -0.24617147 -0.24451025 -0.29411295
000380 c0 d8 5a be 43 cf 83 be fb ea 74 bd e3 21 79 be
       -0.21371746 -0.25744066 -0.059794407 -0.24329333
000390 7f 28 96 be bf a8 4d be 4b da 06 be f9 cb 0b 3e
       -0.2932777 -0.20083903 -0.1316921 0.13652028
0003a0 ff 01 2d 3e 6a 86 91 be 93 76 8e be c7 56 e9 bd
       0.16895293 -0.28422862 -0.2782484 -0.113935046
0003b0 c2 db 2d be 9e bf 73 3e 53 3f 98 3e 8b d6 db 3d
       -0.16978362 0.23803565 0.29735813 0.1073428
0003c0 7a 2d 3c be 6a 84 29 3e df 0f fc bc f7 d9 8d 3e
       -0.18376723 0.16554418 -0.030769287 0.27705356
0003d0 2a f6 56 3e fb 47 38 3d 30 4f 99 be 79 fc 36 3d
       0.20992342 0.04499052 -0.29943228 0.04467437
0003e0 3a 8b 44 3e 8d b9 18 be a8 17 34 be 7b 5a 9c 3e
       0.19193736 -0.14914532 -0.17587149 0.3053778
0003f0 6d c1 c7 bc 0e 7a 83 be 5c 27 80 bd d6 cc 45 3d
       -0.024384225 -0.25679058 -0.06257507 0.04829105

conv_v_to_c.feature_module_left.0.bias f4 [64]
000000 38 c4 b2 bc bb 25 70 3d 4d 9a 66 3d 78 dd ac bd
       -0.02182208 0.058629733 0.056299496 -0.08440679
000010 3e b4 64 bb c4 13 54 3d ee 6b ea bc af b4 4c bc
       -0.0034897472 0.051776662 -0.028615918 -0.01249425
000020 4e e1 4a 3d ac cc 4d bd 38 31 ea bb 1a 74 27 3d
       0.049531274 -0.05024402 -0.0071469806 0.040882207
000030 2c ea b8 bd f2 93 8e bd 60 12 f9 3d 65 a7 ad 3d
       -0.0902904 -0.06961812 0.12161708 0.084791936
000040 70 c0 c1 3d 61 64 93 3d 37 68 1c 3a 0f 2a 7d 3d
       0.09460533 0.0719688 0.0005966457 0.06180769
000050 0a c3 2a 3d 6c 6e a0 bd e9 d8 8c 3d 31 82 85 bd
       0.04168991 -0.07833561 0.0687731 -0.06518973
000060 7c e5 49 3d 63 e7 68 bd 03 2b fd bd d9 11 d5 bc
       0.04929112 -0.056861293 -0.123617195 -0.026009487
000070 af 3a c6 3d 82 df 9d 3d fe 8c a3 bd 6c 1a 6e bd
       0.09679162 0.07708646 -0.079858765 -0.058130667
000080 1e db 24 3d cc 7c 8e 3d 59 c9 36 ba 8d 53 d0 bc
       0.04024803 0.06957397 -0.0006972752 -0.025430465
000090 9f a6 e8 bd de 4c d1 bd 1d 2d c3 bd ad f7 ef 3c
       -0.113599055 -0.102197394 -0.09530089 0.029292906
0000a0 0f 1e 29 3d b2 c5 6e bc 8e 84 8a bd 30 6f 0a bc
       0.04128843 -0.014573501 -0.06763564 -0.008449361
0000b0 dd 42 88 3b 2f fa e5 bd 1b d6 2e 3d c7 62 5e 3c
       0.0041583613 -0.11229359 0.042684656 0.013573355
0000c0 ff a4 ff 3d b6 1a 87 3d 52 b9 95 bd 4b b7 7c bd
       0.124826424 0.065968916 -0.07310738 -0.06169824
0000d0 56 77 b3 bd a9 57 08 bd a7 49 94 3d 57 17 60 bd
       -0.08762996 -0.033286724 0.072406106 -0.05470976
0000e0 9d ce e5 bd 49 0b a4 3d 82 fa 10 3d b8 37 2c 3d
       -0.11221049 0.08009965 0.035395153 0.042045325
0000f0 2d 83 07 3d a8 93 6b bc 20 ff eb 3d c7 50 fa 3d
       0.033084083 -0.014378466 0.115232706 0.12222438

conv_v_to_c.feature_module_edge.0.weight f4 [64, 1]
000000 7f 78 41 bf c1 14 c2 bf 50 dc 07 c0 0d 27 10 40
       -0.7557449 -1.5162584 -2.1228218 2.2523835
000010 fd e6 9a bf 62 6c 7d 3e de 44 15 c0 de b5 04 c0
       -1.2101742 0.24748376 -2.3323283 -2.0736003
000020 54 0b c8 bf 67 65 fd bf 53 df 25 3f 1c 02 11 c0
       -1.5628457 -1.979657 0.6479389 -2.2657537
000030 82 3f c6 3f 47 c8 5b bf 96 12 39 bf be e5 ff 3c
       1.5488131 -0.85852474 -0.72293985 0.03123748
000040 9d 1e 0e c0 9c f9 26 3f 5f c1 d7 3f ba 52 19 40
       -2.2206185 0.65224624 1.6855887 2.3956742
000050 19 f0 c9 3f 26 fd ef 3e 89 82 17 40 c6 39 13 c0
       1.5776397 0.46872824 2.3673422 -2.3004012
000060 b3 19 15 40 10 1c 78 bf 0e 5c ed 3f b0 b7 fb 3e
       2.3296936 -0.9691782 1.8543718 0.4916358
000070 76 2a ce bb 46 6d 7b 3e cc b5 16 3f 4d 03 ad bf
       -0.006291683 0.24553403 0.5887115 -1.3516632
000080 90 55 a8 3f bf 35 84 bf a8 4d 8b 3f b0 e0 f9 be
       1.3151112 -1.0328902 1.0883074 -0.48804235
000090 fd 3b 1a 40 2d df b2 bf da 7a be bf 6a a5 e1 3e
       2.4099114 -1.3974358 -1.4881241 0.44071513
0000a0 ea 57 12 3f da a7 b9 bf 08 2d 9a be 48 3a 71 bf
       0.57165396 -1.4504349 -0.3011248 -0.94229555
0000b0 3b 64 91 bf 3e e2 df 3f f6 7f 01 be 53 a2 b1 3f
       -1.1358713 1.7490919 -0.1264647 1.3877662
0000c0 e1 4f 70 bf dd d1 f7 3f 68 e8 f6 bf c7 26 53 3f
       -0.93871886 1.936092 -1.9289675 0.82481045
0000d0 a0 bc 18 3f 1d 6c 0a c0 ce 83 4d be 37 ed c5 bf
       0.5966282 -2.1628487 -0.20069811 -1.5463017
0000e0 3c 7c 30 3f 9c 41 eb bf c1 52 91 bd 65 8a e3 3d
       0.68939567 -1.8379397 -0.07095862 0.11110381
0000f0 53 70 5a 3f 0f 83 c9 bf 7d 94 dc 3f 71 92 c4 bf
       0.85327643 -1.5743121 1.7232815 -1.535719
