rl_model/SCPPO_value_269.pth (torch_old, 472694 bytes, 71 tensors)

cons_embedding.0.weight f4 [4]
00000000: dff6 7f3f 2024 803f 6605 803f 10db 7f3f
0.9998607 1.0011024 1.0001647 0.9994364

cons_embedding.0.bias f4 [4]
00000000: 0b5f 1f39 c007 92ba 506f 2e39 1a95 1aba
0.00015198828 -0.0011141226 0.000166354 -0.00058968517

cons_embedding.1.weight f4 [64, 4]
00000000: 64a8 e03e 675f 13bf 6985 ff3e e383 44bf
00000010: 12c1 7f3f b737 fa3d 227c 753f 0140 183f
00000020: 9169 d13e f602 c23e 1394 243f 22f8 1dbe
00000030: 38a1 343e 1370 fbbd 6687 81bf 2e56 34bf
00000040: ecbb 003f e424 a23c 5209 963e 6057 63bf
00000050: 51c4 2b3f 4f0f 66be b6ee 9b3f 4923 313e
00000060: f4f6 033f 078b 82bf 8e42 2f3f 189a 773f
00000070: 4f35 8b3f 6d21 f63e 5eba 97be d970 16bf
00000080: 1f0e 37be 8e4d 803f 790d 24bf 59b2 e2bd
00000090: d0fe 8b3e ab19 3e3f 16ac a0be 6ead c6be
000000a0: a804 0c3f 3139 3cbf 8b9b 9b3f 4c72 5cbf
000000b0: 95cf 073f 88c5 cf3e 659d 173f e26d 753e
000000c0: bac1 613e 2f33 733f 4ae2 893f 320f 45bf
000000d0: 059d 5f3c 973c dd3d e1fc 003f dcd0 3ebf
000000e0: 60f5 833f 7f16 d83e 04f7 c93e c06d 5c3f
000000f0: 802a 973f d151 98bf 1b43 8cbe d563 90bf
00000100: ed83 013e b709 febe e460 ab3d d948 963f
00000110: 4303 e4be 87e3 4d3e 1be4 69bf aab1 50bf
00000120: 5ca2 72be a266 0abe cd9b 693f 1b91 6f3f
00000130: 9ac9 8d3d a30c 83bf 8e15 aebe 5e51 7abf
00000140: 58bd 8abf 8db8 dd3e 411b 7dbf 0d66 7d3f
00000150: beae cabd 5fb2 533f 6f9d 95be 6b25 42be
00000160: d539 303e bbf3 5ebf 02de 0f3f 30ed 793f
00000170: 44c9 28bf 2d9a 86bf bb37 f3be 66d6 34bf
00000180: e38c ea3e 4ef5 bc3e 66b3 1fbf b82e 8fbf
00000190: a580 643f 218c 733e 2d11 7bbf 1138 a73e
000001a0: d531 67bf d176 10be f3a6 01bf 46a3 4ebe
000001b0: 9bd7 903f 2d74 80be 40b1 173e 6ed4 2a3f
000001c0: 5406 83be f371 3e3e 6df8 823f 2f25 373f
000001d0: 916f 4a3f ad8c 59bf d38c 6d3f 80b6 4bbf
000001e0: fe35 5e3e 0ef6 afbc cca1 af3e ff24 3a3f
000001f0: 553b 71bf d880 943f dd18 94bf 0ef8 903f
00000200: ea1f a03e bfb6 9bbf c810 80be 3940 48bf
00000210: e0a8 463f 490c 973f fe61 9abe f374 42bf
00000220: 71eb 2e3f a462 14bf 56f4 303f 29e6 913c
00000230: 0a84 a13c 6320 9b3d 541a 8a3e f61a febe
00000240: 3ac0 593e 714e 9dbe 8276 253d 4893 31be
00000250: 8878 45bf a6bd febe 9882 7abf 28df 5c3f
00000260: 718b 78be fa07 86be be01 fdbe f603 84bf
00000270: e33b 8ebf c5ec d0be ee51 a0be 4937 973d
00000280: 2660 13bf 5763 67bf 51fa 6e3f b8f3 1abf
00000290: b157 63bf 6768 d53d 654f fd3e df09 30bf
000002a0: bfd1 13bf 8f56 81bf be0a 86bf 74c4 3a3f
000002b0: aa77 f7be 8f24 4cbf a0a9 2c3f 60a1 26bf
000002c0: 0441 243f ec88 b33e 539a 98bd 8c48 a33d
000002d0: 2da5 4a3f 5040 c0be e334 8c3f 98fe ab3a
000002e0: 18c8 973f 1635 0e3f 11bd 87be 1aed 93be
000002f0: 1feb 1b3f ed42 7e3f ade4 82bf c77b 833f
00000300: 24dc e3be 3195 8f3f 9a20 4a3f 933f 58bf
00000310: 18dd 4c3f ea78 63bf fa79 76be 8ee8 98bf
00000320: 66dc 4dbf a8fa 273f 8969 8a3f 5424 99bf
00000330: 049f 4e3e b9d6 7b3f 0d8f ff3e 0d13 8a3f
00000340: 9284 8c3c a8f4 85bf c0bd 623f d3c8 733f
00000350: 90fa 09be 5ca2 efbe e705 973e fba8 3ebf
00000360: 3620 643e b778 4a3e 783f 8bbf 6302 343f
00000370: 7100 303f 9546 edbe 0231 d13e eb37 ed3d
00000380: d5ec 7abe efb3 7dbe 9651 0fbf 590c c23e
00000390: df5b 34bf 5686 35bf 317f 08bf 6aee 6e3f
000003a0: 25a1 703d 7684 8cbf 49df 873f 5120 d73d
000003b0: e259 773e 02ee 063f 3b13 583f 66ee cdbe
000003c0: 077e e0bd a34f 41be 8a3c f03e 700f 83bf
000003d0: a013 8cbf 024e 763f 6071 12bf 3a8c 85be
000003e0: 0bf6 0d3f af3c 983e 8d85 39be 777a 4bbf
000003f0: e74e 40bf bd1d 153d 7491 e1bd 9468 9bbf
0.43878472 -0.5756745 0.4990647 -0.76763743 0.99903977 0.12217658 0.95892537 0.5947266
0.40900853 0.37892884 0.64288443 -0.15426686 0.17639625 -0.12277236 -1.0119445 -0.70444
0.50286746 0.019792981 0.29303986 -0.888052 0.6709643 -0.22466777 1.2182224 0.17298616
0.51548696 -1.0198678 0.6846093 0.96719503 1.0875643 0.48072377 -0.29634374 -0.5876594
-0.1787648 1.0023668 -0.6408306 -0.11069173 0.27342844 0.74257916 -0.3138129 -0.3880419
0.54694605 -0.7352477 1.2156843 -0.86111903 0.5305112 0.40580392 0.5922454 0.23967698
0.22046557 0.94999975 1.0772183 -0.7697631 0.013648276 0.10802572 0.5038586 -0.74537444
1.0309258 0.42204663 0.3944627 0.86104965 1.1809845 -1.1899968 -0.27394947 -1.1280466
0.12647982 -0.49616787 0.0836809 1.1740981 -0.44533738 0.20106326 -0.91363686 -0.81521094
-0.23694748 -0.13515714 0.9125336 0.9358079 0.06923218 -1.0238231 -0.3400082 -0.97780406
-1.0839033 0.43304864 -0.9886971 0.9898384 -0.09896611 0.8269405 -0.29221675 -0.18959586
0.17209561 -0.87090653 0.5619813 0.97627544 -0.65932107 -1.0515801 -0.47503456 -0.70639646
0.45810613 0.36905903 -0.62383115 -1.1186132 0.89258796 0.23783924 -0.98073083 0.32659963
-0.9031041 -0.14107825 -0.5064537 -0.20179471 1.1315798 -0.25088635 0.1481371 0.6673039
-0.25590765 0.18598156 1.0232064 0.7154111 0.79076487 -0.8498028 0.92793006 -0.7957535
0.21700284 -0.021479633 0.3430313 0.727127 -0.9423116 1.160182 -1.1570088 1.13257
0.31274348 -1.2165145 -0.25012803 -0.78222996 0.7760143 1.1800624 -0.30152887 -0.759597
0.68328005 -0.57963014 0.6912283 0.017809944 0.019716281 0.07574537 0.26973212 -0.49629945
0.21264735 -0.3072391 0.04039622 -0.1734134 -0.7713704 -0.49754065 -0.9785552 0.8627801
-0.24271943 -0.2617796 -0.49415392 -1.0313709 -1.1112026 -0.4080564 -0.31312507 0.07383592
-0.57568586 -0.90385956 0.933507 -0.60528135 -0.8880568 0.10420304 0.49474636 -0.6876506
-0.5774192 -1.010454 -1.0472028 0.72956014 -0.48333484 -0.79743284 0.6744633 -0.6508999
0.64161706 0.350654 -0.0745131 0.079728216 0.7915829 -0.37549067 1.095364 0.001312214
1.1857939 0.5554975 -0.26511434 -0.28891832 0.6090564 0.9932087 -1.0226036 1.0272149
-0.4450389 1.1217405 0.78955996 -0.84472007 0.8002486 -0.88856375 -0.24069968 -1.194597
-0.80414426 0.65616846 1.0813457 -1.1964211 0.20177847 0.98374516 0.49913827 1.0787064
0.017153058 -1.0465288 0.88570786 0.9522831 -0.13474488 -0.46803558 0.2949669 -0.74476594
0.22277912 0.19772612 -1.0878744 0.7031614 0.68750674 -0.46342912 0.40857702 0.11582931
-0.24504407 -0.2477567 -0.55983865 0.37900046 -0.70452684 -0.70908105 -0.5331908 0.9333254
0.05874743 -1.0977924 1.0615016 0.10504211 0.24155381 0.5270692 0.84404343 -0.40220946
-0.10961538 -0.18878035 0.46921188 -1.0239086 -1.0943489 0.9621278 -0.57204247 -0.26083547
0.55453557 0.29733798 -0.18117352 -0.7948374 -0.75120395 0.036405314 -0.11014071 -1.214129

cons_embedding.1.bias f4 [64]
00000000: 4fb2 c83e 4387 693e 9e0f b7bb 0472 a73d
00000010: f21e 89be 4a08 94bd 8f06 bcbe 3da4 68be
00000020: 7b2c e4be e852 39bd 7a27 fdbe 0794 e3be
00000030: 49e6 3ebe 190a afbe ad60 ee3d ab0c 4e3e
00000040: 1b0a 843e d55e 983e 60a1 f43d 9a1e 8fbe
00000050: 87a9 debe d2b3 6a3e 90c9 74bc b554 463e
00000060: 9cf3 7a3e f9ef 973d be04 22bd 387f e5be
00000070: c4d8 acbe fe49 823e 57d4 f9be dd76 1abe
00000080: 5988 5fbd b05a 9f3e 0767 20bd c0c4 65be
00000090: 10c9 483e 1b35 93ba 1035 52be 042f a1be
000000a0: da8f b6be ab3b 16be 43af ff3e db0f 7cbe
000000b0: dbad c73e bf9f 363e 05ff ac3d b234 9fbc
000000c0: 38b0 90be 7434 d63c 9a12 6abe 6f33 b43e
000000d0: 8276 c63e 7cfc b7be 211b 19be 7e5c 8f3e
000000e0: 88ae 19bd 8cbc f3bd b155 d8be a25e 903e
000000f0: 94b3 f13d e62a 8fbe c7ab be3e a788 1d3c
0.3919854 0.22805505 -0.0055865785 0.08176044 -0.26781422 -0.072281435 -0.36723754 -0.22718902
-0.44565186 -0.04524508 -0.4944418 -0.44448873 -0.18642534 -0.3418739 0.11639533 0.2012202
0.2578896 0.2975985 0.11944842 -0.27953035 -0.43488714 0.22920159 -0.014940634 0.1936825
0.24506992 0.07418818 -0.039555304 -0.44823623 -0.3375913 0.25447077 -0.48794815 -0.15084405
-0.05457339 0.31123877 -0.039160755 -0.22438335 0.1960795 -0.0011231037 -0.20528054 -0.31481183
-0.35656625 -0.14671199 0.49938402 -0.24615423 0.3899983 0.17834376 0.084470786 -0.019434307
-0.28259444 0.026148058 -0.22858658 0.3519549 0.3876229 -0.35934818 -0.14951755 0.28000253
-0.03751996 -0.11901197 -0.42252877 0.281972 0.1180183 -0.27962416 0.3724043 0.0096151

cons_embedding.3.weight f4 [64, 64]
00000000: 3377 8fbd 368d f33d 969f 47be a784 e73c
00000010: e6a8 e33d 66dd c4bd 6efb 81be ccde b3bd
00000020: 3517 753e 7211 103e 8d35 833d 767d 4abe
00000030: eccb 873d 9c4e f83a a4af 69be 695b 29bd
00000040: 8f21 22be 1899 e3bd 2e23 073e 4c52 7ebe
00000050: 8e7a 9a3e e631 e43d e9b7 94bd 1fb3 533e
00000060: 925a c23d c643 963e 2d5e cb3d 215f e9bd
00000070: 00c8 e7bd 48ad 993e 68ef a5bd 9a57 9c3e
00000080: 1e98 2a3e 47d8 003e df6e d8bd 0ab6 453e
00000090: 96a9 78bd 09b6 8abb 3d1c 1bbc 6f6b 053d
000000a0: 0f18 10bd 4718 31be 59ab 68be a9e6 2f3e
000000b0: b3ba 97be 162e 463e d10a dbbc 9ff6 47bc
000000c0: 595f 18bc 681d 593e 4ca8 cc3d c5b5 1bbe
000000d0: f936 873e 00c3 883d fc33 57be 1d26 e9bc
000000e0: 2b98 e9bd 1ef7 91be 75b5 4d3d a2c2 1abe
000000f0: 755c 3ebe 152e 4a3e a361 17be 53fa 42be
00000100: 7b83 80bc b685 90be cb00 36be 8a22 183e
00000110: 167f 31be 9650 6dbe f5a3 873d 8f1d cdbd
00000120: f24f 993d 72e8 4ebe 4da7 bd3c 81cc 233e
00000130: 9326 35be 1a10 cfbd b42d 933d 6b63 afbd
00000140: 3e50 293e 3874 2cbe 77be 09bd aa83 83be
00000150: a1d0 06be 9a56 5abe 0aa9 443a 2fa5 263e
00000160: 3432 97be 0415 613e 5be7 873e 4d70 3abe
00000170: 89fc 61bd 436b 89be 1ddb 123d 348c cc3d
00000180: 90bf 7d3d d89a 7e3e 56dd 5e3e d00f c6bd
00000190: 9391 77be cd79 b93d 1ef0 163d 1a5b 39bd
000001a0: 4927 c23c 9b44 93be a8c5 df3d 9ab0 103d
000001b0: dab1 5e3e 3eb0 bbbb 3eec 303d ba01 0cbe
000001c0: 4469 2a3e 5065 aabd 7dde 403e c946 443e
000001d0: 3c96 ee3d 8a57 9bbe fba0 8d3e 63d9 c13d
000001e0: 8cdd 503e 2212 173e 2552 f53d a0cb 863e
000001f0: e68d b2bc 0b28 2c3b 4a49 96be 37ff 3cbe
00000200: 90fd 3cbd 9d4e c33d 0df4 af3c a86d b2bd
00000210: b5dd 70be 38c5 683d eb4f bcbd 4041 63be
00000220: fbab a93d 70f2 31be d30a 1dbc b848 a9bc
00000230: 6d32 823d f4cc 3cbe bf78 513e 520d 70be
00000240: a971 983e 1941 883e 3005 cbbd cad7 97be
00000250: dad3 433e 4e45 92be aa4c 9dbd fbdd 023d
00000260: 31b6 41be 8ea0 9abe 92af 7c3e e5e6 38bd
00000270: 9917 6c3e 6112 f33d b701 613e 2daf 8dbe
00000280: d6af 74be c207 9d3d 331f 79be ea0d b63b
00000290: 3e9e 403d 1a40 58be 5935 30be a060 4b3e
000002a0: f17e febd 9684 093e 567f 863e db7f 8fbe
000002b0: 0b61 9cbe ec62 29be cc7c 9bbe 1ae8 3fbe
000002c0: cff8 c53d 463f 8dbe afb7 203e 1a43 623e
000002d0: f609 7b3e 60e9 713d 32a8 b7bb 41e1 773e
000002e0: c78a 2ebe d856 993e bdd0 8cbd a5dd 4abd
000002f0: 19dc 04be 55c7 59be 85c1 963e 44ec a1bd
00000300: c67f d3bc d341 8abe 181a 763e f630 8e3e
00000310: 50b5 303d 3f6e 94bc 7f1b 883d 6b22 ae3d
00000320: 2f81 d1bd e13b 913e 96ac 24be 0aee 5a3e
00000330: 0417 36be 2626 b2bd a8ca c93b f500 4abe
00000340: 2424 a33b 15c1 973d 1625 27be 9191 153d
00000350: 0d40 46be eec4 503e 5a8b 84be 0d18 0f3e
00000360: 4bf4 86be 4720 cd3d 0682 4ebe 8f6d 09bd
00000370: 6558 4c3e e675 173e 8af6 8c3e c183 843d
00000380: 86db 833e 9d4a 62be 419c b83d b195 933e
00000390: 1ce4 e5bd ae3c 80be 55f9 18bd ce86 37be
000003a0: 523d 69be 9848 8b3e 7ca1 8c3e e71f 143e
000003b0: bd42 293e e305 973e 71a9 933e f2b6 b1bc
000003c0: b045 81bd d970 6f3d 8dfd 77bd 39d9 0cbd
000003d0: 672f c7bd aba1 cabd 7ab9 6fbe 77bd 553c
000003e0: 0211 9a3e 204d 293d 4d35 173e f8ad 0e3e
000003f0: ee5f 413e 6da4 c6bd e071 883e 5dd7 22be
-0.07005157 0.11892168 -0.19494471 0.028261496 0.11116199 -0.09612541 -0.25387138 -0.087827295
0.23934634 0.14069155 0.064066984 -0.19774422 0.06630692 0.0018944326 -0.22820908 -0.04134694
-0.15833114 -0.11113185 0.13197014 -0.24836081 0.30171627 0.1114233 -0.072616406 0.20673798
0.09489931 0.29348582 0.09930072 -0.113950975 -0.11317444 0.30015016 -0.08102304 0.30535585
0.1665959 0.12582503 -0.10568022 0.19307724 -0.060708605 -0.004233126 -0.009467182 0.03257316
-0.035179194 -0.17294417 -0.22721614 0.17177834 -0.29634628 0.19353518 -0.026738556 -0.012204795
-0.009300076 0.21202624 0.099930376 -0.15206058 0.26409128 0.06677818 -0.21015924 -0.028460557
-0.11405977 -0.28508848 0.05022188 -0.15113309 -0.18589957 0.19744141 -0.14783339 -0.19040804
-0.015687695 -0.28227013 -0.1777374 0.14856926 -0.17333636 -0.23175272 0.06623069 -0.100154035
0.074859515 -0.20205858 0.023151064 0.15995981 -0.17690496 -0.10110493 0.071864516 -0.08563884
0.16534516 -0.16841209 -0.033628907 -0.2568639 -0.13165523 -0.21322098 0.00075019954 0.1627395
-0.2953049 0.21980673 0.26543698 -0.18206902 -0.055172477 -0.26839647 0.035853494 0.09987679
0.061950266 0.24863756 0.2176412 -0.09670985 -0.24176626 0.09056435 0.036850087 -0.045252897
0.023700373 -0.2876328 0.10926372 0.03532467 0.21747532 -0.005727797 0.043194048 -0.13672534
0.16641718 -0.08320105 0.18834873 0.19167627 0.11649749 -0.30340225 0.2766188 0.09465291
0.20397013 0.14753011 0.119785585 0.2632723 -0.021796178 0.0026268985 -0.2935279 -0.18456732
-0.046140254 0.09536479 0.021478677 -0.087123215 -0.23522075 0.056828707 -0.09194931 -0.2219286
0.08284756 -0.17377639 -0.0095851 -0.020664558 0.06357274 -0.18437558 0.20456217 -0.23442581
0.29774216 0.26612166 -0.09913099 -0.2965682 0.19123784 -0.285685 -0.07680638 0.03194998
-0.18917157 -0.30200619 0.2467635 -0.045142073 0.23055877 0.1186874 0.2197331 -0.2767271
-0.23895201 0.07667495 -0.24328308 0.005555858 0.04702591 -0.21118203 -0.1720785 0.19861078
-0.12426556 0.13429484 0.26269025 -0.28027233 -0.30542788 -0.16541642 -0.3036865 -0.18740883
0.09666597 -0.27587336 0.1569507 0.2209591 0.24515519 0.059060454 -0.0056047672 0.24207021
-0.17045127 0.2994907 -0.06875751 -0.049527783 -0.12974586 -0.21267445 0.2944452 -0.07906392
-0.025817763 -0.27003345 0.24033391 0.2777173 0.043141663 -0.018118976 0.066458695 0.085026585
-0.10229718 0.28365996 -0.16081461 0.21379867 -0.17782217 -0.086986825 0.0061581917 -0.19726928
0.0049786735 0.07409874 -0.16322741 0.036515776 -0.19360371 0.20387623 -0.25887567 0.13974018
-0.26358256 0.10015922 -0.20166788 -0.03355175 0.19955595 0.14791068 0.27531844 0.064704426
0.2575342 -0.22098775 0.09014178 0.28825143 -0.11225149 -0.25046295 -0.037347157 -0.17922518
-0.22777298 0.27203822 0.27466953 0.14465295 0.16529365 0.2949668 0.2884021 -0.02169368
-0.0631212 0.05845723 -0.06054454 -0.034386847 -0.09725838 -0.09894117 -0.23410597 0.01304566
0.300911 0.041333318 0.14766426 0.13933551 0.1888425 -0.096993305 0.2664938 -0.15902467

cons_embedding.3.bias f4 [64]
00000000: 9c52 1dbd 9684 adbd f2c6 a33c 815c 29bd
00000010: 9260 f8bd e325 5b3d d122 afbc 7e0e e3bd
00000020: 32ed bcbd dbbd 26bd 4f02 84bd 9ed9 cd3c
00000030: 6e08 5e3d 107b 86ba 244a 9c3d 5c4f f8bd
00000040: 760a 09bd f802 4d3c 2c85 ecbd a0f6 44bc
00000050: 780b 733d a61d 94bb b750 9dbd 5aae c7bd
00000060: b599 2cbd 3fc4 76bc 212e d43d 3727 d03d
00000070: 4f88 473d e92a ebbd e6fe 873b 2f1e a6bd
00000080: 3e82 b43d 8dd7 a1bd 7afa 113d 977b 27bc
00000090: 4814 8abd cad0 033c ee66 f63d 2796 8dbd
000000a0: 3c81 bc3d 0f38 2d3b 3632 a83d 6ea7 0cbc
000000b0: d58d 8c3c 7690 abbd 3e4d 653d d373 f43c
000000c0: 25c1 963d 1b8d c13c 41b6 8bbd 078b c43d
000000d0: b7ba 68bd 5b0b 363c 4cca ebb7 f1df b7bd
000000e0: 1da8 6cbd 57cc d0bd c441 dc3d dacb b4bd
000000f0: 6f52 f3bd 4870 eebd bd51 6dbc 1378 f1bd
-0.03840886 -0.084725544 0.019992325 -0.041347984 -0.12127794 0.05350293 -0.021378906 -0.110867485
-0.09224929 -0.040708404 -0.06445753 0.025128182 0.054207258 -0.0010260064 0.07631329 -0.121245116
-0.033457242 0.012512915 -0.11548838 -0.012021691 0.05933711 -0.004520136 -0.07681411 -0.09750052
-0.042138774 -0.015061437 0.10360361 0.1016373 0.04871398 -0.11482794 0.0041502593 -0.08111226
0.08813904 -0.07902441 0.035639264 -0.010222337 -0.067421496 0.008045385 0.12031351 -0.06913405
0.09204337 0.0026431119 0.08212702 -0.00858484 0.017157475 -0.08377163 0.055981867 0.029840386
0.07361058 0.023626855 -0.068218715 0.0959683 -0.05681869 0.011111106 -2.8108385e-05 -0.0897826
-0.057777513 -0.10195225 0.10754731 -0.08827944 -0.11880957 -0.1164251 -0.01448482 -0.117904805

var_embedding.0.weight f4 [7]
00000000: aa08 803f 8c05 803f 6a77 7f3f e519 803f
00000010: 14a7 7f3f 1b08 803f 769b 7f3f
1.0002644 1.0001693 0.99791586 1.0007902 0.99864316 1.0002474 0.9984659

var_embedding.0.bias f4 [7]
00000000: 287d 8fb8 d032 24b9 1ba1 0abb 3913 2bba
00000010: 3d7e 683a ce35 52b9 ef03 423a
-6.8420835e-05 -0.00015659188 -0.0021153155 -0.0006525997 0.00088689086 -0.00020047204 0.0007401099

var_embedding.1.weight f4 [64, 7]
00000000: 5a38 21bf 9ea9 843d 7ebb 973e 491a cd3e
00000010: 4916 13bf b72e 4dbe 5e82 cebe 9edc bdbe
00000020: 15a8 1e3f 9587 103c 9928 913c 08a9 2ebf
00000030: 6ea6 3fbf 45ca 9dbe ffb7 0fbf 724c f9be
00000040: 2d55 68bf b2d0 52be 7f99 5d3f ddcc ffbe
00000050: 29e7 94be 61f2 4fbd d3b4 3cbe 261e 14bf
00000060: f195 693e 4fb7 44bf 402d cfbc 2132 a7be
00000070: 48a3 523d 5e98 56bf 8831 083f badc 533c
00000080: 50ea 52bf a302 68bc f02d 9ebe a8d0 63bf
00000090: 4dfc 033f fd11 35bf 0090 54bf c090 143d
000000a0: 95d0 563e 349e a0be f0f6 b43e 9cf6 5bbe
000000b0: 6079 8b3e 7538 6c3f e87d c0be 0da4 023e
000000c0: 4b2d 123f a5b5 6abd 2cef 35bf cf1b 92be
000000d0: 803c 093f c0d2 223f 0f0f 3d3e f461 c03e
000000e0: 3ee4 3d3f 949c 0a3f f005 8c3e 7c5c f1bd
000000f0: 08c0 b53e 8f26 bf3e 912b 1abe e62c 12bf
00000100: 3cbd 083f a4ab 36be 36e2 1e3f e308 99be
00000110: 8c00 f4be de53 4dbf cbb5 9abb d56d aa3d
00000120: 707b 33bf 69a2 713e c740 9d3e feb2 9c3d
00000130: 0f14 ea3e de27 19be 829e 073e e2d3 3a3f
00000140: 32c2 343f d18f 56bf 0dd2 00bf 8950 323c
00000150: 4316 633f 5af2 133f fb21 c9bd 4b9d 933b
00000160: 01de 66bf d1e8 91be e41c f53e 4ee9 aebd
00000170: 2d21 aebe 9f6c 0abf 8603 26bf 2c29 8e3e
00000180: 083a f5be 90b3 c0be afa2 29bf 134c 0f3f
00000190: 3e12 6abf b3af cfbe 5aca 3a3f 4a84 1ebf
000001a0: 7e83 67bf f84d 78be ddde 343f 731a 433f
000001b0: b9af a5be 1a7d 2a3f 6c4e 3dbf 87e1 913d
000001c0: c2a9 2dbf bc4e 493f 6685 34bf d530 443e
000001d0: d199 ecbe 5adf abbd af72 893e 638d a5bd
000001e0: bc60 763e 65e7 453e 8aa6 1bbf 2508 1ebf
000001f0: e979 6f3e b826 21be 1a91 c7be e616 023f
00000200: 6093 29be b7d4 ac3e 0f1e 0cbf dd26 23bf
00000210: 9f3c e03e 8823 8abe 9717 3e3f d36e c1bc
00000220: a11c 41bf 4814 3abf f478 533f c5a0 83be
00000230: 7fc5 183f 1c59 15bf 0a65 333f b245 503f
00000240: de02 10be aeb4 0abf 67e5 cabe afb3 44bf
00000250: b80a 24bf 3425 92be e579 a6bd 63f9 5f3f
00000260: ff25 ecbd 45cb 10bf fb55 493f 01ba 293e
00000270: 8155 123e 5bea 46bf 92da 493d 449f 5e3d
00000280: ed6d ca3e 8889 0cbf ef39 38bf 8d4c 94be
00000290: 5b6c cabe 1d15 acbe 5e35 f83e cae8 1b3f
000002a0: 9891 9a3b afeb bd3e 9255 33be b511 c83e
000002b0: 40c3 acbe e457 9d3d 955a 493e 4238 853e
000002c0: 9765 68bf bf37 633f dbec 88be 87eb 31bf
000002d0: 8c1c 55bd a5e1 c53e 9f1b 643f d2d8 64bf
000002e0: 3330 9abe e8fd ab3d b507 513f fc4d d23e
000002f0: 893f 9abd b376 b83d 9ed8 463f 0e01 3bbf
00000300: 4b3c 6e3e 1231 53bf 368f 4a3f 0329 0a3f
00000310: db7f 063f d86d ddbe 9724 243e 0363 4f3e
00000320: c653 233f 143c 48be a4f7 593f fd73 49bf
00000330: 272e 5c3f e1e6 5dbf 8b03 de3e e6b7 d33e
00000340: bfde 483f 99b4 833b dca9 2c3f c34f 7bbc
00000350: 49f9 283f a743 373f ff41 073f 6fd8 5cbf
00000360: c062 8d3e 03d3 233f b08b 9e3e f2a5 2dbf
00000370: 5ec5 33bf 3419 4a3f 9ac2 a2bd 9291 533f
00000380: f934 d73e 8561 3d3f a831 bfbe b880 483f
00000390: c33e 4a3f 0893 fcbe e684 433f 82f6 b9be
000003a0: ce2b e3be 4d88 afbe 521b 793d 972b ac3e
000003b0: 9072 c4be 0a2e 8b3e 7ef9 26be d72c 5fbf
000003c0: 6709 f5bd 4be4 a13e ef13 2ebf 9122 4f3f
000003d0: 53f3 d1be b322 8a3d 1712 083e 0a31 4b3f
000003e0: b85c edbe e130 273f 9b63 3dbe 4cc1 2ebb
000003f0: 6794 49be 42e3 ba3e f898 3b3e fc36 bcbe
-0.6297661 0.064776644 0.29635233 0.40059116 -0.5745588 -0.20037352 -0.40333837 -0.3708238
0.6197522 0.008821388 0.017719554 -0.6822667 -0.74863327 -0.30818382 -0.5614013 -0.48691136
-0.9075497 -0.20587423 0.8656234 -0.49960986 -0.2908261 -0.05076826 -0.18428354 -0.578585
0.22811104 -0.76842207 -0.025290132 -0.32655433 0.05142525 -0.83826244 0.5320058 0.012931043
-0.8238878 -0.014160785 -0.30894423 -0.8899026 0.51556855 -0.7073057 -0.83032227 0.036270857
0.20978005 -0.313707 0.35344648 -0.21480793 0.2724104 0.92273647 -0.3759606 0.12757893
0.5710036 -0.057302136 -0.7106807 -0.2853684 0.5360794 0.6360283 0.18462776 0.37574732
0.74176395 0.5414517 0.2734828 -0.11785218 0.3549807 0.37334105 -0.15055682 -0.5709976
0.5341375 -0.17838913 0.6206392 -0.29889593 -0.47656667 -0.80206096 -0.0047213784 0.0832173
-0.70110226 0.23597111 0.30713484 0.076513276 0.45718428 -0.14956614 0.1324406 0.7297956
0.7060882 -0.83813196 -0.5032051 0.010883459 0.88705844 0.57791674 -0.098209344 0.004504835
-0.901825 -0.28497937 0.47873604 -0.08540593 -0.34009686 -0.5407199 -0.64849126 0.27765787
-0.47895837 -0.37636995 -0.6626386 0.55975455 -0.91434085 -0.40563735 0.72965014 -0.6192061
-0.90435016 -0.24248493 0.7065256 0.76212233 -0.32360628 0.6659714 -0.7394779 0.07123094
-0.67837155 0.78635764 -0.7051605 0.19159253 -0.46211103 -0.0839221 0.2684531 -0.08083608
0.24060339 0.19326551 -0.60800993 -0.6173118 0.23386349 -0.15737426 -0.3897789 0.5081619
-0.16560125 0.3375604 -0.54733366 -0.63731176 0.4379625 -0.26980233 0.74254745 -0.023612415
-0.7543431 -0.72687197 0.82606435 -0.25708595 0.59676355 -0.58339095 0.7007605 0.81356347
-0.14063594 -0.54181945 -0.39628145 -0.76836675 -0.64078856 -0.2854401 -0.08128718 0.8748991
-0.11530685 -0.56560165 0.7864682 0.16574861 0.1429043 -0.7770135 0.04928071 0.054351106
0.39536992 -0.54897356 -0.719634 -0.28964654 -0.39535794 -0.33609858 0.48478216 0.6090208
0.004717063 0.37093875 -0.17513111 0.3907601 -0.33742714 0.076827794 0.1966346 0.26019484
-0.90780014 0.88756937 -0.26743206 -0.6950001 -0.052029178 0.38648716 0.89104646 -0.8939334
-0.30114898 0.08398038 0.81652385 0.41075122 -0.075316496 0.09007015 0.7767428 -0.73048484
0.23265187 -0.8249675 0.7912477 0.5396883 0.5253884 -0.43247867 0.16029583 0.20252614
0.63799703 -0.19554168 0.85143495 -0.7869261 0.8600792 -0.8668042 0.43362078 0.4135124
0.78464884 0.0040193317 0.67446685 -0.015338841 0.6600538 0.71587604 0.5283508 -0.8626775
0.27614403 0.63993853 0.30965948 -0.6783134 -0.70223033 0.78944707 -0.079472736 0.82644
0.42032602 0.7397693 -0.37342572 0.7832141 0.79002017 -0.49330926 0.7637466 -0.36320883
-0.44369358 -0.34283677 0.06081707 0.33627006 -0.38368654 0.27183563 -0.16306111 -0.87177795
-0.11964684 0.31619486 -0.67999166 0.8091212 -0.41005954 0.067448996 0.1328815 0.793717
-0.463598 0.6530896 -0.18495028 -0.0026665507 -0.19685517 0.3650151 0.18320072 -0.367607

var_embedding.1.bias f4 [64]
00000000: 76c5 87be 64dd a7be e575 57be 78b9 8fbe
00000010: 62ad acbe 1a9f d0bd 94e9 1e3e 00d6 acbd
00000020: 1fc4 44bd b4e7 8ebe 595e a3be d27b 81be
00000030: c2d2 203e 8005 f3bd 5203 00bb 46cb eebc
00000040: 9e3e bc3e 988e 2b3e 1431 20bd 0630 56be
00000050: 68af acbe 7b63 1fbd a0c9 a43e bfc5 9a3d
00000060: 9cf5 783e b061 963e 80b9 2fbe 30be 5a3d
00000070: b495 6dbe a427 8ebe 7773 203e fde8 873d
00000080: 6594 33be 287b 6bbe 7e64 523e 4e06 73be
00000090: e0f3 a13e a02c afbd 52e7 ae3e d189 42be
000000a0: df36 8e3d b533 b43e 1e01 e93d a8aa 9ebe
000000b0: d48e 93be 262f b93e ecff b03e a13c 5e3e
000000c0: b608 71be d02f 283e d1c0 19be e6ba b3be
000000d0: 520d 5f3d b326 fc3d 4cc3 46be 92d3 a7be
000000e0: d898 1abe 719d a1be d7bd 503e bdc9 9ebd
000000f0: c77c 6a3e 53eb 99bc 6827 81bd 7d0b 20be
-0.26517838 -0.32786095 -0.21041067 -0.2807119 -0.3372603 -0.10186596 0.1551879 -0.08439255
-0.0480386 -0.2791115 -0.3190792 -0.2528978 0.15705398 -0.118662834 -0.001953323 -0.029149663
0.36766523 0.16753614 -0.039109305 -0.20916757 -0.33727574 -0.03891323 0.32185078 0.07557248
0.24312443 0.29371405 -0.17160606 0.053404033 -0.23201638 -0.27764618 0.15669046 0.06636236
-0.17537077 -0.22996199 0.20546147 -0.23732874 0.31631374 -0.085534334 0.34160858 -0.18997885
0.069440596 0.351957 0.11377166 -0.30989575 -0.28819907 0.36168784 0.34570253 0.21702816
-0.23538479 0.16424489 -0.1501496 -0.3510353 0.054456063 0.12312069 -0.19410437 -0.32778603
-0.15097368 -0.3156543 0.20384918 -0.07753322 0.22899161 -0.01878897 -0.06306344 -0.15629382

var_embedding.3.weight f4 [64, 64]
00000000: c5bc d63a 0cc9 7c3e c6e8 103e 45cf 013e
00000010: 4556 6e3e a86a 33be 54ee 643e d719 953d
00000020: daf0 443e d59c 89be 646e 72be d42e 15be
00000030: 608a d2bd dd4e d1bb 28fb 96bd 6182 0e3e
00000040: fdcf 05be 7aa5 16bd 35f3 df3b 3748 f93d
00000050: e807 d9bd ea07 8bbe 8aee 473e 4d9f 4c3e
00000060: a9ba 0bbe 6daf 26be e23e 8b3e 49e3 50be
00000070: 9a90 8b3e 0509 97be fbc9 95be bffe 29be
00000080: d046 1cbe 086f 053e 2ff2 a93d b477 4fbd
00000090: 4922 dabd 8c87 2bbe da4b 013e d288 ea3d
000000a0: 86fc 70be eb07 bd3b 903a 58bd 0c62 98be
000000b0: efc2 e0bc 5ded adbc 476f 53be 9013 b23d
000000c0: 6bea cebc 70f9 0d3e 3a09 873e e89d 2b3d
000000d0: d6bb 90bc b8b3 46be 5101 57bd c771 7d3e
000000e0: afcc 35bd 6bab a73d ebfb 943e 1c8a c0bc
000000f0: b83a 6abe d462 493c a97f 083d bc5a 3fbe
00000100: 3754 ac3d 7881 153e 3d83 79bd 4554 863a
00000110: b5eb 2dbd 90ae 21bc 3ae6 0ebd d3b6 40be
00000120: 1abc b1bd 239a f6bb f299 833e 45f2 3e3e
00000130: 1667 1fbe 3380 303d 88b1 90be 102f 913e
00000140: 39ac 133e 4d86 e13d 3d51 5ebe 819d 6c3d
00000150: e3f9 5abd 9eb5 02bd 2ff5 aebd bddb a9bd
00000160: eee2 f0ba a321 633e 2293 17be d59e 24be
00000170: dd7c 68bd 5635 8abe 8e1c 2fbe 8e9d b23a
00000180: 7c39 0c3d 895e 193d dfd9 743d 76c8 363e
00000190: 0971 383e 686c 5abe 9cd7 8fbe 338a 3fbe
000001a0: 8f05 573c b86e 293e a182 2a3e f1ab d0bd
000001b0: e65b 98be 3215 283e 0a4f fbba 3384 80be
000001c0: 9312 a23d a1a8 8abe d597 65be df4c 713e
000001d0: ebf8 6d3e 6f93 923e 60cf 123e b1d1 953e
000001e0: af27 3c3e 781d 2abd 3973 01be b69c 9cbd
000001f0: 1fb9 923e baec c8bd bbb0 8d3e 35d6 b33d
00000200: 91e9 44bd bb85 e6bd 9111 633d fff8 68be
00000210: af26 9e3d 491a 80be 8979 8dbb 4dcd 4e3e
00000220: 3045 88bc 06cb 66be b7cb 93be 2fea 993e
00000230: dc13 bb3d 66d1 21be 82ce 753e 6658 d53d
00000240: 5cd4 6cbd 0efe b9bd d258 40be 05b8 71bd
00000250: 4e1e 04bd cc5f 76be 0362 8d3e c57f 8b3e
00000260: e978 493c e35d 3c3d de39 183e 1156 563d
00000270: f4bb 89be 6920 233e c746 1a3e 089e 2cbe
00000280: e135 4dbd e0fb eabd ab51 a7bd 2106 093e
00000290: b220 e4bd 2258 cbbd 8101 64be 6be6 953e
000002a0: d5ee 91be 0522 783e 77a9 d13d 6fb6 913e
000002b0: 86a2 9bbe 9188 3a3e 035c 4f3e 410e 55be
000002c0: 7729 60be e3c9 6ebd cbfa 8fbe 05d2 7abe
000002d0: 2151 333e b108 603e 6c85 17bd a0d2 18be
000002e0: 45f8 5bbd 4368 d0bd b070 183e f9c5 cabc
000002f0: 30d8 5c3e 41cb 88be d100 a5bd 3137 b13d
00000300: 0bf5 503e cf09 51bc f334 373e 6518 16be
00000310: 5cab 73be 829e 48be 5921 db3d b866 06be
00000320: 56c2 5f3e 0633 8f3c cc8f 403e ec2a 8a3e
00000330: 1252 0a3e 8a82 8bbe bde5 68bd ff0a 79be
00000340: b2f6 a1bd 1101 8dbe 20bc 70bd 6977 5abe
00000350: c6c4 1f3e b8c3 03be bb8f 8f3e 6587 dfbd
00000360: 86e9 51be 581b 31bd 9371 0d3e 05c4 0abd
00000370: 055c 7b3e fa95 9c3e a8dd 7bbe cf9d 6b3e
00000380: b9c4 953e ce22 21bd fe62 b53d 03b6 023d
00000390: 918e e5bc 789f 793d 2660 663c 7cf4 f2bd
000003a0: fd68 7f3d fc97 1bbe 56bb 28be cd5e 84be
000003b0: 19db 50be 5644 4bbd 2cae 013e c1dd e6bc
000003c0: 24fc 66bd 831d e03d 3263 49be 1763 67bc
000003d0: 5379 8f3e 116c 95be 448b 38be 8d47 113e
000003e0: a8d4 7fbe 0855 f93d 7f07 943e 0edd 0b3e
000003f0: 03d2 e0ba f3a5 85bd 62d3 86be bdb1 493d
0.0016383162 0.24686068 0.14151296 0.12676723 0.23275097 -0.17521155 0.2235654 0.07280319
0.19232503 -0.26877466 -0.23674923 -0.14568645 -0.10280299 -0.006387575 -0.07372123 0.13916923
-0.13067622 -0.036778904 0.0068344125 0.12171977 -0.10597211 -0.27154475 0.19524589 0.19982643
-0.13645424 -0.16277857 0.27196413 -0.20399202 0.2725876 -0.2949907 -0.2925566 -0.16601084
-0.15261388 0.13030636 0.08298146 -0.050651267 -0.106510706 -0.16750926 0.12626591 0.11451878
-0.2353383 0.005768766 -0.052790225 -0.29762304 -0.027436702 -0.021231348 -0.20647918 0.086951375
-0.025258264 0.13864684 0.26374227 0.041898638 -0.017667692 -0.19404495 -0.05249149 0.24750434
-0.044384655 0.08186992 0.29098448 -0.023503356 -0.22873962 0.012291629 0.03332487 -0.18686956
0.084145 0.1460017 -0.060916174 0.0010248503 -0.042461116 -0.009868279 -0.03488753 -0.18819742
-0.08678456 -0.0075256987 0.25703388 0.18647106 -0.15566668 0.04309101 -0.28260446 0.28356218
0.14421166 0.11011944 -0.21710677 0.057767395 -0.053460967 -0.031911485 -0.08542859 -0.08293865
-0.0018378177 0.221808 -0.1480222 -0.16076215 -0.056759704 -0.26993817 -0.17100736 0.0013627277
0.03423451 0.03744367 0.05977809 0.17849907 0.1801187 -0.21330416 -0.28094184 -0.18705063
0.013123884 0.16546142 0.16651393 -0.10189045 -0.29757613 0.16414335 -0.0019173336 -0.2510086
0.07913699 -0.2708178 -0.224212 0.2356448 0.23239486 0.28628108 0.1433692 0.29261544
0.18374513 -0.04153201 -0.1264161 -0.07647078 0.2865686 -0.09810777 0.27673897 0.08781091
-0.04807431 -0.11255976 0.055436675 -0.22751234 0.07722222 -0.25020054 -0.0043174666 0.20195504
-0.016634554 -0.22538385 -0.2886636 0.3006148 0.09134647 -0.15802535 0.24004558 0.10417251
-0.05781971 -0.0908166 -0.18783882 -0.059013385 -0.032255463 -0.24059981 0.2761384 0.27245918
0.012296894 0.045987975 0.14865825 0.052328173 -0.2690121 0.15930332 0.15066062 -0.16857159
-0.05010021 -0.114738226 -0.08169874 0.13381244 -0.11139049 -0.099289194 -0.22266199 0.29277357
-0.28502527 0.24231727 0.10237401 0.28459498 -0.30397433 0.18216158 0.20249943 -0.20806219
-0.21890818 -0.058298003 -0.28121027 -0.24494179 0.17511417 0.21878316 -0.036992475 -0.14924097
-0.053703565 -0.10176136 0.14886737 -0.024752604 0.21566844 -0.2671757 -0.08056796 0.08653105
0.20405976 -0.012758686 0.17891292 -0.14657743 -0.23795837 -0.19591716 0.1069972 -0.13125122
0.21851477 0.017480385 0.18804854 0.26985872 0.1350787 -0.2724803 -0.05685972 -0.24320601
-0.079083815 -0.27539876 -0.05877316 -0.21334614 0.15602407 -0.1286763 0.28039345 -0.10914496
-0.20499238 -0.043238968 0.13812856 -0.033878345 0.24546821 0.30583173 -0.24596274 0.23009418
0.2925165 -0.039339833 0.08856772 0.03191186 -0.028022083 0.060943097 0.0140610095 -0.11863038
0.062355984 -0.15194696 -0.16477713 -0.25853577 -0.20396079 -0.049625717 0.12664098 -0.028181912
-0.056392804 0.10943129 -0.19666746 -0.014122746 0.2802225 -0.2918401 -0.18021876 0.1418745
-0.24983466 0.121744215 0.2891197 0.13658544 -0.0017152432 -0.06525793 -0.26333147 0.04924177

var_embedding.3.bias f4 [64]
00000000: 544e 5dbc d2bd 883d e6ae b73d 6a40 dcbd
00000010: a651 d1bd 1340 c4ba d51f b4bd 94fc 863b
00000020: 96e6 6cbb 5412 1abd 5a35 5cbd d04f e43c
00000030: 8313 a0bd fb9c bcbd e77d a2bd b520 9bbd
00000040: 8059 033d 6474 f2bb bc6d bbbd 3893 22bd
00000050: 9b62 b4bd c251 b73d fb96 ffbd 23f0 d73d
00000060: 04fb 063d 4854 7cbd 80e4 0bbd 5b5b fabc
00000070: caa5 bcbd 0cd8 e13d 08ef bb3c dd99 bc3d
00000080: c7e7 a73d 55c5 db3d bf62 7f3d e990 563d
00000090: 64c6 373d aa86 a73d 7fd7 a73b de67 6fbd
000000a0: 7240 a3bd 8d42 9abd 110a 33bd a55f 36bb
000000b0: 5919 b83d f966 b2bd defe f43d 555c 92bd
000000c0: 5b11 c4bd e3c8 c13c 34dd a83d c343 ab3d
000000d0: 9440 1ebd 5956 ff3d 6aaa c3bc 901b dc3b
000000e0: 2a79 99bd 4c65 9d3c e72b 4e3c 8085 8b3d
000000f0: f38c 9f3d d54a ecbd 6d15 693c c3e1 e3bd
-0.013507444 0.0667683 0.08968906 -0.107544735 -0.10220651 -0.0014972709 -0.08795134 0.004119465
-0.0036148182 -0.037615135 -0.053761818 0.027870089 -0.078162216 -0.09209629 -0.0793417 -0.07574598
0.032067776 -0.0073991287 -0.091517895 -0.03969118 -0.0880787 0.08951141 -0.12479969 0.10543849
0.03295423 -0.061603814 -0.03415346 -0.03056114 -0.09211309 0.11027536 0.022941127 0.092090346
0.08198505 0.107309975 0.06235003 0.05238429 0.044866934 0.08179982 0.0051221247 -0.058448665
-0.07971276 -0.07532225 -0.043710772 -0.0027828005 0.0898921 -0.08711047 0.119626746 -0.07146517
-0.09573623 0.02365536 0.08245316 0.08362534 -0.038635805 0.124676414 -0.02388497 0.006717153
-0.07493813 0.019213341 0.012583709 0.068125725 0.07790556 -0.115377106 0.0142263 -0.11127045

conv_v_to_c.feature_module_left.0.weight f4 [64, 64]
00000000: 07c9 313d db4e 92be 36eb 063e 68b8 ea3d
00000010: 6a5c 993e 654f 66be 35fd 723e 8c59 9bbe
00000020: b6db 57bd 3490 703e 0922 99be 5b99 72be
00000030: c96c 883e 8ddc 0dbb 082f 14bd b3ac 8e3b
00000040: aff1 92be e0e8 303e ed95 cfbd aeb9 6dbe
00000050: 9409 b93d b6ea 3ebe 0e04 12be e253 2dbe
00000060: dc32 393c f450 763e b4cc 4ebe 9ab2 a83d
00000070: 5987 f63d 4e73 743e 5bb9 2abe 0d4e 663e
00000080: 87fc 8cbe aefd 603e ca63 2bbe 8981 533e
00000090: 4697 293e 9ed2 88be ef49 2e3d 2ce2 943e
000000a0: 7ccf 643d 65c0 cbbb d8e2 523e 3111 4dbe
000000b0: 07ea 2dbe 1f2e 01bd ad69 b2bd 29f6 6bbc
000000c0: 7ab7 dc3d ae4b bcbc 6b1d 963e 9a17 fc3c
000000d0: 160d a03d b2d0 803e 3788 37be dbcb 8e3e
000000e0: fa9e 273d da9c 72be 7a22 893d a0f6 39be
000000f0: e49c 34be b734 5b3e 0ceb f6bd a1f5 893e
00000100: 8527 fe3d 25fa a63d 986e 893d 9ffb 153e
00000110: 0b6f 463d 6a47 64be bd8e 0c3e 8816 2d3e
00000120: c36e 55be ce2b 5b3e a0ec 0f3e db95 03be
00000130: 8585 0cbe 7a42 98be 609f 8c3e c1a9 b9bd
00000140: 8262 5e3e 472a 08be 47b7 02be b49c 293e
00000150: 22cc 943d eaa1 2d3d 80b3 1cbe 2959 69be
00000160: 24e4 c1bd 8d4e 033e 307f bd3d f821 463e
00000170: 46ae 06be d7ca 4e3c 76c3 c0bd 08a8 69be
00000180: 2b4d b83d 5bfd 19bd 1b18 c3bc 3334 513e
00000190: 0dbd 753e 8e73 4b3e caf6 7ebe ce57 77be
000001a0: e945 833e 8aca 6dbe bc20 68be 8814 563c
000001b0: e233 8dbd 8bb7 363e afb8 85be 44d2 583e
000001c0: 15e6 debd 5a21 96be 00db 75be a907 083e
000001d0: dac5 8fbd 5e28 8d3e 4d55 5dbe 3217 6d3e
000001e0: 2434 57bd bb2e 83be 3075 a43d 7155 f1bd
000001f0: f5a3 443d c859 c7bd c7bf c63d 1b6a 5e3e
00000200: 1517 20be 0b77 813e fd90 5b3e ae1e 533e
00000210: e47b 1cbe 8b7d 9d3d a83e ac3d 9018 c4bb
00000220: af2d 203e 99f1 943e 9bfe 4a3e afa9 423d
00000230: 987a e53d ddf1 0bbd 7200 65bd 31e7 2d3e
00000240: 10d4 97bd cb9a 64be 4ad0 5b3e a013 903e
00000250: 0864 0d3d ee1a b7bc 2e60 bcbd 0aff 24be
00000260: 0b10 90be c00d 4ebe e3e9 45be 2d97 c7bb
00000270: 2825 9bbe ae32 86be 78e5 773c b851 7d3e
00000280: 46f1 8d3d b026 0c3e 9caf 06be 4e34 6b3d
00000290: 3ac0 5a3d a0cb 273e f39e e53c e098 773e
000002a0: fadd 743e 6fb7 983d 535c 68be ae9e 893e
000002b0: 95e4 bebc 6f29 323e 3492 8cbd 63a9 4ebe
000002c0: fbef 44be 1a20 87be 36f8 94bd 86e8 4b3b
000002d0: 86d6 47bd f8a3 423e 310a 5f3e b3a0 3ebe
000002e0: 8dfd 053e 2bac 2dbe 7bfb f3bc d977 743e
000002f0: 5c9a 873c 24ce 8fbe c159 273e a164 ed3c
00000300: a662 c83d 8998 54be 9b67 44be 7fa3 663e
00000310: ab10 893e f1dc 133e b88c 5f3e c422 6a3e
00000320: 6038 393e a917 bb3c 6a31 55be 0b81 243e
00000330: 69dc 233e 49d9 65be 6681 973e a94d 5fbe
00000340: 154b 34bd 35b8 3e3e 5038 96be e065 793e
00000350: 9335 7c3e 39a0 753d 4986 353e 4591 57bd
00000360: 8c1e 92be a849 38be 0a36 233e 32d6 883e
00000370: eadf 063e 800b ecbc 33f8 2a3e 6326 803d
00000380: 5be8 0ebd e8ac 2fbe 60d2 873e 0497 17be
00000390: 8985 453e f6f4 2f3e 0609 313d 395b 68bd
000003a0: b1b1 8ebd 8e43 ec3d 1e3d 8cbe a113 363e
000003b0: 98cb fd3c 718e 56be 855c 31be c6f7 17be
000003c0: 55fa f03d 8c61 183e 23d9 52be 7d2a 83bd
000003d0: 2e92 033e ff19 bdbd c5c9 8a3e e491 8d3e
000003e0: c1c8 8abc 009e 94be 24d9 f53d f0c8 33bd
000003f0: 186e a33c cfc0 073c 5bcd 923e 3070 e7bd
0.043404605 -0.28575787 0.13175663 0.11460954 0.2995332 -0.22491224 0.23729403 -0.30341756
-0.052699767 0.23492509 -0.2990878 -0.23691313 0.26645496 -0.002164635 -0.036177665 0.0043540834
-0.28700015 0.17276335 -0.10136018 -0.23215362 0.0903503 -0.18644223 -0.14259359 -0.1692653
0.01130363 0.24054319 -0.20195276 0.082371905 0.12037534 0.2387211 -0.1667227 0.22490712
-0.27536413 0.21971771 -0.16737285 0.20654882 0.16561612 -0.26723188 0.042550977 0.29078805
0.055861935 -0.0062180036 0.20594347 -0.20026089 -0.16983806 -0.031538125 -0.08711562 -0.014401951
0.10777183 -0.022985306 0.2931932 0.030772973 0.07814996 0.25159222 -0.17923056 0.27889904
0.040923096 -0.23692647 0.06696029 -0.18160486 -0.17637974 0.21406828 -0.120565504 0.26945212
0.124098815 0.0815318 0.06710547 0.14646767 0.048445743 -0.22292867 0.13726325 0.16903126
-0.20843033 0.21403429 0.14055109 -0.12850134 -0.13722809 -0.29738218 0.27465343 -0.09065581
0.21717265 -0.13297378 -0.12765227 0.16563684 0.07265498 0.04239074 -0.15302849 -0.22787918
-0.094673425 0.12822933 0.09252775 0.19348896 -0.13152418 0.012621603 -0.09412281 -0.22818005
0.089990936 -0.037595134 -0.023815205 0.20430069 0.23997898 0.198683 -0.2489883 -0.24154589
0.25639275 -0.23221794 -0.22668737 0.0130664185 -0.068946615 0.17843454 -0.26117465 0.2117396
-0.108837284 -0.2932232 -0.24009323 0.13284172 -0.07020159 0.2756986 -0.21614571 0.2315338
-0.05253996 -0.2562159 0.08030164 -0.11783875 0.048007924 -0.09733921 0.097045474 0.21720164
-0.15633805 0.25286135 0.21442027 0.20617172 -0.15281636 0.07689961 0.08410388 -0.0059843734
0.15642427 0.29090574 0.19823687 0.047525104 0.112050235 -0.034166206 -0.055908628 0.16982724
-0.074134946 -0.22324674 0.21466175 0.28139973 0.034519225 -0.022351708 -0.09198032 -0.16112915
-0.2813724 -0.20122433 -0.19327502 -0.0060910196 -0.30301785 -0.2621054 0.015130393 0.24738204
0.06930785 0.13686633 -0.13152927 0.05742293 0.053405978 0.1638627 0.028029894 0.24179411
0.23912802 0.07456862 -0.22691469 0.26878875 -0.023302356 0.17398618 -0.068638235 -0.20181803
-0.1923217 -0.2639168 -0.07273905 0.0031113937 -0.04878857 0.19007862 0.21781231 -0.1861599
0.13085003 -0.16960208 -0.029783001 0.23873843 0.016553096 -0.2808696 0.16342832 0.028978648
0.09784441 -0.20761313 -0.19180147 0.22523306 0.2677053 0.14439751 0.21831024 0.22864825
0.18087912 0.02283843 -0.20819631 0.16064851 0.16002049 -0.22446169 0.2959091 -0.21806969
-0.044016916 0.18624957 -0.29339838 0.24355268 0.24629812 0.059967253 0.17727007 -0.052628774
-0.2853893 -0.17996848 0.15938583 0.26725918 0.13171354 -0.028814077 0.16696243 0.06257322
-0.03488956 -0.17155802 0.2652769 -0.14803702 0.19289221 0.17183289 0.043221496 -0.05672762
-0.06967486 0.115363225 -0.2739038 0.17780925 0.03098087 -0.20952775 -0.1732045 -0.14840612
0.11766497 0.14880961 -0.20590644 -0.06404588 0.12848732 -0.09233474 0.27107063 0.27650368
-0.01694143 -0.29026794 0.12004307 -0.0438928 0.019949958 0.008285715 0.286723 -0.11300695

conv_v_to_c.feature_module_left.0.bias f4 [64]
00000000: f194 d0bd 16c1 113c 3d6e 7b3d c98c c2bd
00000010: 9fd6 2e3c 1894 a0bd b7c5 8a3d 70e8 043d
00000020: 01e7 9fbd 0f74 48bd 6a7b 16bd 3ef6 dcbd
00000030: fc45 8f3d c32e 23bd 44a0 9dbc b512 f83d
00000040: 6dc9 13bd 9f74 d43d aa09 f93b d921 5abd
00000050: 62af b93a c0c6 2bbd 7826 dd3d 25a7 c63d
00000060: 3b93 1e3d df2e 86bd e3d1 fdbc d474 663d
00000070: 3a64 febb 9b66 b83d f34d 163d 31eb d43d
00000080: 4b67 51bd 1df2 27bd 14e7 073d 800b b03d
00000090: d94f c4bd 7d84 263b c4ff b0bd afb1 eb3c
000000a0: c61c ef3c e654 063d bd8a 2c3d 9110 023e
000000b0: e968 9ebd c5cd b8bd c054 023a dbf2 d0bd
000000c0: a5c1 44bd 79ca 88bd 2a7c b1bc 00e0 8f3d
000000d0: a3b9 83bd 36f9 a63d 59ce 98bd eda4 bd3d
000000e0: 685c 883d 64f2 573d d024 adbb 31c5 00bb
000000f0: 815a f6bd ce21 a53d 55de f5bd dc91 da3d
-0.10184658 0.008896133 0.06138443 -0.09499509 0.010671287 -0.07840747 0.06775992 0.032448232
-0.078077324 -0.048938807 -0.03673879 -0.107891545 0.0699577 -0.039839517 -0.01924146 0.12112943
-0.036080766 0.10373806 0.007600029 -0.053254936 0.0014166648 -0.04193759 0.10798353 0.09699849
0.03871463 -0.06551909 -0.03098387 0.05626376 -0.007763413 0.090039454 0.036695432 0.10396422
-0.0511239 -0.04100238 0.033179358 0.085959435 -0.09585542 0.002540856 -0.086425334 0.02877125
0.029188525 0.03279581 0.0421245 0.12701632 -0.07734854 -0.090236224 0.0004971735 -0.10202571
-0.048036236 -0.066792436 -0.021665651 0.070251465 -0.06431892 0.08153002 -0.07461233 0.09259973
0.0665825 0.052721396 -0.0052839294 -0.0019648785 -0.12028981 0.08063088 -0.12005297 0.10672352

conv_v_to_c.feature_module_edge.0.weight f4 [64, 1]
00000000: d8b6 5cbf 97f8 7a3f 6d7b b4bf 49ed edbf
00000010: 4197 04bf 6d93 c53f 8a75 24be cc08 95be
00000020: fafe 0c40 050a 88bf 8086 1340 a4bf 1040
00000030: 08c8 af3f 73ea 11bf 1fef c13d f66a 923f
00000040: 6601 1640 7b99 fe3f 559d f4bf 6d33 dc3f
00000050: b15c c8bf 7868 9a3f 9754 1840 9702 0a40
00000060: f53e d93f 3615 49bf 3ebd 0e40 303a 8ebf
00000070: 76ff 0940 363d 6b3f 8dde 72bf 42e5 9c3e
00000080: 8e0c bd3f 34b7 e8be 7768 d3bf 9dae 363f
00000090: 940e ce3f fa14 863f 307f fcbf bd68 353f
000000a0: ca30 f23f 1fea 59bf 9c40 bc3e aac8 0fc0
000000b0: aa19 b33f 6b80 0ac0 208f 6ebf e0e0 ff3f
000000c0: 7a02 eb3f a03a 62bf 492f 34bf c6bc 5b3f
000000d0: f277 debf 5ad5 813f 09aa e43f 5207 c83e
000000e0: 7d8b 0cbe 7045 b43e 8515 963e 11df 6a3f
000000f0: 10e6 c5bf b091 97bf 3a02 adbf e288 b3bf
-0.862165 0.9803557 -1.4100167 -1.8588039 -0.51793295 1.5435616 -0.16060463 -0.29108274
2.2030625 -1.0628058 2.3050842 2.2616968 1.373292 -0.56998366 0.09469437 1.1438892
2.3438354 1.9890589 -1.9110514 1.7203194 -1.5653287 1.2063131 2.380163 2.156408
1.6972338 -0.7854799 2.2303004 -1.1111507 2.156217 0.91890275 -0.94870836 0.3064366
1.4769456 -0.45452273 -1.6516255 0.7136019 1.6098199 1.0475152 -1.9726315 0.7086294
1.8921139 -0.85122865 0.36768043 -2.2466226 1.3992207 -2.164088 -0.9318714 1.9990501
1.8360131 -0.88370705 -0.7038465 0.8583492 -1.7380354 1.0143235 1.7864391 0.39068085
-0.13725086 0.35209227 0.29313293 0.9174662 -1.5460835 -1.1841335 -1.3516304 -1.4026148

conv_v_to_c.feature_module_right.0.weight f4 [64, 64]
00000000: 81c6 adbd 3be5 7a3e 917d 4b3e 5d9c 2cbe
00000010: b74d 953d 7b78 0ebe a55a f9bd 9480 493e
00000020: 712d 75be 96bc 433e f9ec 773e 6d4f cbbd
00000030: 641f 163d c3bc 373e 1e3b c83d fbb1 993d
00000040: c383 26be c8a8 273e f668 59be 9a40 43bd
00000050: 704e 413e 47a4 cd3d 9b70 0f3e 7448 4dbe
00000060: 1ad1 d1bd 5523 863e c956 75be 1326 03be
00000070: 2cea bfbc 0d2f e2bd fe6a 383d f458 8cbc
00000080: feae b8bd 6179 773d a0fc 333e 9644 743e
00000090: 7dc2 08be 2c35 edbd 3e1e db3d 135f ed3d
000000a0: e912 0c3e 70e8 483d cc0e 223d 39f4 5cbe
000000b0: 484d 853e 4291 923e 8db4 6c3d 9ee9 12be
000000c0: b30c 49be 56f9 423e 8629 2dbe 6c5c 9bbe
000000d0: 68c7 553e 6198 733e f9d5 073d d481 98be
000000e0: 3345 5dbe b46d e13d c2f6 5abe 07f0 743e
000000f0: 90e6 a93d d011 3fbe 3ca6 86be 94b2 f73d
00000100: 555d fabd a4a4 18be 53ce e8bc af82 dbbc
00000110: 9588 6bbe be61 553e 2702 bbbd 7428 043e
00000120: ab51 67be c654 17be 2570 9cbe 6051 9cbb
00000130: ce24 4c3e f674 97bd 772d 433d fa01 9c3e
00000140: a452 8bbe cb43 9b3e 54e7 c23d b137 063e
00000150: 2392 2cbe 144b 983d eaac 093e df7e 493e
00000160: 0c7d 7c3e 5fcf 75be 8e32 26be 5822 203e
00000170: 4ffa 95be 230f 61be 2786 893e 362d 4bbe
00000180: d355 6d3d 149e 82be 3c52 91be 4f56 703e
00000190: caa9 11be 4ce9 e0bd cff7 983e 3a59 243e
000001a0: a36c 4dbe 7350 483d 9344 8fbd c412 9f3c
000001b0: 29c8 8f3e 13d8 0c3e 3467 33be aabd 4d3e
000001c0: 97c5 d93d 13a9 9c3e 0e63 883e 74b1 7a3e
000001d0: 0d4b 75be 8228 4ebe 987d 2abe 194f 183e
000001e0: 3ca9 2a3e 9401 933e a95e 23be 1d43 3d3c
000001f0: 28cd eebd 7b27 23be 48c3 823e 7216 00be
00000200: 9a2b 46be 204f 74be 8033 103d 3549 28be
00000210: db7b f83b 95b0 8d3e 5bac 9dbd 813d d6bd
00000220: d60f ddbd 9723 e9bc af35 4dbe 9109 4ebe
00000230: 5f0e 733e 9041 8a3e 3247 843e 736b 603b
00000240: 6889 853e eb37 0ebe e27e 5b3e 122a 74be
00000250: fba3 5ebe bff7 5cbd cf3f 803e 0b4d 81be
00000260: f26c 813e 7816 5c3e 66c4 a63d 0654 3e3e
00000270: 5b9c 453e 376a 283d 9d75 75be a5d2 073e
00000280: dfdf 9dbd 1751 3eba 21c0 34be e8f0 733e
00000290: 3459 cf3d ee1b adbd 1824 34bc 24a4 2cbd
000002a0: e6cb 0c3e 150f 48be 1a46 ee3c 2914 37be
000002b0: 7402 0a3e 2527 763d 7aa8 f73d 2b60 913e
000002c0: 1f10 e8bd c9a4 2a3e 7ca9 62be a67a c83d
000002d0: 9330 8fbe 8438 d73d 86ee 183d 00b0 debd
000002e0: c1c9 823c 3b98 39be d420 82be 7e39 473e
000002f0: 8914 933e 3f33 98bc 818b 1f3e c70b 05be
00000300: 61e7 13be 7114 01be faf2 22be ce80 2f3e
00000310: 5708 81be c743 93be 00b8 293e 3eec 49be
00000320: 4707 2d3e cb48 8ebd 340d 10bd 0c9a 2fbe
00000330: 8bb5 993e 5bca 52be 3719 5fbe 823f 54be
00000340: 6748 2abe 2f16 953e 000c 5abd 5f9e d53c
00000350: aa2f 64be 2a0c 153e 8901 0f3d 164a 553e
00000360: b5be 6dbd d254 1cbe 46dd 343e 8028 9dbe
00000370: dc01 653d 2e2e 003e 9ac2 213e fe7e 8b3e
00000380: d3a4 aa3c e787 323e f7c6 e43d f13a 97be
00000390: e736 37be 95e0 883e 8284 903e 1c00 2f3d
000003a0: 3598 8b3d 6351 273e 33ec 2fbe e2ea 02bd
000003b0: e47d 04be 4755 163e a902 47be ccfd 593d
000003c0: badc 83be 4e5f f5bb 3819 433e 0164 933d
000003d0: cfa3 52be 4ae3 d6bd aea9 823e 657f 563e
000003e0: 599f 833e 7f81 8d3d 3246 8e3e 1636 3fbe
000003f0: 6d79 47be 7339 30bb 5741 ba3d 7f25 523e
-0.08485127 0.24501507 0.19872119 -0.16856523 0.072902136 -0.13913147 -0.12175492 0.19677955
-0.23943116 0.19114909 0.24211492 -0.09927259 0.03665103 0.179431 0.09776901 0.0750465
-0.162612 0.16372979 -0.21231446 -0.04766903 0.18877578 0.10041099 0.140078 -0.2004717
-0.10244961 0.2619883 -0.23958887 -0.12807493 -0.023427092 -0.110441305 0.04502391 -0.01713226
-0.09017752 0.06041849 0.17576838 0.23854288 -0.13355441 -0.11582407 0.106991276 0.115903996
0.13679089 0.049049795 0.039564893 -0.21577539 0.26035523 0.28626448 0.057789374 -0.1434693
-0.1963375 0.19040427 -0.16910371 -0.3034395 0.20876849 0.23788597 0.033163045 -0.2978655
-0.21608429 0.11007252 -0.21383193 0.23919688 0.082959294 -0.18659139 -0.26298702 0.12094608
-0.12224833 -0.14906555 -0.028418696 -0.026795713 -0.2300132 0.20838067 -0.0913127 0.12906057
-0.22589748 -0.14778432 -0.3055431 -0.004770443 0.19935915 -0.073953554 0.04765078 0.30470258
-0.27211487 0.3032516 0.095167786 0.13107182 -0.16852622 0.07436195 0.13444868 0.19677304
0.24657077 -0.24004887 -0.16230223 0.15638101 -0.29292533 -0.2197843 0.26860163 -0.19841465
0.057943176 -0.2551123 -0.28383052 0.23470424 -0.14224926 -0.10981998 0.29876563 0.16049662
-0.20060973 0.048904847 -0.06995501 0.019418128 0.28082398 0.13754301 -0.17519838 0.20091882
0.106333904 0.30597743 0.26638073 0.24481755 -0.23954411 -0.2013264 -0.16649473 0.14873923
0.1666612 0.28712142 -0.15954079 0.011551646 -0.11660224 -0.1593303 0.25539613 -0.12508562
-0.1935257 -0.23858309 0.035205364 -0.16434176 0.007583124 0.27673784 -0.0769889 -0.1046095
-0.10794036 -0.028459353 -0.2004001 -0.20120837 0.23735951 0.27003145 0.25835568 0.0034243732
0.26081395 -0.13888519 0.2143512 -0.23844174 -0.21742241 -0.053947207 0.25048682 -0.25254092
0.2527843 0.21492946 0.08142929 0.1858674 0.19297926 0.04111692 -0.23970647 0.13263948
-0.07708716 -0.0007260008 -0.17651416 0.23822367 0.10124436 -0.08452593 -0.010994934 -0.042148724
0.13749656 -0.19537003 0.029086161 -0.17878784 0.13477498 0.060095925 0.12092681 0.28393683
-0.113312 0.16664423 -0.22134966 0.09789018 -0.27966747 0.105088264 0.03733685 -0.10873413
0.015965344 -0.18124478 -0.2541567 0.19455525 0.28726605 -0.018579124 0.1558056 -0.12992774
-0.14443733 -0.12605454 -0.15913 0.17138979 -0.25201675 -0.28762648 0.16574097 -0.19719025
0.16897307 -0.06947478 -0.03516884 -0.17148608 0.3002132 -0.20585005 -0.21786962 -0.20727351
-0.16629182 0.29118487 -0.0532341 0.026076494 -0.22283807 0.14555421 0.034913573 0.20829043
-0.0580432 -0.15266731 0.17662534 -0.30694962 0.055909976 0.12517616 0.15796891 0.27245325
0.020830547 0.17434655 0.11170762 -0.29537156 -0.17892037 0.26733842 0.28226095 0.042724714
0.068161406 0.1633964 -0.17179947 -0.031962283 -0.12938648 0.14680968 -0.19434609 0.053220555
-0.25754339 -0.007488168 0.19052589 0.071968086 -0.205703 -0.10492571 0.2552008 0.20947035
0.2570751 0.06909465 0.2778793 -0.18672976 -0.19479914 -0.002688971 0.09094494 0.20522116

conv_v_to_c.feature_module_final.0.weight f4 [64]
00000000: 96fc 7f3f b209 803f 2aff 7f3f 361a 803f
00000010: bf1a 803f cd18 803f 4a00 803f 05cb 7f3f
00000020: bc45 803f 171d 803f 7df9 7f3f 20f5 7f3f
00000030: 8400 803f 7f0f 803f 8900 803f 89ea 7f3f
00000040: 204e 7f3f aae2 7f3f e64c 803f ac12 803f
00000050: 220b 803f 7707 803f 1fcf 7f3f 2605 803f
00000060: 3705 803f 681d 803f b41f 803f aab1 7f3f
00000070: 99da 7e3f 3ba3 7f3f eb0b 803f 77f6 7f3f
00000080: c122 7f3f ea03 803f 0610 803f 75ea 7f3f
00000090: 3ffc 7f3f 4b91 7f3f a701 803f 05ea 7f3f
000000a0: 722f 803f da06 803f 8117 803f dee3 7f3f
000000b0: acf3 7f3f 9ddf 7f3f 59c5 7f3f 6903 803f
000000c0: e4ff 7f3f 21fa 7f3f 52f9 7f3f da08 803f
000000d0: aeeb 7f3f 9d06 803f 5861 7f3f 2d05 803f
000000e0: c5ed 7f3f 9a37 803f 0422 803f 9cfb 7f3f
000000f0: b7d0 7f3f 0000 803f b611 803f d0f3 7f3f
0.9999479 1.0002959 0.99998724 1.0007999 1.0008162 1.0007569 1.0000088 0.9991916
1.0021281 1.0008878 0.99990064 0.99983406 1.0000157 1.0004729 1.0000163 0.9996725
0.99728584 0.99955237 1.0023468 1.0005698 1.0003397 1.0002278 0.99925417 1.0001571
1.0001591 1.0008974 1.0009675 0.9988047 0.99552304 0.99858445 1.0003637 0.9998545
0.99662405 1.0001194 1.000489 0.9996713 0.9999427 0.99831074 1.0000504 0.9996646
1.0014479 1.0002091 1.0007173 0.9995707 0.9998119 0.9995058 0.99910504 1.0001041
0.99999833 0.9999104 0.9998981 1.0002701 0.99968994 1.0002018 0.9975791 1.000158
0.9997218 1.0016968 1.0010381 0.999933 0.9992785 1.0 1.0005405 0.99981403

conv_v_to_c.feature_module_final.0.bias f4 [64]
00000000: 9659 1bb8 d95c a739 2752 efb8 2aed 913a
00000010: 1965 9b39 28b1 193a 4fc6 8138 1ea1 7cba
00000020: 5401 fc3a 571d 9c3a 6c85 27b9 9433 e236
00000030: 7e58 bd38 53e2 7db9 7014 e836 4359 a2b9
00000040: ad65 60bb bdb9 0dba 2f5e ec3a 5e5f 3c3a
00000050: 1e5e f739 0b5a 83b9 1f53 45ba 9bf9 1c38
00000060: c6f9 b539 c41e 463a 8ff4 803a 49b1 8bba
00000070: 0b79 7fbb 7f62 ceba f542 3039 6366 e1b8
00000080: 8e09 39bb d438 8c37 52a6 353a 8651 99b9
00000090: 9fbb 9c38 b6fa 02bb f53c 8139 cf1c a6b9
000000a0: 62d0 9f3a a08f 2739 9ab2 3f3a 6021 173b
000000b0: 9844 44b9 d47a f2b9 3d9d 8bba b091 383a
000000c0: 1e33 8339 e4a2 dfb9 c250 09b9 26bf b039
000000d0: 2750 01ba 7663 0d39 4725 21bb e719 f838
000000e0: 99d1 9db9 028d e43a 0e76 7b3a 4de8 e3b8
000000f0: c4b0 50ba 3146 04b9 333a 3d3a 75f9 85b9
-3.7038313e-05 0.000319219 -0.0001141171 0.0011133302 0.00029639227 0.0005862885 6.188137e-05 -0.00096370454
0.001922647 0.00119106 -0.00015976065 6.7413293e-06 9.028705e-05 -0.00024212273 6.916518e-06 -0.00030965553
-0.003424029 -0.00054064003 0.001803344 0.00071858417 0.00047181634 -0.00025053354 -0.00075273396 3.742576e-05
0.00034709106 0.0007557685 0.0009838509 -0.0010657693 -0.003898206 -0.0015745907 0.00016809611 -0.00010747907
-0.0028234455 1.6715763e-05 0.00069293857 -0.00029243174 7.473607e-05 -0.001998586 0.00024650214 -0.0003168345
0.001219284 0.00015979866 0.00073126855 0.0023060665 -0.0001871757 -0.0004624935 -0.0010651719 0.0007040752
0.00025024352 -0.00042655237 -0.00013095423 0.00033711753 -0.0004932903 0.0001348386 -0.002458887 0.00011830386
-0.00030101536 0.0017437043 0.00095924817 -0.00010867473 -0.00079609104 -0.0001261465 0.000721845 -0.00025553597
