rl_model/SCPPO_policy_209.pth (torch_old, 472694 bytes, 71 tensors)

cons_embedding.0.weight f4 [4]
00000000: 99a4 7f3f 6bcb 7f3f 2f41 803f afb7 7f3f
0.9986053 0.99919766 1.0019892 0.99889654

cons_embedding.0.bias f4 [4]
00000000: 3dd1 b83a ce3b 4e3a 10a1 013b 3c04 91ba
0.0014100444 0.0007867188 0.0019779839 -0.0011063884

cons_embedding.1.weight f4 [64, 4]
00000000: 3807 4fbf 1a16 5d3f 6f80 1a3e 695b 313f
00000010: 8433 f0bd 2e6e 88bf bbc4 4c3f 746a 883d
00000020: 6e9b a8bd caaf aa3d 7dc0 6abe a6fe 05bf
00000030: 5ab9 193f 433f c43e 1051 8c3d 95a1 363f
00000040: 0a40 d43e e5c9 ec3e 7f5b f4bc 5005 43bf
00000050: 93ed 373f 0e27 d2bd b986 8fbf 2a81 413f
00000060: 9dd4 6dbc affb 063e 53f2 1abf 20ef ef3e
00000070: 6e97 7cbf 4405 92bf c8de 893e 33da 2c3f
00000080: e6b2 22bf c092 033f e388 27bd 9b05 193f
00000090: c7e3 4fbf 3572 273f 4044 583f c81d 693f
000000a0: 0836 413f d448 7fbf 75ba 8a3f 0d17 3f3d
000000b0: 03cd 813f 5b1f e03e 2458 2f3f 49ad 213f
000000c0: b020 473e 6e01 6a3f f99a adbe daf3 14bf
000000d0: ad78 afbc a14f 073e d427 823f b5ab fd3e
000000e0: ab6e 2cbf 1243 3d3f 7d7a 863f 77b0 75bf
000000f0: c035 8d3f e6f6 d1be 92c6 863f 221c 67bf
00000100: 873c 2b3f 059c 823e 7e5c 8e3e 87b7 b6be
00000110: 4285 48bf 0420 6a3f a0ce 953f a41a 32bf
00000120: fc39 173f 807a edbe 3466 993f b67a 99bf
00000130: 11aa 523f 4bda 72bd 99ca cb3d b33d 33bf
00000140: 24c1 c8be 5078 5b3e 5c90 98bf cef4 88be
00000150: 695b 343e f681 84be 3509 85bf f5a6 653f
00000160: 933a 82be 521f 68bf d531 523f 4036 57be
00000170: e10e 993f 9060 463f 3540 103e 1496 0a3f
00000180: 525b 4e3e 8f8f 91bf c3a6 2fbf 126a 9cbf
00000190: 8aa8 93be f78c 823f 0bc8 3f3f 35f2 7f3f
000001a0: 9493 30bd abb5 843f 5689 3f3f 7775 39bd
000001b0: 16f3 86bf 6a01 263f 91d5 4dbf 9cce 143f
000001c0: d542 89be 5eb0 213f ad12 05bf ae84 5b3e
000001d0: 54e8 843f 0023 8f3f fb58 ccbe aee3 91bf
000001e0: 4385 b9be 28ca 673d 67c3 703f 8991 1cbf
000001f0: dd81 85bf ea05 3ebe e4df f03d d4f7 a13e
00000200: e7e5 c13d 6a13 8abf e8a6 80bf f9ba 263e
00000210: b87c c93e 4680 2bbf f0b9 923c 03b8 65be
00000220: 9f75 373e 1af0 5f3e fc31 54bf 31eb 8bbf
00000230: 47e8 a6be e679 02bf aeed 493e 9fbe 8dbf
00000240: 95c9 82bf 64fd bfbc 4045 bb3e 3e60 8dbf
00000250: 2795 a83d 507d 4ebf d85e 5bbe f755 2ebf
00000260: ed8d 53bf 6ca2 4b3f 5253 49bf 815f c83e
00000270: 7974 95bf dc58 fe3e d11d 943f 2a1e 033f
00000280: 8509 933f b038 7cbf 8540 753f fd79 25bf
00000290: f727 ecbb ab1c b4be dc3d e33e 9dff 033f
000002a0: 936a 013f a070 933f 68e7 83bf c907 59be
000002b0: 31b5 98bd 8d14 81bf 2214 603f 082f a3bd
000002c0: 2df7 9bbe 6a57 0abf ea16 693f ed5e 293f
000002d0: bc50 ca3e ae8f 29bd c33b 51be 5ae9 1bbf
000002e0: 7906 56bf d884 963f 449f 883f 56fc 8b3e
000002f0: dfd5 b8be a484 21bf 2519 a53e 9efe d83e
00000300: 52f7 0cbc 7f5e 033f 4874 903e 3577 cdbe
00000310: 46c3 593d 6f2a 233f 07ac 70be 4d8e 63bf
00000320: 186c bbbe 3032 9abf ccce 1b3f 26bb 6bbf
00000330: e4a6 843f 1bc0 fcbb 878e 123e 7e8e 943e
00000340: 4810 21bf bbe7 d33e e0a6 363f d696 afbe
00000350: fa04 81bf 03d1 e83e 1408 993f f6a4 2abe
00000360: 8471 4cbf fdec 04be cd4c 5dbf 2bf7 843f
00000370: 3991 0bbf 12c7 52bf 40ff fdbd 361b 22bf
00000380: e1ae b5be ea4a 39bf 82fd 823f dedc 23bf
00000390: c9ca 403f 1888 10bf f51a 6c3f 055a 06bf
000003a0: 85c7 0d3f 2751 82be d849 dcbe 6f56 ed3e
000003b0: 8fad 493d 7fca f7be d9d7 05bf 6520 b73e
000003c0: 6f88 b43e 98fc d63e d71c 88be 4d97 a9be
000003d0: 99e4 8c3c dbe7 723f 0d3e c83d 0f91 4d3f
000003e0: db0b 103e 5264 1f3f 9d73 dbbd 1434 18bf
000003f0: 51f2 79bf aa19 303e 4152 723f ef9f 12be
-0.8087039 0.8636185 0.15088056 0.69280106 -0.11728576 -1.0658624 0.79987687 0.06660929
-0.08232771 0.0833431 -0.22924991 -0.5234169 0.6004845 0.38329515 0.06851399 0.71340305
0.41455108 0.46247783 -0.029828785 -0.7617998 0.71846884 -0.10261355 -1.1212989 0.75587714
-0.014516023 0.13181947 -0.6052601 0.46862125 -0.98668563 -1.1407857 0.2692778 0.67520446
-0.6355423 0.513958 -0.04090203 0.5977418 -0.81206936 0.6540864 0.8447914 0.9106107
0.7547307 -0.997205 1.0838152 0.046652842 1.014069 0.43773922 0.68493867 0.6315504
0.19446063 0.9140843 -0.33907297 -0.5818459 -0.021419847 0.1321397 1.0168405 0.49545065
-0.67356366 0.73930466 1.050613 -0.9597239 1.1032028 -0.4100868 1.0529349 -0.902773
0.6688923 0.25509658 0.2780494 -0.35686895 -0.78328335 0.914551 1.1703682 -0.695719
0.5907285 -0.46382523 1.1984315 -1.1990573 0.8229075 -0.05929021 0.09950752 -0.7001602
-0.39209855 0.21432614 -1.1919055 -0.2674927 0.17612995 -0.25880402 -1.0393435 0.8970788
-0.25435314 -0.9067279 0.8210729 -0.21016788 1.1957666 0.7749109 0.14086993 0.5413525
0.20152023 -1.1371936 -0.68613833 -1.221987 -0.28839523 1.0199269 0.74914616 0.99978954
-0.04310949 1.0367941 0.74818933 -0.04527804 -1.0542934 0.6484591 -0.80404 0.5812776
-0.268088 0.6315974 -0.5198162 0.21437332 1.0383401 1.1182556 -0.39911637 -1.1397607
-0.36234483 0.056589276 0.9404816 -0.6115957 -1.0430256 -0.18556944 0.11761454 0.3163439
0.094676785 -1.0787175 -1.0050936 0.16282262 0.39352965 -0.66992605 0.017910928 -0.22433476
0.17915963 0.21868935 -0.8288877 -1.093115 -0.3259909 -0.5096725 0.19719574 -1.1073798
-1.0217768 -0.023436256 0.3657627 -1.1044996 0.082315736 -0.8065996 -0.21422899 -0.6809992
-0.82638437 0.7954471 -0.7864276 0.39135364 -1.167617 0.4967717 1.1571599 0.512179
1.148728 -0.98524 0.95801574 -0.64639264 -0.0072069126 -0.35178122 0.44383132 0.5156191
0.50553244 1.1518745 -1.0304995 -0.21194376 -0.074564345 -1.0084397 0.8753072 -0.07967955
-0.30462018 -0.54039633 0.9105059 0.6616047 0.3951472 -0.04139679 -0.20432954 -0.6090294
-0.83603626 1.1759291 1.0673604 0.27340955 -0.3610067 -0.6309302 0.32245746 0.42381757
-0.008603888 0.51316065 0.28213716 -0.4013001 0.053164743 0.63736624 -0.23503123 -0.8888901
-0.36605906 -1.2046566 0.6086242 -0.9208244 1.0363431 -0.0077133304 0.14312182 0.29014963
-0.6291547 0.41387734 0.7134838 -0.34294766 -1.0079644 0.45471963 1.195559 -0.1666449
-0.7986071 -0.12981029 -0.86445314 1.038793 -0.5451847 -0.8233501 -0.12402201 -0.6332277
-0.35484985 -0.72379935 1.0233614 -0.6400889 0.75309426 -0.5645766 0.92228633 -0.5248111
0.5538257 -0.2545254 -0.43025088 0.46355006 0.049237784 -0.4839668 -0.5228248 0.35766903
0.3526034 0.4198959 -0.26584503 -0.33123246 0.017198848 0.94885033 0.0977746 0.80299467
0.14067023 0.6226245 -0.10715411 -0.59454465 -0.9763537 0.1719729 0.9465676 -0.14318822

cons_embedding.1.bias f4 [64]
00000000: b8ff 953e 3595 ee3e 2d45 b53e 5ff1 82bc
00000010: 566c 81be 5afb 673e bfc1 9cbe 5abd 693e
00000020: a167 b93d d6c9 ab3e fec9 e6bd 8b3d 5b3e
00000030: bf69 b43e e161 dc3e 1024 6a3d 72b3 edbd
00000040: 2703 5cbe b913 efbd 8946 633e 6a66 82be
00000050: 4f8f 473e e909 a33e d852 cb3e 6959 39be
00000060: 9832 6ebe b7dc 9b3e 43ad cebd 5924 c23b
00000070: 7164 fe3e 0bd7 97be a0d5 e5be 6c68 033e
00000080: ff62 29bd 6802 9cbe 29de 0abe 0c30 aabd
00000090: 1486 303e 90a9 3e3d 90fd a93e c653 a7be
000000a0: c387 e93e b133 b0be 5100 8f3d 6893 d8bd
000000b0: a8cb 633e 8d87 e43d 9af0 373e 2ae0 19bd
000000c0: fe7e e43e 608c 39be f147 afbe 5692 85be
000000d0: e03d ebbe 6562 e43e 82ed 873e 6f90 ba3e
000000e0: c118 90be 9247 82be 1a79 5b3e 45cd ec3d
000000f0: 1e4c be3e 681d 9a3e 66cb d93d ec80 88be
0.2929666 0.4659821 0.3540434 -0.015984235 -0.25277966 0.22654477 -0.30616567 0.22826138
0.09052969 0.33552426 -0.11268996 0.21410196 0.35236928 0.43043426 0.057163298 -0.11606492
-0.21485578 -0.11673684 0.22194876 -0.2546876 0.19488262 0.31843498 0.39711642 -0.18100514
-0.23261487 0.3044183 -0.10091641 0.005924743 0.49686006 -0.29656252 -0.44889545 0.12832803
-0.041354176 -0.30470586 -0.1356131 -0.083099455 0.17238647 0.046548426 0.33201265 -0.32681102
0.4561139 -0.34414437 0.06982482 -0.105749905 0.22245657 0.11158667 0.17962876 -0.037567295
0.44628137 -0.18119955 -0.34234574 -0.26088208 -0.45945644 0.4460632 0.26548392 0.3643832
-0.28143886 -0.2544523 0.21432915 0.115625896 0.37167448 0.3010056 0.10634498 -0.2666086

cons_embedding.3.weight f4 [64, 64]
00000000: 706f ed3d 2b5c 13bd ad58 8d3e 7284 a93c
00000010: 2ab7 d2bc fe63 f03d d5b9 bbbd 099c c9bc
00000020: 6a29 8a3e b385 683e f074 843e f6e1 973e
00000030: 91d5 08bb 59be 12bd 3571 6e3e 746a 9b3d
00000040: a29d 013e 2513 833e f323 1f3e ad0a 4ebe
00000050: 03c3 993c 63ef 8f3d 8867 6b3e eb8e 3f3e
00000060: 01bd eebb 682c 9bbe b5b7 43be e126 77be
00000070: 5fff c6bd 49e6 883e 3caf 5c3e fc12 30be
00000080: 6f2e 7ebe e3a1 19bd d8fc 2bbe 48b3 723e
00000090: 79c3 253e d3f3 85be 4b62 78bd 87c3 4d3e
000000a0: 94ea 353e 21fc 673c 64bd 933e 8d48 233d
000000b0: 0a47 0c3c 7e3f 4ebc 7395 51be c9c6 75be
000000c0: 7a8a 423e 48fe 853d b475 55be 7034 30bd
000000d0: 71e4 98bd 4a23 6b3e 6ca1 353e 67aa 0f3e
000000e0: 009f 26be 3db2 363e c1cc 98be 997e 95be
000000f0: 5bef 983e 8232 973e c28e d4bd c1ac a43d
00000100: 8ba2 803e 6c12 be3d a1ce 8cbd c7ac 03bc
00000110: 1ca8 6abe eb11 fd3d 6260 8abe 970a 873d
00000120: 4aef 473e c70e 80bd f73d 7dbd 8a0b 8dbe
00000130: 63b3 cebd c774 26be beb0 3dbe 8f65 8d3e
00000140: 5092 593d 2228 653e 7c6c 76be 093f adbd
00000150: 2872 7ebe 4509 0d3e e594 953d 0528 7a3e
00000160: c37e 083e 0277 973c f960 e9bc 26b5 71be
00000170: a31a e03c ec5f 42be 2132 90bd a6bd 953e
00000180: af56 8b3e db2b 3dbe e411 c3bc 8033 933d
00000190: 2aae 353d f387 8f3e c7ce 29bd f19f ba3c
000001a0: c0eb 7bbe dddf 533e 2c07 0ebd 6f97 47be
000001b0: 3567 65be d3e8 823d 81b0 6cbe 7a37 56be
000001c0: da62 8fbe c4f9 90be ea32 99be ad5f 28bd
000001d0: 0ddd 47be aaa8 83be ba32 7c3e d1ae 8b3d
000001e0: 70e3 f1bd 4168 92be 76da 27bc c38e 3d3d
000001f0: 20d3 813d 3f48 943e e8ad 8e3e 5d6e 843d
00000200: 4040 823e ba8d e1ba 6d77 6fbe d610 10be
00000210: d821 453e ca3c 9bbd 81e7 143e 5d34 02be
00000220: 4930 51be e116 d5bc b8cc 8b3e 7a55 85be
00000230: 4db6 b8bc 2623 55bd a886 853e c20f 30be
00000240: 1746 f13d 1ad9 ab3d 9b3c 633e b5c1 16be
00000250: 2320 563e c3eb 6b3e 34fa 14be cb2f 1e3d
00000260: 12a8 e63d 5e11 d2bc 2a72 89be a01f 293e
00000270: 9d5b 7b3e 8daf 96be 1891 cb3d 6f69 4abe
00000280: 7769 1cbe 9780 653d 79e3 58be 7f44 b43d
00000290: 43e4 eebd 7fbd 253c 357b 0b3e a58f 143e
000002a0: 647d 973e a7f1 96be 04a7 6bbc 8c8f 703e
000002b0: 7b4f 67be f826 26bd d819 01be 4877 bcbd
000002c0: 1f98 79bd ed0b 383e dae9 92be cc31 5e3d
000002d0: 0349 153e deeb 8abd 153c f4bd cf1f e1bd
000002e0: 2a91 5d3e 33c4 8ebd 56e7 053e 5225 b3bd
000002f0: 0983 a73c b3e6 103e 30c7 58bc 89ff 473e
00000300: 219a 8c3d 942b 35bd 9ba0 0ebe b962 783d
00000310: 8065 583e 0354 4d3e 4ff5 dbbd 133c 2b3d
00000320: e4e4 8b3d dadd 983d 1b34 b13d a1a5 20be
00000330: bf72 f1bd 36fc 823d c7b4 89be 0cf1 61be
00000340: e278 6ebe 2a8e 5abd 92ed 903e f221 923e
00000350: fd2f 54be cfd6 923d b859 623e 479d a23d
00000360: 3baa 82be 0ba5 ff3d 63c5 8f3e 60fa 9dbd
00000370: 4913 703e a126 5b3d 9810 23be ea76 113d
00000380: 3171 8e3e 4752 6cbe 138e 903e 1512 85be
00000390: 75b9 803e 23ab 013e c516 b53b a9ef 223e
000003a0: 2b84 50be 6bd7 153b 0a9a a73d fc5e b5bd
000003b0: 0bfd 79be 845b 04bc 5f02 0f3e 2a51 3b3e
000003c0: ca1e 50be 6cf4 053e df36 b13d c846 79be
000003d0: 0164 9a3d c133 103d 599a 0b3d 8974 8a3e
000003e0: 7e38 dfbd ab90 edbc 9812 2fbc ebd9 673d
000003f0: 0469 99be e275 4fbd 91fe 9e3d 98b3 253e
0.11593521 -0.03597657 0.27606717 0.020693038 -0.025722105 0.11737822 -0.09166304 -0.024610536
0.2698472 0.22707252 0.25870466 0.29664582 -0.0020879249 -0.03582606 0.23285373 0.07588664
0.12657788 0.25600544 0.15541057 -0.2012126 0.018769747 0.07028081 0.22988713 0.18706863
-0.0072857146 -0.30307317 -0.19113047 -0.24135925 -0.09716677 0.26738194 0.21551222 -0.17194742
-0.248224 -0.037507903 -0.16795671 0.23701203 0.16187848 -0.26162586 -0.060640614 0.20094119
0.17765266 0.014159233 0.2885543 0.03986411 0.008561859 -0.01258838 -0.20467167 -0.24001612
0.18998137 0.06542641 -0.20845681 -0.04301876 -0.07465447 0.2296268 0.17737359 0.14029847
-0.16271591 0.1784143 -0.29843715 -0.2919815 0.29870114 0.29530722 -0.103787914 0.08040763
0.2512401 0.092808574 -0.06875349 -0.008036799 -0.22915691 0.12356933 -0.2702666 0.06593817
0.19524875 -0.062528186 -0.061826672 -0.27547866 -0.10092809 -0.16255485 -0.18524453 0.27616546
0.05311805 0.2237859 -0.24064821 -0.084592886 -0.24848235 0.13773067 0.0730379 0.24429329
0.13329606 0.018489365 -0.028488623 -0.23604259 0.027356451 -0.18981904 -0.07040811 0.29246253
0.27214572 -0.18473761 -0.023812242 0.07187557 0.04435555 0.2803341 -0.041456964 0.022781344
-0.2460165 0.20690866 -0.03467481 -0.19491361 -0.22402652 0.06392064 -0.23114206 -0.209196
-0.28005105 -0.28315556 -0.29921657 -0.04110687 -0.19517918 -0.25714618 0.24628726 0.06820453
-0.118109584 -0.28595164 -0.010244956 0.046278726 0.06339097 0.2896137 0.27867055 0.064663626
0.25439644 -0.0017208376 -0.23385401 -0.14068922 0.19251192 -0.07579954 0.14541437 -0.12715288
-0.20428576 -0.026011886 0.27304626 -0.26041776 -0.022547865 -0.052035473 0.26079297 -0.17193511
0.11780947 0.08391018 0.22191088 -0.14722331 0.20910697 0.23039155 -0.1454857 0.038619798
0.112625256 -0.025643047 -0.26844913 0.1651597 0.24546666 -0.2943081 0.09939784 -0.19766782
-0.15274607 0.056030836 -0.21180524 0.08802127 -0.11664631 0.01011598 0.13621219 0.14507921
0.29587853 -0.2948124 -0.014383081 0.23492259 -0.22588913 -0.040564507 -0.12607515 -0.092024386
-0.06093609 0.179733 -0.2869404 0.05424671 0.14578633 -0.06783269 -0.11925522 -0.10992395
0.21637407 -0.06971016 0.13076529 -0.08747353 0.020448225 0.14150505 -0.013231084 0.19531073
0.06865335 -0.044231012 -0.13928454 0.060641024 0.21132469 0.20051579 -0.10740148 0.041805338
0.06830767 0.0746419 0.086525165 -0.15688182 -0.11789464 0.06395762 -0.26895735 -0.22064608
-0.232883 -0.053358234 0.28306252 0.28541523 -0.20721431 0.07169878 0.22104537 0.079401545
-0.255205 0.12482651 0.28080282 -0.07713771 0.23444857 0.053503636 -0.15924299 0.035513796
0.27820733 -0.23078261 0.28233394 -0.25990358 0.25141492 0.1266294 0.005526396 0.15911736
-0.20362918 0.0022863995 0.081836775 -0.088560075 -0.24412934 -0.00807846 0.13965748 0.1829268
-0.20324245 0.13081521 0.08653044 -0.24343407 0.075386055 0.035205606 0.034082744 0.27042034
-0.10899447 -0.028999647 -0.010685585 0.056604307 -0.29962933 -0.05064953 0.077633984 0.16181791

cons_embedding.3.bias f4 [64]
00000000: 69a2 cdbb 40b2 af3d 6979 fe3d df38 bfbd
00000010: a263 a03d 889c 7fbd 9302 5c3d ed26 c63d
00000020: 164a cfbc 1f1d 063d c31d 523d 32d0 4cbc
00000030: 3d12 853d 3545 21bd c977 a0bd 9c82 36bb
00000040: 2af6 18bc e1aa d73d 9706 363b 7efb b93d
00000050: 37a8 0dbc 44bb 013e e730 98bd ad3f 90bd
00000060: 84ff da3d 7f5c a9bd 80b1 aabd 3c86 c8bd
00000070: bec6 a8bd fb85 eabd 4fac 113d e071 2b3c
00000080: 8607 babd 7e66 c73d 8dc6 ef3d 9cf5 0c3d
00000090: 6b27 843d 13c2 ed3d 6382 adbd 8f40 b1bd
000000a0: 8d2c 713a 251e f43c 0dc4 48bd 7f28 9d3d
000000b0: ffaf 1d3c ed19 1b3d 2ee1 903c 7dc4 ea3d
000000c0: 4219 e3bd f18f 8bbd 4abe 9ebd 25a0 75bd
000000d0: 532a 60bc 6f83 77bd 3d32 9bbc 25ec d13a
000000e0: 8709 fb3d 349e a5bc aea3 f83d 7aa0 ffbd
000000f0: 0d96 81bd 98a9 c9bd 8492 123d 492f d6bc
-0.0062754643 0.0857892 0.12425501 -0.09337019 0.078315035 -0.06240514 0.053713392 0.09675393
-0.025303882 0.032742616 0.051297914 -0.0125008095 0.06497619 -0.03937264 -0.07835347 -0.0027848845
-0.009336034 0.105306394 0.0027774924 0.090811715 -0.008646063 0.12669092 -0.074312024 -0.07043395
0.10693267 -0.08269595 -0.08334637 -0.09791228 -0.08241032 -0.11451336 0.035564717 0.010464162
-0.09083466 0.09736346 0.117077924 0.03441392 0.06452831 0.11609282 -0.08472135 -0.08654892
0.0009200059 0.02979953 -0.049015094 0.0767374 0.00962448 0.03786652 0.017685499 0.114632584
-0.11088802 -0.06814564 -0.077511385 -0.05996718 -0.013681966 -0.06042808 -0.018944854 0.0016015811
0.122576766 -0.020217039 0.121405944 -0.1248178 -0.06327448 -0.098468006 0.03578426 -0.026145594

var_embedding.0.weight f4 [7]
00000000: d41d 803f 80d3 7f3f 5004 803f c361 7f3f
00000010: 9fb5 7f3f 3613 803f a265 7f3f
1.0009103 0.999321 1.0001316 0.9975855 0.99886507 1.0005863 0.99764454

var_embedding.0.bias f4 [7]
00000000: 44db 573a 7440 d3b8 8f6e cbb9 279b 083b
00000010: 24b3 9a3a 11ea 2aba 0d4f 163a
0.0008234272 -0.000100732694 -0.0003880155 0.002084443 0.0011802656 -0.0006519864 0.00057338254

var_embedding.1.weight f4 [64, 7]
00000000: 77f3 433f a08e 1b3f 000c 85bb 3163 493f
00000010: d7e4 923e 69af 6b3f ce87 97be 18a7 28bf
00000020: b62b b7be 6a5c 563f 73b6 bfbe 0d63 0dbe
00000030: 734b 293f 2a3f 7f3c 4ac3 2cbf 9aea e5be
00000040: aae0 1abc 3d3b 013f 66f1 46be 324d a23d
00000050: bf3f f6be fe4a 27bf 05f6 f73e fd4f 843d
00000060: a77d 9a3e f5a3 a7bc 4e5e f73e 56c7 f8bd
00000070: d59e 96be 21dd 283f 847a 033f df15 f53e
00000080: fdbf fa3e a825 c53e 9b8b 74be 477c 1fbf
00000090: 2467 233f 12dc 0cbf 1529 003f c83c 533f
000000a0: 705e 023f 3a3e 06be aacd 663d 57f1 56bf
000000b0: 4cb8 d9be 5a05 ba3e 2fa6 0fbf 10f4 2f3e
000000c0: 1bf1 45bf 888b 673f d0e6 333f 07f0 7abd
000000d0: 2dbf 66bf 259d 11be 7718 ac3e 7b21 c53d
000000e0: d249 193f 4230 ce3d 5cc4 a43c fe9f 11bf
000000f0: f374 1ebe be5c 783d 2ef2 8e3e 307a 51bf
00000100: 0cc5 033f 461e 653f 4791 433e 81d6 51bf
00000110: 9588 7c3c 977d 173f e840 d6be bb66 14bf
00000120: cd78 563f 6940 753d 71fe 59be 97fd c33e
00000130: 02c4 633f 9f55 3bbf 3c19 66be 2d01 a73d
00000140: fdb5 dc3e af22 2bbe 3a50 293f 5a99 133f
00000150: b1f4 f1be 8fe4 bc3d cd08 543f d32b c7be
00000160: 3265 10be dc76 0cbe 4186 ca3e b7ae ffbe
00000170: abf1 fe38 af67 1ebe 2a97 fa3e 122f 86be
00000180: 04c2 2d3f a22f 513e 1b06 393f 0fe9 653f
00000190: 23fb cc3d a2f8 1a3f 05e8 693e 9e34 e3be
000001a0: e8e9 ad3e 53d7 1c3f 73ad c83e bccb 093f
000001b0: 8333 233f 3cf6 41bf ec4d 0bbf 0701 273f
000001c0: fb92 523f 70cf 863e 05db 6b3f 2c57 a13e
000001d0: a9ef 2f3f ed3b 623f 38ca 22bf 7179 5fbf
000001e0: 8b08 61bf 451e 43bf 0f24 2c3e b96b d7be
000001f0: 484e da3e 1ec9 2bbe 9e52 633f 6bfc 53be
00000200: 41b7 c7be 37c8 393f e071 6a3f 8fb6 613f
00000210: 0abc b7be 6338 33bf 00b7 3cbf abc1 053f
00000220: dd76 5b3f b184 5bbf 77d2 b63e 817c bd3e
00000230: 96ff 3c3f 8f78 543f 07ac 5d3f 6c8d 883e
00000240: 5a76 37bf a84c 4ebf 0289 08bf b1a1 e53e
00000250: afd5 aa3e e717 00bf aea7 d03e 00d7 353e
00000260: 40c5 29be 7c01 37bf 4e23 683f 6bf3 3cbf
00000270: 9346 5cbe 31c5 b43e 73c6 38bf eee0 02bf
00000280: dba6 2d3f eafe 653f e4d1 313f 97d5 e4bd
00000290: fe56 37bf da5f a6be 5755 c83e 06ec 1f3f
000002a0: 8865 38bf 857a 79be d932 143f 91f8 4c3f
000002b0: 516e 3dbf 1c45 313f 001d e73e 8cc5 dbbe
000002c0: 461d 47bf f720 92be 1ef4 60bf 06e2 603f
000002d0: dff2 f93c b266 d3be 645e 72be 1719 dcbe
000002e0: 932c d43e ef77 eebe fe68 433f 451d da3d
000002f0: 5cb2 24bf 16d7 323d 0768 33be 19b6 d3be
00000300: 6d01 adbe e4b7 b83d 020a 073f fccf ac3e
00000310: a368 33bf 3e1a 12bf a388 1b3f b1f2 f8be
00000320: 67e9 643e 1121 4f3f b059 0a3f 789d 59bf
00000330: 63cb 53bf 248d 48bf bd1e 12bf 2e00 ce3e
00000340: 6dea 61bf 771b 8e3d f8b9 11bf 3a67 ddbe
00000350: 34bc 37bf f3b1 5ebf 6056 69bf d65e 6c3f
00000360: 50e0 2d3f b191 2ebd 2902 283f 495e fabd
00000370: 811b 693e 6f49 c93e dd41 423f daac 9f3d
00000380: 6491 393f b9a2 2c3f a279 b53e 6b67 953d
00000390: 8f0a 0d3e b2f5 553f 5989 103e f0c6 1c3f
000003a0: e657 073f 6162 613f 8082 103e 0047 263e
000003b0: ccbc 8bbe be79 55bf b24f 0d3e 19ae d83e
000003c0: 74f0 91be a8e5 4a3f 63a9 4b3f ba95 233f
000003d0: 4bd4 043f 62d3 683f 9394 f4be b44f d63e
000003e0: bbae 47bf 3e60 1abf 7d69 b1bd 342d 323f
000003f0: 1eb2 f83e 2d22 36bf 9569 9b3e 3ab3 82be
0.7654337 0.60764503 -0.0040602684 0.7866698 0.28690216 0.9206453 -0.29595798 -0.65879965
-0.35775536 0.8373476 -0.37443885 -0.13807316 0.6613075 0.015579024 -0.6748549 -0.4490555
-0.009452978 0.50481015 -0.19428024 0.0792488 -0.4809551 -0.65348804 0.48429886 0.06460569
0.3017399 -0.020463923 0.48314136 -0.12147395 -0.29418054 0.65962416 0.5135882 0.4786825
0.489746 0.38505292 -0.2388138 -0.6229901 0.63829255 -0.550233 0.50062686 0.8251462
0.5092535 -0.13109675 0.05634848 -0.83962005 -0.4252342 0.36332208 -0.5611295 0.17182946
-0.7732102 0.9044728 0.70274067 -0.061264064 -0.9013546 -0.14220102 0.33612415 0.096255265
0.59878266 0.10067798 0.020113163 -0.56884754 -0.154743 0.06063532 0.27919143 -0.8182707
0.51472545 0.8949932 0.19098388 -0.8196793 0.015413423 0.5917601 -0.41846395 -0.57969254
0.8377808 0.05987588 -0.21288468 0.3827941 0.8897096 -0.7317752 -0.22470564 0.08154521
0.43107596 -0.1671245 0.6613804 0.5765587 -0.47256997 0.092232816 0.8282593 -0.38900623
-0.14101103 -0.13717216 0.39555553 -0.49937984 0.00012156678 -0.1546924 0.48943454 -0.26207787
0.6787417 0.20428327 0.7227494 0.89808744 0.10008838 0.60535634 0.22842415 -0.4437608
0.3396752 0.6126606 0.3919483 0.538265 0.63750476 -0.7576635 -0.54415774 0.6523594
0.82255524 0.26330137 0.9213107 0.3151182 0.6872507 0.8837269 -0.6358981 -0.8729468
-0.8790366 -0.7621806 0.1681063 -0.42074373 0.4263785 -0.16775939 0.8879794 -0.20701759
-0.39007 0.7257113 0.9158001 0.8816919 -0.3588565 -0.70007914 -0.73716736 0.5224864
0.85728246 -0.85749346 0.35707447 0.3700905 0.73827493 0.8299646 0.8659062 0.26670396
-0.71664965 -0.8058572 -0.5333406 0.44849923 0.33366153 -0.5003647 0.4075293 0.17757797
-0.16579151 -0.7148664 0.9067887 -0.73808926 -0.21511297 0.35306695 -0.7217781 -0.51124465
0.67832726 0.89842093 0.6946089 -0.111735515 -0.71617115 -0.32495004 0.3912761 0.6246952
-0.72029924 -0.24363144 0.5789009 0.8006678 -0.73996454 0.6924608 0.45139313 -0.42924154
-0.7777904 -0.28540775 -0.87872493 0.87844884 0.030511318 -0.41289288 -0.2366882 -0.42987892
0.41440257 -0.46575877 0.7633208 0.10650114 -0.64334655 0.043662153 -0.17520152 -0.41349867
-0.3379015 0.09019449 0.52749646 0.3375243 -0.7008154 -0.5707129 0.60755366 -0.4862266
0.22354661 0.8090983 0.540431 -0.85005903 -0.8273222 -0.78340364 -0.5707815 0.40234512
-0.8824833 0.06938832 -0.5692439 -0.43242818 -0.7177155 -0.8699028 -0.9114742 0.9233221
0.679204 -0.04261941 0.65628296 -0.12225015 0.22764398 0.39313838 0.7588175 0.07796641
0.72487473 0.67435795 0.3544436 0.07295116 0.13773559 0.83578026 0.14114894 0.61241055
0.528685 0.8804074 0.14112282 0.16238022 -0.27292478 -0.8338889 0.13799933 0.42320326
-0.28503764 0.7925668 0.7955534 0.6390034 0.51886433 0.90947545 -0.47769603 0.41857684
-0.7800099 -0.60303104 -0.086626984 0.69600224 0.48573393 -0.711459 0.3035399 -0.25527364

var_embedding.1.bias f4 [64]
00000000: 0498 853e 4b1a ce3d 07cb b1be ff06 973e
00000010: feb9 bd3e 0b7a a0be 7e76 3f3e e4d8 843d
00000020: b486 ac3e d7a2 a7bd bcd7 c9bd 7e75 26be
00000030: 26ab 8c3e f911 0abe a003 1e3e 8e03 9cbe
00000040: 853c b5be c516 8bbe 47ec 243c a608 753d
00000050: 6c68 6a3d 5d5e 20be 6dd8 c13e 2e8a be3e
00000060: b1b5 d83d 44ff 533e 8754 a6bc 4896 febc
00000070: 88a1 983e 8540 a43e d527 863d ba74 febd
00000080: f85e 93be 2d3d 193e 3659 a2be 1e4f d8bc
00000090: e6a1 d1bd e24d 92be d1ac a33e 080c 393e
000000a0: 1e78 0cbe 84cc 933d fa40 3a3e f0d8 d1bd
000000b0: 7813 323d 0013 0b3e 516e 66be ba53 ec3d
000000c0: e2cc 9bbd 6d0d ddbd a5b2 a13d 63c4 af3e
000000d0: f60b 043e 76c5 9e3e b409 d0bd 6e82 aa3e
000000e0: 99a2 a43e 505a 9c3d 60ae 83bd a36c 863e
000000f0: 556f 833e c155 a53e 8fa4 b6ba 73c5 ef3d
0.2609254 0.10063609 -0.3472521 0.29497525 0.37055963 -0.3134311 0.18697545 0.06486681
0.3369652 -0.08185356 -0.09855601 -0.16255757 0.27474326 -0.13483419 0.1543107 -0.30471462
-0.35397735 -0.2716581 0.0100660985 0.0598227 0.05722849 -0.15660997 0.37860432 0.37214798
0.1058153 0.20702845 -0.020303978 -0.031077519 0.2981074 0.32080474 0.06550566 -0.124246076
-0.28783393 0.14964743 -0.31708688 -0.026404914 -0.10235958 -0.28575045 0.31967786 0.18070996
-0.13717696 0.07216743 0.18188849 -0.10246456 0.043475598 0.13581467 -0.2250302 0.11539407
-0.07607438 -0.107935764 0.07895402 0.3432952 0.12895188 0.31010026 -0.10158101 0.33302635
0.32155302 0.07634413 -0.06429744 0.26254758 0.25670877 0.32291988 -0.001393454 0.11707582

var_embedding.3.weight f4 [64, 64]
00000000: b698 ffbc e8a0 51bd d3c0 013e 37a1 813e
00000010: 386f 96be c009 68be c551 6a3c 0746 903e
00000020: df9d 97be 8af2 87bd 9fa9 be3c eada 823e
00000030: 1296 6dbd ea05 bc3d a2e4 033d 22d9 5cbd
00000040: bfe2 8abe 3594 263e f6e0 05bc 81d4 283e
00000050: 7589 3abe 13da f9bd a37d 53be 04ae 7d3d
00000060: 6800 2e3d 7f44 83bd f51f 97be 3be2 253e
00000070: 2147 733e ee24 873e 212d f7bd 908f 05be
00000080: 58dd 7e3d 1f6c 76bc 3c03 4e3e feb9 883e
00000090: 63cd 0f3d cf4a 04bd 2167 bd3d 4bb4 6f3d
000000a0: 16e4 82bd f648 173d 143c 4eba 0a91 843d
000000b0: c062 99be 22c6 f93c 85b8 8ebe 6d6c 07be
000000c0: eed6 d3bd edb9 d5bd 90ee 00bd 6829 683e
000000d0: 09ac 02be aa02 d63d 8fdb ab3d ed0b 413e
000000e0: 1cb2 ddbd d69b a7bd bfa7 413e 4f96 bbbd
000000f0: b154 d23d fdd5 1e3e 7dbc dfbd 4e9a ddbd
00000100: adfb 803e 98fd c5bd 68d5 883d f653 c03c
00000110: a1f4 80bd 311e 10be 9b23 bfbd 9d7e adbc
00000120: 03b0 d1bd 417d a1bd 60f2 bb3d e5cc 973e
00000130: c6a1 c23d 982d 29be bc1a 1abe 0a8e e3bc
00000140: c6db 8d3e 00df 383e ef59 5cbe 971b 1c3c
00000150: 099d e53b 22fc 98bc e6b2 5c3e dd89 4ebe
00000160: 2dfe 6e3e 2f42 80be 8c5a 56be 1972 cc3d
00000170: 2fe5 353d 81f7 903e e52f f4bd d7b5 203e
00000180: fb9c b3bc 25ea 813e ef90 f73d 88d1 dc3d
00000190: 07b1 fcbd e101 433e a5c9 9abe 9d74 c63c
000001a0: 3c81 a2bd 4c82 36be 8af4 63be b1ed b03b
000001b0: 51b9 8a3d 91e1 393e 63fd 533d 5b27 e13d
000001c0: 44bb dbbb 2341 32be 9611 48bd e119 91be
000001d0: 0757 8e3e 9d7d d0bc daa3 60bd 123f 4c3e
000001e0: ccd6 de3b 082e 42bc c03a 30be 179d f73d
000001f0: 54e3 443e dc3f 45bd d184 22be c150 593d
00000200: 1ab6 7d3e 9759 52be 3046 52be f157 84be
00000210: 0233 5a3e 6bc5 9f3d 67ae 863e 3d60 0fbe
00000220: 0727 4b3e 9cc9 92bd 3487 38bd d9d3 56be
00000230: b732 eebd f084 6b3e 75d5 5fbe 5c9c 18be
00000240: da3c 823e 9b80 a8bd 6638 1bbe ded5 1d3d
00000250: 0624 e0bc 3703 76be b821 f03d 495c 15be
00000260: 5e16 933e 978f a73d 1fc8 0e3e f6a5 353c
00000270: c07a 8cbe 3ea7 03be 25da c4bd ccc1 2ebe
00000280: d874 54be 5d9e 883e 97ff 943d d77e 9d3d
00000290: fa0d 2e3e 252c 93be 4ff5 c43b b6d3 87be
000002a0: 1149 ef3d e8ab e3bd af5a e23d 67f7 7b3e
000002b0: 4463 1abd b0af f93c 5985 4abc 102a c6bd
000002c0: 6b80 333e 377b 98be a9f9 03be e2db b5bc
000002d0: e51d 84be c34a 9bbe b403 21be 85d1 71be
000002e0: 1b50 a13e a676 f138 cae7 85bc 53e0 67be
000002f0: 7520 8ebd cd28 8bbe 5f1e e63d 435b 033e
00000300: 3863 91be 9477 6e3e 4cfb 503e 9370 4b3e
00000310: fb75 8cbe dc0a 52bd e8e8 183e 897e f73d
00000320: 4e53 993e 3005 88be f454 18be e225 3cbe
00000330: 155c 8d3c cb3a dc3d 3be5 1a3e 2101 d6bc
00000340: fb58 1fbd 9483 bc3d f0a6 abbd 97ec f9bd
00000350: 3e63 953e abbf d63c cc6b f9bd c119 963e
00000360: c693 2c3e 7d4f 873e 21da 053e 89a9 3c3e
00000370: b32f 2dbe 61a9 363e d1c9 273e e683 39bd
00000380: bd6e 99be 3140 6c3e 8218 803e 5f9a a0bc
00000390: d9f3 92be b1d5 d1bd c6ad 293e 1bd9 f03d
000003a0: 9d8a 87bd 95cf 873e cd08 923c 5021 a4bc
000003b0: 7b71 223e a36b 42be ebab e3bd 75de 19be
000003c0: b323 513e d5ac 8fbd 3299 443d 17d0 1c3e
000003d0: 082c 1b3e fefd 843e fd65 57be dfa9 183e
000003e0: bb31 303e 78d7 0d3e d6f4 be3d fcae acbd
000003f0: b062 58be fe37 1cbe 4b47 9b3e 723d 093e
-0.031200748 -0.051178843 0.12671213 0.2531831 -0.29381728 -0.2265997 0.014301722 0.28178427
-0.29612634 -0.066380575 0.023274241 0.25557643 -0.058004446 0.091808155 0.032200463 -0.05391801
-0.2712612 0.16267474 -0.008171311 0.16487314 -0.18216498 -0.121997975 -0.20653395 0.061933532
0.042480856 -0.06409549 -0.2951657 0.16199581 0.23757602 0.26395363 -0.120691545 -0.13043046
0.06222281 -0.0150404265 0.20118421 0.267044 0.03510798 -0.032297906 0.09248186 0.05852155
-0.0639116 0.036934815 -0.00078672287 0.064729765 -0.29958153 0.030489985 -0.27875152 -0.13224955
-0.10343729 -0.10435853 -0.03147751 0.22672045 -0.12760939 0.10449727 0.08391487 0.18852206
-0.10824987 -0.0818402 0.18911646 -0.091595285 0.1027006 0.15511318 -0.10924623 -0.10820447
0.25192013 -0.0966751 0.06681329 0.023477536 -0.06296659 -0.14074017 -0.09332963 -0.021178538
-0.1023865 -0.078852184 0.09177089 0.2964851 0.09503512 -0.16521299 -0.15049261 -0.02777769
0.27706736 0.18053818 -0.21518682 0.009528062 0.0070072454 -0.018674914 0.2155262 -0.20169778
0.23339148 -0.25050494 -0.20932978 0.099827 0.04440802 0.2831383 -0.11923198 0.15694366
-0.02192544 0.2537395 0.12088191 0.107821524 -0.12338453 0.19043685 -0.30231968 0.024225527
-0.07934806 -0.17823142 -0.22261253 0.005399429 0.067736275 0.18152453 0.05175532 0.109938346
-0.0067056734 -0.1740766 -0.048844896 -0.28340057 0.27800772 -0.025450522 -0.05484376 0.19945934
0.006800508 -0.011851795 -0.17209911 0.120905094 0.19227344 -0.048156604 -0.15870978 0.05305553
0.24776497 -0.20541988 -0.20534587 -0.25848344 0.2130852 0.07801326 0.26304933 -0.14001556
0.19839107 -0.0716736 -0.045050815 -0.20979251 -0.11630767 0.2299993 -0.21858771 -0.14903396
0.2543705 -0.082276545 -0.15158233 0.038534038 -0.027360927 -0.24024664 0.11725181 -0.14585985
0.28728002 0.081816845 0.13943528 0.011086931 -0.274374 -0.12856767 -0.0961192 -0.17066115
-0.20747697 0.26683322 0.072753124 0.076902084 0.16997519 -0.28744617 0.0060106884 -0.2652871
0.11683858 -0.11116773 0.11052453 0.24606095 -0.037692323 0.030479282 -0.012360894 -0.096759915
0.17529456 -0.29781505 -0.12888207 -0.022199575 -0.25804058 -0.30330476 -0.15724069 -0.23615082
0.31506428 0.000115138755 -0.016345877 -0.22644167 -0.069397844 -0.27179566 0.112362616 0.12827782
-0.2839601 0.23287803 0.20408362 0.19867162 -0.27433762 -0.051279888 0.14932597 0.120846815
0.2994637 -0.26566458 -0.14876157 -0.18373826 0.017255822 0.10753401 0.15126507 -0.026123585
-0.038903218 0.09204784 -0.0838145 -0.12203329 0.29177278 0.026214441 -0.12178764 0.29316524
0.16853246 0.26427832 0.13071491 0.18424048 -0.16912727 0.1783805 0.1638558 -0.045291804
-0.299673 0.23071362 0.25018698 -0.01960486 -0.28701666 -0.102458365 0.16570196 0.117601596
-0.06618235 0.2652556 0.017826462 -0.020035416 0.15863602 -0.18986373 -0.11116775 -0.15026267
0.20423774 -0.07015387 0.04799766 0.15313755 0.15153515 0.2597503 -0.21034999 0.1490855
0.1720647 0.13851726 0.093240425 -0.08431813 -0.21131396 -0.15255734 0.3032783 0.13402346

var_embedding.3.bias f4 [64]
00000000: 3971 a63d 4444 79bc 5689 9f3d 9c85 b9bc
00000010: 1035 183c 693b 8ebd 2bd4 6a3d c7bf e43d
00000020: 22e9 b6bd ebe1 323d 1f89 42bd 5f35 fd3d
00000030: 923a 383b 6656 3fbd 5eae 8a3d 7815 b93d
00000040: 8ce2 c43b 1cb6 2fbd 82a6 ec3d 22cb f0bd
00000050: 3b6c 99bd a0cc 3abc 5a23 bdbd e7bd 003d
00000060: c4ff ab3d e882 c5bc 70b0 9e3d 3f3d e5bd
00000070: e491 7fbd 0024 fe3d 5768 273c 673a 613c
00000080: 674b 453d 941c c83c d556 643c 93c2 dbbc
00000090: d8ab d03c 3778 61bc efec 51bd c6f5 eebd
000000a0: 9b1f 06bd f343 5dbd df54 bd3c 70cc d7bd
000000b0: 98a8 eebd 133c 0c3c 29e1 40bd 64d3 353d
000000c0: 4cef 933d 7580 b13d 70a7 43bc 8767 843d
000000d0: 4842 a13d 5f7c 63bd f679 4bbd 203d db3c
000000e0: 376f 02bd 2e6d edbc 9d32 99bd 6184 e7bd
000000f0: a489 e03d e695 8cbd 9b28 e63d e370 6fbc
0.08127064 -0.01521403 0.077898666 -0.022646718 0.009289995 -0.06944925 0.057331245 0.11169391
-0.08931185 0.043672483 -0.04749405 0.12363695 0.0028111083 -0.046713255 0.06771539 0.09037298
0.006008452 -0.042898282 0.11555196 -0.117574945 -0.074913464 -0.011401325 -0.092352584 0.031431105
0.08398393 -0.024110273 0.077484965 -0.111933224 -0.06239499 0.1240921 0.010217748 0.013746834
0.048167612 0.02442769 0.013936718 -0.026826179 0.025472566 -0.013761572 -0.051251348 -0.11667971
-0.032744985 -0.05401988 0.023111759 -0.1053704 -0.116532505 0.008559245 -0.04708973 0.04439105
0.07223377 0.08667079 -0.011941776 0.06465059 0.0787397 -0.05553853 -0.049676858 0.026762545
-0.031844344 -0.028982725 -0.07480357 -0.11304546 0.10963753 -0.06864528 0.11238214 -0.014614317

conv_v_to_c.feature_module_left.0.weight f4 [64, 64]
00000000: 2261 2fbe 0622 26be da93 fb3d ff39 1b3e
00000010: 97fa 8a3e 76e6 62bd 3f43 7e3e 0ba9 1abe
00000020: d6fe 65bd e934 64bd 5b40 633e dbec 823e
00000030: bf32 9cbe be0c 203e d245 063d a8a9 5ebe
00000040: e74d f93d 6026 79be 6a64 e9bc 5ef2 83be
00000050: d026 1ebe 10d8 6ebe cebd 9a3e 93fd c33d
00000060: b1c8 003e aaa2 17bd 3857 c13d 6dc5 71be
00000070: c61d 213e 12da 79be 4dbb bdbd 19bf 693e
00000080: eeb5 52be b15e 5d3c d80e e93d 3b36 993e
00000090: b186 23be 70f2 6abe 66d4 653e e664 603e
000000a0: 3bb1 82bd ad69 313d d3b2 923e d753 25be
000000b0: 734e 6cbe 7279 0b3d 7e7d 33be 2b49 633e
000000c0: 43d7 883e 7267 8f3e 5c31 903d a7f5 a23d
000000d0: 00db 943e 1b14 463d c574 43be 9a68 8f3e
000000e0: b9b6 283e aedc 1e3e f7e5 5ebe 2ece 89be
000000f0: a21e 89bd 3127 833e 6da5 033d a5b3 47bd
00000100: f1b4 1c3e ee5a 8b3e 3afe 8e3d 33f1 9bbe
00000110: 4b2e 343e 647a 8c3e 3071 8dbe c84f 343e
00000120: 78a0 823d 5372 943e 7915 173e db79 803e
00000130: 2386 16be 66d0 383e f0bc 05be a037 8d3e
00000140: 2030 7e3d 17f2 a3bd 1b17 6dbe dde3 4bbc
00000150: d4f5 283e 2e49 85be b261 073e 4b9b 053e
00000160: 28d4 d23c b515 633e a6a1 083e 831e d9bc
00000170: 4001 9cbe 4203 873e 85a4 0abe 8eec 003e
00000180: a05c 263e 88e8 9b3e c145 4e3e 2e2d f1bd
00000190: 1651 6c3e 936f 35be 2542 edbd 8e88 23be
000001a0: 77da cbbd 85e4 6d3e 4d0a 0ebe 5942 673e
000001b0: 3a35 89be d193 1e3d dd8c 6abe 34c7 3a3d
000001c0: a45a 64be ac04 083e 518e 3abe 9e04 033e
000001d0: f068 3bbe ae54 93be 64f5 36bd 18db e1bd
000001e0: a702 153d d5e3 9bbe ff97 57be ea9b 8b3e
000001f0: 3b19 45be ada2 4cbd a095 60bd ce72 5bbc
00000200: 0fca 85bd dcd9 583e 648a 9bbe e573 c33c
00000210: c535 b13d 7037 de3d 24f8 843d ffc7 4abe
00000220: 9c7f 853e b7e9 803e e698 963d f641 443e
00000230: 7ff0 943e 987e 683e f259 b53c 599c 9b3e
00000240: 5686 6a3e 1f82 4dbe 9ee8 623e 436a 15be
00000250: a257 86be bc00 84bd beb2 593e 9d5e c7bd
00000260: a1f5 3c3e 2836 893e 3e72 913e 5dbd 543e
00000270: b22d 51be e436 693e 20c2 81be 1618 dfbd
00000280: 2391 673e ac8d b03d 790b 78bd f4c5 8ebe
00000290: 7ff3 803e c07a 953e c22e 19be e3fd 28be
000002a0: 2d0b ebbd c57c 7e3e 7bcc 93be 5845 c33d
000002b0: c410 81be 4e6b c2bd fce1 9ebd 78aa 86be
000002c0: 7a09 88be 864e 183e 931a e6bd 0ce7 813d
000002d0: b7ab 493e 739e 1e3e b40f af3d 67dc 333e
000002e0: 80a0 953e e5e3 933e d0ed 083e 5066 833e
000002f0: 6a6b 833e 6a68 373d c5ed 923d 4110 7dbe
00000300: bc79 473e 5876 8bbe fd80 25be 09a7 473d
00000310: 541e 21be 5c01 77be 152d 903e 44cb a6bd
00000320: c876 5bbe 1546 4d3d adb7 8dbd d6f1 eb3b
00000330: ab9a 8e3e 9a07 93be 36a3 8abe 8af1 8cbd
00000340: a593 fa3b 59f7 813c 5d46 22be f6fe 423e
00000350: bcd4 bc3c afbb 263b b277 08be b42f 44be
00000360: c52e 9c3c a9ad 083e 50f1 3bbd c07d e33d
00000370: 5dc7 e1bd dcfb 01bd b201 f0bc 9c12 d33c
00000380: 8328 ad3d 0422 dfbd d323 343e dfb1 fabd
00000390: f158 d4bd 873b 82be af07 393e 48a7 383e
000003a0: 7089 92be b792 e5bd c2b1 3a3d 3fbc 5fbe
000003b0: d2b2 8cbe 9ebb 95bb 84f1 81be d257 16be
000003c0: cd3e de3d 4719 743e 4f45 973e 84dd 513d
000003d0: ef1a 76be dd01 8a3c cc91 0abe dfd4 88be
000003e0: 59db 4d3d 91eb 373d 2b06 52be f270 ff3c
000003f0: 396c 003e af97 4f3e 0c36 24be 9bc6 363e
-0.17126897 -0.16223916 0.1228406 0.15158843 0.2714431 -0.055395566 0.2483034 -0.15103547
-0.056151234 -0.05571452 0.22192518 0.2557133 -0.30507466 0.15629861 0.03278143 -0.21744406
0.12173062 -0.24331045 -0.028490264 -0.2577085 -0.15444493 -0.23324609 0.30222934 0.0956985
0.12576558 -0.037020363 0.09440464 -0.23610468 0.15734014 -0.24399593 -0.092642404 0.22826804
-0.20577213 0.013511346 0.11379784 0.29924187 -0.1596935 -0.22944045 0.22444305 0.2191349
-0.0638146 0.04331367 0.28652057 -0.16145264 -0.23076801 0.034051366 -0.1752834 0.2219588
0.26726732 0.2800861 0.070406646 0.07957011 0.29073334 0.048359018 -0.19087513 0.28009492
0.16475953 0.1551387 -0.21767412 -0.26915115 -0.06695296 0.25615838 0.032140184 -0.048755307
0.15303399 0.2721781 0.069820836 -0.30457458 0.17595784 0.27437127 -0.27625418 0.17608559
0.06378263 0.28993472 0.14754285 0.25092968 -0.14699607 0.18048248 -0.13060355 0.275815
0.062057614 -0.08005159 -0.23153345 -0.012444464 0.16500026 -0.26032394 0.13220862 0.13047521
0.02573593 0.2217625 0.13342914 -0.026503807 -0.30469704 0.26369673 -0.13539322 0.12590238
0.16246271 0.30450845 0.20143797 -0.117761955 0.23077807 -0.17718343 -0.11584882 -0.1597006
-0.09953778 0.23231705 -0.13871117 0.22583903 -0.2679842 0.038715187 -0.22905298 0.04560013
-0.22300202 0.13283032 -0.18218352 0.1279473 -0.18301749 -0.28775543 -0.044667616 -0.11028117
0.036379483 -0.3044726 -0.21054076 0.2726739 -0.19247906 -0.049959827 -0.054830194 -0.013394071
-0.0653268 0.21176857 -0.3037902 0.023858974 0.08652834 0.108504176 0.064926416 -0.19802855
0.2607392 0.2517831 0.07353382 0.19165787 0.29089734 0.22704542 0.022137616 0.3039272
0.22902808 -0.20069169 0.22159049 -0.14591317 -0.26238734 -0.064454526 0.21259591 -0.09734843
0.18453075 0.2679913 0.28407472 0.20775361 -0.20427588 0.22774845 -0.25343418 -0.10893266
0.22613959 0.08620772 -0.060557816 -0.278854 0.25185773 0.29195213 -0.14959243 -0.165031
-0.11476741 0.24852283 -0.28866944 0.09534711 -0.25208104 -0.09493123 -0.07757947 -0.26301932
-0.2656973 0.14873704 -0.112355374 0.06342897 0.1969441 0.15490131 0.08547917 0.17564546
0.29224014 0.28884807 0.13371968 0.25663996 0.25667888 0.04477731 0.07174257 -0.24713232
0.19480032 -0.27238727 -0.16162486 0.04874328 -0.15734226 -0.24121612 0.28159395 -0.081442386
-0.2143203 0.050115664 -0.06919799 0.00720046 0.27852377 -0.28716737 -0.27077645 -0.068820074
0.007646995 0.015865015 -0.15847154 0.19042572 0.023050658 0.0025441458 -0.1332691 -0.19158822
0.01906527 0.13347496 -0.04588443 0.11107969 -0.11024354 -0.031734332 -0.029297683 0.02576571
0.084549926 -0.1089516 0.17591791 -0.122409575 -0.10368527 -0.2543604 0.18069337 0.18032563
-0.28620481 -0.11209624 0.04557968 -0.21849154 -0.2748018 -0.004569485 -0.25379574 -0.14681938
0.10851822 0.23837768 0.29545066 0.051236644 -0.24033712 0.016846592 -0.1353218 -0.26724908
0.050258014 0.044902388 -0.20510165 0.031181786 0.12541284 0.20272706 -0.16036242 0.178492

conv_v_to_c.feature_module_left.0.bias f4 [64]
00000000: 3b42 ac3d 1b46 b43c 2a86 563d 0b1a d7bd
00000010: 6950 09bb 9fa8 ddbb 63ac b83d 3952 10bd
00000020: 329d 823c 2046 9bbd 736c cebd a1b0 a9bc
00000030: 7b4a cc3c edeb fa3d cca0 6d3d ba05 e2bc
00000040: 8c22 0cbd 8782 acbd ca69 febc 6204 d9bc
00000050: ced4 76bd 08c5 af3d 84a4 3abd 01f3 463d
00000060: 2207 b63d d6d8 78bc 9728 9a3d 3e27 d33d
00000070: c14f 03bd ccd9 b83c 7ae0 96bd 1153 20bd
00000080: 8b52 a23d e7d4 01bd cd17 e83d 3e64 cf3c
00000090: 25b6 c039 5301 bebd 78bd 50bc 7b68 a03d
000000a0: 910b 953d e4dc 773c f84d b0bd 3278 ddbd
000000b0: 832c ccbd c310 ffbd 1b0a 663d 22b8 723d
000000c0: d80e e83c c33c 4b3b f683 a6bd 00f5 ec3d
000000d0: b299 233d 1ae9 8f3d 8bd7 f43c bdc3 e83d
000000e0: 12d3 8dbd 39cd f23d da23 f13d 3a9b ecbd
000000f0: d426 c43d 71a8 d23d a976 c7bd 22ef 3ebc
0.0841107 0.022006085 0.052374043 -0.10503014 -0.002095247 -0.006764486 0.09017255 -0.035234664
0.015944097 -0.07581735 -0.10079279 -0.020714106 0.024937859 0.122520305 0.058014676 -0.027590621
-0.034212634 -0.084233336 -0.031056304 -0.026491348 -0.06026154 0.085825026 -0.04556705 0.04857159
0.08888079 -0.0151884165 0.07527273 0.10310219 -0.03205848 0.022564791 -0.07367034 -0.03914172
0.079259 -0.03169718 0.11332665 0.025316354 0.00036756802 -0.09277596 -0.012740485 0.07832428
0.07277597 0.015128348 -0.08608621 -0.10813941 -0.099694274 -0.12454369 0.05616198 0.059257634
0.02832739 0.0031011559 -0.08130638 0.115701675 0.039941497 0.070268825 0.029887935 0.11365459
-0.06925024 0.11855549 0.11774416 -0.115530446 0.095777184 0.10286034 -0.097394295 -0.011653693

conv_v_to_c.feature_module_edge.0.weight f4 [64, 1]
00000000: ca10 b5bf 626b 46bf b250 853f 28c5 c2bf
00000010: 0e80 ae3f 4200 8c3d 32dc a13e b4ab cebf
00000020: b079 57be 5a7d f73f 87ab 3b3e ee3f 723e
00000030: b807 2abf 0f34 abbf a4d5 e0be 1271 8c3f
00000040: dd75 84bf 502d 57bf 4510 513f 0bd1 cd3e
00000050: 45e0 e43e afdf dd3f c7ee ce3f ae85 e9be
00000060: e381 cd3f 5bc4 f8be 03b1 1dbf a2e5 1340
00000070: 2668 9b3e 3076 6c3f 6ec8 4dbf 62ce a1be
00000080: a125 0640 759c b5bf 8bb3 15c0 4820 efbf
00000090: 5cab 80bf ab1c a0bf 77e9 2fbe f419 e6bf
000000a0: e2a1 4b3c 0e34 81bf 7968 91bf 821e 90be
000000b0: 91ff 81bf 8a3c f33f efd9 c5be bfb5 1cc0
000000c0: 5f63 21bf d852 0dc0 3c91 f53e 40d8 1ac0
000000d0: 4646 16bf 1f9c e13f 15ce 23bf dfa8 01c0
000000e0: 41d2 0740 1f52 ce3f e7de 0bc0 96ae 0d40
000000f0: a57a d8bf 2474 aa3d 7d6e 0ac0 89b2 23bf
-1.4145749 -0.77507603 1.0415251 -1.5216417 1.3632829 0.06835987 0.31613308 -1.614615
-0.21042514 1.9335129 0.18327151 0.236572 -0.6641803 -1.3375262 -0.43912995 1.0972006
-1.0348469 -0.84053516 0.8166545 0.4019855 0.44702354 1.7333888 1.6166619 -0.45609802
1.6055263 -0.48587307 -0.61598223 2.3108907 0.30352896 0.9236784 -0.80383956 -0.3160277
2.0960467 -1.4188372 -2.3390834 -1.8681726 -1.0052295 -1.2508749 -0.17178904 -1.797667
0.012428733 -1.0094011 -1.1360008 -0.28148276 -1.0156118 1.900285 -0.38642833 -2.448593
-0.63042253 -2.2081814 0.47962368 -2.4194489 -0.5870098 1.7625769 -0.6398633 -2.025932
2.1222079 1.6118811 -2.1854799 2.2137809 -1.6912428 0.08322933 -2.1629937 -0.639443

conv_v_to_c.feature_module_right.0.weight f4 [64, 64]
00000000: 0257 103e d787 9bbe b222 d1bd 5abe 7dba
00000010: 6399 12be e7b7 9cbe a5e7 0f3e 45b6 9d3e
00000020: 2dd2 6ebd d300 d63d 57f6 34be 2320 51be
00000030: 7ba7 913e f2d0 8abd 520f 923c 6a4d 82be
00000040: d3a1 c2bd 704e 8cbe f699 9abc 4396 96be
00000050: ef7e 4a3e 49e8 85be 262b 963b d5d9 88bd
00000060: 0648 4ebe 5c1c 923e b9cd 7c3a 6ae2 8bbe
00000070: 8556 91bd 8604 153e fcf1 47be f7cb 88be
00000080: 54d0 b1bd d3ae a2bc 788e 37be faea 953e
00000090: 2168 e43d ef67 803e 216d 643e df8f 8f3e
000000a0: cfd7 b0bc 7e1a 80be e06a a8bd 8751 45be
000000b0: 1cc6 8fb9 9ffe 8e3e 79ba 4e3e ae91 833e
000000c0: 7182 e8bd 10d9 8cbe 0e8f e0bd 252c a23d
000000d0: bebe 203e c08e a0bd db59 c73d 5716 783d
000000e0: dadf 6dbd 75e1 573e 7ba0 6cbe 7bea 5a3e
000000f0: d97e e53d e2c4 7cbe 2654 3abe 5df8 85be
00000100: a222 ebbd 3948 723e 0f02 7f3e e0b2 0d3d
00000110: 072e 0abe 0dd9 1cbe ac76 863d f548 83bd
00000120: 2234 213e cd9f be3d 02b7 69bd f88e 9b3e
00000130: 5830 1e3e 8b11 793e f063 013e f282 9b3e
00000140: 7c30 813e baef 28be 9aab 883e dfef ae3d
00000150: 5aea 5ebe ae08 093e 7600 96be 7761 8abe
00000160: 983b d4bd 9669 0b3d 9fd6 debc 5943 a2bd
00000170: 4d0b 603e 5196 303e 9e0d 87bd 71e4 6a3d
00000180: 10ee 1d3e dd32 73be f9e8 2ebe d07b 903e
00000190: 73ca 8c3e 897b aabc 9d14 14be 2ae0 ecbd
000001a0: 9fcf 1dbe d6c4 923e 7ff4 8ebd 0747 04bd
000001b0: 999e 443e d7f2 e7bd 8d4c c1bd 1f5a 893e
000001c0: 36ab 3ebe 284f 44be 4853 673d 7161 4bbe
000001d0: b306 063e 9b4d b93d b21b 51bd ce4b 323d
000001e0: 8328 593b 4755 85be 7b24 9e3e dab4 23bd
000001f0: f0b1 8d3e 94c4 5a3e e5ed 3abd ae90 863e
00000200: d8b2 1c3e 296f 6bbc bcad 603b bce5 933d
00000210: d311 163e 5dd2 78be ae1f 103e 82b0 0c3e
00000220: ef3f 293e 79ec 5b3e 45dc d5bd 891c 29be
00000230: 6881 8cbe db2d 8a3c 4020 73bd 0dd3 48be
00000240: 73b3 b1bc 768a 07be 7924 7cbe 7b53 3a3e
00000250: 5bc1 b33c 6d22 ddbd d307 0e3e 1e24 403e
00000260: 9b11 90be 9e79 13be d1be 8e3e 44e1 1dbe
00000270: 594c d6bd 0045 503e fdb5 1abe 05a0 63bd
00000280: 6118 553e f6ef 65be 193e 633e efe8 90be
00000290: 5cb8 49be fc49 533e da6c 3d3e 8d67 073e
000002a0: 0162 783d 1f34 34be 84f2 ee3d d46d 73bd
000002b0: e92b 4c3e 4ae2 03be 8def 3c3e 9626 123e
000002c0: 014a 6dbe 7642 963e c5e4 d8bd 333e 85be
000002d0: 5d69 26be 05ad a93d ee4b a43d ac6b 953e
000002e0: 71a4 68be 6bcb f43d cc48 6f3d 7db2 0bbe
000002f0: 7280 45be 9bd4 96be 6e72 47be ab34 803e
00000300: e6da 2f3e fc61 76be 2d98 c7bb 1d49 84be
00000310: dd4e 8cbe 8f0b 37be c430 bbbd f9b5 0abe
00000320: 8279 babc 34d1 8c3e dd38 873d 2607 893e
00000330: 9832 8d3e b575 553c 8af7 343e e185 b7bd
00000340: 8e91 b53d 881f 68be 5a18 5fbe 5f55 19be
00000350: 11bb 2dbe 30a3 d43d 3270 743e 3f34 93be
00000360: 4afc d6bd c7ef d83d 77e3 973d 8ffe 01be
00000370: 0b09 393c 2c7e 8b3d a223 0bbe 3b58 5dbe
00000380: 5dda 06be 931e 123e f7ce b83d 3848 2e3d
00000390: ae07 96be f19f 96be a8db dcbc 091f 52be
000003a0: 998c 4ebe 1fdc 96be 5357 75be 6748 87be
000003b0: 812a 74be f604 a43d 04c2 873d aacb ccbc
000003c0: ca96 b8bd f1c9 853e 20b9 17bd bd21 c33d
000003d0: 21e1 bb3d 8da8 353e 4698 813e 5555 a53c
000003e0: 6f4b f3bb df75 c13b 0712 683e eff4 83be
000003f0: 19e6 61be 7772 863d 9078 373d 3bf8 013e
0.14095691 -0.30377075 -0.10211696 -0.00096795487 -0.14316325 -0.30609056 0.14053209 0.30803123
-0.058305908 0.10449376 -0.17672096 -0.20422415 0.2844809 -0.067781344 0.01782957 -0.25449687
-0.09503522 -0.27403593 -0.018872242 -0.29411516 0.19774984 -0.26153782 0.0045827804 -0.06682173
-0.20144662 0.2853726 0.0009643692 -0.27321178 -0.070965804 0.14552507 -0.19525903 -0.26718113
-0.086823136 -0.019858753 -0.17925441 0.29280835 0.111526735 0.25079295 0.22307254 0.28039452
-0.02158728 -0.25020212 -0.0822351 -0.19269381 -0.00027422688 0.27928635 0.20188321 0.25697082
-0.11353005 -0.27509356 -0.109647855 0.07918576 0.15697762 -0.078397274 0.097339354 0.06056818
-0.05807481 0.21082099 -0.23108093 0.2137851 0.11205835 -0.2468448 -0.18196163 -0.2616605
-0.11481215 0.23660363 0.24903129 0.034594417 -0.1349412 -0.15317173 0.065656036 -0.064104
0.15742543 0.09307823 -0.057059295 0.30382514 0.15448129 0.24323098 0.1263578 0.3037334
0.25232303 -0.16497698 0.26693422 0.085418455 -0.21769086 0.13382217 -0.29297227 -0.27027485
-0.10362929 0.03403624 -0.027201949 -0.07923002 0.21879311 0.17244841 -0.06594394 0.057346765
0.15422845 -0.23749872 -0.1708106 0.2821946 0.27498206 -0.02081086 -0.14460988 -0.115661934
-0.15411232 0.286658 -0.06980228 -0.0322943 0.19201125 -0.11325615 -0.09438429 0.2682657
-0.1862 -0.1917082 0.056475908 -0.1986139 0.13088493 0.09048005 -0.051051803 0.043529324
0.003313572 -0.26041624 0.30887207 -0.039967395 0.27674818 0.21364051 -0.04563703 0.26282257
0.15302598 -0.014369764 0.0034283241 0.07221553 0.14655237 -0.24298997 0.14074585 0.13739207
0.16528295 0.21476926 -0.10442404 -0.16514792 -0.2744248 0.016867569 -0.059356928 -0.1961176
-0.021692013 -0.13236412 -0.24623288 0.18195908 0.021942785 -0.10797582 0.13870172 0.18763778
-0.28138432 -0.14401862 0.27879956 -0.15417963 -0.10463781 0.20338821 -0.15108486 -0.05557253
0.20810081 -0.22454819 0.22191657 -0.28302714 -0.19699234 0.20633692 0.18498555 0.13223095
0.06064034 -0.17598008 0.1166735 -0.059430912 0.19938625 -0.12879291 0.18450756 0.14272532
-0.23172761 0.2934758 -0.10590509 -0.26024017 -0.1625113 0.08284954 0.08022295 0.2918371
-0.2271898 0.119528614 0.058419034 -0.13642307 -0.19287279 -0.2945908 -0.19477245 0.25040182
0.17173347 -0.24060816 -0.006091139 -0.2583703 -0.27403918 -0.17875503 -0.09140161 -0.1354598
-0.022763018 0.2750336 0.06602643 0.26763266 0.27577662 0.013028552 0.17672554 -0.08961082
0.08865653 -0.22668278 -0.21786633 -0.14973973 -0.16965891 0.10382688 0.23870924 -0.28750798
-0.10497339 0.10592609 0.07416432 -0.12694763 0.01129366 0.06811175 -0.13587812 -0.21615689
-0.13169236 0.14269476 0.090238504 0.042549342 -0.29302734 -0.294189 -0.026960209 -0.20519651
-0.20170821 -0.29464814 -0.23959093 -0.26422426 -0.23844339 0.08008759 0.066288024 -0.024999458
-0.09013136 0.26130632 -0.037041783 0.095279194 0.09173799 0.17740078 0.25311488 0.020182291
-0.007424764 0.005903944 0.22663127 -0.25772807 -0.22060432 0.06564801 0.04479271 0.12692349

conv_v_to_c.feature_module_final.0.weight f4 [64]
00000000: f81d 803f d2c5 7f3f e6e2 7f3f 3a1f 803f
00000010: a4b4 7f3f 6172 803f 66b5 7f3f 1bfc 7f3f
00000020: 0d33 803f a54b 803f 033f 803f d019 803f
00000030: 4c11 803f 4747 803f cca7 7f3f 1806 803f
00000040: ff30 803f 3f14 803f 4d94 7f3f ae0f 803f
00000050: 5e00 803f b5c8 7f3f c7f6 803f a3de 7f3f
00000060: 64d6 7f3f 17df 7f3f 7f1c 803f d12f 803f
00000070: 985b 7f3f 5424 803f ee35 803f c20c 803f
00000080: d46f 7f3f a3d0 7f3f ab25 803f 48aa 7f3f
00000090: 42ee 7e3f a093 7f3f b375 803f 1df8 7f3f
000000a0: e780 803f e434 7f3f 3db2 7e3f 6cc9 7f3f
000000b0: 586d 803f 58e6 7f3f 12eb 7e3f d634 803f
000000c0: 8608 803f 6dba 7f3f 9bb2 7f3f 242f 803f
000000d0: 2fb6 7f3f 2b29 803f 2828 803f 73f3 7f3f
000000e0: ff00 803f 5228 803f d06c 7f3f 1dad 7f3f
000000f0: 2445 803f 6502 803f a742 803f 3cdf 7f3f
1.0009146 0.99911225 0.99955595 1.000953 0.9988501 1.0034906 0.9988617 0.9999406
1.001558 1.0023085 1.001923 1.0007877 1.0005279 1.0021752 0.9986541 1.000186
1.0014952 1.0006179 0.99835664 1.0004785 1.0000112 0.9991563 1.007531 0.9994909
0.9993651 0.99949783 1.0008696 1.0014592 0.99749136 1.0011086 1.0016458 1.0003893
0.9978001 0.9992773 1.0011495 0.99869204 0.995823 0.9983463 1.0035919 0.99987966
1.0039338 0.9969008 0.9949072 0.9991672 1.0033369 0.9996085 0.9957744 1.0016124
1.0002601 0.9989384 0.99881905 1.0014386 0.99887365 1.0012563 1.0012255 0.9998085
1.0000304 1.0012305 0.9977541 0.99873525 1.00211 1.0000731 1.0020341 0.99950004

conv_v_to_c.feature_module_final.0.bias f4 [64]
00000000: d138 aab7 5e39 97ba 7f5e c739 fd77 893a
00000010: bcc7 d1ba e663 633b 5e89 8539 f6fa b6b8
00000020: f46c 1b39 7971 893a 1f6a d93a a51a e139
00000030: a4af 8339 4bab 183b b76e a8ba f8de f0b9
00000040: e36f cd39 f655 9039 a1f9 a1b9 1366 c538
00000050: c9e7 41b9 ab20 eaba 8fde 1c3c 4afe d9ba
00000060: 8be0 6039 0201 27ba 4df0 9537 e3e9 c93a
00000070: 1bab c5ba 530b 6d3a 4ba1 393a 1d3c a0b9
00000080: eac5 bfba ff90 51ba 92c0 853a 75ce 1bba
00000090: 2fcf 46bb f785 2dba 45d2 333b 1718 43b9
000000a0: cf2f 763b 2231 40bb 315c afbb c32c 61ba
000000b0: 66eb 2d3b a858 4fba 6a9a 3ebb 13a7 8d3a
000000c0: 7707 033a 846a 99ba f127 d6b9 377f 863a
000000d0: 5144 95ba 6bc8 6cb8 f6c0 2b3a 3109 5c3a
000000e0: e09c 94b8 9aeb ee3a faa3 52bb 59be 80b8
000000f0: d2a5 eb3a e138 b4ba fbee 023b 8f67 bdba
-2.0292036e-05 -0.0011537482 0.00038026643 0.001048803 -0.001600496 0.0034696995 0.00025470083 -8.7251814e-05
0.0001482254 0.0010486088 0.0016587413 0.00042935196 0.0002511713 0.0023295458 -0.0012850378 -0.00045942492
0.0003918401 0.00027529866 -0.000308943 9.412705e-05 -0.00018492261 -0.0017862519 0.0095745465 -0.001663157
0.00021445953 -0.00063706946 1.7874083e-05 0.0015404787 -0.0015080901 0.000904252 0.00070812245 -0.00030562366
-0.0014631127 -0.00079943234 0.0010204485 -0.0005943545 -0.0030335893 -0.00066193886 0.0027438563 -0.00018605623
0.0037565117 -0.002932616 -0.0053515662 -0.0008589739 0.0026538013 -0.0007909634 -0.0029083737 0.0010807238
0.0004998366 -0.0011704718 -0.0004084702 0.0010261302 -0.0011388158 -5.645344e-05 0.0006551886 0.00083937036
-7.08641e-05 0.0018228174 -0.0032141195 -6.138971e-05 0.0017978495 -0.0013749861 0.001997887 -0.0014450419
