rl_model/SCPPO_value_59.pth (torch_old, 472694 bytes, 71 tensors)

cons_embedding.0.weight f4 [4]
000000 87 e7 7f 3f 5a d3 7f 3f 89 df 7f 3f 42 10 80 3f
       0.9996266 0.9993187 0.9995046 1.0004961

cons_embedding.0.bias f4 [4]
000000 8a f0 c0 39 e7 c2 37 3a 13 37 00 ba 7c 98 fd 39
       0.0003680031 0.00070099387 -0.0004891019 0.0004836953

cons_embedding.1.weight f4 [64, 4]
000000 47 4d f0 3d 5a 4e 6f 3e f1 3f 93 3e ab 0a 26 bf
       0.117334895 0.23369732 0.2875972 -0.6486003
000010 57 bd 70 bf 16 62 9f be 43 8a 89 3f a1 57 3e bd
       -0.9403891 -0.3112952 1.0745319 -0.04647029
000020 a1 1c 23 3f 90 d5 8f 3f dc 7b 8e bf 37 79 93 3f
       0.6371556 1.1237049 -1.1131549 1.1521367
000030 b7 16 5c bf d3 8f 06 bf a0 5a 8d 3f 6f af 9a 3f
       -0.8597216 -0.5256321 1.1043282 1.2084788
000040 2c 56 87 be 35 27 27 3f e0 44 ab be c0 5b 03 bf
       -0.2643293 0.652942 -0.33450985 -0.51311874
000050 7f a9 43 3e 4d f4 fd 3d 82 c2 7e be f8 ba 42 be
       0.19107626 0.12400112 -0.24878886 -0.19016635
000060 d1 80 0e bf 75 61 f4 be 49 4c 94 bf 38 1e 3d bf
       -0.5566531 -0.47730604 -1.158578 -0.73874235
000070 6e 50 12 3f 71 85 18 3f 1e 63 7f bf 16 de 5f bf
       0.57153976 0.59578615 -0.99760616 -0.8744825
000080 a1 08 48 3f 03 0d 6a 3f 9d c0 5a 3f fe e0 80 bf
       0.78138167 0.91426104 0.85450155 -1.0068662
000090 e5 2d cc bd 6b cd 3d bf 3c e1 2d 3f 4e f6 14 bf
       -0.09969691 -0.7414157 0.67921805 -0.5818833
0000a0 85 6c 48 be 4c 48 6a bf 8f e1 13 3e 24 e1 71 3f
       -0.19572647 -0.91516566 0.14441513 0.9448416
0000b0 56 bc 32 be 96 e1 3a 3f a5 de 59 bf 9e d7 14 bf
       -0.17454657 0.73000467 -0.85105354 -0.58141506
0000c0 d0 a0 26 3f a9 51 76 3f 83 59 11 be fe bf 83 3e
       0.6508913 0.96218354 -0.14194302 0.25732416
0000d0 e6 48 67 3f 26 55 85 3f 5e c3 66 3f b3 26 b8 be
       0.9034561 1.041661 0.90141857 -0.35967025
0000e0 af ce 25 3f 24 f4 cc 3e 6b 1b 93 bd bb 0d 5c 3f
       0.647685 0.40030015 -0.07182964 0.8595845
0000f0 d5 89 61 3f 47 bf 16 3e b3 d3 5d 3f 7e b3 30 bf
       0.8810094 0.14721404 0.8665115 -0.69023883
000100 39 15 32 bf 5e c0 72 3f e7 9c 92 3f 91 03 90 3f
       -0.69563633 0.9482478 1.1454133 1.1251088
000110 63 79 97 3e 99 f1 8c bf af 02 9b 3f 8a fe 73 3f
       0.29584798 -1.101123 1.2110194 0.9531027
000120 88 eb ef 3e 89 98 1b bf f5 47 59 bf 7b e8 04 bc
       0.46859384 -0.60779625 -0.8487542 -0.008112068
000130 e2 e5 9d 3d 55 ad 97 3f 93 10 a1 3e 38 e6 00 3f
       0.07709862 1.1849772 0.31457958 0.50351286
000140 37 78 98 3c 4e c0 bf 3e 01 7d f9 bd 2a 9e a3 bd
       0.01861201 0.37451404 -0.12182046 -0.07989152
000150 ca 9d d7 be 7c df 0d bf 21 65 4f bf a0 9a 39 3f
       -0.4211257 -0.55419135 -0.81013685 0.72501564
000160 4b f2 1a bf a1 ec 56 3f d1 4b 7a bf d8 fc 00 bf
       -0.6052596 0.8395482 -0.97771937 -0.5038581
000170 d9 ad 47 be 42 34 b5 3e 50 ad 45 3e 13 9a 59 3f
       -0.19499911 0.35391432 0.19304395 0.85000724
000180 33 24 1c bd 17 e3 b9 be 78 e1 65 3d 14 40 65 3f
       -0.03812046 -0.36306068 0.056123227 0.895509
000190 3d 3d 89 bf 4b 24 9d 3e be 32 5b bf 7a 70 98 3f
       -1.0721813 0.30691752 -0.856243 1.1909325
0001a0 2a 28 44 bf 40 a4 94 3e ae 01 23 be 50 f1 2e 3f
       -0.76623785 0.29031563 -0.1591861 0.68336964
0001b0 78 9b 11 bf 7a 18 0f 3f bc 48 57 bf 21 70 86 3e
       -0.5687785 0.55896723 -0.8409536 0.26257423
0001c0 b2 f1 21 3f bf 22 0e bf 89 5f 11 bf 53 0d 27 3f
       0.6325942 -0.5552177 -0.567864 0.65254706
0001d0 60 af c6 3d 30 f0 39 bf 5b 06 7f 3e b5 70 ec be
       0.09701419 -0.7263212 0.24904768 -0.4617974
0001e0 58 bd 3c be 56 70 a4 be 98 c1 29 3f 8c 31 85 3f
       -0.18431604 -0.32116956 0.66311026 1.0405746
0001f0 e1 01 bb 3e 2e c0 05 bf 92 56 3d 3f 2d bd 31 3c
       0.3652487 -0.5224637 0.7396022 0.010848326
000200 61 b2 bf 3b 80 47 8b 3e 11 19 e9 be 43 0c 01 3f
       0.005850122 0.27202988 -0.45526937 0.50409335
000210 f5 39 0a be 12 cd 4e bf 88 d1 04 3f 5f 95 51 bf
       -0.13498671 -0.8078166 0.5188222 -0.8186855
000220 57 94 87 bf f8 2a 20 3f 31 17 87 3f 8c a8 67 bf
       -1.0592145 0.62565565 1.0553952 -0.9049156
000230 e4 da 7a be 19 11 81 3f ae a5 6b 3f aa 51 ff 3e
       -0.24497563 1.0083343 0.9204968 0.49866992
000240 aa 4a 25 bd 6f bd 09 3f 9d e5 2a 3f 3c 63 66 bf
       -0.04035441 0.5380468 0.6675661 -0.8999517
000250 c6 7e 0e bf e1 c4 23 bf 6e 62 89 bf 44 dd 69 bf
       -0.5566219 -0.6397229 -1.0733163 -0.9135325
000260 c6 73 4d 3f b0 58 e2 bd fd de d8 3d f7 48 b3 be
       0.8025478 -0.11052072 0.10589407 -0.35016605
000270 13 0d bc 3b 1a 4e 93 bf d4 83 69 3f 54 08 78 3f
       0.0057388633 -1.150821 0.9121678 0.9688771
000280 14 2b 7f 3e 27 d8 9a 3f 94 4f d5 be 22 6a 48 bf
       0.24918777 1.2097214 -0.41662276 -0.78286946
000290 0b cf 1a 3e 12 d5 97 3f c9 d3 49 3f 9e 14 6d be
       0.15118043 1.1861899 0.78838784 -0.23152396
0002a0 88 71 29 bc fc f6 34 bf 04 85 e4 3d 03 6b 23 bf
       -0.010342009 -0.7068937 0.11158183 -0.6383516
0002b0 eb 9d 6e 3f ea 23 97 bf 11 ce 94 3f bc 78 0f 3f
       0.93209714 -1.1807835 1.1625386 0.560436
0002c0 d3 7a b4 3e d8 d8 83 3f 8b 98 9c 3f 81 a5 fb 3e
       0.35249957 1.030055 1.2234052 0.49149707
0002d0 62 20 8a bf 1b 1d 27 3e 98 39 88 3f 19 ab b4 be
       -1.0791132 0.16319697 1.0642576 -0.35286787
0002e0 84 77 1a be 2a 5f 76 bf 3b ef 25 3f 13 bd 60 3f
       -0.15084654 -0.9623896 0.6481816 0.87788504
0002f0 1a b6 0a bf 59 39 9b 3f 4e f4 d1 3b 51 53 e8 3e
       -0.54184115 1.2126876 0.006407297 0.45376065
000300 47 ec 78 3e ea 7b 91 3f 73 af 6d be f5 b1 84 3e
       0.24308883 1.136594 -0.2321146 0.2591702
000310 e3 bb 01 be 70 ad 1a bf 6e a5 52 3f 15 18 79 3e
       -0.1266933 -0.60420895 0.82283676 0.24325593
000320 b5 a8 5f 3f 79 61 1f 3f 45 f6 6b bf 01 e3 0e be
       0.873668 0.62258106 -0.9217265 -0.13953783
000330 9d 9e 0d 3f 44 0f 8b bf 3a b2 ec 3e e8 06 59 3f
       0.5532015 -1.0864034 0.46229726 0.84776163
000340 08 4e 8c 3e 93 71 21 3f a3 f3 43 bf 06 28 69 be
       0.27403283 0.63063926 -0.76543635 -0.22769174
000350 d8 e5 3c bf 1a 33 19 be bf fb 9b 3f f0 b9 5f be
       -0.73788214 -0.149609 1.2186202 -0.21848273
000360 7f 26 93 bf 34 3b 2e be 94 4c a4 bc 62 40 6a bf
       -1.1496123 -0.17014772 -0.020056047 -0.9150449
000370 8b e8 9d be 74 ff 99 be 93 ab a8 be 4a 03 22 3f
       -0.3084148 -0.30077708 -0.329434 0.6328627
000380 6c 8a 8f 3f f5 14 2c bf 16 d1 84 bf 86 b5 1a 3f
       1.1214118 -0.6721948 -1.0376308 0.6043323
000390 45 e3 2c 3d 89 13 9f 3d 8a 28 dc 3e d9 c6 85 bd
       0.04220893 0.07767398 0.4299968 -0.06532068
0003a0 41 46 5a 3e 9b 1b 47 3f 9e c7 2f bf 6b f8 b1 3e
       0.21315862 0.777765 -0.68663967 0.3475984
0003b0 2f 28 f2 3d f6 0e 1c 3f 29 cc 39 3f d2 1c a4 3e
       0.11824071 0.6096033 0.7257715 0.32053238
0003c0 72 ac 1c bf 2a 60 99 bf 64 27 34 3f 47 6e 43 3f
       -0.6120063 -1.1982472 0.70372605 0.76340145
0003d0 ea 22 09 be cd 98 83 3e ea de 06 3f 0b d7 45 be
       -0.13392225 0.25702515 0.5268389 -0.19320314
0003e0 73 41 61 3f 25 38 17 bf 24 d9 1f 3f 70 ed 05 bf
       0.8799049 -0.59070045 0.62440705 -0.52315426
0003f0 06 af 8d bf 9e 57 30 bf 10 ab 15 bf a9 38 a7 bd
       -1.1069038 -0.68883693 -0.58464146 -0.08165104

cons_embedding.1.bias f4 [64]
000000 0d 6f fe 3e fb d9 37 bd 9b c4 bf 3e a4 46 97 3e
       0.496941 -0.044885617 0.37454686 0.29546082
000010 3b ea a8 bc 84 91 f1 3d 89 b5 07 3e c8 03 ee 3e
       -0.020619502 0.11795333 0.13252844 0.4648726
000020 14 bd 0b 3e 00 4c a0 3e 04 d9 c4 be 80 5d 03 bd
       0.13646346 0.31307983 -0.3844682 -0.03207159
000030 2e 3c f0 3e 82 17 db 3e 77 90 f4 be e2 4e a7 be
       0.46920913 0.42791373 -0.47766468 -0.3267737
000040 88 3a df 3e ab 2f c7 3e e2 af fe 3d 96 ef d1 3e
       0.43599343 0.38903555 0.12435891 0.41003102
000050 90 ab e2 3e 72 ca e8 bd 49 7c ff 3e bf 48 fe 3d
       0.44271517 -0.113667384 0.4989951 0.12416219
000060 6a 9d d4 3e 85 8c 49 be 26 b8 dc be 66 04 40 3d
       0.41526347 -0.1968251 -0.43109244 0.046879195
000070 80 dc 79 bc a8 23 b5 be a4 cd 22 3e 68 13 69 3e
       -0.015250325 -0.35378766 0.15898758 0.22761309
000080 cc 8a 3d 3d 63 dc 91 be 60 30 84 bb 68 d1 11 bd
       0.046274945 -0.28488454 -0.004034087 -0.035600096
000090 ac dc 80 be 59 06 ad 3e 54 7a d9 bd 3f da e2 be
       -0.2516836 0.33793905 -0.10619035 -0.44307134
0000a0 01 f5 77 be e1 a1 9d be b9 b6 e8 3e 75 94 a9 bd
       -0.24214555 -0.30787566 0.45451906 -0.08280269
0000b0 be 55 7e be fc ef 55 bd b1 4d 36 3d 85 a1 aa 3d
       -0.24837396 -0.05223082 0.044507686 0.08331589
0000c0 a9 57 4e be 51 9f 7c be 97 b9 e3 3e db 4b c6 3e
       -0.20150627 -0.2467015 0.4447753 0.38729748
0000d0 a6 ab fa 3e 35 51 27 3e c7 41 99 3e 01 a4 48 bd
       0.48959082 0.16339572 0.29932997 -0.04898453
0000e0 d9 f6 d5 3e 75 f7 fb be d3 bd eb bd 62 1b 64 3e
       0.41789892 -0.49212232 -0.115108155 0.2227607
0000f0 80 bc e5 3e 8a af 36 be 03 29 ee be e5 89 f9 be
       0.44870377 -0.178404 -0.46515664 -0.48738018

cons_embedding.3.weight f4 [64, 64]
000000 4f 02 78 3e 17 9a 58 bd 1e 49 94 3e a8 db 05 be
       0.2421963 -0.052881327 0.28962034 -0.13072073
000010 50 f8 6d bd d9 bc 8b 3e 8e 8f b6 3d 1f 53 6a be
       -0.058098137 0.27292517 0.089141 -0.2288327
000020 c0 8d ed 39 31 f3 25 bd 43 8f 3a be d2 ee 21 3e
       0.00045309775 -0.04051513 -0.18218713 0.15813759
000030 d6 93 92 3e 8f e5 47 3d 72 27 97 3e b2 8e 89 be
       0.28628415 0.04880291 0.29522282 -0.2686668
000040 83 be 61 be f5 f7 e1 3d fc 26 62 be bc aa 85 be
       -0.2204533 0.11033622 -0.22085184 -0.26106822
000050 c7 c8 71 be ca 30 c7 3d 4d fa ae 3d e0 b0 4c 3e
       -0.23611747 0.09726103 0.08543835 0.19989347
000060 6a c1 b2 3d db 9c 80 3d 24 86 d6 bd bf 4d 88 3e
       0.08728297 0.06279918 -0.10474804 0.26621816
000070 25 59 69 3e 09 d7 ea 3d ea 66 9b be fc 01 17 bd
       0.22787912 0.11466796 -0.30351955 -0.036867127
000080 d2 91 67 be e0 4c ba 3c 61 b4 f8 bc 21 70 88 bd
       -0.2261422 0.022741735 -0.030359449 -0.06662012
000090 e6 8f 88 3d 77 9f 88 3e 18 55 63 be e5 03 97 bd
       0.066680714 0.26684162 -0.2220043 -0.0737379
0000a0 1f e6 16 3e bb 25 6e be a3 2e 85 3e cc f8 49 bd
       0.14736222 -0.2325658 0.26012143 -0.049309537
0000b0 6d c9 0e be 86 eb a1 bb 5e 69 8a 3e 2d b7 7b 3e
       -0.13944025 -0.0049414067 0.27033514 0.24581595
0000c0 9e 2e 15 3e 46 b8 24 bd da 0f 10 be 14 88 34 3e
       0.14568564 -0.0402148 -0.14068547 0.17630035
0000d0 86 cb 98 3e d7 25 04 be cf b5 85 3e e6 76 ca bd
       0.29842776 -0.1290506 0.2611527 -0.09885959
0000e0 b9 e3 61 3e 03 df 2b be 52 10 e8 3c a5 fb e8 3c
       0.22059526 -0.16784291 0.028328095 0.028440306
0000f0 58 d0 bc bd a9 14 62 be 7a ac 60 be 5b dd 18 be
       -0.09219426 -0.22078194 -0.21940795 -0.1492819
000100 1a d2 d6 bc 6d 68 18 be a8 2a 83 3e 7d 4d 18 3e
       -0.026223231 -0.14883585 0.25618482 0.1487331
000110 97 92 1c be c2 2e c4 bd 9f f1 c2 3d e9 bf 46 3e
       -0.15290295 -0.09579231 0.09518742 0.19409145
000120 fd 11 23 be 24 6c 44 be d6 4e 8e be e7 f2 82 3e
       -0.1592483 -0.19181877 -0.27794522 0.25575945
000130 7d 5d 99 be 1e d0 3d be 76 ee ca 3d da 8a 66 3d
       -0.29954138 -0.18536422 0.09908764 0.056284763
000140 a3 03 fa bd 16 e8 2a be 06 f5 ac bc 11 97 29 be
       -0.12207725 -0.16690096 -0.02111293 -0.16561534
000150 3e 0f 01 be b5 00 48 be ea fd 98 3e 32 80 f3 bd
       -0.1260347 -0.1953152 0.2988122 -0.11889686
000160 54 c7 86 bc b1 0a e3 bd fe 71 2e be 60 43 7b 3e
       -0.016452469 -0.110860236 -0.17035672 0.2453742
000170 7d 76 9b bd 12 ca 6e 3e 10 41 05 bd 81 90 84 3e
       -0.07590959 0.23319271 -0.03253275 0.25891498
000180 15 cb 39 3e 5e 95 0d be f2 b0 74 be 09 9e 5f bd
       0.18143876 -0.1382651 -0.23895624 -0.054594073
000190 6f db 81 3d 2f 96 ef bd 7a d5 74 3e ff 72 be 3d
       0.06340682 -0.11698567 0.2390956 0.092992775
0001a0 42 2f 09 bd 5d 85 c4 ba 1c aa 37 bc 7e 4a 96 3e
       -0.033492334 -0.0014993359 -0.011209991 0.29353708
0001b0 6d 1a 98 3e 61 75 ea 3c 4b fc 2d be b0 d7 8c be
       0.2970766 0.028620424 -0.16990773 -0.27508307
0001c0 2f 7f 94 3e 4c 71 1a 3e 74 15 50 3e 31 c2 1d 3e
       0.29003283 0.15082282 0.20320684 0.1540611
0001d0 30 fa 88 3d b6 c1 f8 3c 94 5d d9 3d 06 c3 85 3e
       0.066883445 0.030365806 0.10613552 0.26125354
0001e0 d2 f0 3e 3e 0c 8f 89 3d f8 0b 99 3e 5f c3 1b be
       0.18646553 0.06716737 0.29891944 -0.15211247
0001f0 de b1 2f bc a3 f5 4b 3e 68 23 6f bd 55 35 69 be
       -0.010723559 0.19917922 -0.058383375 -0.22774251
000200 b2 c3 fa bd 7e 26 18 3e 43 d4 7a 3e fb 10 f9 3d
       -0.12244357 0.14858434 0.24495034 0.12161442
000210 e6 ac 23 be 37 01 c3 bd 99 7a 69 be 4d 64 59 be
       -0.15983924 -0.09521716 -0.22800674 -0.21229668
000220 2a 91 82 3d a9 20 7f be 41 50 0d 3e 0c 0b ce 3c
       0.06375344 -0.24914803 0.13800146 0.025151752
000230 95 b3 11 bd d5 76 5f 3e 24 dd 91 bd 30 24 03 3e
       -0.035571653 0.21822675 -0.07122257 0.12806773
000240 6a c9 a7 3d 5f 2d 98 3e e0 4f a6 bc ca c3 69 3e
       0.081927136 0.29722115 -0.02030176 0.22828594
000250 81 63 9d 3d 72 db 8d be 56 2b 5a bd 22 ea 8c 3d
       0.076849945 -0.27706486 -0.053263985 0.06880595
000260 ed d5 5e 3e 27 ea 95 bc 43 75 23 be 8a 6b 12 3e
       0.21761294 -0.01830013 -0.159627 0.14298835
000270 0a 67 f5 bd f2 66 7d be 28 ac a5 bc 75 13 6c be
       -0.11982544 -0.24746302 -0.020223692 -0.23054297
000280 b9 ba 5f 3e 02 c9 7d bd 3a d6 23 be a5 66 d8 3d
       0.21848573 -0.061959274 -0.1599969 0.10566453
000290 4e 25 1a 3d 26 b3 26 3e 0f 5f 1c be 11 91 3c be
       0.037633233 0.16279277 -0.15270637 -0.18414713
0002a0 bb 68 0c be d7 84 49 3e 99 f3 52 be 66 05 bb bd
       -0.13711827 0.1967958 -0.20600738 -0.09131889
0002b0 25 c2 d9 bc e7 bd 7f be 13 8c 93 3d 3a b8 4b 3e
       -0.026581833 -0.24974786 0.072044514 0.19894496
0002c0 df a6 99 3e af b7 7b 3d 05 a1 12 bc 83 a9 91 bd
       0.30010125 0.06145447 -0.008949523 -0.0711241
0002d0 53 1a 45 be 6f 40 3b be dd d8 6f be 65 84 22 3e
       -0.19248323 -0.18286298 -0.2342257 0.15870817
0002e0 29 92 46 be 50 75 7a be 5c b7 95 be 0a d4 98 3d
       -0.19391693 -0.24458814 -0.29241455 0.07462318
0002f0 5d fd 0f 3d f4 86 59 be 93 e6 68 3d b6 c9 69 be
       0.035153735 -0.21242887 0.056860518 -0.22830853
000300 68 1a a0 bd 0e 78 58 3e 63 b8 8c 3e c1 5b 42 be
       -0.078175366 0.21139547 0.27484426 -0.18980314
000310 4f 40 d7 3a 41 e4 93 bc 29 39 9b bb 86 38 53 be
       0.0016422364 -0.018053176 -0.0047370386 -0.2062703
000320 da 1a ad 3d 93 24 db 3d 93 52 87 be 5d 6f 53 3e
       0.08452387 0.10700335 -0.26430187 0.2064795
000330 37 e1 0d be 81 6e 5a bd b5 fc 76 bc f8 06 4a be
       -0.13855444 -0.05332804 -0.0150748985 -0.19729221
000340 b3 7b 12 3e 9b da e4 3d 67 3c 5d 3c 2e 04 0c 3e
       0.14305 0.11174508 0.013503171 0.1367347
000350 64 71 86 3e 3b 0f ca bd e8 5b 81 be 46 98 4e be
       0.26258385 -0.09866186 -0.2526543 -0.20175275
000360 70 b2 9a be 35 1e 52 be 27 61 88 3e 3b 59 cf 3d
       -0.30214262 -0.20519336 0.2663662 0.10124441
000370 6d a0 9e bc 6e 50 a3 3d 73 df 29 be 9d f8 71 be
       -0.019363606 0.07974325 -0.16589145 -0.23629995
000380 f8 9a 9d 3d a1 9d 51 bd c1 7a 5b be 4d d8 83 3e
       0.076955736 -0.051175717 -0.21433546 0.25750962
000390 b1 9b 0b 3e e5 e9 94 be 36 ed 76 be d2 86 7e be
       0.1363361 -0.29084697 -0.24113926 -0.24856117
0003a0 f1 d8 b5 bd 8a 85 29 be 59 c0 00 bb a8 5a 11 3e
       -0.08879269 -0.16554847 -0.0019645898 0.14194739
0003b0 25 ec 07 3d 6a 0e c6 3d 51 83 ed bc 32 53 2b bb
       0.03318419 0.09670718 -0.02899328 -0.0026142118
0003c0 a9 63 99 3e b0 d3 3e 3e 83 2e 71 3d 91 b5 79 3d
       0.29958847 0.1863544 0.058882248 0.06096417
0003d0 1c f3 3a 3e 25 0c 8a be 25 fe d1 3d 49 c7 8a 3d
       0.18256801 -0.2696239 0.10253552 0.06776292
0003e0 cd eb 89 3e 79 08 73 3e 8d f8 98 be cf 98 83 3e
       0.26937714 0.23733701 -0.2987713 0.2570252
0003f0 33 83 d2 3d c4 e7 4b 3e 70 c3 f1 bc a0 fe 18 3e
       0.102789305 0.1991263 -0.029512137 0.14940882

cons_embedding.3.bias f4 [64]
000000 c8 f5 b9 3d cb 01 0f 3d 5c a4 3c bc e1 ef d4 3a
       0.09080082 0.03491382 -0.011513796 0.0016245806
000010 3d 0a 4d 3d c1 cd fc 3d 48 06 06 3d ea 83 f8 bd
       0.050058592 0.12343932 0.032720834 -0.121345356
000020 39 a6 a4 3d 52 60 fb ba c3 ec ef bc c7 11 9b 3d
       0.08039517 -0.0019178486 -0.029287701 0.0757175
000030 82 2f 0c bd 06 b8 91 bd 85 79 fd 3d 79 cc bb bc
       -0.034224994 -0.07115178 0.12376694 -0.022924649
000040 a0 8f 72 bc d9 ff 9d bc 95 b2 88 3d ac a4 e4 bd
       -0.014804751 -0.019287037 0.06674687 -0.11164221
000050 30 52 61 bc e1 b9 9d 3d d3 e8 9c 3d 67 32 6f 3d
       -0.013752505 0.07701469 0.07661595 0.058397677
000060 a8 8a cc 3d 46 8e fc bd c7 16 54 bb fd 74 2c 3d
       0.09987384 -0.12331824 -0.003236221 0.042103756
000070 d2 a0 77 3d d6 58 36 3d 4f 57 3d 3c 5d 69 69 3d
       0.060456105 0.044518314 0.0115564605 0.056985248
000080 4e be 3d bd 03 a9 c6 3d 00 61 92 bd 42 6f e4 bd
       -0.046324067 0.09700205 -0.071474075 -0.11154033
000090 86 b1 bd bc 29 cf 1e bd 63 80 cf bd 22 69 6b bb
       -0.023155939 -0.038771782 -0.1013191 -0.0035920818
0000a0 e3 f7 f2 3c 50 a0 66 bd 71 98 a3 ba bf 61 74 bd
       0.029659217 -0.05630523 -0.0012481344 -0.05966353
0000b0 c5 a6 bc 3d eb 3f d5 3d bb 60 e6 3d 96 f3 c9 bd
       0.09211496 0.10412582 0.112489186 -0.098609135
0000c0 32 3b fe 3d b3 5c 99 3d a5 12 ab 3c e6 a7 2f bd
       0.12413634 0.07488384 0.020882914 -0.04288473
0000d0 7c 06 44 bd 49 04 e2 3d 96 c4 14 bc 10 69 e2 3d
       -0.047857746 0.110359736 -0.009080073 0.11055195
0000e0 fa d1 82 3c f1 0e 01 bd 1a b2 d5 3d b2 3f aa bd
       0.015969265 -0.03150839 0.10434361 -0.0831293
0000f0 47 50 ff bc 31 fb e1 bb e2 1e a4 3d cd a1 5b 3d
       -0.031166209 -0.0068963994 0.08013703 0.053621102

var_embedding.0.weight f4 [7]
000000 34 14 80 3f fe 14 80 3f 0f da 7f 3f 5b d6 7f 3f
       1.0006166 1.0006406 0.99942106 0.99936455
000010 97 d7 7f 3f bf d0 7f 3f 41 16 80 3f
       0.9993834 0.99927896 1.0006791

var_embedding.0.bias f4 [7]
000000 cc 42 55 3a c1 7b 1c 3a a3 32 15 ba bb 5e 0f 3a
       0.00081352587 0.00059693685 -0.00056914444 0.0005469133
000010 93 ff 1e 3a 3c 4c 35 3a 0c 93 31 3a
       0.0006065305 0.0006915962 0.0006773926

var_embedding.1.weight f4 [64, 7]
000000 51 55 bb 3e 3e ee f4 be 35 49 6a 3f 56 e3 69 bf
       0.3658853 -0.47838014 0.91517955 -0.9136251
000010 5d 14 2e bd a1 cc cf be 1c 47 44 3e 20 c8 c6 bd
       -0.04249989 -0.40585807 0.19167751 -0.097061396
000020 03 17 3c be d2 70 7a be 07 82 7d be e9 a8 26 3f
       -0.18368153 -0.244571 -0.24756633 0.65101486
000030 ca a8 5c bf 3d 5d e6 3e e3 7d d4 be 15 1d 51 bf
       -0.8619505 0.4499301 -0.41502294 -0.81685
000040 67 a8 16 3f 47 08 e0 3e 2a 96 5a 3f b2 64 ee be
       0.5885071 0.43756315 0.8538538 -0.465612
000050 fb dd 37 3f 38 e6 39 3e 76 82 e3 be c5 43 18 bf
       0.7182309 0.18154228 -0.4443547 -0.5947841
000060 d4 ad 94 3e 4d a9 a1 3e 3b ee 24 3f aa 98 2d 3f
       0.2903887 0.3157448 0.6442601 0.6781107
000070 b5 86 07 3f 15 f4 83 3e f0 8c 99 bc df 05 5b bf
       0.5293992 0.25772157 -0.018743962 -0.85555834
000080 8e 62 63 be 23 ab b2 bd 3f 8c 56 bf de 1c 30 be
       -0.22205564 -0.08724048 -0.8380775 -0.17198512
000090 e1 1c 01 3e d0 05 d8 bd 72 70 10 bf a6 70 89 bd
       0.12608673 -0.10547984 -0.5642158 -0.06710939
0000a0 ae de 8e be 3d 45 3d 3e b2 e3 4b 3e fd 53 e2 be
       -0.27904266 0.18483444 0.19911078 -0.44204703
0000b0 87 c4 00 3c e5 f1 14 3f 29 43 cc be 18 b3 07 bf
       0.007859356 0.581816 -0.3989499 -0.5300765
0000c0 81 b0 8c 3e 5a c4 52 bf 6e ea f8 be fe 9b ca be
       0.27478412 -0.8233086 -0.48616356 -0.39572138
0000d0 26 1c 0a 3f ad df 3a bf cc 83 82 be f4 79 00 bf
       0.539492 -0.7299755 -0.25491178 -0.50186086
0000e0 b3 d9 45 3f 03 7e 71 bd 7c 3f 5a bf 48 99 26 be
       0.7728531 -0.058958065 -0.8525312 -0.1626941
0000f0 61 1e d3 bc 1b 94 d8 bd ad da 29 bf 67 6c fb 3d
       -0.025771322 -0.10575124 -0.663493 0.122765355
000100 9f c2 0b bf ff 1e 14 3e 63 35 53 3f b5 41 39 bf
       -0.54593843 0.14464949 0.82503337 -0.72365886
000110 83 9e 4e bf 54 eb 24 3e 9b 4e 45 bd 2e 58 fa be
       -0.8071062 0.16105396 -0.048170667 -0.488954
000120 73 e2 6b 3f 3b ce 1c bf 7c d7 5a be fd f2 e9 be
       0.9214241 -0.6125218 -0.21371263 -0.45693198
000130 84 28 43 3f 4f 3d b6 be 20 26 23 3e cd 74 ce 3e
       0.76233697 -0.3559365 0.15932512 0.40323487
000140 77 7e 3f 3f 0c 34 10 bf b8 57 9a 3c 77 39 03 bf
       0.74802345 -0.5632942 0.018840656 -0.5125956
000150 d7 47 30 3f d7 c4 10 3e db 27 03 bf c2 2f 52 be
       0.6885962 0.14137588 -0.5123269 -0.2052603
000160 d2 98 42 bf 3f 08 23 bf 63 2b 4c 3e 95 3c fc be
       -0.76014435 -0.6368446 0.19938426 -0.4926497
000170 17 c3 68 3f 6a 5a 56 3f 7e bf f9 3e 8d cc 2e bf
       0.90922683 0.8373171 0.4877891 -0.6828087
000180 7a 9f d2 3e 1d 50 4b bf b5 27 0a bf 55 7f 39 bf
       0.41137296 -0.7941912 -0.5396684 -0.7245992
000190 fe ca f1 3e c2 79 2f be 6b 2a 23 3f 27 82 c3 be
       0.47225183 -0.1713629 0.637366 -0.38185236
0001a0 0b 93 a1 be 68 8b 5f bf 53 df 15 3e 6a ed ad be
       -0.31557497 -0.8732209 0.14635973 -0.33970195
0001b0 76 41 06 3f 9f 5d 6c bf 5f f8 6b 3f cb 2c 0b bf
       0.52443635 -0.92330354 0.9217586 -0.54365224
0001c0 f8 2f e6 be 3f f5 05 3f 19 31 32 be f4 91 05 3f
       -0.44958472 0.5232734 -0.17401542 0.5217583
0001d0 ab d8 b9 3e 03 17 c0 3e 5f b0 14 3e 7f 0f a3 3e
       0.36298117 0.37517557 0.14520405 0.3184776
0001e0 9a b0 66 bf de 0f bb bd db da 27 bf 75 32 ed 3e
       -0.9011322 -0.09133886 -0.6556832 0.46327558
0001f0 0d 64 61 bf c3 d1 ef 3e 47 91 f1 3c 2b 6c c9 3e
       -0.8804329 0.46839723 0.029488219 0.39340338
000200 2a cd 09 3f 7f da 3a 3f 83 31 6b bf 33 54 1e 3f
       0.5382868 0.7298965 -0.91872424 0.6184723
000210 26 3a 02 3f 08 04 ae 3e 7a 82 2e bf ad e1 e7 3d
       0.5086998 0.3398745 -0.6816784 0.11322341
000220 db cc e4 be ef b0 5c bf 78 38 34 bf 62 f3 6b 3f
       -0.44687542 -0.8620748 -0.70398664 0.9216825
000230 38 2d f0 3e f5 b1 0a 3f f5 6d 67 3f 12 60 54 be
       0.469095 0.5417779 0.90402156 -0.20739773
000240 d9 70 45 3e 7d ca ad 3e 08 d6 52 bf 91 ef 10 3f
       0.19281329 0.3394355 -0.82357836 0.5661555
000250 28 70 40 bf a3 2e 90 be 78 40 64 bf 95 19 10 bf
       -0.75171137 -0.2816058 -0.8916087 -0.56289035
000260 b7 a7 5a bf b3 4a aa bc 6f b2 ed bc 15 e3 98 3e
       -0.8541216 -0.020787572 -0.029015748 0.2986075
000270 a8 01 08 3f 4d a1 87 3e e8 6d 4f 3f 5d e6 64 3f
       0.5312753 0.2649025 0.8102708 0.89414006
000280 ee 82 1e bf a9 0d 02 3f 34 f1 54 3f 67 dc 3d 3d
       -0.6191853 0.50802094 0.83180547 0.04635277
000290 43 2f d0 3e 68 6c 43 bf 85 85 1c bf ec 4c e7 3e
       0.40661058 -0.7633729 -0.61141235 0.45175874
0002a0 c3 16 55 3f 04 5e eb 3e c8 e3 02 be 06 7a e9 3e
       0.83237857 0.45970166 -0.12782204 0.4560091
0002b0 15 f2 a5 3e a8 7f 8e bd c1 40 6a 3f 40 37 ee 3e
       0.32411256 -0.06957942 0.91505057 0.46526527
0002c0 f9 d5 c7 3e 91 67 b3 bd cb e9 4f bf 49 44 41 bf
       0.39030436 -0.08759988 -0.81216115 -0.7549482
0002d0 bd d6 35 3f 42 e9 5c 3f 0e 13 5f bf f8 05 26 3f
       0.7103079 0.86293423 -0.8713845 0.6485286
0002e0 3d a4 31 3f 5c 14 cd 3e 8c eb aa 3e f1 a3 df bd
       0.6939123 0.40054595 0.33382833 -0.10919941
0002f0 e3 73 53 3f 0f 13 33 be 6e 60 11 bf ce 3d 0f 3f
       0.82598704 -0.17487739 -0.56787765 0.5595368
000300 95 b6 41 bf 7b 95 29 3f 86 32 b1 3e eb f6 e2 be
       -0.75669223 0.66243714 0.3460886 -0.44329008
000310 3d 03 e4 3e 66 c8 5e bf 66 6c 21 3f f5 bd a9 3e
       0.4453372 -0.87024534 0.6305603 0.33152738
000320 58 96 11 bf e7 37 ce bd 02 52 30 3f 13 10 01 3c
       -0.5687003 -0.10069256 0.68875134 0.007877368
000330 cc 25 fd bc a8 4d aa 3d 13 3b 38 3f dd b0 3b 3f
       -0.030901812 0.08315593 0.7196514 0.73316747
000340 4e 8d 3e bf e5 fd fb be cb e8 ed 3d 9b ac 1d bf
       -0.74434364 -0.49217144 0.11616667 -0.615915
000350 b1 68 03 3f 21 1b 4b bf 3f a6 8d be 38 8e 7b 3e
       0.5133162 -0.7933827 -0.27665898 0.24565971
000360 11 0a df bd 96 e1 e0 3e b4 6f 82 be a2 a3 66 3f
       -0.10890592 0.43922108 -0.25475848 0.90093434
000370 95 6b 67 3e 52 44 e5 bd b4 6d b2 3e 3a 6b 05 3e
       0.22599633 -0.11194672 0.34849322 0.13029185
000380 00 04 19 3f 6c 79 3c bf be 63 9b be 4b ef 91 bd
       0.5977173 -0.73622775 -0.30349535 -0.0712572
000390 43 fc 64 3f e6 c4 68 bf c4 47 fb be a2 47 3c bf
       0.8944742 -0.90925443 -0.4907819 -0.73546803
0003a0 39 6b b1 3e 98 e1 38 3e 2d c6 ba 3c 9f ec 2f bf
       0.34652117 0.18054807 0.022799576 -0.6872043
0003b0 39 10 6c 3f a7 5a f7 3e 04 1a 17 3f cb 6e 49 3f
       0.92212254 0.4831135 0.5902407 0.7868468
0003c0 6d 11 c4 bd ed a7 36 3f b2 05 4a 3e 37 47 e3 bd
       -0.09573636 0.71349984 0.19728735 -0.110975675
0003d0 d3 9f 25 be f0 6f 27 bf 60 be a8 3c aa 82 71 3c
       -0.1617425 -0.6540518 0.02059859 0.014740625
0003e0 9d 3e 45 bf 2e 04 b9 be 77 69 2f 3e a8 07 96 3d
       -0.77048665 -0.36136 0.17130075 0.07325679
0003f0 04 59 8b bd 24 fc 6c bf 16 5c 94 3c f0 df 1b be
       -0.06804088 -0.92572236 0.018110316 -0.15222144

var_embedding.1.bias f4 [64]
000000 d4 71 86 3e 49 f3 ab 3e f9 b6 bf be 01 fa b5 be
       0.2625872 0.3358405 -0.37444285 -0.355423
000010 93 95 aa be 02 e8 6b 3e 14 4b 7b be 69 fe 52 3d
       -0.3331724 0.23037723 -0.24540359 0.051512156
000020 80 50 ad be 26 0c 85 be 30 da 67 bd 7b 58 b7 3e
       -0.3385048 -0.2598583 -0.056604564 0.35809693
000030 3b 1d a2 3e 7d e0 7d 3e 1e 68 87 3d e1 2b 6c be
       0.31662926 0.24792667 0.06611656 -0.23063613
000040 89 ee aa be 4a dc ad be cc 7f 04 3d 07 24 87 bd
       -0.33385113 -0.3395713 0.03234844 -0.065986685
000050 52 8d ad 3e 0d 4f 25 3d 50 00 24 3e 56 da 77 3d
       0.3389688 0.04035859 0.16015744 0.060510956
000060 a0 d7 a7 bd 0a ee 6a 3e 99 0b 88 3b b8 2b bf be
       -0.08195424 0.22942367 0.004151773 -0.37338042
000070 ec 8f 17 3e 7e 70 72 3c 99 16 b9 be a1 72 86 3e
       0.14800996 0.014797328 -0.36150053 0.2625933
000080 89 d9 37 3e 21 18 9b bd bb c5 56 3e 9d e8 4d be
       0.17954077 -0.075729616 0.20973866 -0.20108266
000090 a0 f6 a2 3b 23 08 89 3c d7 b7 1a 3d de 7e a7 3d
       0.0049732476 0.016727513 0.03777298 0.08178495
0000a0 a4 ae 2a be 84 d4 9c be f2 60 96 3e ce 43 84 be
       -0.16668183 -0.30630887 0.29370838 -0.2583298
0000b0 9b 47 b5 3d a7 ed b1 be 54 b7 a9 be 97 b9 d9 3d
       0.08851548 -0.34751627 -0.3314768 0.106311016
0000c0 09 db a4 be 5f cc b2 3e bf 01 30 3d 5e b7 d2 3b
       -0.3219836 0.34921548 0.042970415 0.0064305505
0000d0 0b 3b 19 3e ec 88 fd bc 11 e0 04 3e a0 6a 06 be
       0.1496393 -0.030949079 0.129761 -0.13126612
0000e0 0a 2e 9b 3d 40 b6 3a be c6 19 f0 bd 34 ba 76 3e
       0.07577141 -0.18233585 -0.11723666 0.24094468
0000f0 a2 5f 4a 3e 1f 78 82 3e 28 10 04 3e 4b 2b b7 be
       0.19763044 0.2548227 0.12896788 -0.35775217

var_embedding.3.weight f4 [64, 64]
000000 de 1d 41 bd 71 29 e4 bb 46 5f 69 3d 0e e3 90 3e
       -0.047147624 -0.006962948 0.056975625 0.2829823
000010 64 35 9b bd af 19 3f be ff 3a 6f 3e 15 a5 37 be
       -0.07578543 -0.18662141 0.23362349 -0.17934068
000020 4b ed c2 bd e1 1d 68 3e 8e 19 63 bd 15 ab f7 3b
       -0.09517916 0.22667648 -0.055444293 0.0075582364
000030 29 f0 06 be 37 54 91 be d1 6a 84 3e 77 3d a9 3d
       -0.13177551 -0.28384563 0.25862744 0.082636766
000040 1a 5b 31 3e 41 0c 01 bd 54 f0 84 3e 4f 26 66 3e
       0.17319909 -0.031505827 0.25964606 0.22475551
000050 b7 59 23 3e 44 26 ed bd ef dd 2d be ca 21 92 be
       0.15952192 -0.11579564 -0.16979192 -0.28541404
000060 7a 5b 6c 3d 1a a2 99 3e 37 1b 8d 3e 00 d4 fa bc
       0.057704426 0.30006486 0.27559826 -0.030618668
000070 ec 35 42 be a3 24 a3 3d 64 ca 40 3e 57 84 82 3e
       -0.18965882 0.07965972 0.18827206 0.25491592
000080 f7 11 3f 3e 3a c6 9b 3e f5 d4 f1 3b d4 a7 71 bd
       0.18659197 0.30424672 0.007380123 -0.058997944
000090 51 b2 68 3e 12 79 da 3c 06 47 85 be 91 d0 5e be
       0.22724272 0.026669059 -0.2603075 -0.2175925
0000a0 fd b4 6e 3e 3a 9f 84 bc b5 a5 ac 3d ab 0f bf 3d
       0.23311229 -0.016189206 0.084300436 0.0932916
0000b0 72 ec 8c 3e 4d 1c f6 bd 18 13 3a 3b 26 45 9a be
       0.27524143 -0.12017117 0.0028392728 -0.3013088
0000c0 7d b6 5f 3d 9e 47 84 3e 62 44 2b be 60 e1 8e 3d
       0.054617394 0.2583589 -0.16725305 0.069765806
0000d0 dc 63 75 bd 33 7b 31 be 12 5b 44 be 19 dd 2f 3e
       -0.059909686 -0.17332153 -0.19175366 0.17174186
0000e0 3e 1e 30 be 02 e5 16 3d e5 5d 0b 3d dd fa f8 3d
       -0.17199036 0.036839493 0.03402509 0.121572234
0000f0 46 14 8e 3e e9 87 43 3e ed f2 80 be fa 5b ca 3d
       0.27749842 0.19094814 -0.25185338 0.098808244
000100 b1 9b 61 be 29 29 90 be 0c 27 62 be af 32 00 be
       -0.22032048 -0.28156403 -0.22085208 -0.12519334
000110 ea 4a 44 be cc 62 07 3e a2 f5 9a 3d e3 fc 0a bd
       -0.19169202 0.13221282 0.07566382 -0.033932578
000120 da df 03 3e b5 8c df bc 51 0a 0a bd ac d7 93 be
       0.12878361 -0.027288774 -0.033701245 -0.28875482
000130 ca 7a 06 bd 83 9e 4e be fd 6a 98 3e 55 30 ef 3d
       -0.032831945 -0.20177655 0.29769126 0.116791405
000140 a8 69 03 be 4e e4 a7 bd 74 cd 18 3e b3 d1 50 3e
       -0.12833273 -0.081978425 0.14922124 0.20392494
000150 8f e1 c4 3d 16 4a 46 be d0 5e cb bd 58 47 0d 3e
       0.096133344 -0.19364199 -0.099301934 0.13796747
000160 62 84 d1 bd 6b cb bd 3d d3 0b 04 be 31 2e 3f 3e
       -0.10230328 0.092673145 -0.12895136 0.18669964
000170 d0 06 25 bd e1 0a ce bd 58 7d 70 be e9 33 ca 3d
       -0.0402897 -0.10060669 -0.23485315 0.09873182
000180 ae 2a 07 3d 03 89 32 be 58 24 94 be 01 00 6a be
       0.032999687 -0.17435078 -0.28933978 -0.22851564
000190 76 59 55 3e 8d c3 72 3e 8c f3 61 3e 7b ba 91 be
       0.20834908 0.23707409 0.22065562 -0.28462586
0001a0 73 59 0c 3e a1 be 8c 3e e6 1a 08 3e ca 7e 5b 3d
       0.13705997 0.27489188 0.13291511 0.053587712
0001b0 8e 03 db 3d 15 c5 7b be 59 7d fd bc 0b 0d 81 be
       0.106940374 -0.245869 -0.03094356 -0.25205263
0001c0 71 57 0e 3e 7e 27 9e bd 1a 86 51 be bf 8c 52 be
       0.13900544 -0.07722376 -0.20461312 -0.20561503
0001d0 99 f1 78 3e 62 c1 31 be 39 7e 1d 3e 15 dd 22 3c
       0.24310912 -0.17358926 0.15380181 0.009940405
0001e0 b3 59 86 bc b0 8c 7c be d6 c9 cf 3d ac 7d 1e 3e
       -0.016400194 -0.24663043 0.10145919 0.15477628
0001f0 1c b4 39 3e 32 52 24 be 5b 26 42 3e 15 98 8a be
       0.18135113 -0.1604698 0.18959944 -0.27069154
000200 af 95 89 3e ec c9 e4 bd de 80 50 3d 04 45 81 3e
       0.26872012 -0.11171326 0.050904147 0.25247967
000210 e4 e2 16 3e 58 ee db bd e3 ee 6b 3e 10 35 1d be
       0.1473499 -0.1073882 0.23040347 -0.15352273
000220 05 91 99 3e 27 dc 66 bc a9 fe 8b 3e 21 81 8c be
       0.29993454 -0.014090574 0.27342728 -0.27442268
000230 46 22 c0 bd 86 b7 28 3e b8 33 50 be 23 16 ea bd
       -0.09381537 0.16476259 -0.20332229 -0.114300035
000240 15 05 10 bd 6f 0d f8 bc cc 50 81 bc 5c 6c d9 3d
       -0.035161097 -0.030279843 -0.015785597 0.10616371
000250 77 71 86 3e 05 1c 86 be 73 98 49 be 7d 49 4f be
       0.26258442 -0.26193252 -0.19687061 -0.20242877
000260 1d 5b 6e 3e ce 50 df bd 31 d7 a3 bc 46 82 f6 3d
       0.23276944 -0.10904084 -0.020000072 0.120365664
000270 6a 1b 35 3e 9a a6 1a bd 6b c7 db 3d 3f ae 8e be
       0.17686239 -0.03775654 0.10731395 -0.27867314
000280 2f 81 94 be 6e d8 23 be b9 76 83 be 75 02 94 be
       -0.2900481 -0.1600053 -0.25676516 -0.28908125
000290 ec a2 95 3e 9b b6 11 3e d7 31 08 3e bc 32 98 3e
       0.29225862 0.14229815 0.13300262 0.29726207
0002a0 1a 89 d5 3d 66 5a 94 be 21 9d 42 3e 09 34 a1 bc
       0.10426541 -0.2897522 0.19005252 -0.019678133
0002b0 b6 4e 9a be 81 cb 10 3e 70 62 19 be 8b e3 96 b8
       -0.30138177 0.1414013 -0.14978957 -7.1949406e-05
0002c0 40 42 98 3e be fc a9 3d 37 68 7d 3e 0d 5e 6d be
       0.29738045 0.0830016 0.24746786 -0.23180409
0002d0 db 9a 2f be 94 71 d8 3c 47 15 b6 bd ea 1e 96 be
       -0.17148916 0.026421346 -0.08890777 -0.2932046
0002e0 79 a6 6e ba e6 18 93 be a9 3c 19 be 85 53 45 be
       -0.0009103786 -0.28729934 -0.14964546 -0.19270141
0002f0 af 4c 31 3e b9 fe 7b bd 43 65 0b be da d6 ac bd
       0.17314409 -0.06152222 -0.13612847 -0.08439417
000300 28 a0 03 3c f7 02 bf 3d ed e8 29 be d0 69 10 3e
       0.00803379 0.093267374 -0.1659276 0.14102864
000310 37 fd 7c 3e ee 3c 93 be 2f 7d 13 be 6c 66 de bc
       0.24705969 -0.28757423 -0.14403223 -0.027148448
000320 ab 0d 9c 3e a7 f2 86 be 33 95 91 be 3b e9 03 be
       0.30479178 -0.26357004 -0.28434142 -0.12881939
000330 4c f1 86 be 4c 67 95 3d 02 ca 38 3e 4a 90 8e be
       -0.2635597 0.07295093 0.1804581 -0.2784446
000340 da 0d 64 3c 81 0d 90 3e 81 0d c1 bc 33 b5 99 3e
       0.013919318 0.28135303 -0.02356601 0.30021057
000350 3e 7c 88 be f3 07 28 bd 37 75 a6 3d be 7a 48 3e
       -0.2665729 -0.041023206 0.08127826 0.19578072
000360 a5 90 16 3e 3f 35 be bd 2a e8 72 be cc d3 4e be
       0.14703615 -0.092875 -0.23721376 -0.20197982
000370 95 e7 c5 3d 5e 04 6a bd 5a b1 8a be 77 62 9b be
       0.096633114 -0.05713307 -0.27088434 -0.3034856
000380 0f 49 68 be 85 9b 0e be 16 3a 57 be 4e e4 26 be
       -0.2268412 -0.13926513 -0.21018252 -0.16298029
000390 2a 1c 1b 3e 00 79 82 be 83 93 98 3e 10 3a 81 3e
       0.15147462 -0.2548294 0.29800043 0.2523961
0003a0 2b 7c 92 be be 5f 44 3e 0a be 8a 3e de 1c 31 bd
       -0.28610358 0.19177148 0.27098113 -0.04324042
0003b0 6b d3 8e be fb 4e 67 be a3 93 84 be 2d 4e 68 be
       -0.27895674 -0.22588722 -0.25893888 -0.22686072
0003c0 36 31 13 3e 1b 00 25 bc ea 91 00 be cf 8c 3f be
       0.14374241 -0.010070826 -0.12555662 -0.18706058
0003d0 07 0b 90 be e1 34 6a be d8 3b 54 bb 4a 1e 3b bd
       -0.28133413 -0.22871734 -0.0032384302 -0.045683183
0003e0 5e 1b 85 3d b2 87 be bc 28 46 88 3e c3 29 81 3e
       0.064993605 -0.023258064 0.26616025 0.25227174
0003f0 54 3e 88 be b7 2d 45 3e 70 2a de bd 0a d9 73 bd
       -0.26610053 0.1925572 -0.10847938 -0.059533156

var_embedding.3.bias f4 [64]
000000 52 aa b6 3d 30 c0 d3 3b 6f 16 de 3d b6 8e bf bd
       0.08919205 0.0064621195 0.108441226 -0.09353392
000010 4c 84 c0 3d c6 70 e6 3c 69 b9 c9 bd f0 4a 8e 3d
       0.094002336 0.028129946 -0.09849817 0.06947887
000020 e6 d7 e6 3d 8e da 4e bc 41 a9 ce bc 99 9a df bd
       0.11271648 -0.01262535 -0.02522719 -0.10918159
000030 32 10 00 3d e8 64 d0 bd 38 2a ea bd 95 bc 06 3d
       0.031265445 -0.10175496 -0.11433834 0.03289469
000040 7d 16 87 3c af d6 bd 3c fb 2e 4c bb 97 b1 bd 3d
       0.016490215 0.023173658 -0.0031155932 0.09262388
000050 36 ed f3 bd ff 67 f5 3d d0 8b dd 3d 84 61 28 bd
       -0.11910479 0.11982726 0.10817683 -0.041108623
000060 58 89 12 3d 95 a9 31 3c 9d ce a9 3c fd e2 80 3d
       0.035775512 0.010843654 0.020728404 0.062932946
000070 e4 3c 15 bd ed 0a 6b bd df ef cd bb 02 87 f4 3d
       -0.036435023 -0.057383467 -0.0062846984 0.11939813
000080 31 9d d5 3d fb 5d d0 3d 52 bf c7 3d 38 74 ab 3c
       0.104303725 0.10174175 0.09753288 0.02092944
000090 2d 58 11 3d 9f 0c d5 bd 4c 80 9c 3d e7 a6 8b 3d
       0.03548448 -0.10402798 0.07641658 0.068189435
0000a0 43 04 be 3c 89 86 8c 3d 9e 6e 97 3d f6 71 8d bd
       0.023195392 0.06861598 0.073941454 -0.06906502
0000b0 74 48 bf bc 05 e5 b9 3c c0 82 2f bd 26 94 8c bd
       -0.023349978 0.022692213 -0.042849302 -0.068641946
0000c0 95 d2 25 bd ef 7b 4a bd 70 ef 29 bd 07 63 9d 3d
       -0.04048403 -0.0494346 -0.04148811 0.076849036
0000d0 23 3b e7 bd 8d 2a 93 3c 9c 9d ad 3d c9 7f dd 3c
       -0.11290576 0.017964626 0.08477327 0.027038472
0000e0 56 be ad 3c 92 12 da bd 97 ae 7b 3d 53 d4 8e 3d
       0.021208923 -0.10648073 0.0614458 0.069740914
0000f0 15 a1 43 bd ff d7 6b 3c ab 70 80 3b 53 5b 53 3d
       -0.04776104 0.014394759 0.003919681 0.051600765

conv_v_to_c.feature_module_left.0.weight f4 [64, 64]
000000 9e f1 0b be 7f e5 d8 bd b3 5f cf 3d 09 08 77 3e
       -0.13666388 -0.10590648 0.10125675 0.24124159
000010 e1 4e ab bd 38 ed 8a be 05 b7 20 3e 90 a8 fd 3d
       -0.08364654 -0.2713411 0.15694816 0.12385666
000020 06 8f 97 3e 98 6d 47 3e 11 e4 c8 bd ec e9 1c be
       0.29601306 0.194754 -0.09809125 -0.15323609
000030 54 46 66 3d 28 73 0c bc 80 34 83 be e5 ea 3c 3d
       0.056219414 -0.008572377 -0.25625992 0.04612245
000040 48 8f 91 3e 20 9e ca 3d 65 43 17 3d 35 40 8f 3e
       0.28429627 0.09893441 0.036929507 0.27978674
000050 85 96 13 3d 89 31 5f 3e e9 4f 94 3d 18 67 f2 bd
       0.03603222 0.2179624 0.07241804 -0.1183607
000060 cd 42 b8 3c ef bd 04 3e c7 e7 81 be 78 0f cf bd
       0.02249279 0.12963079 -0.25372145 -0.10110372
000070 24 78 ae 3d a7 7c 58 3d f5 61 08 be d1 3c 79 3d
       0.08519009 0.052853253 -0.13318618 0.060849015
000080 09 7d 4c be c6 3c 05 be 8c 1e 9c bd 88 7e 1a 3e
       -0.19969572 -0.13011464 -0.07623014 0.1508733
000090 c9 13 c5 bc 69 de 16 3e 62 48 e8 3d 61 8a c3 bd
       -0.024057286 0.1473328 0.11341931 -0.09547878
0000a0 b9 dd b1 bd d7 7f 56 3e d8 5d 96 3c b0 00 80 be
       -0.08684868 0.20947205 0.018355295 -0.25000525
0000b0 cc a6 94 3e a2 29 b8 bc 21 91 7f be c2 4e 0a be
       0.29033506 -0.02248079 -0.24957706 -0.13506606
0000c0 01 c9 40 3e 86 96 4d be 72 77 6d be 7d 97 34 3e
       0.18826677 -0.20076951 -0.23190096 0.17635913
0000d0 76 3c 17 3e 05 62 8b 3e 32 11 40 be 4e 3d a6 bd
       0.14769158 0.2722322 -0.1875656 -0.08117162
0000e0 ea 30 58 be c0 26 4d bd 45 4a 90 be d7 bf 60 3e
       -0.21112409 -0.050085783 -0.28181663 0.21948181
0000f0 37 07 2e 3d af 8b 84 3e d5 c0 a2 bd fc 7b c2 3c
       0.04248735 0.2588782 -0.07946936 0.023740761
000100 e2 92 b1 3c 48 38 19 3e 5c 78 f1 bd aa 43 01 3e
       0.021676484 0.14962876 -0.11790535 0.12623468
000110 38 77 16 be 65 cc 8d 3a 11 98 26 be 0c b1 a2 3c
       -0.14693916 0.0010818361 -0.16268946 0.019859813
000120 ea b3 27 be d9 fd 32 be 6e 90 7a bd 2d cd e3 3d
       -0.16377226 -0.17479648 -0.061172895 0.111231185
000130 ec 06 cf 3d ed c6 25 3c 26 63 88 3d 8e 68 4c 3e
       0.10108742 0.010118228 0.06659536 0.1996176
000140 45 65 ba 3d 74 58 8d be 51 4f 39 3c 1c fc 15 3e
       0.09101347 -0.27606547 0.011310414 0.14646953
000150 62 1d 5a 3c c7 6e 1b be af 28 d6 bd 94 41 0c 3e
       0.0133126695 -0.15178977 -0.104569785 0.13696891
000160 b2 7b 4d 3d 62 b7 23 3e 1d 63 00 3e 5c 23 42 bd
       0.050166793 0.15987924 0.12537809 -0.047397003
000170 33 d8 1f be c8 ed 87 3e 03 42 ef bd 99 b6 28 3e
       -0.15609817 0.265486 -0.116825126 0.16475905
000180 5c 29 87 3e 97 23 1a 3e c9 17 08 3d 97 9a 22 3d
       0.26398742 0.15052639 0.03322581 0.03969821
000190 a5 8d 8d be c3 2f 56 3e 66 30 86 3e ee 3a 13 3d
       -0.2764713 0.20916657 0.262088 0.03594487
0001a0 7a 30 4c 3d 97 91 fe bd dd 64 1a 3e 7d af 88 be
       0.04985092 -0.12430113 0.15077539 -0.26696387
0001b0 01 2c 6b 3e 19 0d f3 bd 7e af ab 3d 74 4e d7 3d
       0.22966005 -0.118677326 0.08383082 0.105130106
0001c0 94 fb 32 be 55 06 ea bd e0 b8 19 bd 25 52 9a 3e
       -0.17478782 -0.11426989 -0.037529826 0.30140796
0001d0 2c 96 3b 3d 99 7a 84 be 3c a3 9b be a4 5c 5a be
       0.045797512 -0.25874785 -0.30397975 -0.21324402
0001e0 74 2e 91 3e 96 55 88 be ca 33 4c 3e 24 d0 02 be
       0.28355753 -0.26627797 0.19941631 -0.12774712
0001f0 5e 7d a3 bd a0 a0 0b be 53 60 8b be da e2 13 be
       -0.07982896 -0.13635492 -0.27221927 -0.14442006
000200 0a c6 96 be c7 aa 41 be fe 04 33 be 1a 07 e3 bc
       -0.29447967 -0.18912803 -0.17482373 -0.027713347
000210 ab 45 96 3e e8 54 90 be 50 2f 7b be a8 f1 64 3d
       0.29350027 -0.28189778 -0.24529767 0.055894524
000220 6e ce b4 bd 58 91 b6 bd 18 80 15 3e 96 48 05 3d
       -0.08828436 -0.08914441 0.14599645 0.032539926
000230 06 b8 00 be 51 2e 8d be b4 d6 3d be 96 58 7c be
       -0.125702 -0.275744 -0.18538934 -0.24643168
000240 88 58 16 3d cd 46 d2 3c b9 be 1d bd 9f bf 83 3e
       0.036705524 0.025668526 -0.038511965 0.25732133
000250 af 50 60 be e6 a0 4d bd 0f f9 8c be f2 57 a4 3d
       -0.21905778 -0.050202273 -0.27533767 0.08024587
000260 5e 5f 90 be ad 85 07 be 62 3f 92 be 90 26 20 3e
       -0.2819776 -0.13234587 -0.28563982 0.1563971
000270 bd 6f 13 be e4 ac 19 bd 50 68 09 be 20 cc 19 be
       -0.14398094 -0.037518397 -0.13418698 -0.15019274
000280 bb e1 4e 3e a1 db 6f 3d 3a dd 81 bd 31 7d 96 3e
       0.20203297 0.058559064 -0.06341024 0.29392388
000290 7f 24 d3 bd d6 2b f4 3c 0e 44 9c 3e e3 eb da 3d
       -0.103096955 0.029806059 0.30520672 0.10689523
0002a0 df 3a 25 be cd 79 54 3d 4e 00 ad 3c 1f 33 68 3e
       -0.16135739 0.05187397 0.02111831 0.22675751
0002b0 4c d5 eb 3d 71 91 b1 bd 77 96 03 3e 41 aa 99 3e
       0.115152925 -0.08670319 0.12850367 0.30012706
0002c0 70 96 7a be 1b e8 5b be a1 59 9c be 95 a8 5a be
       -0.2447145 -0.2147526 -0.3053713 -0.21353371
0002d0 9e 11 49 3e 53 47 06 3e b1 eb 1a 3d f0 02 98 3e
       0.19635627 0.13113146 0.03782243 0.2968974
0002e0 6a f2 9a 3e 2e 05 d1 bc 4a 77 7a be 15 b3 95 3e
       0.30263072 -0.025515165 -0.24459568 0.2923819
0002f0 0f 1c 3d 3e d8 07 d9 3d 7e c2 84 be 73 8e 2e 3e
       0.18467735 0.10597199 -0.25929636 0.17046528
000300 0f 6a a1 bd a2 a5 09 3e c0 5c 5b bd 52 83 07 3e
       -0.07881557 0.1344209 -0.05355525 0.13233688
000310 76 f7 73 bd 52 91 05 3e 75 27 08 3e 5c 15 4b be
       -0.05956217 0.13043717 0.13296302 -0.19832367
000320 b5 3c 32 bb 1e ca 76 bd b7 21 7e 3e f2 0e df bc
       -0.0027196829 -0.060251348 0.24817549 -0.027228806
000330 f8 a9 95 3e fd c2 89 3c 9d a3 8e bd b0 d4 88 3e
       0.29231238 0.01681661 -0.069648005 0.26724768
000340 b8 55 44 be e4 a3 97 be fd 75 89 3e 67 64 b0 bc
       -0.19173324 -0.29617226 0.2684783 -0.02153225
000350 e3 52 24 3e 16 32 8a 3e 79 35 99 3c c7 ee df bd
       0.16047244 0.26991338 0.018702256 -0.10934215
000360 f2 81 8e be 3a c3 6b 3e 06 ab 75 3e b0 df 55 3e
       -0.27833515 0.23023692 0.23991022 0.20886111
000370 d2 9b 4d be 71 18 7c be be 5d 7a be c3 98 96 be
       -0.20078972 -0.24618699 -0.24449822 -0.29413423
000380 9e d5 5a be a7 cd 83 be f0 df 74 bd bd 23 79 be
       -0.21370551 -0.25742838 -0.059783876 -0.2433004
000390 df 26 96 be ca a5 4d be 57 dd 06 be eb ce 0b 3e
       -0.2932653 -0.20082775 -0.13170372 0.13653152
0003a0 19 05 2d 3e 1a 88 91 be f8 74 8e be 18 51 e9 bd
       0.16896476 -0.2842415 -0.27823615 -0.113924205
0003b0 b6 d6 2d be 7a bc 73 3e ed 40 98 3e 82 c8 db 3d
       -0.16976437 0.23802367 0.29737034 0.10731603
0003c0 66 2a 3c be 5a 82 29 3e 8f f5 fb bc b7 d9 8d 3e
       -0.18375549 0.16553631 -0.03075674 0.27705166
0003d0 c5 f8 56 3e 8d 38 38 3d 90 4d 99 be e0 ef 36 3d
       0.20993336 0.044975806 -0.29941988 0.044662356
0003e0 29 88 44 3e 99 bc 18 be 28 1b 34 be d9 58 9c 3e
       0.19192566 -0.14915694 -0.17588484 0.30536535
0003f0 4a db c7 bc 4c 78 83 be de 20 80 bd aa c0 45 3d
       -0.024396557 -0.25677717 -0.06256269 0.048279442

conv_v_to_c.feature_module_left.0.bias f4 [64]
000000 16 0c b3 bc e0 1a 70 3d 28 bc 66 3d f0 e3 ac bd
       -0.021856349 0.05861938 0.056331784 -0.08441913
000010 bc 04 67 bb 1d f2 53 3d 35 d0 ea bc b8 1d 4d bc
       -0.0035250625 0.05174457 -0.028663734 -0.0125192925
000020 c8 f1 4a 3d 91 d2 4d bd 9f 5d eb bb 46 86 27 3d
       0.049546987 -0.05024964 -0.0071827914 0.040899538
000030 6a 10 b9 bd d5 7c 8e bd f6 28 f9 3d 9d 98 ad 3d
       -0.09036334 -0.069574036 0.12166016 0.08476374
000040 34 a3 c1 3d d7 c0 93 3d 29 ef 2a 3a da 0a 7d 3d
       0.09454957 0.07214516 0.0006520623 0.061777927
000050 3d df 2a 3d 50 68 a0 bd 31 c9 8c 3d 09 5a 85 bd
       0.041716803 -0.07832396 0.06874312 -0.065113135
000060 a6 50 4a 3d bb e5 68 bd e6 22 fd bd 02 82 d5 bc
       0.04939332 -0.056859713 -0.12360172 -0.02606297
000070 05 1f c6 3d d9 aa 9d 3d 26 82 a3 bd 35 f4 6d bd
       0.09673885 0.07698602 -0.07983808 -0.058094222
000080 5a fd 24 3d 29 98 8e 3d 4f 62 31 ba 77 44 d0 bc
       0.040280677 0.06962616 -0.0006766663 -0.025423272
000090 fa cb e8 bd 82 4c d1 bd 83 12 c3 bd f0 40 f0 3c
       -0.113670304 -0.10219671 -0.09525015 0.02932784
0000a0 5f ea 28 3d f1 7b 6f bc e9 3b 8a bd 74 c0 0a bc
       0.04123914 -0.014616952 -0.06749708 -0.008468736
0000b0 97 74 87 3b 74 1b e6 bd 42 67 2e 3d 84 7f 5e 3c
       0.0041337716 -0.11235705 0.042578943 0.013580207
0000c0 60 99 ff 3d 0d 10 87 3d d2 d8 95 bd bb f4 7c bd
       0.12480426 0.06594858 -0.07316746 -0.06175683
0000d0 4c 7e b3 bd 07 7c 08 bd 2d 37 94 3d d5 81 60 bd
       -0.087643236 -0.033321407 0.072370864 -0.054811317
0000e0 bb b4 e5 bd 1b 23 a4 3d d3 ce 10 3d 71 02 2c 3d
       -0.11216112 0.08014508 0.035353493 0.041994516
0000f0 bd aa 07 3d b8 53 6c bc 19 f5 eb 3d 2a 54 fa 3d
       0.033121813 -0.014424257 0.11521358 0.12223084

conv_v_to_c.feature_module_edge.0.weight f4 [64, 1]
000000 ba 7a 41 bf 33 15 c2 bf bb db 07 c0 d9 26 10 40
       -0.7557789 -1.516272 -2.1227863 2.252371
000010 74 e7 9a bf 41 69 7d 3e 59 45 15 c0 41 b6 04 c0
       -1.2101884 0.24747182 -2.3323576 -2.073624
000020 af 0a c8 bf 98 65 fd bf 6c de 25 3f c8 01 11 c0
       -1.562826 -1.9796629 0.64792514 -2.2657337
000030 93 3d c6 3f a0 c5 5b bf 0e 11 39 bf 9f ae ff 3c
       1.5487541 -0.85848427 -0.7229165 0.031211196
000040 20 1f 0e c0 f5 04 27 3f d5 c2 d7 3f 5e 52 19 40
       -2.2206497 0.6524194 1.6856333 2.3956523
000050 0f f1 c9 3f f3 fe ef 3e 2f 82 17 40 e5 38 13 c0
       1.577669 0.46874198 2.3673208 -2.3003476
000060 e4 1a 15 40 9b 1b 78 bf a6 5c ed 3f 7f b1 fb 3e
       2.3297663 -0.9691712 1.8543899 0.49158856
000070 bb cb cf bb 51 56 7b 3e 09 b8 16 3f 3f 02 ad bf
       -0.0063414252 0.24544646 0.58874565 -1.351631
000080 6b 56 a8 3f fa 33 84 bf 63 4e 8b 3f 20 e0 f9 be
       1.3151373 -1.0328362 1.0883297 -0.48803806
000090 f3 3a 1a 40 0e df b2 bf 5c 79 be bf b1 a9 e1 3e
       2.409848 -1.3974321 -1.4880786 0.44074777
0000a0 b6 54 12 3f 74 a8 b9 bf 6e 20 9a be 8b 3b 71 bf
       0.5716051 -1.4504533 -0.30102867 -0.9423148
0000b0 b9 64 91 bf 46 e0 df 3f 03 8c 01 be 87 a2 b1 3f
       -1.1358863 1.7490318 -0.12651066 1.3877724
0000c0 58 50 70 bf 01 d1 f7 3f 29 ea f6 bf d5 23 53 3f
       -0.93872595 1.9360658 -1.929021 0.8247655
0000d0 85 bb 18 3f 70 6c 0a c0 8b 93 4d be 29 ef c5 bf
       0.5966113 -2.1628685 -0.20075814 -1.5463611
0000e0 4e 7f 30 3f 41 40 eb bf be 65 91 bd 50 7f e3 3d
       0.6894425 -1.8378984 -0.07099484 0.11108267
0000f0 c8 72 5a 3f d4 83 c9 bf 02 94 dc 3f 45 92 c4 bf
       0.8533139 -1.5743356 1.7232668 -1.5357138
