rl_model/SCPPO_value_29.pth (torch_old, 472694 bytes, 71 tensors)

cons_embedding.0.weight f4 [4]
0.9996961 0.9993573 0.99944174 1.0005023
00000000: 15ec 7f3f e1d5 7f3f 6adb 7f3f 7610 803f

cons_embedding.0.bias f4 [4]
0.00029593002 0.0006568967 -0.00055251445 0.00050351134
00000000: 0e27 9b39 9733 2c3a 9ed6 10ba 13fe 033a

cons_embedding.1.weight f4 [64, 4]
0.11739612 0.2337574 0.28753683 -0.64865947 -0.9405887 -0.31149688 1.0747342 -0.046269506
0.63712037 1.1236682 -1.1131179 1.1521736 -0.85970914 -0.5256209 1.1043118 1.2084628
-0.26411623 0.6531571 -0.33472395 -0.51333225 0.19092089 0.1238467 -0.2486338 -0.19001122
-0.5566998 -0.4773595 -1.15855 -0.7386949 0.57156664 0.5958109 -0.9976319 -0.87450844
0.78137934 0.9142613 0.85450274 -1.0068682 -0.099916264 -0.74163777 0.67943865 -0.58166254
-0.19582261 -0.91525966 0.14451027 0.9449367 -0.17458327 0.72997165 -0.8510201 -0.58138156
0.6509431 0.962234 -0.14199412 0.257273 0.9034255 1.0416301 0.90144855 -0.35963866
0.64762896 0.4002451 -0.071773835 0.85963947 0.8810461 0.14725049 0.8664756 -0.6902748
-0.6956908 0.9481943 1.14547 1.1251657 0.29569983 -1.1012682 1.2111645 0.9532518
0.46859014 -0.60780185 -0.84874916 -0.008107556 0.077160776 1.1850196 0.31451792 0.5034509
0.018433623 0.37433672 -0.1216424 -0.07971339 -0.42113763 -0.55420583 -0.81012285 0.7250297
-0.60532945 0.8394791 -0.9776498 -0.5037885 -0.19498985 0.3539225 0.19303516 0.8499989
-0.038063154 -0.36300346 0.05606538 0.89545196 -1.0721883 0.30690673 -0.8562306 1.1909399
-0.76628673 0.29026842 -0.1591384 0.68341815 -0.56874824 0.5589963 -0.8409831 0.26254144
0.63266706 -0.5551458 -0.56793636 0.6524747 0.09699993 -0.72633547 0.24906208 -0.4617815
-0.18434483 -0.32119846 0.6631422 1.0406033 0.36534354 -0.5223695 0.7395066 0.010754615
0.0058288877 0.27200797 -0.45524758 0.5041157 -0.1349541 -0.8077854 0.5187916 -0.81871617
-1.0591506 0.62571555 1.0553317 -0.9049759 -0.2449878 1.0083266 0.92050976 0.49868143
-0.04052925 0.5378711 0.6677402 -0.8997776 -0.5566521 -0.63975054 -1.0732903 -0.9135035
0.80255055 -0.11051722 0.105889946 -0.35017067 0.0057706162 -1.1507909 0.9121345 0.96884376
0.24924916 1.209775 -0.41668454 -0.78293055 0.15119705 1.186206 0.78837 -0.23154137
-0.010246837 -0.7067938 0.11148646 -0.6384508 0.93208265 -1.180795 1.1625504 0.56045043
0.35248578 1.0300466 1.2234147 0.49150935 -1.0791929 0.16311982 1.0643374 -0.3527906
-0.15074956 -0.9622966 0.6480878 0.877791 -0.541925 1.2126085 0.006489638 0.45384204
0.24305694 1.1365635 -0.2320837 0.2592007 -0.12677714 -0.60429347 0.8229214 0.24333975
0.87365186 0.62256587 -0.92171097 -0.13951986 0.5532367 -1.0863712 0.46226308 0.8477259
0.27401602 0.63061994 -0.76541626 -0.22767557 -0.7378766 -0.14960407 1.2186192 -0.21848714
-1.1496078 -0.17014544 -0.020059593 -0.9150481 -0.30842367 -0.30078486 -0.32942572 0.6328691
1.1212255 -0.67237717 -1.0374453 0.60451555 0.042368546 0.077834144 0.42983684 -0.06548068
0.21317722 0.7777815 -0.6866571 0.34758055 0.11814741 0.6095098 0.7258653 0.32062384
-0.6119908 -1.1982329 0.7037103 0.7633857 -0.13411207 0.25683838 0.52702695 -0.19301422
0.87990665 -0.5906981 0.6244051 -0.52315617 -1.106929 -0.6888616 -0.58461577 -0.08162475
00000000: 616d f03d 1a5e 6f3e 0738 933e 8c0e 26bf
00000010: 6cca 70bf 857c 9fbe e490 893f 1885 3dbd
00000020: 521a 233f 5cd4 8f3f a67a 8ebf 6d7a 933f
00000030: e615 5cbf 178f 06bf 175a 8d3f e9ae 9a3f
00000040: 3e3a 87be 4e35 273f f060 abbe be69 03bf
00000050: c480 433e 57a3 fd3d dc99 7ebe 4d92 42be
00000060: e183 0ebf 7768 f4be 5e4b 94bf 1c1b 3dbf
00000070: 3152 123f 1087 183f ce64 7fbf c9df 5fbf
00000080: 7a08 483f 070d 6a3f b1c0 5a3f 0fe1 80bf
00000090: e6a0 ccbd f9db 3dbf b1ef 2d3f d6e7 14bf
000000a0: b985 48be 754e 6abf 80fa 133e 5fe7 713f
000000b0: f5c5 32be 6cdf 3a3f 74dc 59bf 6cd5 14bf
000000c0: 35a4 263f f854 763f e866 11be 49b9 833e
000000d0: e546 673f 2354 853f 55c5 663f 8f22 b8be
000000e0: 03cb 253f edec cc3e 29fe 92bd 5511 5c3f
000000f0: 3d8c 613f d5c8 163e 58d1 5d3f d9b5 30bf
00000100: cb18 32bf ddbc 723f c39e 923f 6e05 903f
00000110: f865 973e 5bf6 8cbf 7007 9b3f 4f08 743f
00000120: 0ceb ef3e e798 1bbf a047 59bf 8ed5 04bc
00000130: 7806 9e3d b9ae 973f 7e08 a13e 28e2 003f
00000140: 1c02 973c 10a9 bf3e a71f f9bd c640 a3bd
00000150: 5a9f d7be 6fe0 0dbf 3664 4fbf 8c9b 393f
00000160: dff6 1abf 1ae8 563f 4247 7abf 48f8 00bf
00000170: 6bab 47be 5435 b53e 02ab 453e 8799 593f
00000180: 1ce8 1bbd 97db b9be d0a4 653d 573c 653f
00000190: 773d 89bf e122 9d3e ee31 5bbf b870 983f
000001a0: 5e2b 44bf 109e 943e 2df5 22be 7ef4 2e3f
000001b0: 7c99 11bf 621a 0f3f ab4a 57bf d56b 863e
000001c0: 78f6 213f 091e 0ebf 4764 11bf 9508 273f
000001d0: e6a7 c63d 1ff1 39bf 210a 7f3e a06e ecbe
000001e0: e4c4 3cbe 2074 a4be b0c3 293f 7d32 853f
000001f0: 4f0e bb3e 02ba 05bf 4e50 3d3f 2034 303c
00000200: 4100 bf3b a144 8b3e 3616 e9be ba0d 013f
00000210: 6831 0abe 06cb 4ebf 87cf 043f 6297 51bf
00000220: 3f92 87bf e52e 203f 1c15 873f 80ac 67bf
00000230: 15de 7abe d910 813f 87a6 6b3f 2c53 ff3e
00000240: 0002 26bd ecb1 093f 06f1 2a3f d357 66bf
00000250: c180 0ebf b1c6 23bf 9461 89bf 5edb 69bf
00000260: f473 4d3f da56 e2bd d4dc d83d 9249 b3be
00000270: 7017 bd3b 1e4d 93bf a681 693f 2506 783f
00000280: 2c3b 7f3e e8d9 9a3f ad57 d5be 236e 48bf
00000290: 66d3 1a3e 99d5 973f 9ed2 493f 2e19 6dbe
000002a0: 59e2 27bc 70f0 34bf 0353 e43d 8371 23bf
000002b0: f89c 6e3f 4a24 97bf 74ce 943f ae79 0f3f
000002c0: 0479 b43e 91d8 833f da98 9c3f 1da7 fb3e
000002d0: fe22 8abf e208 273e 353c 883f f8a0 b4be
000002e0: 185e 1abe 1259 76bf 15e9 253f e9b6 603f
000002f0: 99bb 0abf c136 9b3f 07a7 d43b fc5d e83e
00000300: ebe3 783e ea7a 913f 59a7 6dbe f4b5 843e
00000310: ded1 01be fab2 1abf faaa 523f 0e2e 793e
00000320: a6a7 5f3f 7a60 1f3f 40f5 6bbf 4bde 0ebe
00000330: eca0 0d3f 360e 8bbf bfad ec3e 9104 593f
00000340: d44b 8c3e 4f70 213f 52f2 43bf c923 69be
00000350: 7be5 3cbf cf31 19be b7fb 9b3f 18bb 5fbe
00000360: 5926 93bf 9b3a 2ebe 0454 a4bc 9840 6abf
00000370: b5e9 9dbe 7900 9abe 7daa a8be b603 223f
00000380: 5184 8f3f e920 2cbf 02cb 84bf 88c1 1a3f
00000390: a48a 2d3d 8267 9f3d 9313 dc3e bc1a 86bd
000003a0: 214b 5a3e b01c 473f c2c8 2fbf 14f6 b13e
000003b0: 45f7 f13d d608 1c3f 4fd2 393f cf28 a43e
000003c0: 6eab 1cbf b25f 99bf 5c26 343f 3f6d 433f
000003d0: ad54 09be 5280 833e 3deb 063f 85a5 45be
000003e0: 9041 613f fe37 17bf 03d9 1f3f 90ed 05bf
000003f0: d9af 8dbf 3c59 30bf 61a9 15bf e02a a7bd

cons_embedding.1.bias f4 [64]
0.49688047 -0.044686377 0.37458178 0.2954475 -0.02083139 0.1181074 0.13258162 0.46484596
0.13646406 0.31329644 -0.38437408 -0.03203598 0.46915805 0.4279453 -0.47760922 -0.32681128
0.43604928 0.3891959 0.12436351 0.40996966 0.44289252 -0.11365442 0.49905846 0.12415306
0.4152082 -0.19681443 -0.431045 0.046847045 -0.015321469 -0.3537717 0.1590155 0.22751975
0.04629664 -0.28491706 -0.0040970617 -0.03558874 -0.2515051 0.33796656 -0.10619456 -0.44310334
-0.2422054 -0.30789348 0.4544259 -0.082783855 -0.24836141 -0.052153025 0.044411503 0.08339945
-0.2014748 -0.24661736 0.4447935 0.3872624 0.48960668 0.16339135 0.29932645 -0.048977043
0.41808176 -0.49228218 -0.115126796 0.22285296 0.44868684 -0.17821388 -0.46515924 -0.48735392
00000000: 1e67 fe3e 1009 37bd 2fc9 bf3e e544 973e
00000010: 97a6 aabc 4be2 f13d 7ac3 073e 4a00 ee3e
00000020: 3cbd 0b3e 6468 a03e aecc c4be 2938 03bd
00000030: 7c35 f03e a51b db3e 3289 f4be cf53 a7be
00000040: da41 df3e af44 c73e 4cb2 fe3d 8be7 d13e
00000050: cfc2 e23e a6c3 e8bd 9784 ff3e f643 fe3d
00000060: 2b96 d43e b989 49be eeb1 dcbe b0e2 3f3d
00000070: e606 7bbc 9021 b5be f6d4 223e f0fa 683e
00000080: 8ca1 3d3d a6e0 91be a540 86bb 80c5 11bd
00000090: 47c5 80be f409 ad3e 897c d9bd 71de e2be
000000a0: b104 78be 37a4 9dbe 83aa e83e 958a a9bd
000000b0: 7452 7ebe 699e 55bd d6e8 353d 55cd aa3d
000000c0: 694f 4ebe 4389 7cbe f9bb e33e 4247 c63e
000000d0: baad fa3e 1050 273e 5141 993e 279c 48bd
000000e0: d00e d63e 690c fcbe 99c7 ebbd 9133 643e
000000f0: 48ba e53e b37d 36be 5a29 eebe 7486 f9be

cons_embedding.3.weight f4 [64, 64]
0.24213284 -0.05281707 0.28955618 -0.13065617 -0.058162384 0.27286112 0.08907674 -0.22889723
0.00038881996 -0.040450823 -0.18212256 0.15807304 0.28622007 0.04873865 0.2951585 -0.26873094
-0.22038879 0.11040039 -0.22091593 -0.26105753 -0.2361822 0.09732527 0.08537414 0.19995792
0.08734721 0.0628634 -0.10468405 0.26615334 0.22782053 0.11473194 -0.30345547 -0.036802784
-0.22620647 0.022805702 -0.030295433 -0.06655597 0.06661636 0.26677746 -0.22206864 -0.07367371
0.14729767 -0.23263045 0.26018608 -0.049245283 -0.13937823 -0.004877172 0.2703992 0.24575059
0.14562108 -0.04015055 -0.14075 0.17636491 0.29836366 -0.12898606 0.26121673 -0.09879535
0.2205316 -0.16790764 0.028263804 0.02850444 -0.09213008 -0.22072199 -0.21947236 -0.14921767
-0.026477665 -0.14859416 0.25594237 0.1489748 -0.15314461 -0.09603534 0.09494498 0.19384968
-0.15949021 -0.19157858 -0.27770296 0.25551736 -0.29978445 -0.18560772 0.09885288 0.0560454
-0.121835984 -0.16665928 -0.02135486 -0.16581616 -0.12630044 -0.19507225 0.29856876 -0.11865614
-0.01621193 -0.110617876 -0.17011236 0.24513161 -0.07612442 0.23351069 -0.03229111 0.25915548
0.18119659 -0.13801816 -0.2387153 -0.05435312 0.063167274 -0.117232025 0.23885491 0.0932345
-0.033733994 -0.0017387591 -0.010975718 0.29377928 0.29732904 0.028861994 -0.16966599 -0.2753381
0.2897911 0.15106489 0.20296502 0.15430245 0.06664121 0.030607255 0.106372625 0.2614955
0.1862211 0.066944815 0.29867765 -0.1518757 -0.010481939 0.19944268 -0.058617238 -0.22749817
-0.12256238 0.14870287 0.24483164 0.1217326 -0.1599582 -0.095335126 -0.22812545 -0.21241526
0.06363526 -0.24902917 0.13812007 0.025033306 -0.035690155 0.21810806 -0.07134067 0.12794939
0.082045235 0.2973383 -0.020418184 0.22815952 0.076728694 -0.27694786 -0.053382974 0.06892366
0.21773157 -0.018183017 -0.15951054 0.14286727 -0.11990958 -0.24731305 -0.020105356 -0.23042387
0.21836546 -0.061838273 -0.15988141 0.10578069 0.037514433 0.16267438 -0.15282452 -0.18402852
-0.13723688 0.19667648 -0.20588727 -0.091200285 -0.02647211 -0.2496296 0.072162725 0.19878969
0.29998398 0.06157287 -0.009067835 -0.071005754 -0.19260192 -0.18274449 -0.23410843 0.15882675
-0.19403139 -0.24470735 -0.29253185 0.07474041 0.03527202 -0.21232456 0.05674432 -0.22819065
-0.078216374 0.21143815 0.27480215 -0.18976048 0.0016002653 -0.018095521 -0.0047791516 -0.20631297
0.08448155 0.107045524 -0.2642597 0.20643689 -0.13859683 -0.053370256 -0.015117538 -0.1973351
0.1430927 0.11178744 0.013459975 0.13705808 0.26254424 -0.09861969 -0.25269613 -0.20170988
-0.30210036 -0.20515007 0.26640907 0.10120401 -0.01942432 0.07976349 -0.16584879 -0.23625773
0.0769152 -0.05113542 -0.2142912 0.25755253 0.13629371 -0.2908893 -0.24118218 -0.24851853
-0.08883504 -0.1655906 -0.0019227881 0.1419898 0.033229955 0.09674968 -0.028951101 -0.0026351572
0.2995463 0.18639697 0.058839943 0.061006438 0.18252546 -0.26958162 0.10257878 0.06780514
0.26933318 0.23729408 -0.29881346 0.25706792 0.10283166 0.1991728 -0.029555824 0.14945166
00000000: acf1 773e b656 58bd b540 943e bbca 05be
00000010: ae3b 6ebd 74b4 8b3e de6d b63d 0964 6abe
00000020: 88da cb39 c3af 25bd 567e 3abe e6dd 213e
00000030: 708b 923e 2ea2 473d 041f 973e 1a97 89be
00000040: 99ad 61be 9a19 e23d c937 62be 55a9 85be
00000050: bfd9 71be 7952 c73d a3d8 ae3d c5c1 4c3e
00000060: 18e3 b23d 87be 803d 9764 d6bd 4045 883e
00000070: c949 693e 94f8 ea3d 845e 9bbe 84be 16bd
00000080: aba2 67be 06d3 ba3c 212e f8bc 7f4e 88bd
00000090: 286e 883d 0e97 883e f665 63be 3ee2 96bd
000000a0: 33d5 163e ad36 6ebe 1c37 853e 6cb5 49bd
000000b0: 2bb9 0ebe afd0 9fbb c471 8a3e 0ba6 7b3e
000000c0: b11d 153e e774 24bd c520 10be 0199 343e
000000d0: 1fc3 983e ec14 04be 33be 853e 3755 cabd
000000e0: 09d3 613e fbef 2bbe 7e89 e73c 2582 e93c
000000f0: b2ae bcbd f204 62be 5dbd 60be 84cc 18be
00000100: b0e7 d8bc 1129 18be e10a 833e da8c 183e
00000110: f1d1 1cbe 2dae c4bd 8472 c23d 8880 463e
00000120: 6751 23be 2d2d 44be 152f 8ebe 2cd3 823e
00000130: 597d 99be f30f 3ebe 6173 ca3d dd8f 653d
00000140: 2585 f9bd bba8 2abe 63f0 aebc b6cb 29be
00000150: e754 01be 05c1 47be 01de 983e fe01 f3bd
00000160: e2ce 84bc a08b e2bd ef31 2ebe c803 7b3e
00000170: 1fe7 9bbd 6d1d 6f3e af43 04bd 07b0 843e
00000180: 998b 393e a254 0dbe c971 74be 61a1 5ebd
00000190: d85d 813d 5817 f0bd 6296 743e bbf1 be3d
000001a0: a82c 0abd 13e7 e3ba 7fd3 33bc 3d6a 963e
000001b0: 833b 983e fd6f ec3c ecbc 2dbe 1ef9 8cbe
000001c0: 805f 943e c1b0 1a3e 10d6 4f3e 7601 1e3e
000001d0: 307b 883d 11bc fa3c e4d9 d93d bde2 853e
000001e0: beb0 3e3e 5d1a 893d 47ec 983e 4e85 1bbe
000001f0: 70bc 2bbc b43a 4c3e a118 70bd 48f5 68be
00000200: fc01 fbbd 9145 183e 25b5 7a3e f14e f93d
00000210: 15cc 23be 103f c3bd b899 69be 6383 59be
00000220: 3453 823d 8101 7fbe 596f 0d3e a612 cd3c
00000230: d72f 12bd b857 5f3e 0f1b 92bd 2a05 033e
00000240: 5507 a83d ba3c 983e 0944 a7bc a6a2 693e
00000250: ef23 9d3d 1ccc 8dbe 1ba8 5abd d927 8d3d
00000260: 06f5 5e3e 8df4 94bc bb56 23be cc4b 123e
00000270: 2793 f5bd a23f 7dbe fdb3 a4bc 3cf4 6bbe
00000280: 329b 5f3e 214a 7dbd f4b7 23be 8ca3 d83d
00000290: bca8 193d 1d94 263e 087e 1cbe f971 3cbe
000002a0: d387 0cbe 8f65 493e 1dd4 52be 37c7 babd
000002b0: 0adc d8bc e79e 7fbe 0dca 933d 868f 4b3e
000002c0: 8097 993e d533 7c3d 4291 14bc 776b 91bd
000002d0: 7039 45be 5f21 3bbe 1fba 6fbe 7ba3 223e
000002e0: 2ab0 46be 9094 7abe bcc6 95be 8011 993d
000002f0: 6579 103d 9c6b 59be bb6c 683d cfaa 69be
00000300: e82f a0bd 3e83 583e deb2 8c3e 9250 42be
00000310: febf d13a 0f3d 94bc 6e9a 9cbb b543 53be
00000320: aa04 ad3d af3a db3d 0c4d 87be 3164 533e
00000330: 54ec 0dbe c59a 5abd 8daf 77bc 3612 4abe
00000340: e586 123e d0f0 e43d 3a87 5c3c f458 0c3e
00000350: 336c 863e 1ff9 c9bd 6361 81be 098d 4ebe
00000360: e6ac 9abe dc12 52be c566 883e 0c44 cf3d
00000370: c01f 9fbc 0a5b a33d 44d4 29be 8ced 71be
00000380: b785 9d3d 6073 51bd 276f 5bbe eddd 833e
00000390: 9490 0b3e 71ef 94be 76f8 76be a47b 7ebe
000003a0: 25ef b5bd 9590 29be 1006 fcba c665 113e
000003b0: 221c 083d b224 c63d dc2a edbc 9ab2 2cbb
000003c0: 225e 993e d9de 3e3e 2702 713d e3e1 793d
000003d0: f4e7 3a3e 9a06 8abe d314 d23d 6cdd 8a3d
000003e0: 0ae6 893e 38fd 723e 14fe 98be 689e 833e
000003f0: 6899 d23d f4f3 4b3e 0e1f f2bc db09 193e

cons_embedding.3.bias f4 [64]
0.090865485 0.035145137 -0.011395189 0.0016671282 0.050071884 0.1234322 0.032843392 -0.12132016
0.08038561 -0.0019705126 -0.029229173 0.075710095 -0.03420768 -0.07125166 0.12371532 -0.023019725
-0.014717246 -0.019366559 0.06663997 -0.11171958 -0.013536886 0.07726737 0.07656019 0.058465037
0.09980514 -0.123276375 -0.003173894 0.0423143 0.06042474 0.044476483 0.01155194 0.056995027
-0.046356104 0.09697437 -0.07152443 -0.111319065 -0.023161625 -0.03876939 -0.10126992 -0.0033968326
0.029592507 -0.056121677 -0.0012064285 -0.059748404 0.092087336 0.10419661 0.11250744 -0.0985534
0.124107726 0.07504135 0.020873738 -0.04289509 -0.047844537 0.110366836 -0.009477886 0.11055595
0.016050203 -0.031395912 0.104277894 -0.08317432 -0.031039456 -0.0069136736 0.080167644 0.05362971
00000000: af17 ba3d 59f4 0f3d e3b2 3abc 8a83 da3a
00000010: 2d18 4d3d 05ca fc3d cb86 063d b476 f8bd
00000020: 36a1 a43d b723 01bb 0572 efbc e50d 9b3d
00000030: 5a1d 0cbd 64ec 91bd 755e fd3d dd93 bcbc
00000040: 9b20 71bc 9ea6 9ebc 897a 883d 3ccd e4bd
00000050: d1c9 5dbc 5b3e 9e3d 97cb 9c3d 0979 6f3d
00000060: a366 cc3d 5378 fcbd 1b01 50bb c251 2d3d
00000070: ef7f 773d f92c 363d 5944 3d3c 9e73 693d
00000080: e6df 3dbd 809a c63d 667b 92bd 40fb e3bd
00000090: 73bd bdbc a7cc 1ebd 9b66 cfbd 659d 5ebb
000000a0: fc6b f23c d8df 65bd 0621 9eba beba 74bd
000000b0: 4998 bc3d 0865 d53d 4d6a e63d 5dd6 c9bd
000000c0: 312c fe3d 48af 993d 67ff aa3c c3b2 2fbd
000000d0: a2f8 43bd 0208 e23d 2349 1bbc 286b e23d
000000e0: b77b 833c 0099 00bd a68f d53d 4c57 aabd
000000f0: 7546 febc 198c e2bb ef2e a43d d4aa 5b3d

var_embedding.0.weight f4 [7]
1.0006276 1.0006492 0.99942267 0.99940914 0.9993825 0.99924374 1.0006841
00000000: 9114 803f 4615 803f 2ada 7f3f 47d9 7f3f
00000010: 88d7 7f3f 70ce 7f3f 6b16 803f

var_embedding.0.bias f4 [7]
0.00078654144 0.0006313509 -0.0005850458 0.0005216982 0.0006143281 0.0007259329 0.0004488706
00000000: e72f 4e3a 3e81 253a c25d 19ba 93c2 083a
00000010: dc0a 213a 884c 3e3a 6456 eb39

var_embedding.1.weight f4 [64, 7]
0.36576995 -0.4783943 0.91516733 -0.9135846 -0.04246104 -0.40582007 0.19174549 -0.09695691
-0.1836194 -0.24450895 -0.24765503 0.6509314 -0.8620339 0.44984204 -0.41500515 -0.816897
0.58846027 0.43762258 0.8539175 -0.46555257 0.7181454 0.18175924 -0.44439387 -0.5948242
0.29040235 0.31575844 0.64427507 0.6780899 0.5294477 0.25769484 -0.018770587 -0.8556043
-0.22210294 -0.08728738 -0.8380174 -0.17204341 0.1260265 -0.105539784 -0.5641452 -0.067041956
-0.27897516 0.18487997 0.19918846 -0.44199055 0.007915634 0.5817403 -0.3990259 -0.53015226
0.27474168 -0.82328176 -0.48615536 -0.3957132 0.5394682 -0.72999936 -0.25493577 -0.5016886
0.77297306 -0.058902733 -0.8524783 -0.16280365 -0.02588046 -0.10586035 -0.6634781 0.122716844
-0.54592776 0.1446607 0.8250508 -0.7236415 -0.80708885 0.16106755 -0.0482197 -0.48893845
0.9214398 -0.61251104 -0.2137001 -0.45691898 0.7623465 -0.3559047 0.15934232 0.4032513
0.7479963 -0.56332135 0.018814297 -0.5126224 0.68862116 0.14135496 -0.51234853 -0.20524324
-0.7601257 -0.636826 0.19940923 -0.49253243 0.90928173 0.8373721 0.48772785 -0.68287194
0.41131175 -0.7944078 -0.5397074 -0.72457486 0.47227576 -0.17137645 0.6373534 -0.38186643
-0.3155494 -0.87325704 0.14634296 -0.33971873 0.5244551 -0.92328477 0.92177737 -0.54363304
-0.44935352 0.5232776 -0.174011 0.52172196 0.36294362 0.37513798 0.14522351 0.31864202
-0.90108854 -0.091295324 -0.6557967 0.46316347 -0.88054645 0.46835002 0.02947586 0.39341763
0.53830355 0.7298927 -0.9187281 0.61846846 0.5086981 0.3398201 -0.6817648 0.113138266
-0.44679624 -0.8619959 -0.7039077 0.9217629 0.4691716 0.54186535 0.90410894 -0.20748249
0.19272844 0.33935112 -0.82349503 0.56618583 -0.75168085 -0.28157404 -0.8916381 -0.56291974
-0.854151 -0.020820448 -0.029148797 0.29861972 0.53128785 0.26490635 0.8102738 0.8941431
-0.61918485 0.50800127 0.8318501 0.0463935 0.40659103 -0.7633974 -0.61143684 0.45170248
0.8324637 0.4597371 -0.1277869 0.45594797 0.3240514 -0.069641195 0.9150283 0.46526748
0.3902363 -0.087667584 -0.8121136 -0.7549005 0.7103556 0.8629821 -0.87136364 0.64855486
0.69393843 0.40050438 0.33378676 -0.10924184 0.8260158 -0.17490949 -0.5678537 0.559561
-0.7566963 0.662433 0.34608322 -0.4432925 0.44531763 -0.8702402 0.6305656 0.33153275
-0.56869346 -0.100686945 0.68876 0.008222391 -0.030660084 0.08339742 0.7193646 0.73288053
-0.74463046 -0.492429 0.11617111 -0.61595106 0.5132802 -0.793373 -0.27664798 0.24567029
-0.10881382 0.43917242 -0.254814 0.90088135 0.22608356 -0.111859694 0.34858087 0.13028441
0.59754884 -0.7363406 -0.3036067 -0.07101097 0.89472014 -0.90900856 -0.49079484 -0.73540795
0.34652883 0.18055533 0.022758406 -0.6872448 0.92208207 0.48316175 0.5902013 0.7867886
-0.09579474 0.7135625 0.19735128 -0.11091237 -0.16177896 -0.65381926 0.020736452 0.014878328
-0.7706717 -0.36154196 0.17111805 0.072868444 -0.068140194 -0.9259141 0.017918244 -0.15206131
00000000: 3346 bb3e 19f0 f4be 6848 6a3f aee0 69bf
00000010: a1eb 2dbd a6c7 cfbe ee58 443e 5891 c6bd
00000020: b906 3cbe 8e60 7abe 4899 7dbe 71a3 263f
00000030: 41ae 5cbf b251 e63e 8e7b d4be 2920 51bf
00000040: 55a5 163f 1110 e03e 569a 5a3f e85c eebe
00000050: 60d8 373f 181f 3a3e 9887 e3be 6646 18bf
00000060: 9eaf 943e 17ab a13e 36ef 243f 4d97 2d3f
00000070: e289 073f 94f0 833e c6c4 99bc e208 5bbf
00000080: f46e 63be bac3 b2bd 4f88 56bf 262c 30be
00000090: 170d 013e 3e25 d8bd d26b 10bf 4b4d 89bd
000000a0: d5d5 8ebe 2d51 3d3e 0ff8 4b3e 964c e2be
000000b0: 93b0 013c efec 143f 1f4d ccbe 0fb8 07bf
000000c0: f1aa 8c3e 98c2 52bf 5be9 f8be ec9a cabe
000000d0: 971a 0a3f 3de1 3abf f186 82be aa6e 00bf
000000e0: 90e1 453f fe43 71bd 053c 5abf 00b6 26be
000000f0: 4203 d4bc 50cd d8bd b3d9 29bf f852 fb3d
00000100: ecc1 0bbf ef21 143e 8736 533f 9240 39bf
00000110: 609d 4ebf e4ee 243e 0582 45bd 2456 fabe
00000120: 7be3 6b3f 86cd 1cbf 33d4 5abe 49f1 e9be
00000130: 2429 433f 2439 b6be a22a 233e f476 ce3e
00000140: af7c 3f3f d435 10bf 7120 9a3c 393b 03bf
00000150: 7a49 303f 5bbf 103e 4629 03bf 492b 52be
00000160: 9997 42bf 0707 23bf ef31 4c3e 362d fcbe
00000170: b0c6 683f 055e 563f 77b7 f93e b2d0 2ebf
00000180: 7497 d23e 4f5e 4bbf 442a 0abf bd7d 39bf
00000190: 21ce f13e 4f7d 2fbe 9829 233f ff83 c3be
000001a0: b18f a1be c68d 5fbf eeda 153e 9def adbe
000001b0: b042 063f 645c 6cbf 9af9 6b3f 892b 0bbf
000001c0: aa11 e6be 85f5 053f f12f 32be 928f 053f
000001d0: bfd3 b93e 1612 c03e 79b5 143e 0c25 a33e
000001e0: bdad 66bf 0bf9 babd 4be2 27bf c323 ed3e
000001f0: 7e6b 61bf 93cb ef3e 5c77 f13c 096e c93e
00000200: 43ce 093f 3fda 3a3f c431 6bbf f353 1e3f
00000210: 0a3a 023f e6fc ad3e 2388 2ebf 09b5 e73d
00000220: 7ac2 e4be c3ab 5cbf 4c33 34bf a7f8 6b3f
00000230: 4337 f03e b0b7 0a3f af73 673f 4a76 54be
00000240: 9b5a 453e 6ebf ad3e 92d0 52bf 8ef1 103f
00000250: 286e 40bf 792a 90be 6542 64bf 821b 10bf
00000260: a4a9 5abf a58f aabc 75c9 eebc afe4 983e
00000270: 7b02 083f cea1 873e 1b6e 4f3f 90e6 643f
00000280: e682 1ebf 5f0c 023f 21f4 543f 1c07 3e3d
00000290: b32c d03e 036e 43bf 2087 1cbf 8c45 e73e
000002a0: 571c 553f a962 eb3e 92da 02be 0372 e93e
000002b0: 11ea a53e 0ba0 8ebd 4b3f 6a3f 8a37 ee3e
000002c0: 0dcd c73e 108b b3bd ade6 4fbf 2941 41bf
000002d0: ddd9 353f 65ec 5c3f b011 5fbf b107 263f
000002e0: f3a5 313f e90e cd3e 19e6 aa3e 30ba dfbd
000002f0: c575 533f 791b 33be dc5e 11bf 643f 0f3f
00000300: d9b6 41bf 3695 293f d231 b13e 3cf7 e2be
00000310: ac00 e43e 10c8 5ebf bf6c 213f a9be a93e
00000320: e595 11bf f534 cebd 9352 303f 35b7 063c
00000330: db2a fbbc 44cc aa3d 4728 383f 0f9e 3b3f
00000340: 1aa0 3ebf a71f fcbe 1eeb ed3d f8ae 1dbf
00000350: 5566 033f 7e1a 4bbf cea4 8dbe fe90 7b3e
00000360: c8d9 debd 35db e03e fb76 82be 29a0 663f
00000370: 7382 673e b216 e5bd 3179 b23e 4769 053e
00000380: f6f8 183f d180 3cbf 5672 9bbe 336e 91bd
00000390: 610c 653f c9b4 68bf 7649 fbbe b243 3cbf
000003a0: 3a6c b13e 7fe3 383e d66f ba3c 46ef 2fbf
000003b0: 920d 6c3f fa60 f73e 6f17 173f fa6a 493f
000003c0: 0830 c4bd 08ac 363f 7416 4a3e 0626 e3bd
000003d0: 62a9 25be b360 27bf 7edf a93c 3bc4 733c
000003e0: be4a 45bf 071c b9be 9239 2f3e 0d3c 953d
000003f0: 168d 8bbd b508 6dbf 48c9 923c f6b5 1bbe

var_embedding.1.bias f4 [64]
0.26255438 0.3359331 -0.37450206 -0.35542342 -0.33311677 0.23030426 -0.24532929 0.051529296
-0.338398 -0.25987428 -0.056621343 0.35812232 0.31660944 0.24798779 0.066129394 -0.23065312
-0.3338282 -0.33945468 0.032349367 -0.066061184 0.33904278 0.040387183 0.16016488 0.060528573
-0.08188821 0.2293764 0.0041865036 -0.3733786 0.1480006 0.015109884 -0.36151206 0.26251224
0.17928982 -0.07566151 0.2096791 -0.2008928 0.004831286 0.016624346 0.03778076 0.08176989
-0.16663927 -0.30604443 0.29371253 -0.25840968 0.088519834 -0.34735048 -0.33152297 0.106306866
-0.3218881 0.34914985 0.042879645 0.006412385 0.14960133 -0.031074796 0.12979265 -0.13123012
0.07587193 -0.18231787 -0.11725945 0.24112974 0.19746181 0.25468644 0.12892811 -0.35778403
00000000: 876d 863e 6cff ab3e bcbe bfbe 0ffa b5be
00000010: 488e aabe e1d4 6b3e 9a37 7bbe 6210 533d
00000020: 8142 adbe 3e0e 85be c8eb 67bd cf5b b73e
00000030: a21a a23e 83f0 7d3e d96e 873d 5530 6cbe
00000040: 88eb aabe 01cd adbe c580 043d 164b 87bd
00000050: 0497 ad3e 086d 253d 4302 243e cfec 773d
00000060: 01b5 a7bd a6e1 6a3e f02e 893b 7b2b bfbe
00000070: 788d 173e 728f 773c 1c18 b9be 0168 863e
00000080: c097 373e 6cf4 9abd 1eb6 563e d8b6 4dbe
00000090: c44f 9e3b c82f 883c 00c0 1a3d f976 a73d
000000a0: 7ca3 2abe dbb1 9cbe 7d61 963e 464e 84be
000000b0: e349 b53d ecd7 b1be 61bd a9be 6ab7 d93d
000000c0: 84ce a4be c5c3 b23e 91a2 2f3d fc1e d23b
000000d0: 1731 193e 9290 febc 5de8 043e 3061 06be
000000e0: be62 9b3d 89b1 3abe b925 f0bd b7ea 763e
000000f0: 6e33 4a3e 4366 823e bb05 043e 782f b7be

var_embedding.3.weight f4 [64, 64]
-0.046909977 -0.006916488 0.05681855 0.28277168 -0.07565259 -0.18631354 0.23373099 -0.17956232
-0.095048286 0.2270301 -0.05513346 0.0075740255 -0.13153653 -0.28375766 0.25840124 0.08239547
0.17297955 -0.03114096 0.25959328 0.22503117 0.15966089 -0.115558274 -0.17015077 -0.28517503
0.05802734 0.3003187 0.2754703 -0.030916141 -0.18934122 0.079439975 0.18845607 0.2551118
0.18672654 0.30411336 0.0075189457 -0.059131622 0.22739153 0.026824536 -0.26018164 -0.21776906
0.23323421 -0.015919741 0.08417243 0.093133196 0.27536654 -0.120003715 0.002720459 -0.3012125
0.054468006 0.2585358 -0.16742125 0.0699019 -0.059705906 -0.17350785 -0.19161692 0.17196187
-0.17185642 0.03663156 0.03409743 0.121808775 0.27728653 0.19114675 -0.2519859 0.09867765
-0.22047047 -0.2817044 -0.22074878 -0.12509643 -0.19177267 0.13204838 0.07571236 -0.033775818
0.12892725 -0.027280759 -0.033865564 -0.2887992 -0.032991443 -0.20181182 0.29788196 0.116960414
-0.12818006 -0.08194729 0.1490761 0.20370549 0.0960641 -0.19381785 -0.099183545 0.13781694
-0.10228458 0.09250383 -0.12909798 0.18692662 -0.040334046 -0.10035921 -0.2349707 0.098606005
0.03312031 -0.1744578 -0.28940278 -0.22864087 0.20836048 0.2369813 0.22058146 -0.28468823
0.13705102 0.2747411 0.13296157 0.053716663 0.10696262 -0.24595775 -0.031093571 -0.25189716
0.1390817 -0.07714342 -0.20465218 -0.20572256 0.24316014 -0.17362106 0.15371722 0.009810482
-0.016456084 -0.24651624 0.10163144 0.15462853 0.18148811 -0.1604157 0.18946864 -0.27063584
0.26875752 -0.11171818 0.050853446 0.25245342 0.14741153 -0.10736394 0.23050676 -0.153567
0.30014136 -0.014013114 0.27345076 -0.27444908 -0.093776695 0.1647669 -0.20337325 -0.11434022
-0.035204906 -0.030170646 -0.01581211 0.10620495 0.26263538 -0.2618901 -0.19690947 -0.20239267
0.23284033 -0.109004095 -0.020163316 0.120330065 0.17691177 -0.037771095 0.10736858 -0.27862847
-0.2897924 -0.16011776 -0.2566963 -0.28933075 0.29230317 0.14236897 0.13307907 0.29711378
0.10434819 -0.289725 0.1899853 -0.019746192 -0.3012931 0.14141303 -0.14998296 -7.992913e-06
0.29733422 0.08314403 0.24736795 -0.23172915 -0.17136946 0.02633677 -0.088836424 -0.2931692
-0.0008642271 -0.28733143 -0.14958002 -0.19266546 0.17310333 -0.061369948 -0.13634013 -0.08445565
0.008130131 0.093297124 -0.16600333 0.14094885 0.2471304 -0.2874917 -0.14399527 -0.027246304
0.3049372 -0.26330683 -0.28426522 -0.12881419 -0.26346114 0.072986834 0.18034816 -0.2785459
0.01382406 0.28152815 -0.023637196 0.30033702 -0.26650012 -0.04092193 0.081087045 0.19587679
0.14730245 -0.09277153 -0.23733348 -0.2021004 0.09682599 -0.057272363 -0.2707946 -0.30339628
-0.22667654 -0.13936032 -0.21010204 -0.16313551 0.15154944 -0.25474298 0.29807323 0.2522416
-0.28602347 0.19184761 0.2709083 -0.04332129 -0.2788728 -0.22584315 -0.25907508 -0.22656631
0.14366852 -0.009898114 -0.12567696 -0.18698771 -0.28115687 -0.2288297 -0.003162106 -0.045593806
0.065061934 -0.023338871 0.2662594 0.25236788 -0.26618928 0.19275792 -0.10873921 -0.059607904
00000000: ad24 40bd b5a3 e2bb 91ba 683d 73c7 903e
00000010: bfef 9abd fac8 3ebe 2d57 6f3e 2fdf 37be
00000020: ada8 c2bd 947a 683e 9fd3 61bd 882f f83b
00000030: 83b1 06be af48 91be 2b4d 843e f5be a83d
00000040: 8d21 313e 541b ffbc 69e9 843e 926e 663e
00000050: 257e 233e d1a9 ecbd 013c 2ebe 7602 92be
00000060: 13ae 6d3d 5fc3 993e 710a 8d3e d943 fdbc
00000070: aae2 41be 6db1 a23d a1fa 403e 049e 823e
00000080: 3e35 3f3e bfb4 9b3e 7d61 f63b 0034 72bd
00000090: 53d9 683e 21bf db3c 8736 85be dafe 5ebe
000000a0: f3d4 6e3e 1e6a 82bc 9862 ac3d 9ebc be3d
000000b0: d8fc 8c3e 82c4 f5bd ba49 323b 8638 9abe
000000c0: d819 5f3d ce5e 843e 7a70 2bbe ba28 8f3d
000000d0: 2e8e 74bd 0bac 31be 3a37 44be c616 303e
000000e0: 21fb 2fbe fa0a 163d bfa9 0b3d e176 f93d
000000f0: 80f8 8d3e f9bb 433e 4c04 81be 8217 ca3d
00000100: 03c3 61be 8f3b 90be f80b 62be 4719 00be
00000110: 0e60 44be b137 073e 150f 9b3d 8358 0abd
00000120: 8105 043e e67b dfbc 9eb6 0abd 7ddd 93be
00000130: 0922 07bd c2a7 4ebe fc83 983e f188 ef3d
00000140: a241 03be fbd3 a7bd 68a7 183e 2c98 503e
00000150: 41bd c43d 3078 46be be20 cbbd e21f 0d3e
00000160: 947a d1bd a672 bd3d 4332 04be b169 3f3e
00000170: 5035 25bd 2189 cdbd 299c 70be f2f1 c93d
00000180: 2aa9 073d 11a5 32be 9a2c 94be d520 6abe
00000190: 735c 553e 3aab 723e 1be0 613e a8c2 91be
000001a0: 1a57 0c3e deaa 8c3e 1427 083e 0106 5c3d
000001b0: 380f db3d 59dc 7bbe f2b7 febc aaf8 80be
000001c0: 6f6b 0e3e 5ffd 9dbd 5790 51be efa8 52be
000001d0: f9fe 783e b8c9 31be 0c68 1d3e 25bc 203c
000001e0: e9ce 86bc c16e 7cbe 2524 d03d f156 1e3e
000001f0: 05d8 393e 0344 24be 1104 423e c890 8abe
00000200: 969a 893e 80cc e4bd b44b 503d 9341 813e
00000210: 0cf3 163e a0e1 dbbd f709 6c3e ab40 1dbe
00000220: 21ac 993e 4397 65bc bd01 8c3e 9784 8cbe
00000230: ff0d c0bd a7b8 283e 1441 50be 352b eabd
00000240: 0533 10bd 6e28 f7bc 6688 81bc fb81 d93d
00000250: 2578 863e 7616 86be a3a2 49be 0640 4fbe
00000260: b26d 6e3e 8a3d dfbd 8a2d a5bc 9c6f f63d
00000270: 5c28 353e ddb5 1abd 0fe4 db3d 64a8 8ebe
00000280: ab5f 94be e9f5 23be b36d 83be 2923 94be
00000290: c3a8 953e 2cc9 113e e145 083e 4c1f 983e
000002a0: 81b4 d53d d656 94be 828b 423e c4c2 a1bc
000002b0: 1743 9abe 94ce 103e 2295 19be 4d19 06b7
000002c0: 313c 983e 6b47 aa3d 064e 7d3e 684a 6dbe
000002d0: 7a7b 2fbe 36c0 d73c dfef b5bd 461a 96be
000002e0: 4d8d 62ba 1b1d 93be 812b 19be 184a 45be
000002f0: 0042 313e 0e5f 7bbd bf9c 0bbe 15f7 acbd
00000300: 3e34 053c 9012 bf3d c7fc 29be e554 103e
00000310: c00f 7d3e 1d32 93be 7f73 13be a433 dfbc
00000320: bb20 9c3e 27d0 86be 368b 91be dee7 03be
00000330: 61e4 86be 1f7a 953d 30ad 383e 919d 8ebe
00000340: 4f7e 623c 7524 903e cba2 c1bc c6c5 993e
00000350: b472 88be c19d 27bd f710 a63d ed93 483e
00000360: 74d6 163e 00ff bdbd 8c07 73be 68f3 4ebe
00000370: b44c c63d 6d96 6abd 97a5 8abe c256 9bbe
00000380: e51d 68be 79b4 0ebe fd24 57be ff0c 27be
00000390: c72f 1b3e ac6d 82be 0e9d 983e d025 813e
000003a0: ab71 92be b373 443e 7eb4 8a3e aa71 31bd
000003b0: 6ac8 8ebe 6d43 67be 7da5 84be 0001 68be
000003c0: d71d 133e b32b 22bc 76b1 00be b579 3fbe
000003d0: cbf3 8fbe 5552 6abe 563b 4fbb 92c0 3abd
000003e0: 313f 853d 2931 bfbc 2753 883e 5d36 813e
000003f0: f649 88be 5562 453e aab2 debd 6b27 74bd

var_embedding.3.bias f4 [64]
0.08943048 0.0063109417 0.108477905 -0.09343645 0.09393465 0.028045043 -0.09852424 0.06948413
0.112707466 -0.012601686 -0.025230434 -0.109277785 0.03127856 -0.1018218 -0.114301205 0.032970134
0.016420044 0.023150587 -0.0031099222 0.09262174 -0.11906146 0.11977994 0.108149566 -0.041153453
0.035811014 0.0108667575 0.020778608 0.06294046 -0.0363845 -0.057233967 -0.006091782 0.11957073
0.10426537 0.101779945 0.097536705 0.020928834 0.035482436 -0.104022734 0.076514274 0.0681315
0.023152698 0.06861052 0.07392971 -0.06902424 -0.02340012 0.022647623 -0.04290681 -0.06858866
-0.040487062 -0.049412016 -0.04152333 0.076821275 -0.11297485 0.017972887 0.08479687 0.027071996
0.02084161 -0.10640611 0.061605033 0.06975039 -0.04776366 0.014428694 0.003792743 0.051661376
00000000: 5427 b73d 04cc ce3b aa29 de3d 9c5b bfbd
00000010: cf60 c03d b8be e53c 14c7 c9bd b24d 8e3d
00000020: 2cd3 e63d 4d77 4ebc 0eb0 cebc 08cd dfbd
00000030: f31d 003d f387 d0bd c016 eabd b10b 073d
00000040: 5483 863c 4da6 bd3c d6cf 4bbb 78b0 bd3d
00000050: 7fd6 f3bd 2f4f f53d 857d dd3d 8690 28bd
00000060: 92ae 123d 7c0a 323c e637 aa3c eee6 803d
00000070: ea07 15bd 2a6e 6abd 929d c7bb 80e1 f43d
00000080: 1589 d53d 0172 d03d 53c1 c73d f272 ab3c
00000090: 0856 113d df09 d5bd 84b3 9c3d 8788 8b3d
000000a0: baaa bd3c ac83 8c3d 7668 973d 955c 8dbd
000000b0: 9cb1 bfbc 8287 b93c 0dbf 2fbd 3678 8cbd
000000c0: c3d5 25bd 4164 4abd 5e14 2abd 7954 9d3d
000000d0: 5c5f e7bd e03b 933c fba9 ad3d 17c6 dd3c
000000e0: 06bc aa3c 72eb d9bd 8f55 7c3d 4bd9 8e3d
000000f0: d4a3 43bd 5466 6c3c ab8f 783b e19a 533d

conv_v_to_c.feature_module_left.0.weight f4 [64, 64]
-0.1366723 -0.1059154 0.10125314 0.24123205 -0.08365568 -0.27135247 0.1569401 0.1238719
0.29600245 0.19472823 -0.098100014 -0.15324445 0.056211375 -0.008563691 -0.25626928 0.046114367
0.2842862 0.098926514 0.036922414 0.27980018 0.036033012 0.21793284 0.072427355 -0.118395954
0.022501478 0.12962845 -0.2537121 -0.10108365 0.085181214 0.052856404 -0.1331945 0.06085613
-0.199704 -0.13012303 -0.07623639 0.15090004 -0.024065599 0.14732361 0.11342808 -0.0954869
-0.08685772 0.2094804 0.018346496 -0.25001553 0.29033414 -0.022472143 -0.24958536 -0.13507247
0.18825996 -0.20075546 -0.23190944 0.17635283 0.14767729 0.2722391 -0.18757418 -0.0811619
-0.21111552 -0.050115872 -0.28180805 0.21949013 0.042495217 0.2588713 -0.07948185 0.023749763
0.021743441 0.14969575 -0.11783663 0.12631078 -0.14687194 0.0011521553 -0.16261844 0.019787883
-0.16370197 -0.17468947 -0.06110582 0.111297816 0.10115329 0.010050801 0.066660136 0.19968161
0.09108078 -0.27600324 0.011375185 0.14639159 0.013377409 -0.15171275 -0.104637176 0.13693109
0.05010026 0.15980083 0.12531137 -0.04746059 -0.15603131 0.26542315 -0.11675639 0.16468273
0.26405293 0.15059365 0.033286896 0.039648272 -0.27640685 0.20923406 0.26202372 0.036010258
0.049917206 -0.12436841 0.1508424 -0.2668961 0.22971433 -0.11874406 0.08389775 0.10506826
-0.1747242 -0.114337504 -0.037461936 0.30144936 0.04586865 -0.25881723 -0.30391598 -0.21331221
0.28349203 -0.26621917 0.199348 -0.12781432 -0.079893716 -0.13628934 -0.2721478 -0.14448613
-0.29447585 -0.18912356 -0.17481685 -0.027707746 0.29350436 -0.281894 -0.245293 0.055892624
-0.088279806 -0.0891308 0.14600098 0.03254372 -0.12569727 -0.2757485 -0.1853857 -0.24642758
0.036709476 0.025672184 -0.038507618 0.2573165 -0.21905044 -0.05020648 -0.27534202 0.08023234
-0.2819813 -0.13235612 -0.28564358 0.15639667 -0.14397652 -0.037524138 -0.13418302 -0.15020162
0.20203742 0.058563035 -0.06340715 0.29392308 -0.103093125 0.029809792 0.30520296 0.10689876
-0.161353 0.051869787 0.021122247 0.2267609 0.115160294 -0.08670698 0.12850814 0.30011597
-0.2447108 -0.21475437 -0.30536693 -0.21353611 0.19635938 0.13112606 0.03782636 0.29689333
0.30262673 -0.02552293 -0.24460085 0.29237753 0.18467319 0.10597629 -0.25929227 0.17046091
-0.078862004 0.13437481 -0.053599402 0.13228785 -0.05960874 0.13038935 0.13291605 -0.19827242
-0.002767029 -0.06029726 0.24812907 -0.027275069 0.29226702 0.016862832 -0.06969368 0.2672038
-0.19177969 -0.296217 0.2684338 -0.021482192 0.16043065 0.26984996 0.018748725 -0.109328024
-0.27828896 0.23027988 0.23995632 0.20890708 -0.2008358 -0.24614449 -0.24454547 -0.2940903
-0.21375154 -0.25747496 -0.059827987 -0.24326663 -0.2933109 -0.20087458 -0.1316581 0.1364851
0.16891861 -0.28419542 -0.27828237 -0.11397194 -0.16979897 0.23806973 0.29732406 0.10735012
-0.18379992 0.16558523 -0.030803202 0.27701187 0.20988359 0.04502194 -0.29946446 0.04470931
0.1919721 -0.14921664 -0.17583875 0.30541152 -0.024351815 -0.25682187 -0.062611334 0.04832561
00000000: d3f3 0bbe 2cea d8bd ce5d cf3d 8905 773e
00000010: ab53 abbd b6ee 8abe e8b4 203e 8db0 fd3d
00000020: a28d 973e d666 473e a9e8 c8bd 1dec 1cbe
00000030: e63d 663d b94e 0cbc ba35 83be 6be2 3c3d
00000040: f68d 913e fc99 ca3d f53b 173d f841 8f3e
00000050: 5a97 133d c929 5f3e cb54 943d 9479 f2bd
00000060: 0555 b83c 52bd 043e 8de6 81be f204 cfbd
00000070: 7d73 ae3d f57f 583d 2464 08be 4744 793d
00000080: 357f 4cbe f93e 05be d321 9cbd 8a85 1a3e
00000090: 3825 c5bc 00dc 163e fb4c e83d a38e c3bd
000000a0: 76e2 b1bd 0882 563e 644b 963c 0902 80be
000000b0: ada6 943e 8017 b8bc 4e93 7fbe 7050 0abe
000000c0: 38c7 403e d792 4dbe ab79 6dbe d695 343e
000000d0: b738 173e ec62 8b3e 7213 40be 3638 a6bd
000000e0: ab2e 58be 4d46 4dbd 2549 90be 05c2 603e
000000f0: 770f 2e3d c78a 843e 61c7 a2bd dd8e c23c
00000100: 4d1f b23c d849 193e 5554 f1bd 9d57 013e
00000110: 9965 16be eb03 973a 7385 26be 331a a23c
00000120: 7da1 27be cce1 32be 194a 7abd 1cf0 e33d
00000130: 7529 cf3d 1dac 243c 1c85 883d 5679 4c3e
00000140: 8f88 ba3d 4c50 8dbe fc5e 3a3c ade7 153e
00000150: ec2c 5b3c 965a 1bbe 044c d6bd aa37 0c3e
00000160: ee35 4d3d d4a2 233e a051 003e 0966 42bd
00000170: acc6 1fbe 8be5 873e f91d efbd 97a2 283e
00000180: f231 873e 3935 1a3e d757 083d 3a66 223d
00000190: 3385 8dbe 7441 563e f927 863e 7e7f 133d
000001a0: fc75 4c3d ddb4 febd 6e76 1a3e 9ba6 88be
000001b0: 3c3a 6b3e 1630 f3bd 95d2 ab3d 072e d73d
000001c0: e7ea 32be c829 eabd b071 19bd 9257 9a3e
000001d0: c4e0 3b3d b183 84be e09a 9bbe 846e 5abe
000001e0: de25 913e e14d 88be e221 4c3e c2e1 02be
000001f0: 519f a3bd 6f8f 0bbe f556 8bbe 2cf4 13be
00000200: 8ac5 96be 9ba9 41be 3003 33be 5bfb e2bc
00000210: 3446 963e 6954 90be 172e 7bbe aaef 643d
00000220: 0bcc b4bd 358a b6bd 4881 153e 904c 053d
00000230: c9b6 00be e82e 8dbe c0d5 3dbe 8357 7cbe
00000240: ad5c 163d 794e d23c 2aba 1dbd fdbe 833e
00000250: c24e 60be 4fa5 4dbd a1f9 8cbe da50 a43d
00000260: da5f 90be 5d88 07be e03f 92be 7326 203e
00000270: 956e 13be e9b2 19bd 4667 09be 74ce 19be
00000280: e6e2 4e3e cbdf 6f3d 9cdb 81bd 167d 963e
00000290: 7d22 d3bd aa33 f43c 9043 9c3e bded da3d
000002a0: b939 25be 6a75 543d 9008 ad3c 0234 683e
000002b0: 29d9 eb3d 6e93 b1bd a397 033e cda8 993e
000002c0: 7895 7abe 92e8 5bbe 0e59 9cbe 36a9 5abe
000002d0: 6f12 493e e945 063e d0ef 1a3d 6702 983e
000002e0: e4f1 9a3e 7715 d1bc a578 7abe 82b2 953e
000002f0: f81a 3d3e 190a d93d f5c1 84be 4e8d 2e3e
00000300: 6782 a1bd 8d99 093e 0c8b 5bbd 7776 073e
00000310: 4b28 74bd c984 053e 251b 083e ed07 4bbe
00000320: 0b57 35bb 42fa 76bd 8c15 7e3e f76f dfbc
00000330: 06a4 953e ec23 8a3c 8fbb 8ebd f0ce 883e
00000340: e561 44be c1a9 97be 2870 893e 6cfb afbc
00000350: ef47 243e c629 8a3e ed96 993c 5fe7 dfbd
00000360: e47b 8ebe 7dce 6b3e 1cb7 753e bdeb 553e
00000370: e6a7 4dbe 4d0d 7cbe 216a 7abe 0193 96be
00000380: afe1 5abe c2d3 83be 310e 75bd e31a 79be
00000390: d92c 96be 11b2 4dbe 62d1 06be c0c2 0b3e
000003a0: 00f9 2c3e 1082 91be 077b 8ebe 1f6a e9bd
000003b0: c8df 2dbe 8dc8 733e dc3a 983e 61da db3d
000003c0: 0c36 3cbe 2d8f 293e ff56 fcbc 80d4 8d3e
000003d0: b9eb 563e ed68 383d 6853 99be 1c21 373d
000003e0: 5694 443e 3fcc 18be 130f 34be e65e 9c3e
000003f0: 757d c7bc 287e 83be 5f3a 80bd 13f1 453d

conv_v_to_c.feature_module_left.0.bias f4 [64]
-0.021849116 0.0585526 0.056327812 -0.08437275 -0.0035578592 0.05170596 -0.028851133 -0.012546189
0.04946848 -0.050228935 -0.007225196 0.04087646 -0.09042798 -0.06948063 0.12183445 0.084748074
0.09451587 0.07221984 0.00053728686 0.061749436 0.04171227 -0.07831679 0.0686976 -0.06514408
0.049227454 -0.056855842 -0.12333534 -0.026243472 0.09668115 0.07708139 -0.07984262 -0.058106683
0.040282436 0.06986244 -0.0006237583 -0.025505088 -0.11354718 -0.102175 -0.09524497 0.029345717
0.0412253 -0.014653327 -0.067453764 -0.008495608 0.003994737 -0.11236071 0.04254931 0.013523505
0.12477078 0.06593927 -0.07315464 -0.061814353 -0.08768265 -0.0333342 0.07232304 -0.05482411
-0.112172686 0.08017022 0.035341766 0.041966274 0.03312029 -0.014455656 0.115302704 0.12228374
00000000: ebfc b2bc dad4 6f3d feb7 663d 9fcb acbd
00000010: f92a 69bb a1c9 533d 3659 ecbc 888e 4dbc
00000020: 769f 4a3d dbbc 4dbd 56c1 ecbb 136e 273d
00000030: 4e32 b9bd dc4b 8ebd 5784 f93d 6690 ad3d
00000040: 8991 c13d ffe7 933d b6d8 0c3a faec 7c3d
00000050: 7cda 2a3d 8e64 a0bd 54b1 8c3d 426a 85bd
00000060: baa2 493d ace1 68bd 3d97 fcbd 8dfc d6bc
00000070: c400 c63d d9dc 9d3d 8784 a3bd 4601 6ebd
00000080: 32ff 243d 0a14 8f3d b683 23ba 0cf0 d0bc
00000090: 6d8b e8bd 2041 d1bd cb0f c3bd 6e66 f03c
000000a0: dcdb 283d 8214 70bc 3325 8abd 2a31 0bbc
000000b0: 48e6 823b 5f1d e6bd 2f48 2e3d b191 5d3c
000000c0: d387 ff3d 2b0b 873d 1ad2 95bd 0c31 7dbd
000000d0: f692 b3bd 7189 08bd 1a1e 943d 3f8f 60bd
000000e0: cbba e5bd 4930 a43d 87c2 103d d4e4 2b3d
000000f0: 24a9 073d 6ad7 6cbc d323 ec3d e66f fa3d

conv_v_to_c.feature_module_edge.0.weight f4 [64, 1]
-0.755745 -1.516416 -2.1227875 2.2524436 -1.2102126 0.24743758 -2.3324862 -2.0736625
-1.5629516 -1.9796277 0.6478906 -2.265752 1.5486797 -0.8584256 -0.7227528 0.031184977
-2.2206924 0.6525441 1.6854969 2.395613 1.5776706 0.4687489 2.3672745 -2.3003905
2.32968 -0.96916974 1.854763 0.49134436 -0.0064176284 0.24557261 0.5887364 -1.3516089
1.3151553 -1.032557 1.0884352 -0.4881172 2.4099565 -1.3973963 -1.4880556 0.4407727
0.5715838 -1.450485 -0.30099016 -0.94235 -1.135993 1.7490185 -0.12652858 1.3877127
-0.9387582 1.9360424 -1.9290094 0.8247247 0.5965584 -2.1629 -0.20085952 -1.546372
0.68942076 -1.8378624 -0.07100342 0.11105446 0.8533045 -1.5743663 1.7234195 -1.5356433
00000000: 8178 41bf eb19 c2bf c0db 07c0 0928 1040
00000010: 3fe8 9abf 4760 7d3e 7447 15c0 e3b6 04c0
00000020: cc0e c8bf 7164 fdbf 29dc 253f 1502 11c0
00000030: 233b c63f c8c1 5bbf 5406 39bf a377 ff3c
00000040: d31f 0ec0 210d 273f 5dbe d73f b951 1940
00000050: 1cf1 c93f dbff ef3e 6d81 1740 9939 13c0
00000060: 7a19 1540 821b 78bf e068 ed3f 7d91 fb3e
00000070: f84a d2bb 6377 7b3e 6eb7 163f 8501 adbf
00000080: 0257 a83f d42a 84bf d851 8b3f 7fea f9be
00000090: ba3c 1a40 e2dd b2bf 9b78 bebf f6ac e13e
000000a0: 5153 123f 7ea9 b9bf 621b 9abe d93d 71bf
000000b0: 3868 91bf d7df df3f b590 01be 92a0 b13f
000000c0: 7552 70bf 3dd0 f73f c8e9 f6bf 2821 533f
000000d0: 0db8 183f f46c 0ac0 1eae 4dbe 85ef c5bf
000000e0: e17d 303f 133f ebbf 3e6a 91bd 8570 e33d
000000f0: 2a72 5a3f d684 c9bf 0399 dc3f f68f c4bf

conv_v_to_c.feature_module_right.0.weight f4 [64, 64]
-0.19249581 0.25532696 -0.1732178 -0.044610552 0.15874314 -0.18379909 -0.0047952784 -0.21607283
-0.14218141 0.2899622 0.06595119 0.2583223 -0.078219935 0.030866742 0.040614605 -0.16393715
-0.16260938 0.11182872 0.095907085 -0.2512807 -0.039319932 -0.30062264 0.13665754 -0.051213536
-0.20329744 0.12091016 -0.10775756 -0.20394304 -0.08400154 0.2976632 0.05558165 0.2740403
-0.14829473 -0.07287842 0.13300747 -0.22630198 0.00445121 -0.19041616 -8.9310925e-05 -0.17463441
-0.17143473 0.15231726 0.29709107 -0.30151868 0.2753839 0.13970989 -0.0798685 0.10854544
-0.24393013 -0.21157064 -0.30030125 0.18168896 -0.16659209 -0.26388913 0.20132682 -0.05904484
-0.053009685 -0.05620075 0.097774856 -0.08298273 -0.17835738 -0.120997675 -0.13162 0.013666423
0.10124673 0.13732532 0.24243379 -0.10016486 -0.036815554 0.20932102 0.14151981 0.049627647
-0.02858161 -0.2606094 -0.029057998 -0.002687238 -0.0068227607 -0.051070653 -0.008394067 -0.11680956
-0.27778655 -0.072969556 0.15315863 -0.20907919 0.12874256 0.14252748 -0.07294946 -0.02969497
-0.098133355 -0.21523082 0.24986678 -0.17971355 0.19499311 -0.28651863 -0.007996326 -0.12206475
0.21758983 0.21717486 -0.13578036 0.026550042 -0.25354126 0.28495085 0.2732027 0.032592323
0.20574217 0.033813287 -0.11914129 0.08291369 0.15200646 -0.08132751 0.20945734 0.17835878
-0.14904873 0.24757595 -0.24106619 0.29540566 -0.12622023 0.3008504 0.2622355 0.1281391
0.26967776 -0.012936198 -0.27809283 -0.30452624 -0.12009733 0.17210884 -0.103708394 -0.076749444
-0.30114254 0.27039692 -0.30518204 -0.017345417 -0.17600545 0.273046 -0.28782746 -0.29060116
-0.25668696 0.039267264 -0.0052098976 -0.25912023 -0.17607231 0.06616497 -0.082738996 0.23824775
0.19593267 0.2083168 -0.20585904 0.14760177 -0.15809774 0.060810726 0.29491556 -0.18127163
0.07136164 -0.18861568 -0.06196491 0.305046 0.20946357 0.123485655 -0.27638167 -0.06837268
0.119554184 0.23554938 0.22796139 0.17985013 0.02233563 0.2875831 -0.009858026 -0.1227714
0.2912526 -0.0033278307 0.21565652 -0.28554308 -0.0809159 0.100754045 -0.026665203 0.011295915
-0.05157399 0.19011718 -0.21369436 0.25804934 -0.04042609 0.14550781 0.10092997 0.103162594
0.08596802 -0.12639105 -0.27231088 -0.08868305 -0.2170246 -0.16862987 0.016924893 -0.16244732
0.06452794 3.5345944e-05 0.03632047 -0.2667816 -0.237622 0.12538627 -0.056897867 -0.23585586
-0.09598875 -0.10667474 0.2229558 -0.15413098 0.06798812 -0.20916827 -0.0049620806 0.17477515
-0.050100837 0.16316141 0.3040725 -0.056174144 0.24722053 -0.29459673 0.07855455 0.11025971
-0.055808127 0.06423633 -0.18467128 -0.1315986 0.104784444 -0.2754183 -0.18757969 0.28034624
-0.00927593 -0.21476716 -0.2654965 -0.22784904 0.28406093 -0.15906858 -0.16772847 0.22630897
-0.3043223 0.11460766 -0.13475533 -0.102548525 -0.116978504 -0.272416 -0.24143755 -0.15294972
0.075825356 -0.10869319 -0.2595426 0.17070898 0.24047963 0.14383326 0.0058273785 0.11022546
-0.11689847 -0.06214666 -0.20851558 -0.0015563422 0.20807542 -0.026337458 -0.1892147 -0.11266927
00000000: 9f1d 45be 37ba 823e 0260 31be 8eb9 36bd
00000010: 908d 223e d435 3cbe b621 9dbb 3242 5dbe
00000020: 0198 11be ed75 943e 6b11 873d d242 843e
00000030: c631 a0bd 40dc fc3c 805b 263d 24df 27be
00000040: 1383 26be 7506 e53d ef6a c43d dda7 80be
00000050: f00d 21bd 36eb 99be f4ef 0b3e 49c5 51bd
00000060: 342d 50be bf9f f73d ffaf dcbd 72d6 50be
00000070: 0009 acbd 5067 983e 96a9 633d 034f 8c3e
00000080: 93da 17be 4841 95bd 1c33 083e b5bb 67be
00000090: 75db 913b 74fc 42be 704c bbb8 5dd3 32be
000000a0: 968c 2fbe 0ef9 1b3e 521c 983e a860 9abe
000000b0: 1eff 8c3e 1c10 0f3e 1992 a3bd 124d de3d
000000c0: d2c8 79be f9a5 58be 16c1 99be ac0c 3a3e
000000d0: 1e97 2abe 7a1c 87be 9e28 4e3e 01d9 71bd
000000e0: af20 59bd c232 66bd 2f3e c83d d9f2 a9bd
000000f0: 51a3 36be a1cd f7bd 65c7 06be 22e9 5f3c
00000100: 725a cf3d 029f 0c3e 9040 783e 3c23 cdbd
00000110: e8cb 16bd 4058 563e 92ea 103e 5c46 4b3d
00000120: fb23 eabc 986e 85be 0a0b eebc 5f1c 30bb
00000130: 7791 dfbb 762f 51bd 4587 09bc da39 efbd
00000140: 0a3a 8ebe 1071 95bd 9ed5 1c3e db18 56be
00000150: 17d5 033e b9f2 113e 8766 95bd de42 f3bc
00000160: 24fa c8bd 7865 5cbe 14dd 7f3e d406 38be
00000170: 46ac 473e 92b2 92be 0603 03bc 15fd f9bd
00000180: decf 5e3e 1663 5e3e 020a 0bbe 797f d93c
00000190: 29d0 81be 14e5 913e 39e1 8b3e 877f 053d
000001a0: 13ae 523e cd7f 0a3d 5900 f4bd a7ce a93d
000001b0: 95a7 1b3e 0a8f a6bd fc7b 563e afa3 363e
000001c0: 3ba0 18be 8d84 7d3e 0eda 76be 693f 973e
000001d0: e03f 01be 1009 9a3e bb43 863e e536 033e
000001e0: 3413 8a3e 59f2 53bc 2f62 8ebe ddea 9bbe
000001f0: 97f5 f5bd 4d3d 303e 1165 d4bd d02e 9dbd
00000200: 5b2f 9abe 7771 8a3e d240 9cbe fa17 8ebc
00000210: c63a 34be afcc 8b3e 1f5e 93be adc9 94be
00000220: 796c 83be b6d6 203d cab7 aabb 68ab 84be
00000230: 4d4c 34be 8081 873d 1073 a9bd 38f7 733e
00000240: 93a2 483e 0051 553e b6cc 52be eb24 173e
00000250: 60e4 21be ab14 793d 2cff 963e 459f 39be
00000260: 0d26 923d 7824 41be ebce 7dbd fd2e 9c3e
00000270: 9e7d 563e 0ce6 fc3d e681 8dbe fa06 8cbd
00000280: d3d8 f43d db33 713e b66e 693e a22a 383e
00000290: 36f9 b63c 183e 933e 8f83 21bc 926f fbbd
000002a0: 101f 953e bc17 5abb 10d5 5c3e b432 92be
000002b0: 3cb7 a5bd 2358 ce3d fc70 dabc 8012 393c
000002c0: 403f 53bd 14ae 423e b2d2 5abe 0b1f 843e
000002d0: d495 25bd 0000 153e 5fb4 ce3d e946 d33d
000002e0: 0010 b03d a86c 01be 556c 8bbe 759f b5bd
000002f0: b23b 5ebe 4fad 2cbe 13a6 8a3c 9758 26be
00000300: 3927 843d 6b40 1438 c6c4 143d 9997 88be
00000310: 2e53 73be 4265 003e bd0d 69bd 3384 71be
00000320: c095 c4bd 4978 dabd 864e 643e 83d4 1dbe
00000330: 5b3d 8b3d 3530 56be f398 a2bb 42f8 323e
00000340: 8936 4dbd c913 273e 64af 9b3e dc16 66bd
00000350: 6127 7d3e 62d5 96be 35e1 a03d d8cf e13d
00000360: 1097 64bd 568e 833d 781a 3dbe c9c1 06be
00000370: 3a99 d63d a103 8dbe e414 40be 8b89 8f3e
00000380: 12fa 17bc eceb 5bbe 28ef 87be 4251 69be
00000390: 6f70 913e e0e2 22be 03c1 2bbe 8abd 673e
000003a0: 22d0 9bbe 6cb7 ea3d 4dfd 09be f604 d2bd
000003b0: 6d92 efbd 1c7a 8bbe 683b 77be da9e 1cbe
000003c0: 534a 9b3d 899a debd c5e2 84be 56ce 2e3e
000003d0: 4b40 763e 0749 133e 98f3 be3b e3bd e13d
000003e0: 7768 efbd 7f8d 7ebd 1c85 55be 2efe cbba
000003f0: b911 553e a7c1 d7bc 80c1 41be 25bf e6bd

conv_v_to_c.feature_module_final.0.weight f4 [64]
0.9994575 0.9995506 0.9992924 0.9993936 1.0006857 0.99939495 1.0006984 1.0004611
1.0005888 0.9994026 0.99920124 0.99925524 1.0006863 1.0006491 0.99923104 1.0006462
0.9995918 0.9993265 0.99952596 1.000586 1.0006734 1.0006298 0.99930304 1.0005662
0.99947166 0.99942803 0.9993978 0.99973655 1.000787 0.99940324 1.0005517 0.99930596
0.9992145 0.9996784 1.0004989 0.9991283 0.99951875 1.0004857 0.99928635 0.9993217
1.0007222 0.99954295 0.9998641 1.0007535 1.000614 1.00064 0.99992275 0.9992206
0.99928486 0.999542 0.99946934 1.0002646 0.9994051 0.9994585 0.9994831 1.0008005
0.9994409 0.99921113 1.0008676 1.0006795 0.9993779 0.9993417 1.000498 1.0007076
00000000: 72dc 7f3f 8ce2 7f3f a0d1 7f3f 42d8 7f3f
00000010: 7816 803f 59d8 7f3f e316 803f 1c0f 803f
00000020: 4b13 803f d9d8 7f3f a7cb 7f3f 31cf 7f3f
00000030: 7d16 803f 4515 803f 9bcd 7f3f 2d15 803f
00000040: 40e5 7f3f ddd3 7f3f efe0 7f3f 3413 803f
00000050: 1116 803f a314 803f 53d2 7f3f 8e12 803f
00000060: 60dd 7f3f 84da 7f3f 89d8 7f3f bcee 7f3f
00000070: ca19 803f e4d8 7f3f 1412 803f 84d2 7f3f
00000080: 85cc 7f3f ecea 7f3f 5910 803f dfc6 7f3f
00000090: 76e0 7f3f ea0f 803f 3bd1 7f3f 8cd3 7f3f
000000a0: aa17 803f 0ce2 7f3f 18f7 7f3f b118 803f
000000b0: 1f14 803f f914 803f f0fa 7f3f eccc 7f3f
000000c0: 22d1 7f3f fce1 7f3f 39dd 7f3f ac08 803f
000000d0: 03d9 7f3f 83dc 7f3f 20de 7f3f 3b1a 803f
000000e0: 5cdb 7f3f 4dcc 7f3f 6e1c 803f 4416 803f
000000f0: 3bd7 7f3f dcd4 7f3f 5210 803f 3017 803f

conv_v_to_c.feature_module_final.0.bias f4 [64]
-0.00054383953 -0.00043076446 -0.0007251232 -0.00060379226 0.0006923456 -0.0005762675 0.0006676248 0.0003931094
0.0006116431 -0.0006069054 -0.00081438 -0.00075217476 0.0006803999 0.0006507392 -0.000770771 0.0006288939
-0.0004161229 -0.00067075755 -0.00047041697 0.0006108477 0.0006623606 0.0006237602 -0.0006986183 0.0005637976
-0.0004953972 -0.0005735983 -0.0006479735 -0.00023876388 0.00078903494 -0.00062142283 0.0005510716 -0.0006901244
-0.00077839516 -0.0003433687 0.0005007286 -0.0008829759 -0.00047658768 0.0004934318 -0.00072320685 -0.00068853365
0.0007054914 -0.00048343765 -0.00012763846 0.00072520133 0.0006400381 0.0006349916 -0.00020255466 -0.00078613264
-0.00072075444 -0.00046366281 -0.00053694006 0.00096784346 -0.00060024793 0.0002577851 -0.0005322185 0.0007699897
-0.00056046835 -0.00080354506 0.0008441023 0.0006272077 -0.00062619086 -0.00066596526 0.00047776863 0.0006849351
00000000: 7490 0eba 3ad8 e1b9 3216 3eba d047 1eba
00000010: 877e 353a a810 17ba 8b03 2f3a 401a ce39
00000020: ac56 203a bb18 1fba 1e7c 55ba 982d 45ba
00000030: dd5c 323a 5e96 2a3a 910d 4aba 5bdc 243a
00000040: 122b dab9 c7d5 2fba 4ca2 f6b9 4c21 203a
00000050: 44a2 2d3a d783 233a 7b23 37ba d1cb 133a
00000060: 8bdd 01ba 885d 16ba c4dc 29ba b15c 7ab9
00000070: 3dd7 4e3a fbe6 22ba ca75 103a 77e9 34ba
00000080: 370d 4cba 2b06 b4b9 5443 033a 8277 67ba
00000090: 84de f9b9 a659 013a 9795 3dba b67e 34ba
000000a0: baf0 383a e775 fdb9 b0d6 05b9 701b 3e3a
000000b0: 3bc8 273a 9175 263a da64 54b9 7814 4eba
000000c0: 03f1 3cba c517 f3b9 70c1 0cba e0b6 7d3a
000000d0: f559 1dba 5527 8739 9484 0bba 22d9 493a
000000e0: 65ec 12ba ffa4 52ba bf46 5d3a 326b 243a
000000f0: f526 24ba 2c94 2eba 057d fa39 378d 333a
