rl_model/SCPPO_policy_119.pth (torch_old, 472694 bytes, 71 tensors)

cons_embedding.0.weight f4 [4]
0.99942803 0.99920565 1.0016758 0.9989365
00000000: 84da 7f3f f1cb 7f3f ea36 803f 4dba 7f3f

cons_embedding.0.bias f4 [4]
0.00058386713 0.00078178686 0.0016696292 -0.0010649657
00000000: a90e 193a d4f0 4c3a 76d7 da3a 5296 8bba

cons_embedding.1.weight f4 [64, 4]
-0.80894876 0.86338323 0.15112059 0.6930415 -0.11725844 -1.0658401 0.7998525 0.06658485
-0.08236013 0.08330508 -0.22921437 -0.5233838 0.6005398 0.3833556 0.06845777 0.713346
0.4145354 0.462454 -0.029808797 -0.76177883 0.7176755 -0.103398584 -1.1205177 0.75666696
-0.014585216 0.1317431 -0.60518384 0.46869612 -0.98743 -1.1415373 0.27002236 0.67595047
-0.6355052 0.513998 -0.040937122 0.5977043 -0.81200093 0.6541619 0.8447194 0.9105386
0.7547708 -0.99716043 1.0837717 0.046611033 1.0141344 0.4378079 0.68487436 0.63148594
0.19446257 0.9140803 -0.33907077 -0.58184606 -0.021257503 0.13230804 1.0166742 0.49528337
-0.6735333 0.73932916 1.0505923 -0.95975226 1.103265 -0.41003048 1.0528743 -0.9028367
0.6689401 0.25515524 0.27799377 -0.35692462 -0.7833715 0.9144696 1.1704543 -0.69563454
0.5907787 -0.46376893 1.1983765 -1.1991123 0.82304764 -0.059142757 0.09936317 -0.70030314
-0.3920237 0.21439293 -1.1919775 -0.26756343 0.17613816 -0.25878885 -1.0393538 0.89706534
-0.25459167 -0.9069708 0.82131505 -0.20992786 1.1957914 0.7749458 0.14084117 0.54132
0.20246902 -1.1362538 -0.68708795 -1.2229304 -0.28838497 1.019945 0.749132 0.99977535
-0.04336611 1.0365463 0.74844503 -0.045024913 -1.0544313 0.64831114 -0.8038955 0.5814221
-0.26813293 0.63155913 -0.51977545 0.21441577 1.0384035 1.1183128 -0.39917672 -1.13982
-0.36201587 0.056924608 0.9401507 -0.6119265 -1.0448555 -0.18739304 0.119438596 0.31816778
0.09453394 -1.0788546 -1.0049531 0.16296288 0.39380053 -0.66966426 0.017643748 -0.22460221
0.17923217 0.2187678 -0.82896185 -1.0931941 -0.32587257 -0.5095592 0.19707881 -1.1074996
-1.0217834 -0.023433564 0.365763 -1.1044999 0.08264081 -0.80628407 -0.21454926 -0.6813194
-0.8259864 0.7958391 -0.7868218 0.39096054 -1.167459 0.49693355 1.1569978 0.5120203
1.148752 -0.98522884 0.9580019 -0.6464064 -0.0068840976 -0.3514658 0.4435116 0.51530015
0.50534046 1.1516818 -1.0303044 -0.21175322 -0.07464639 -1.0085158 0.87538445 -0.07960121
-0.30470768 -0.54049116 0.91059816 0.6616969 0.39527875 -0.041272696 -0.20445679 -0.6091573
-0.8358244 1.1761547 1.0671365 0.27319238 -0.3611074 -0.6310378 0.3225614 0.4239215
-0.008750159 0.5130194 0.28227964 -0.40115744 0.053381775 0.63759005 -0.23525113 -0.8891108
-0.36683208 -1.2054373 0.6094021 -0.92004657 1.0362372 -0.007821532 0.14322565 0.2902536
-0.62870944 0.41431603 0.7130402 -0.343388 -1.0076411 0.45504814 1.1952324 -0.16697186
-0.79866624 -0.12986082 -0.86439884 1.038847 -0.5454489 -0.8236051 -0.12376355 -0.6329674
-0.35491994 -0.72387546 1.0234388 -0.6400157 0.7531626 -0.5645128 0.9222198 -0.52487755
0.55377007 -0.25457227 -0.43020055 0.46360043 0.049084615 -0.4841255 -0.5226688 0.35782462
0.3522522 0.4195397 -0.26549116 -0.33087865 0.017216597 0.9488763 0.097753406 0.80297196
0.14059287 0.62255377 -0.107079044 -0.5944716 -0.9763688 0.17195301 0.9465864 -0.14317195
00000000: 4417 4fbf af06 5d3f 5bbf 1a3e 2b6b 313f
00000010: 3125 f0bd 736d 88bf 22c3 4c3f a35d 883d
00000020: 6eac a8bd db9b aa3d 2cb7 6abe 7bfc 05bf
00000030: fabc 193f 2f47 c43e 9633 8c3d d89d 363f
00000040: fc3d d43e c5c6 ec3e 9431 f4bc f003 43bf
00000050: 95b9 373f a3c2 d3bd 206d 8fbf edb4 413f
00000060: d4f6 6ebc aae7 063e 54ed 1abf f0f8 ef3e
00000070: 36c8 7cbf e51d 92bf 5f40 8a3e 170b 2d3f
00000080: 78b0 22bf 5f95 033f afad 27bd 2603 193f
00000090: 4bdf 4fbf 2777 273f 883f 583f 0f19 693f
000000a0: a938 413f e845 7fbf 08b9 8a3f 36eb 3e3d
000000b0: 28cf 813f 5b28 e03e ed53 2f3f 10a9 213f
000000c0: 3221 473e 2b01 6a3f af9a adbe ddf3 14bf
000000d0: 3724 aebc c27b 073e 6122 823f c895 fd3e
000000e0: ae6c 2cbf ad44 3d3f cf79 863f 53b2 75bf
000000f0: ca37 8d3f 84ef d1be 96c4 863f 4e20 67bf
00000100: a93f 2b3f b5a3 823e 3355 8e3e d3be b6be
00000110: 098b 48bf ae1a 6a3f 72d1 953f 1b15 32bf
00000120: 463d 173f 1f73 edbe 6764 993f 837c 99bf
00000130: 40b3 523f ad3f 72bd eb7e cb3d 1147 33bf
00000140: 55b7 c8be d289 5b3e b892 98bf 13fe 88be
00000150: 905d 343e f97f 84be 8c09 85bf 13a6 653f
00000160: d759 82be 3d2f 68bf b441 523f 54f7 56be
00000170: b10f 993f d962 463f ab38 103e f393 0a3f
00000180: 0a54 4f3e c470 91bf ffe4 2fbf fc88 9cbf
00000190: 32a7 93be 8f8d 823f 1dc7 3f3f 47f1 7f3f
000001a0: aaa0 31bd 8dad 843f 189a 3f3f 0b6c 38bd
000001b0: 9bf7 86bf b8f7 253f 18cc 4dbf 14d8 143f
000001c0: b848 89be dcad 213f 0110 05bf cf8f 5b3e
000001d0: 68ea 843f e024 8f3f e460 ccbe 9fe5 91bf
000001e0: 255a b9be c729 693d b7ad 703f 37a7 1cbf
000001f0: d3bd 85bf f6e3 3fbe 399c f43d e3e6 a23e
00000200: 039b c13d e817 8abf 4ea2 80bf bedf 263e
00000210: 39a0 c93e 1e6f 2bbf 9f89 903c 1ffe 65be
00000220: a388 373e ab04 603e d836 54bf c9ed 8bbf
00000230: c5d8 a6be 7972 02bf 07cf 493e 8cc2 8dbf
00000240: ccc9 82bf bff7 bfbc 4a45 bb3e 4160 8dbf
00000250: 963f a93d a268 4ebf cdb2 5bbe f36a 2ebf
00000260: d873 53bf 1cbc 4b3f 276d 49bf fb2b c83e
00000270: 4c6f 95bf 136e fe3e 8118 943f c313 033f
00000280: 4e0a 933f f537 7cbf 9d3f 753f e47a 25bf
00000290: ff93 e1bb 53f3 b3be f413 e33e b6ea 033f
000002a0: fe5d 013f 4f6a 933f 04e1 83bf d6d5 58be
000002b0: 35e0 98bd 0c17 81bf 3219 603f f605 a3bd
000002c0: a502 9cbe a15d 0abf f61c 693f f864 293f
000002d0: fa61 ca3e 8f0d 29bd 1f5d 51be bcf1 1bbf
000002e0: 96f8 55bf 3d8c 963f ee97 883f dfdf 8b3e
000002f0: 12e3 b8be b18b 21bf c526 a53e 3d0c d93e
00000300: d45c 0fbc 3d55 033f f586 903e 8264 cdbe
00000310: d9a6 5a3d 1a39 233f ace5 70be c49c 63bf
00000320: 6ad1 bbbe c54b 9abf c701 1c3f 2c88 6bbf
00000330: 6ca3 843f e225 00bc bfa9 123e 1f9c 943e
00000340: 1af3 20bf 3b21 d43e cd89 363f 8dd0 afbe
00000350: 62fa 80bf 12fc e83e 60fd 983f acfa 2abe
00000360: 6475 4cbf 3cfa 04be 3e49 5dbf f0f8 843f
00000370: 8aa2 0bbf c9d7 52bf be77 fdbd 270a 22bf
00000380: 11b8 b5be e74f 39bf 0b00 833f 12d8 23bf
00000390: 44cf 403f e983 10bf 9916 6c3f 605e 06bf
000003a0: e0c3 0d3f 4c57 82be 3f43 dcbe 095d ed3e
000003b0: f30c 493d 4cdf f7be 9fcd 05bf ca34 b73e
000003c0: 665a b43e e8cd d63e 75ee 87be ed68 a9be
000003d0: d209 8d3c 8fe9 723f f032 c83d 928f 4d3f
000003e0: 94f7 0f3e af5f 1f3f 424c dbbd 4a2f 18bf
000003f0: 4ef3 79bf 7314 303e 7c53 723f ab9b 12be

cons_embedding.1.bias f4 [64]
0.2932058 0.4659541 0.35407847 -0.016038967 -0.2527633 0.22733112 -0.3060951 0.2290157
0.09049513 0.3354541 -0.11273123 0.21403666 0.3523713 0.4302672 0.057140168 -0.11612531
-0.21490933 -0.11665179 0.2218954 -0.25482368 0.19481337 0.31842485 0.3973809 -0.18103415
-0.23354433 0.30440632 -0.10066046 0.0060656946 0.49690273 -0.29662082 -0.44922832 0.13016123
-0.041214086 -0.3049686 -0.13568749 -0.08321461 0.17238617 0.046223808 0.33161682 -0.32696897
0.45610404 -0.3444598 0.07001086 -0.105671376 0.22254921 0.111462265 0.17940784 -0.037462726
0.44642282 -0.18142165 -0.34157252 -0.26078135 -0.4598933 0.4456587 0.2655428 0.36463484
-0.28136548 -0.2545222 0.21437949 0.11578113 0.3720281 0.3009849 0.10641914 -0.26659265
00000000: 121f 963e 8991 ee3e c649 b53e 2764 83bc
00000010: 316a 81be 7dc9 683e 7fb8 9cbe 1783 6a3e
00000020: 8355 b93d a4c0 ab3e a2df e6bd 6d2c 5b3e
00000030: 036a b43e fc4b dc3e cf0b 6a3d 1bd3 edbd
00000040: 3111 5cbe 22e7 eebd 8c38 633e 4078 82be
00000050: 287d 473e 9508 a33e 8275 cb3e 0461 39be
00000060: 3f26 6fbe 25db 9b3e 1227 cebd bcc2 c63b
00000070: 096a fe3e afde 97be 4101 e6be fc48 053e
00000080: 1ad0 28bd d824 9cbe a9f1 0abe 6c6c aabd
00000090: 0086 303e 2d55 3d3d aec9 a93e 7a68 a7be
000000a0: 7886 e93e 095d b0be db61 8f3d 3c6a d8bd
000000b0: f1e3 633e 5446 e43d b0b6 373e 8472 19bd
000000c0: 8891 e43e 99c6 39be 98e2 aebe 2285 85be
000000d0: 2277 ebbe 612d e43e 3af5 873e 6bb1 ba3e
000000e0: 230f 90be bc50 82be 4c86 5b3e a81e ed3d
000000f0: 787a be3e b11a 9a3e 47f2 d93d d57e 88be

cons_embedding.3.weight f4 [64, 64]
0.11575165 -0.036158286 0.2762481 0.02087708 -0.025540167 0.11756186 -0.0914819 -0.024792518
0.2696629 0.22689044 0.2585244 0.29648718 -0.0019062357 -0.03600794 0.23264499 0.07607287
0.12676026 0.2558075 0.15527028 -0.20103021 0.018951034 0.07010357 0.22970544 0.18725078
-0.007102612 -0.3032557 -0.19095616 -0.24155816 -0.09700117 0.2675637 0.21532442 -0.17212951
-0.24834992 -0.037316184 -0.16777492 0.23719667 0.16169275 -0.26142752 -0.061014563 0.200759
0.17747924 0.0139778 0.28873605 0.039682545 0.008379908 -0.012405827 -0.20485562 -0.24019781
0.19015461 0.065608226 -0.20863733 -0.042834952 -0.074853174 0.22944461 0.1771912 0.14011696
-0.16289735 0.17863612 -0.29823014 -0.29216003 0.29888272 0.2951167 -0.10360633 0.08022498
0.25129855 0.09286564 -0.068809405 -0.008096499 -0.22921324 0.12350978 -0.2703225 0.0659953
0.1953095 -0.062471025 -0.06177211 -0.27545294 -0.10098488 -0.16249849 -0.18515186 0.27610338
0.05306073 0.22386204 -0.24064735 -0.08465047 -0.24853776 0.13778083 0.07309496 0.24423659
0.1332375 0.018547272 -0.028535273 -0.23596191 0.027321428 -0.18987533 -0.070344396 0.29251903
0.2721307 -0.18480751 -0.023868935 0.07181458 0.044417944 0.2802554 -0.04111614 0.022838486
-0.24597123 0.20696409 -0.034731515 -0.19485775 -0.22397022 0.063862704 -0.23108244 -0.20913987
-0.2800954 -0.2832121 -0.29916194 -0.041166157 -0.19510028 -0.25708976 0.24634439 0.06826115
-0.11805285 -0.28606185 -0.010336247 0.04633072 0.06333382 0.28968355 0.2786144 0.06472174
0.25366884 -0.002451894 -0.23311506 -0.13995892 0.19324291 -0.075065665 0.1461375 -0.1278842
-0.20501627 -0.02674312 0.27231583 -0.26109406 -0.02181595 -0.052765585 0.2600607 -0.17120501
0.11853961 0.08316938 0.22124614 -0.14649276 0.20983872 0.22968104 -0.14621638 0.039350666
0.11335524 -0.026372872 -0.26772442 0.1644241 0.24622442 -0.29357812 0.09864078 -0.19839892
-0.15346022 0.05674923 -0.21107398 0.088746786 -0.11737473 0.010852318 0.13564768 0.14434744
0.29516327 -0.29554424 -0.013651515 0.23419136 -0.22662044 -0.0398324 -0.1268059 -0.092755996
-0.060180373 0.18046415 -0.28767177 0.054974955 0.14502032 -0.06856326 -0.11998529 -0.11065029
0.21564199 -0.06900853 0.13153528 -0.08819907 0.021181311 0.14078553 -0.012499361 0.19457836
0.068637066 -0.044249676 -0.13926259 0.060656812 0.21134366 0.20053212 -0.10738308 0.04178673
0.06829193 0.07462342 0.08650451 -0.1569238 -0.117875494 0.06393913 -0.26894322 -0.2206338
-0.23286493 -0.053359 0.2829998 0.2854317 -0.20719384 0.071677476 0.22102627 0.07941992
-0.2551903 0.12480909 0.28083113 -0.07713381 0.23449276 0.05352224 -0.15925808 0.035495397
0.2781191 -0.2307775 0.28235096 -0.25989166 0.25140435 0.1266297 0.005789461 0.15909886
-0.2036568 0.0022667188 0.081855655 -0.08857921 -0.24414827 -0.008060323 0.13964142 0.18290761
-0.20320821 0.13083443 0.086509734 -0.24341859 0.07538403 0.035187274 0.034064695 0.2704036
-0.10901386 -0.029037414 -0.0106949285 0.056581523 -0.29961184 -0.050654974 0.07765324 0.1618
00000000: 330f ed3d b61a 14bd 6470 8d3e 6906 ab3c
00000010: 9d39 d1bc 46c4 f03d dd5a bbbd ae19 cbbc
00000020: 4111 8a3e f855 683e 4f5d 843e 2bcd 973e
00000030: a8da f9ba 107d 13bd 7d3a 6e3e 18cc 9b3d
00000040: 71cd 013e 33f9 823e 2cff 1e3e ddda 4dbe
00000050: 333f 9b3c 7692 8f3d e737 6b3e abbe 3f3e
00000060: 07bd e8bb 5544 9bbe 038a 43be 065b 77be
00000070: 8da8 c6bd 1cfe 883e 017e 5c3e b842 30be
00000080: 714f 7ebe dbd8 18bd 30cd 2bbe afe3 723e
00000090: c992 253e d4d9 85be 68ea 79bd c493 4d3e
000000a0: 1ebd 353e 2403 653c 36d5 933e 2a8a 223d
000000b0: e24b 093c cf41 4bbc acc5 51be 6af6 75be
000000c0: e4b7 423e 9b5d 863d 06a5 55be b473 2fbd
000000d0: 9f4c 99bd 87f3 6a3e 9c71 353e d27a 0f3e
000000e0: 90ce 26be 63ec 363e 9fb1 98be 0096 95be
000000f0: 2807 993e 8919 973e 8e2f d4bd ff4c a43d
00000100: 34aa 803e 5730 be3d f2eb 8cbd 2ea7 04bc
00000110: e0b6 6abe b2f2 fc3d b667 8abe 8b28 873d
00000120: 37ff 473e 9ee1 7fbd c104 7dbd 2b08 8dbe
00000130: 29d1 cebd 0166 26be 7398 3dbe 6c5d 8d3e
00000140: 3556 593d 173c 653e 426c 76be 3a5d adbd
00000150: af80 7ebe 6b16 0d3e cfb2 953d 2819 7a3e
00000160: 696f 083e 73f0 973c cec2 e9bc 00a0 71be
00000170: 30d1 df3c ae6e 42be b910 90bd 0ec5 953e
00000180: b754 8b3e 2e3e 3dbe c988 c3bc 8613 933d
00000190: 97ef 353d a37d 8f3e 6669 28bd c717 bb3c
000001a0: e2df 7bbe 65ee 533e a242 0ebd ca88 47be
000001b0: 7358 65be 73ca 823d e0a0 6cbe c328 56be
000001c0: aa68 8fbe 2d01 91be c12b 99be d89d 28bd
000001d0: 5ec8 47be 45a1 83be b441 7c3e 80cc 8b3d
000001e0: b1c5 f1bd b376 92be 5d59 29bc 48c5 3d3d
000001f0: 29b5 813d 6751 943e 8ca6 8e3e d58c 843d
00000200: e2e0 813e f5af 20bb b7b5 6ebe 6451 0fbe
00000210: 78e1 453e 07bc 99bd 12a5 153e 13f4 02be
00000220: c9ef 51be 6314 dbbc fb6c 8b3e 1fae 85be
00000230: 5db7 b2bc ba20 58bd ad26 853e 5e50 2fbe
00000240: e5c4 f23d b554 aa3d 598e 623e 3302 16be
00000250: f6df 563e 8231 6b3e bfb9 15be 2a2e 213d
00000260: cb26 e83d ec0b d8bc 2d13 89be cb5e 283e
00000270: 4122 7c3e df4f 96be 2d04 ca3d 1629 4bbe
00000280: ad24 1dbe e171 683d c723 58be e0c0 b53d
00000290: 2a62 f0bd eccd 313c 3ae7 0a3e d1cf 133e
000002a0: a41f 973e 9351 97be 9baa 5fbc dccf 6f3e
000002b0: 300f 68be 4c27 23bd 68d9 01be dbf6 bdbd
000002c0: b27f 76bd 98cb 383e b749 93be 6b2d 613d
000002d0: 3580 143e e56a 8cbd d9ba f5bd 9f9c e2bd
000002e0: 41d1 5c3e 5854 8dbd 2fb1 063e b7a1 b4bd
000002f0: 6e84 ad3c 152a 103e 1fca 4cbc 8d3f 473e
00000300: 9791 8c3d 263f 35bd da9a 0ebe 4773 783d
00000310: 796a 583e 4b58 4d3e a9eb dbbd 9028 2b3d
00000320: a4dc 8b3d 2ad4 983d 4729 b13d a2b0 20be
00000330: b568 f1bd 85f2 823d edb2 89be d4ed 61be
00000340: 2574 6ebe f78e 5abd 5ae5 903e 1b24 923e
00000350: 9f2a 54be a4cb 923d b654 623e e9a6 a23d
00000360: 4ea8 82be e89b ff3d 19c9 8f3e 55f8 9dbd
00000370: df1e 703e 233a 5b3d 8d14 23be 9f63 113d
00000380: a065 8e3e f050 6cbe 4e90 903e 8510 85be
00000390: 12b8 803e 37ab 013e 85b5 bd3b d0ea 223e
000003a0: 688b 50be 3b8d 143b f0a3 a73d 0469 b5bd
000003b0: 0102 7abe 720f 04bc 29fe 0e3e 224c 3b3e
000003c0: d015 50be 76f9 053e 042c b13d b942 79be
000003d0: f162 9a3d 8820 103d 6c87 0b3d 5772 8a3e
000003e0: a942 dfbd dfdf edbc c839 2fbc 07c2 673d
000003f0: b966 99be 977b 4fbd a908 9f3d e6ae 253e

cons_embedding.3.bias f4 [64]
-0.0064572697 0.08584612 0.12353783 -0.09338677 0.07830256 -0.062312216 0.053695314 0.09680306
-0.0256196 0.033124555 0.051533278 -0.012405236 0.06505239 -0.039357774 -0.078616515 -0.0027575686
-0.0090044495 0.10541332 0.0028874518 0.09081427 -0.008619434 0.12656094 -0.07476793 -0.07060547
0.10697085 -0.08125267 -0.083322816 -0.099205405 -0.08263711 -0.11450382 0.03554507 0.010337533
-0.09072845 0.09740624 0.11640016 0.034276664 0.06447008 0.11629634 -0.08465321 -0.08674649
0.0008712945 0.029889619 -0.04904547 0.0769626 0.009625576 0.038782403 0.017745098 0.11486653
-0.11091673 -0.068080455 -0.077955894 -0.0599802 -0.013865546 -0.061235502 -0.019031547 0.0015281882
0.12262435 -0.020151371 0.121554 -0.12473912 -0.06384364 -0.098628774 0.03564791 -0.026385369
00000000: 8197 d3bb 17d0 af3d 6701 fd3d 9041 bfbd
00000010: 185d a03d 183b 7fbd 9eef 5b3d af40 c63d
00000020: 32e0 d1bc 9dad 073d 8f14 533d 553f 4bbc
00000030: 303a 853d 9e35 21bd b201 a1bd 53b8 34bb
00000040: 6687 13bc f0e2 d73d 673b 3d3b d5fc b93d
00000050: 8738 0dbc 3199 013e ee1f 99bd 9a99 90bd
00000060: 8813 db3d cd67 a6bd 27a5 aabd 342c cbbd
00000070: a53d a9bd fb80 eabd b597 113d c25e 293c
00000080: d6cf b9bd ec7c c73d 3563 ee3d b065 0c3d
00000090: e408 843d c72c ee3d aa5e adbd 25a8 b1bd
000000a0: 9667 643a 13db f43c e7e3 48bd 919e 9d3d
000000b0: 98b4 1d3c 4cda 1e3d 2b5e 913c 253f eb3d
000000c0: 4f28 e3bd c46d 8bbd 57a7 9fbd ccad 75bd
000000d0: 512c 63bc 14d2 7abd 0ce8 9bbc 7d4d c83a
000000e0: 7a22 fb3d 7d14 a5bc 4ef1 f83d 3977 ffbd
000000f0: 74c0 82bd e2fd c9bd 8b03 123d 2126 d8bc

var_embedding.0.weight f4 [7]
1.0006857 0.99984825 1.0001719 0.9974651 0.99902844 1.0005134 0.99767023
00000000: 7816 803f 0ef6 7f3f a205 803f df59 7f3f
00000010: 54c0 7f3f d310 803f 5167 7f3f

var_embedding.0.bias f4 [7]
0.00060106925 0.00029369743 -0.00029933004 0.0022513545 0.0010048198 -0.0005243132 0.0011904459
00000000: 1391 1d3a 67fb 9939 66ef 9cb9 768b 133b
00000010: 28b4 833a 1072 09ba bc08 9c3a

var_embedding.1.weight f4 [64, 7]
0.7654108 0.6077092 -0.003996295 0.78663725 0.28686857 0.9206126 -0.29600906 -0.65945363
-0.3584724 0.8366295 -0.372519 -0.13615625 0.66322315 0.015477512 -0.67512083 -0.44925207
-0.009648824 0.50620174 -0.19289124 0.08063903 -0.48324323 -0.65325046 0.48434585 0.06465181
0.30162248 -0.020580832 0.48302397 -0.12155631 -0.29384392 0.6598459 0.51381 0.47845435
0.48951793 0.3848248 -0.23925473 -0.6244571 0.6375389 -0.55098695 0.50062925 0.8251485
0.5092557 -0.12593251 0.056555644 -0.83944404 -0.4250603 0.36314687 -0.5613026 0.1716565
-0.77346784 0.90378296 0.7032157 -0.060789354 -0.90164834 -0.14249714 0.33582932 0.0961291
0.60064787 0.10080189 0.020236949 -0.5689738 -0.15486914 0.06050934 0.27862424 -0.8166592
0.5153557 0.8956234 0.19016893 -0.8204893 0.014598007 0.5907169 -0.41847256 -0.5795292
0.8379441 0.059695803 -0.2130651 0.38261423 0.89008117 -0.7317661 -0.22421595 0.082034275
0.43057737 -0.1676229 0.66088194 0.57719964 -0.47219163 0.09258046 0.8286064 -0.3893282
-0.141334 -0.13749512 0.39499542 -0.50147814 0.0013994959 -0.15341534 0.48874736 -0.26276523
0.6780574 0.20492636 0.7224852 0.8981549 0.10015558 0.6053181 0.22838815 -0.44379646
0.34047368 0.61346316 0.39089936 0.53721905 0.637429 -0.7577396 -0.5442343 0.65167725
0.822708 0.26279172 0.92080545 0.31536457 0.687504 0.8839802 -0.6356083 -0.873189
-0.87831897 -0.76146317 0.1673798 -0.42146894 0.4256532 -0.16636011 0.8881614 -0.20720688
-0.39026114 0.7257349 0.9158235 0.8817151 -0.35880777 -0.6999676 -0.7375378 0.5221158
0.8576678 -0.85710824 0.3574552 0.36791015 0.7381788 0.83081746 0.86675996 0.2660856
-0.7172675 -0.8064751 -0.53268147 0.44816184 0.3335733 -0.50045145 0.40763044 0.17767799
-0.1656914 -0.7143097 0.90711933 -0.7380542 -0.21507463 0.35294792 -0.72189385 -0.51136035
0.678175 0.89751995 0.69594604 -0.11040045 -0.716951 -0.32573324 0.3904928 0.62213874
-0.72024596 -0.24366705 0.5788624 0.8007203 -0.73991215 0.69251305 0.45010254 -0.42754322
-0.778059 -0.28567976 -0.8788942 0.87827927 0.03034139 -0.41232574 -0.2364921 -0.42965952
0.41462186 -0.46596912 0.76311165 0.10629047 -0.6435584 0.043229528 -0.175203 -0.41350135
-0.33783665 0.09025945 0.52756083 0.33821 -0.7002929 -0.57004327 0.6082226 -0.48770648
0.22206658 0.80761564 0.5408588 -0.84977865 -0.82730305 -0.78338444 -0.571192 0.4019377
-0.8828933 0.06983603 -0.56951773 -0.43305683 -0.7183409 -0.8693178 -0.9108894 0.9239064
0.67925245 -0.04239412 0.656192 -0.12233865 0.22765958 0.39315242 0.7588321 0.077905856
0.72529745 0.6743815 0.35446543 0.072773844 0.13755827 0.83560586 0.14120561 0.6117936
0.5277755 0.87949747 0.14172283 0.16298014 -0.2723256 -0.8342994 0.138562 0.42287543
-0.28536567 0.7927215 0.7957081 0.6391582 0.51856965 0.908707 -0.47685963 0.41941324
-0.7808241 -0.6038451 -0.08743901 0.6951548 0.4863022 -0.7117637 0.30323848 -0.25499925
00000000: f6f1 433f d592 1b3f 5af3 82bb 0f61 493f
00000010: 70e0 923e 44ad 6b3f 808e 97be f4d1 28bf
00000020: b289 b7be 5a2d 563f cfba bebe 8b6c 0bbe
00000030: fec8 293f 6495 7d3c b8d4 2cbf 5e04 e6be
00000040: 1a16 1ebc 7096 013f 4885 45be 1326 a53d
00000050: a86b f7be 6c3b 27bf 2efc f73e 2b68 843d
00000060: 436e 9a3e 2299 a8bc eb4e f73e 84f2 f8bd
00000070: b672 96be a9eb 283f 0d89 033f f8f7 f43e
00000080: 18a2 fa3e c207 c53e 31ff 74be 6cdc 1fbf
00000090: c035 233f 7b0d 0dbf 3d29 003f ef3c 533f
000000a0: 955e 023f 74f4 00be e4a6 673d cee5 56bf
000000b0: 81a1 d9be 63ee b93e 87b1 0fbf b9c6 2f3e
000000c0: fd01 46bf 525e 673f f205 343f 42fe 78bd
000000d0: 6dd2 66bf c5ea 11be d2f1 ab3e 55df c43d
000000e0: 0fc4 193f 3971 ce3d f5c7 a53c 44a8 11bf
000000f0: 0496 1ebe a4d8 773d d6a7 8e3e 9410 51bf
00000100: 5aee 033f 9347 653f a5bb 423e 960b 52bf
00000110: 7b2c 6f3c 3939 173f 0942 d6be 075c 14bf
00000120: 8183 563f 9683 743d bd2d 5abe 03e6 c33e
00000130: 5cdc 633f 0655 3bbf de98 65be 9601 a83d
00000140: a374 dc3e 56a5 2bbe 8f2f 293f 5bc3 133f
00000150: 1ac3 f1be d39a bd3d 8d1f 543f 0756 c7be
00000160: dcb9 10be 85cb 0cbe d73c ca3e df60 00bf
00000170: 4a6f b73a e918 1dbe 183d fa3e 2a89 86be
00000180: 2b95 2d3f 37d8 513e caf4 383f 7bed 653f
00000190: 5e1e cd3d 21f6 1a3f 95de 693e 4a39 e3be
000001a0: 9152 ae3e ec0b 1d3f f623 c83e 3087 093f
000001b0: 8c2e 233f 39fb 41bf f052 0bbf 52d4 263f
000001c0: fe9c 523f a38c 863e e8b9 6b3f 7777 a13e
000001d0: 4300 303f 874c 623f 3ab7 22bf 5089 5fbf
000001e0: 83d9 60bf 40ef 42bf 9c65 2b3e c7ca d7be
000001f0: 37ef d93e 4e5a 2abe 8c5e 633f 0a2e 54be
00000200: 4fd0 c7be c3c9 393f 6973 6a3f 15b8 613f
00000210: a7b5 b7be 1431 33bf 47cf 3cbf 62a9 053f
00000220: 1e90 5b3f 726b 5bbf 5e04 b73e b85e bc3e
00000230: 49f9 3c3f 74b0 543f fbe3 5d3f 5f3c 883e
00000240: d89e 37bf 2775 4ebf d05d 08bf 7875 e53e
00000250: 1fca aa3e 961d 00bf f0b4 d03e 38f1 353e
00000260: 02ab 29be 00dd 36bf f938 683f 1ff1 3cbf
00000270: 863c 5cbe 97b5 b43e 09ce 38bf 83e8 02bf
00000280: e09c 2d3f dec3 653f 8529 323f a219 e2bd
00000290: 1a8a 37bf 82c6 a6be acee c73e 7c44 1f3f
000002a0: 0a62 38bf db83 79be 5430 143f 01fc 4c3f
000002b0: e26a 3dbf 8948 313f d773 e63e f2e6 dabe
000002c0: e02e 47bf 9e44 92be 36ff 60bf e9d6 603f
000002d0: 828e f83c 5c1c d3be fc2a 72be 55fc dbbe
000002e0: 5149 d43e 8193 eebe 495b 433f d1ae d93d
000002f0: 3ec0 24bf 7211 313d 6a68 33be 73b6 d3be
00000300: edf8 acbe f2d9 b83d 3a0e 073f dc29 ad3e
00000310: 6546 33bf 5bee 11bf 7ab4 1b3f aab4 f9be
00000320: 6c65 633e e6bf 4e3f b975 0a3f 188b 59bf
00000330: 22ca 53bf e28b 48bf a439 12bf c7ca cd3e
00000340: 4c05 62bf 3106 8f3d eacb 11bf a0b9 ddbe
00000350: 30e5 37bf 9d8b 5ebf 0c30 69bf 2185 6c3f
00000360: 7de3 2d3f 75a5 2dbd 33fc 273f b08c fabd
00000370: 981f 693e 464b c93e d242 423f 1b8d 9f3d
00000380: 18ad 393f 44a4 2c3f 7e7c b53e 740a 953d
00000390: 13dc 0c3e 44ea 553f 3498 103e 819e 1c3f
000003a0: 4c1c 073f bf26 613f ca1f 113e 44e4 263e
000003b0: 436e 8bbe a594 55bf 32e3 0d3e 2183 d83e
000003c0: 731b 92be ccef 4a3f 87b3 4b3f df9f 233f
000003d0: fbc0 043f 06a1 683f f226 f4be 55bd d63e
000003e0: 17e4 47bf 9895 1abf 3913 b3bd aaf5 313f
000003f0: 9afc f83e 2536 36bf 1342 9b3e 438f 82be

var_embedding.1.bias f4 [64]
0.2609841 0.099058986 -0.34906593 0.29509547 0.37079856 -0.3133841 0.1871371 0.06514265
0.3370615 -0.08098163 -0.09840275 -0.16210999 0.27508083 -0.13395312 0.15432182 -0.30441824
-0.35429612 -0.27088135 0.010100891 0.059492014 0.057833567 -0.15673438 0.37872213 0.37295398
0.10582613 0.20731169 -0.020107815 -0.0313005 0.29992568 0.32106334 0.06503361 -0.12425362
-0.28768882 0.14913474 -0.31735125 -0.025585605 -0.10237451 -0.28589386 0.3194688 0.18055305
-0.13717026 0.07215985 0.18129256 -0.10262931 0.042592153 0.13598229 -0.22692734 0.11534745
-0.076324485 -0.10838597 0.07901393 0.34320843 0.12886205 0.3101154 -0.102209 0.33289814
0.3219126 0.07707598 -0.06492913 0.26208663 0.2567224 0.32395813 -0.0018849225 0.11676296
00000000: b59f 853e 70df ca3d c5b8 b2be c116 973e
00000010: 4fd9 bd3e e173 a0be dea0 3f3e 8269 853d
00000020: 5393 ac3e b2d9 a5bd 6287 c9bd 2900 26be
00000030: 65d7 8c3e 022b 09be 8a06 1e3e b5dc 9bbe
00000040: 4d66 b5be f6b0 8abe 357e 253c e6ad 733d
00000050: e4e2 6c3d fa7e 20be dee7 c13e d3f3 be3e
00000060: 5fbb d83d 8449 543e 25b9 a4bc f434 00bd
00000070: dc8f 993e 6a62 a43e 5730 853d af78 febd
00000080: f34b 93be c7b6 183e dd7b a2be e798 d1bc
00000090: baa9 d1bd ae60 92be 6a91 a33e e6e2 383e
000000a0: 5c76 0cbe 8bc8 933d c2a4 393e 512f d2bd
000000b0: 1c75 2e3d f13e 0b3e a45f 68be 493b ec3d
000000c0: 0350 9cbd 77f9 ddbd 0ed2 a13d 04b9 af3e
000000d0: 6af4 033e 72c7 9e3e f452 d1bd a071 aa3e
000000e0: bad1 a43e 03da 9d3d 90f9 84bd 3830 863e
000000f0: 1e71 833e d7dd a53e 810f f7ba 6b21 ef3d

var_embedding.3.weight f4 [64, 64]
-0.032873273 -0.05050834 0.12644866 0.25377563 -0.29356214 -0.22686684 0.013897104 0.28203478
-0.29587582 -0.06596673 0.023401024 0.25540158 -0.057644516 0.091581315 0.032450803 -0.053638674
-0.27146006 0.16240449 -0.008515942 0.16478325 -0.18191652 -0.123341955 -0.20680045 0.062200055
0.042587582 -0.06438398 -0.29630527 0.16175172 0.23766544 0.26380697 -0.12077355 -0.13068165
0.06220645 -0.014858889 0.20091203 0.26726022 0.034718342 -0.032471262 0.09207765 0.05823957
-0.06406058 0.03491897 -0.0004322679 0.064537175 -0.30000386 0.030738367 -0.27962774 -0.13140702
-0.103452384 -0.10465964 -0.032014158 0.22677144 -0.12739561 0.104731895 0.08416051 0.18892612
-0.10776959 -0.08205595 0.18977652 -0.09194327 0.10290209 0.15528557 -0.10948752 -0.10797293
0.2522839 -0.09705247 0.06668612 0.023164805 -0.06358827 -0.14085957 -0.093247175 -0.021060536
-0.10225258 -0.07988468 0.091557026 0.2963693 0.09511889 -0.16533543 -0.1503697 -0.02765478
0.2773159 0.18042552 -0.21531896 0.009379985 0.007115939 -0.01828933 0.21585205 -0.20157589
0.23320325 -0.25062642 -0.20944211 0.09968522 0.044219937 0.28298953 -0.119410425 0.15680009
-0.02173008 0.25386614 0.12076661 0.10797768 -0.12331558 0.19028077 -0.30241588 0.02409082
-0.0791441 -0.17796993 -0.22249247 0.006177628 0.06974303 0.18164587 0.052046683 0.109666385
-0.0065351995 -0.17419489 -0.04861394 -0.28321496 0.2781524 -0.025291469 -0.054699287 0.1983511
0.0054497872 -0.011153809 -0.17265585 0.12154316 0.19242159 -0.04801184 -0.15847698 0.0532292
0.24935636 -0.20586456 -0.20542343 -0.2586838 0.21386358 0.077935 0.2632305 -0.1399304
0.19847418 -0.07220825 -0.04559502 -0.20991926 -0.11630521 0.22989792 -0.21849604 -0.14896187
0.2552044 -0.08235743 -0.15164217 0.03831819 -0.027285391 -0.23872828 0.1173502 -0.14578217
0.28700095 0.08174186 0.13963136 0.010898016 -0.27472514 -0.12884007 -0.0965974 -0.17073458
-0.20709941 0.26702613 0.07267093 0.076990485 0.17009221 -0.28775644 0.006081505 -0.26534456
0.117151484 -0.11074725 0.110570215 0.24546517 -0.036488567 0.031334784 -0.011861558 -0.09747983
0.17559102 -0.29788274 -0.12854047 -0.021690262 -0.25793794 -0.30287895 -0.15716073 -0.23650542
0.31254643 -0.00042411414 -0.019520396 -0.22624645 -0.06928082 -0.27153474 0.11298014 0.12835063
-0.28511864 0.23348106 0.20447709 0.19954234 -0.27401218 -0.05094763 0.14920014 0.12053555
0.29902652 -0.26546085 -0.14862168 -0.18351732 0.017320985 0.107835464 0.15095326 -0.02644538
-0.038933065 0.09233307 -0.08386282 -0.121796235 0.2915071 0.024981841 -0.12286522 0.29281294
0.16895379 0.26448977 0.13182497 0.1842881 -0.16887857 0.17848657 0.163887 -0.0446504
-0.29987767 0.23056063 0.25046003 -0.020213634 -0.28717387 -0.10241235 0.16612606 0.118109666
-0.06674872 0.2636478 0.017878138 -0.020422371 0.15838598 -0.1896335 -0.1096656 -0.14993456
0.20400389 -0.06995437 0.04676476 0.15309986 0.1510408 0.25988033 -0.2108837 0.14941819
0.17232957 0.13814025 0.093629405 -0.08469777 -0.21183051 -0.15266821 0.30309764 0.13283822
00000000: 20a6 06bd d5e1 4ebd c27b 013e e1ee 813e
00000010: c74d 96be c84f 68be aeb0 633c dd66 903e
00000020: 097d 97be 9119 87bd 81b3 bf3c ffc3 823e
00000030: a81c 6cbd fc8e bb3d 22eb 043d 3ab4 5bbd
00000040: d0fc 8abe 5d4d 263e 7386 0bbc f1bc 283e
00000050: 5348 3abe b59a fcbd 7fc3 53be 7cc5 7e3d
00000060: 5170 2e3d c0db 83bd 53b5 97be 3ea2 253e
00000070: 925e 733e b511 873e 1f58 f7bd 69d1 05be
00000080: 31cc 7e3d b372 73bc e2bb 4d3e 55d6 883e
00000090: d234 0e3d 9600 05bd 3593 bc3d 9e8c 6e3d
000000a0: 3232 83bd 3207 0f3d 04a2 e2b9 112c 843d
000000b0: 1b9a 99be 07cf fb3c 5e2b 8fbe 908f 06be
000000c0: d8de d3bd cb57 d6bd 4721 03bd c636 683e
000000d0: ff73 02be ad7d d63d 585c ac3d d975 413e
000000e0: 4eb6 dcbd f30c a8bd c754 423e c14c bcbd
000000f0: 55be d23d 2e03 1f3e fe3a e0bd e920 ddbd
00000100: 5b2b 813e 72c3 c6bd bc92 883d 1ec4 bd3c
00000110: 913a 82bd 7e3d 10be 60f8 bebd 2587 acbc
00000120: cd69 d1bd 949a a3bd 4082 bb3d b8bd 973e
00000130: b1cd c23d b14d 29be 84fa 19be 478c e2bc
00000140: 5afc 8d3e 78c1 383e 937c 5cbe 82ae 193c
00000150: d32c e93b 81d3 95bc 5208 5d3e e969 4ebe
00000160: d5cc 6e3e 1b52 80be fe77 56be c427 cc3d
00000170: f71f 353d 01e4 903e 748d f4bd 3490 203e
00000180: 4803 b2bc befa 813e 7c54 f73d 6723 dd3d
00000190: e18c fcbd f6d8 423e 41d6 9abe 1d5a c53c
000001a0: 4d16 a2bd c03d 36be 11d5 63be b36d ca3b
000001b0: 6fd5 8e3d 6001 3a3e e72e 553d c598 e03d
000001c0: 3a25 d6bb 2560 32be 691f 47bd 8d01 91be
000001d0: fe69 8e3e 0e30 cfbc 5c0c 60bd 8d1c 4b3e
000001e0: 2194 b23b 77be 36bc b2cc 30be 9feb f83d
000001f0: 2a0a 453e 10a8 44bd ca47 22be dd06 5a3d
00000200: 4657 7f3e 29ce 52be 855a 52be 3472 84be
00000210: 0eff 5a3e 639c 9f3d 26c6 863e ea49 0fbe
00000220: d13c 4b3e ebe1 93bd d8c1 3abd 13f5 56be
00000230: 6d31 eebd 5c6a 6b3e 6dbd 5fbe 7689 18be
00000240: 27aa 823e 03ab a8bd 1648 1bbe 89f3 1c3d
00000250: 9d85 dfbc 3075 74be 4d55 f03d ec47 15be
00000260: caf1 923e 4768 a73d 86fb 0e3e 988d 323c
00000270: c6a8 8cbe a7ee 03be dcd4 c5bd 0cd5 2ebe
00000280: de11 54be a6b7 883e 7fd4 943d 30ad 9d3d
00000290: a72c 2e3e d054 93be 5d47 c73b 3edb 87be
000002a0: 1eed ef3d 74cf e2bd a372 e23d 395b 7b3e
000002b0: 0975 15bd e758 003d fb56 42bc 81a3 c7bd
000002c0: 22ce 333e 1684 98be 1da0 03be c7af b1bc
000002d0: 7110 84be f312 9bbe beee 20be 7a2e 72be
000002e0: 1606 a03e a35b deb9 3de9 9fbc 26ad 67be
000002f0: 1ae3 8dbd 9a06 8bbe 2262 e73d 596e 033e
00000300: 12fb 91be a915 6f3e 7162 513e d454 4c3e
00000310: 534b 8cbe 76ae 50bd ecc7 183e 58db f63d
00000320: 011a 993e 7cea 87be 4830 18be f7eb 3bbe
00000330: bde4 8d3c d7d8 dc3d 7e93 1a3e fba3 d8bc
00000340: 4778 1fbd 1f19 bd3d 45c0 abbd 4e70 f9bd
00000350: 6b40 953e b8a6 cc3c c3a0 fbbd 94eb 953e
00000360: 3902 2d3e 346b 873e 20fd 063e 05b6 3c3e
00000370: 81ee 2cbe 2fc5 363e fed1 273e 56e3 36bd
00000380: 9189 99be 1618 6c3e 4c3c 803e 1097 a5bc
00000390: 7408 93be 91bd d1bd f31c 2a3e 7be3 f13d
000003a0: 8eb3 88bd d8fc 863e 2c75 923c d14c a7bc
000003b0: ef2f 223e 492f 42be 5c98 e0bd 7288 19be
000003c0: 65e6 503e 3d44 8fbd 688c 3f3d 36c6 1c3e
000003d0: 71aa 1a3e 090f 853e e6f1 57be 1501 193e
000003e0: 2a77 303e a374 0d3e c6c0 bf3d 0676 adbd
000003f0: 19ea 58be 0e55 1cbe 9d2f 9b3e be06 083e

var_embedding.3.bias f4 [64]
0.08154981 -0.015101857 0.077972904 -0.022944303 0.009599392 -0.06945331 0.05726828 0.11152459
-0.089183114 0.04394392 -0.047475953 0.12439636 0.0023060534 -0.047025133 0.0676753 0.090409204
0.006059399 -0.042970557 0.11544577 -0.1174281 -0.0769153 -0.008710518 -0.09269774 0.031318
0.08412306 -0.02431476 0.07876537 -0.11201593 -0.06246222 0.124387875 0.010135777 0.013561686
0.048284598 0.024519555 0.014056469 -0.026857883 0.02561895 -0.013337443 -0.05219771 -0.11669775
-0.032790758 -0.053824246 0.023149958 -0.10609141 -0.11669435 0.008347172 -0.047248915 0.044430356
0.0721993 0.086819135 -0.011758933 0.064605184 0.07890009 -0.05558742 -0.049691014 0.028153434
-0.031791817 -0.028869292 -0.07474266 -0.112752825 0.10972922 -0.06913275 0.11218664 -0.014483023
00000000: 9603 a73d c76d 77bc 42b0 9f3d b1f5 bbbc
00000010: c546 1d3c 893d 8ebd 2592 6a3d 0167 e43d
00000020: a3a5 b6bd 8afe 333d 2576 42bd 85c3 fe3d
00000030: 2821 173b 6d9d 40bd 5999 8a3d 7628 b93d
00000040: ec8d c63b e501 30bd d56e ec3d 257e f0bd
00000050: c585 9dbd 8fb6 0ebc 50d8 bdbd 4e47 003d
00000060: b648 ac3d bf2f c7bc bd4f a13d 9c68 e5bd
00000070: 63d8 7fbd 12bf fe3d 8810 263c d531 5e3c
00000080: 12c6 453d 3cdd c83c 1b4d 663c 1005 dcbc
00000090: d5de d13c 4a85 5abc 44cd 55bd 3bff eebd
000000a0: 9a4f 06bd d076 5cbd fba4 bd3c 7446 d9bd
000000b0: 73fd eebd 94c2 083c 1488 41bd 9bfc 353d
000000c0: 3add 933d 3bce b13d 8aa8 40bc b94f 843d
000000d0: 5f96 a13d a2af 63bd ce88 4bbd 08a2 e63c
000000e0: 2338 02bd 4b7f ecbc ae12 99bd f4ea e6bd
000000f0: b7b9 e03d 7995 8dbd 1cc2 e53d 344a 6dbc

conv_v_to_c.feature_module_left.0.weight f4 [64, 64]
-0.17128393 -0.16227236 0.12290351 0.15154943 0.2714099 -0.055352513 0.24834356 -0.15107761
-0.05619183 -0.05575404 0.22188832 0.25567526 -0.3050387 0.15625545 0.032818858 -0.21740088
0.12169159 -0.24326178 -0.02852952 -0.25766566 -0.15448411 -0.23320687 0.3022673 0.09568626
0.12572682 -0.037057225 0.09459913 -0.23606516 0.15738115 -0.2439579 -0.092602536 0.22830792
-0.20573492 0.013473487 0.113757804 0.29927903 -0.15973327 -0.2294806 0.22440411 0.2191761
-0.063855655 0.043275766 0.28655815 -0.1614926 -0.23081155 0.034012 -0.17531872 0.2220008
0.2672279 0.28014916 0.07044876 0.07952701 0.2907717 0.048397657 -0.19084857 0.28005847
0.16471712 0.15510227 -0.21771583 -0.26911488 -0.06691434 0.2564701 0.032181025 -0.04871101
0.15317275 0.27233163 0.06964614 -0.30441624 0.17610893 0.27420956 -0.27641374 0.17624551
0.06394149 0.29009384 0.14769751 0.2510888 -0.1471504 0.18064256 -0.1307587 0.27565303
0.062213723 -0.08021699 -0.23137686 -0.01260617 0.16515659 -0.26048222 0.13205253 0.13036703
0.025891908 0.22191747 0.13313344 -0.026660638 -0.30485725 0.26353976 -0.13555048 0.12574536
0.16230768 0.3046657 0.20159532 -0.1179179 0.23093511 -0.17702597 -0.11569225 -0.1598588
-0.09937884 0.23247282 -0.13886753 0.22599632 -0.26782197 0.03887195 -0.22889914 0.04544093
-0.22284402 0.1326522 -0.18234228 0.1281075 -0.1831745 -0.28791294 -0.044813193 -0.11012598
0.036539108 -0.30431658 -0.21038242 0.2725177 -0.1926349 -0.050218463 -0.054988522 -0.013555742
-0.065365344 0.21174507 -0.3037923 0.0238391 0.086503856 0.1085201 0.06494559 -0.19803981
0.26072118 0.25176454 0.07351236 0.1916394 0.29091877 0.22702862 0.022158414 0.30394366
0.22900862 -0.20067942 0.22157146 -0.1458975 -0.2624068 -0.064434804 0.21261497 -0.09728697
0.18451135 0.2679706 0.28396887 0.20777215 -0.2042581 0.22776838 -0.25341532 -0.10891348
0.22616042 0.086186975 -0.06057689 -0.27883416 0.25183913 0.29193377 -0.14961194 -0.16501392
-0.11478546 0.24850294 -0.28864935 0.09532808 -0.2520968 -0.094950736 -0.077601895 -0.26300228
-0.265715 0.14873901 -0.1123379 0.06341256 0.19696274 0.15492055 0.08550821 0.17562495
0.29222375 0.2888266 0.13370225 0.25666052 0.25669837 0.04452915 0.07176053 -0.24711776
0.19396654 -0.2732628 -0.1607565 0.047854878 -0.15822065 -0.24031383 0.28247347 -0.082251586
-0.21521203 0.04922649 -0.07008351 0.0063123927 0.27941844 -0.28805244 -0.26988262 -0.06792617
0.0067560673 0.01674957 -0.15936047 0.19130954 0.022160653 0.0034290662 -0.13238288 -0.19068854
0.018185174 0.13258952 -0.04513124 0.11196613 -0.10935562 -0.030840738 -0.028412366 0.026654983
0.08542847 -0.1098399 0.17502953 -0.121516824 -0.10457491 -0.25523743 0.17980562 0.18120694
-0.2870939 -0.11298814 0.046458215 -0.21937844 -0.275689 -0.0054589943 -0.25468776 -0.14592978
0.107634395 0.23925443 0.2963268 0.050350286 -0.23944865 0.01773146 -0.13442862 -0.2681437
0.049386304 0.044005934 -0.20598184 0.032073587 0.12630504 0.20049547 -0.15947439 0.17935438
00000000: 0e65 2fbe ba2a 26be d6b4 fb3d c62f 1b3e
00000010: 3df6 8a3e 51b9 62bd c64d 7e3e 17b4 1abe
00000020: 6829 66bd 595e 64bd b136 633e dee7 823e
00000030: 082e 9cbe 6e01 203e 116d 063d 569e 5ebe
00000040: 7139 f93d 9e19 79be bdb6 e9bc c1ec 83be
00000050: 1531 1ebe c8cd 6ebe c8c2 9a3e 28f7 c33d
00000060: 88be 003e 51c9 17bd 30bd c13d 11bb 71be
00000070: 8628 213e 1ad0 79be 66a6 bdbd 8dc9 693e
00000080: 2dac 52be e7bf 5c3c daf9 e83d 1a3b 993e
00000090: 1e91 23be f6fc 6abe 31ca 653e b36f 603e
000000a0: c1c6 82bd ee41 313d c0b7 923e 515e 25be
000000b0: dd59 6cbe 2b50 0b3d c086 33be 2d54 633e
000000c0: 18d2 883e b66f 8f3e 7147 903d 0fdf a23d
000000d0: 07e0 943e 9f3c 463d cf6d 43be d363 8f3e
000000e0: 9bab 283e 21d3 1e3e e6f0 5ebe 6dc9 89be
000000f0: 630a 89bd 0d50 833e 40d0 033d 3285 47bd
00000100: 51d9 1c3e 0d6f 8b3e a3a2 8e3d 72dc 9bbe
00000110: e655 343e 3265 8c3e 1a86 8dbe b479 343e
00000120: c2f3 823d 2e87 943e 043e 173e b68e 803e
00000130: 98ae 16be 5dfa 383e 9ce5 05be 6522 8d3e
00000140: d1d3 7e3d ce48 a4bd 0eee 6cbe 1c8a 4ebc
00000150: cf1e 293e ed5d 85be c738 073e ef7e 053e
00000160: 441b d43c 553e 633e 2254 083e 6967 dabc
00000170: 4016 9cbe afee 863e bfcd 0abe 64c3 003e
00000180: fc33 263e 25fd 9b3e 016f 4e3e f17e f1bd
00000190: 417a 6c3e 4c46 35be 0ff0 ecbd 06b2 23be
000001a0: 2287 cbbd 5b0d 6e3e 4a33 0ebe 946b 673e
000001b0: f61f 89be 3238 1f3d 8964 6abe 4520 3a3d
000001c0: 3931 64be fad5 073e efb7 3abe 9d2e 033e
000001d0: 1992 3bbe 5369 93be 0a8e 37bd bb89 e1bd
000001e0: 08aa 153d 62cf 9bbe 7d6e 57be 7187 8b3e
000001f0: 1542 45be e0b1 4dbd a53b 61bd e718 5ebc
00000200: 44de 85bd b3d3 583e aa8a 9bbe 374a c33c
00000210: ef28 b13d c93f de3d 3202 853d f3ca 4abe
00000220: 3f7d 853e 48e7 803e a68d 963d 1e3d 443e
00000230: 4ef3 943e 317a 683e 9085 b53c 819e 9b3e
00000240: 3c81 6a3e e87e 4dbe a1e3 623e 2766 15be
00000250: 2f5a 86be 65f6 83bd bdb7 593e 643e c7bd
00000260: 8bf0 3c3e 7133 893e 5e64 913e 39c2 543e
00000270: 0929 51be 1d3c 693e a7bf 81be 080e dfbd
00000280: 9996 673e cc82 b03d 791f 78bd 5ac3 8ebe
00000290: 0ff1 803e 5878 953e df33 19be 69f9 28be
000002a0: a414 ebbd 8e77 7e3e d9c9 93be 5e3b c33d
000002b0: d512 81be 8875 c2bd beed 9ebd 3ca8 86be
000002c0: cc0b 88be 0a4f 183e 6a11 e6bd 72de 813d
000002d0: 9ab0 493e 7ea3 1e3e ee1e af3d 07d7 333e
000002e0: 5a9e 953e 15e1 933e 3ee9 083e 0269 833e
000002f0: f86d 833e 3364 363d 2ff7 923d 700c 7dbe
00000300: 2a9f 463e 1ae9 8bbe 5a9d 24be 7a03 443d
00000310: 9804 22be d414 76be 5da0 903e 8573 a8bd
00000320: 8b60 5cbe b7a1 493d f187 8fbd 30d8 ce3b
00000330: ef0f 8f3e 9c7b 93be 0e2e 8abe e01c 8bbd
00000340: 0062 dd3b 6536 893c 642f 23be a6e6 433e
00000350: 428a b53c 2fba 603b 618f 07be db43 43be
00000360: 13f9 943c 8cc5 073e 89db 38bd 804e e53d
00000370: d7f5 dfbd b7a5 fcbc 0dc1 e8bc 8d5b da3c
00000380: 1ff5 ae3d bef3 e0bd f13a 333e d0dd f8bd
00000390: 5f2b d6bd 7bae 82be f71e 383e 508e 393e
000003a0: f9fd 92be 5366 e7bd f84a 3e3d bea4 60be
000003b0: 1c27 8dbe 5de1 b2bb 6f66 82be 9e6e 15be
000003c0: 6c6f dc3d 1dff 743e 25b8 973e 1a3c 4e3d
000003d0: 0732 75be 9141 913c a8a7 09be 224a 89be
000003e0: 4b49 4a3d 913f 343d e7ec 52be 985f 033d
000003f0: 1c56 013e af4e 4d3e 414d 23be ada8 373e

conv_v_to_c.feature_module_left.0.bias f4 [64]
0.08407082 0.022163274 0.052354626 -0.10590359 -0.0018798067 -0.0070173047 0.090218104 -0.035222802
0.015633868 -0.07574853 -0.10078905 -0.020869251 0.024947023 0.122381635 0.058253292 -0.027752452
-0.034240734 -0.0842271 -0.032129724 -0.026015852 -0.060171485 0.08580359 -0.046573095 0.04849022
0.088384055 -0.015748702 0.07516838 0.10294586 -0.031395018 0.02368307 -0.07356099 -0.039245203
0.07932392 -0.03167999 0.11353152 0.025279878 0.00065264676 -0.09335906 -0.013005478 0.07839314
0.072320424 0.015319387 -0.085734196 -0.1080297 -0.09999578 -0.12464809 0.056332666 0.059156798
0.028166693 0.003174531 -0.08138233 0.11551984 0.039828695 0.07023045 0.02920864 0.11344722
-0.06908897 0.11831556 0.11757464 -0.1156181 0.09576552 0.103007905 -0.09763736 -0.011736338
00000000: 522d ac3d c18f b53c ce71 563d fbe3 d8bd
00000010: d963 f6ba 6bf1 e5bb 45c4 b83d c945 10bd
00000020: 9912 803c 0c22 9bbd 7d6a cebd fef5 aabc
00000030: b35d cc3c 39a3 fa3d 019b 6e3d 1c59 e3bc
00000040: 0340 0cbd 427f acbd 759a 03bd 321f d5bc
00000050: 6076 76bd cbb9 af3d 6ec3 3ebd ae9d 463d
00000060: b302 b53d 6c03 81bc e1f1 993d 47d5 d23d
00000070: 1098 00bd ff02 c23c 25a7 96bd 94bf 20bd
00000080: 9474 a23d e1c2 01bd 3783 e83d bf17 cf3c
00000090: 6216 2b3a 0933 bfbd ee14 55bc 958c a03d
000000a0: bb1c 943d 2bfe 7a3c 6995 afbd ad3e ddbd
000000b0: 96ca ccbd 7f47 ffbd 15bd 663d 664e 723d
000000c0: d6bd e63c cb0b 503b c7ab a6bd aa95 ec3d
000000d0: 6a23 233d fbd4 8f3d f546 ef3c 0457 e83d
000000e0: 857e 8dbd 6e4f f23d f9ca f03d 2fc9 ecbd
000000f0: b720 c43d cff5 d23d 19f6 c7bd c549 40bc

conv_v_to_c.feature_module_edge.0.weight f4 [64, 1]
-1.4145427 -0.77523446 1.0415463 -1.520752 1.3630658 0.068613686 0.31608227 -1.6146201
-0.21010503 1.9334469 0.18326499 0.23672551 -0.6641916 -1.3373924 -0.43938348 1.0973666
-1.0348282 -0.8405359 0.8177514 0.40149674 0.44693488 1.7334113 1.6176808 -0.45601228
1.6060343 -0.4853054 -0.61587083 2.3110383 0.30285367 0.9225391 -0.803945 -0.3159261
2.0959795 -1.4188573 -2.3393097 -1.8681351 -1.005526 -1.2502779 -0.17152296 -1.7977403
0.0128881605 -1.0096056 -1.1363626 -0.28159893 -1.0153059 1.900391 -0.38660553 -2.4484892
-0.63026214 -2.2082624 0.4796981 -2.4192708 -0.58690006 1.7626162 -0.6391722 -2.0257263
2.12205 1.6121361 -2.1852965 2.213869 -1.6912363 0.0830831 -2.1627457 -0.6393631
00000000: bc0f b5bf c475 46bf 6451 853f 00a8 c2bf
00000010: f178 ae3f 5585 8c3d 89d5 a13e dfab cebf
00000020: c625 57be 307b f73f d1a9 3b3e 2c68 723e
00000030: 7608 2abf ad2f abbf dff6 e0be 8276 8c3f
00000040: 4075 84bf 5c2d 57bf 2858 513f fb90 cd3e
00000050: a6d4 e43e 6ce0 dd3f 2a10 cf3f 717a e9be
00000060: 8892 cd3f f379 f8be b6a9 1dbf 0de8 1340
00000070: a30f 9b3e 862b 6c3f 57cf 4dbf 11c1 a1be
00000080: 8724 0640 1e9d b5bf 40b7 15c0 0d1f efbf
00000090: 13b5 80bf 1b09 a0bf b7a3 2fbe 5b1c e6bf
000000a0: dd28 533c c23a 81bf 5474 91bf bc2d 90be
000000b0: 8bf5 81bf 0340 f33f 29f1 c5be 0cb4 1cc0
000000c0: dc58 21bf 2c54 0dc0 fd9a f53e 55d5 1ac0
000000d0: 153f 16bf 689d e13f caa0 23bf 80a5 01c0
000000e0: abcf 0740 7a5a ce3f e6db 0bc0 08b0 0d40
000000f0: 6e7a d8bf 7927 aa3d 6d6a 0ac0 4dad 23bf

conv_v_to_c.feature_module_right.0.weight f4 [64, 64]
0.14110696 -0.3037261 -0.10231523 -0.0010223554 -0.14308052 -0.30598372 0.14073363 0.30796963
-0.058249567 0.10444584 -0.17663771 -0.20426734 0.28444433 -0.067633085 0.017839298 -0.25453073
-0.0952136 -0.27395937 -0.018940713 -0.29333338 0.19778353 -0.26149884 0.003983725 -0.067165874
-0.20171964 0.28404468 0.00084393006 -0.2730653 -0.07083519 0.14552563 -0.19530083 -0.26715133
-0.0866868 -0.017427288 -0.1791583 0.29275653 0.111103 0.2506721 0.22305615 0.28019834
-0.021493413 -0.25012982 -0.08216812 -0.19280945 -0.00021402606 0.2793415 0.201937 0.25693718
-0.113587245 -0.27450472 -0.10967231 0.07910338 0.15686719 -0.07832483 0.097500384 0.06053828
-0.058121186 0.21058726 -0.23059061 0.2136898 0.1121194 -0.2468897 -0.18215911 -0.25957093
-0.11504825 0.2364519 0.24931891 0.034731105 -0.13499904 -0.15328778 0.06541432 -0.06404206
0.15749866 0.093235984 -0.05722527 0.3039868 0.15463336 0.24293981 0.12647836 0.30362898
0.25247777 -0.16515982 0.26705825 0.08442797 -0.21784186 0.13392836 -0.29067975 -0.26994425
-0.101341076 0.03440008 -0.02701273 -0.0794405 0.21852425 0.17234269 -0.06583578 0.05724822
0.1540774 -0.24024521 -0.17113468 0.28234074 0.27860802 -0.020550955 -0.144682 -0.11536025
-0.15431124 0.2864562 -0.069964096 -0.032306466 0.19184114 -0.11319324 -0.09454999 0.26839066
-0.18605345 -0.19223288 0.056364316 -0.1984274 0.13109967 0.09030097 -0.05134222 0.043646112
0.0034578168 -0.2601602 0.30821702 -0.03977421 0.2768481 0.2137494 -0.04555906 0.26215783
0.15482719 -0.012235093 0.0021798345 0.07115174 0.14583327 -0.24342568 0.14026843 0.13805847
0.16527997 0.21466267 -0.10268044 -0.16515833 -0.27442956 0.019222967 -0.059463244 -0.1963005
-0.020936213 -0.13204902 -0.24698624 0.18039091 0.021926895 -0.109817475 0.13918003 0.18812567
-0.27870703 -0.14274226 0.2779929 -0.15405627 -0.10214059 0.20575553 -0.15149648 -0.055308748
0.21049571 -0.22438587 0.22436583 -0.28332067 -0.19761857 0.20449245 0.18516247 0.13182952
0.06095882 -0.17332838 0.11675118 -0.059442375 0.19934267 -0.12897652 0.18450452 0.14262792
-0.23194371 0.2933168 -0.10570225 -0.26011625 -0.1626698 0.08278581 0.08067386 0.29155496
-0.22725734 0.12019014 0.05832505 -0.13799818 -0.19349088 -0.29500246 -0.1947827 0.24859378
0.17182215 -0.2408217 -0.0060014627 -0.25837559 -0.27397594 -0.18270306 -0.090684846 -0.13483623
-0.02332884 0.273265 0.06602888 0.26679173 0.2748808 0.012731224 0.17621586 -0.08909675
0.088261716 -0.22604945 -0.21854974 -0.1504984 -0.16892649 0.104254246 0.23907748 -0.2892609
-0.105375946 0.10545111 0.073868655 -0.12515321 0.0110048 0.067712024 -0.13754442 -0.21315138
-0.13135596 0.1423169 0.08982022 0.04050908 -0.29245356 -0.2939351 -0.025842033 -0.20505813
-0.19903785 -0.29499736 -0.23778594 -0.26372135 -0.23757072 0.07953509 0.067326 -0.026537718
-0.09496313 0.2610668 -0.036509957 0.09454316 0.09040514 0.17830582 0.2528431 0.015990233
-0.008835104 0.004662935 0.22601852 -0.2576394 -0.2201113 0.06361743 0.045227956 0.12746757
00000000: 587e 103e fd81 9bbe a68a d1bd 8e00 86ba
00000010: b383 12be e6a9 9cbe 7a1c 103e 32ae 9d3e
00000020: 1997 6ebd b3e7 d53d 84e0 34be 752b 51be
00000030: b0a2 913e 3783 8abd b823 923c da51 82be
00000040: 59ff c2bd 6744 8cbe 8e29 9bbc cb2f 96be
00000050: c487 4a3e 2de3 85be e889 823b 438e 89bd
00000060: 988f 4ebe 4e6e 913e 303b 5d3a 37cf 8bbe
00000070: 0a12 91bd ac04 153e f1fc 47be 0fc8 88be
00000080: d988 b1bd acc3 8ebc 4675 37be 2fe4 953e
00000090: f889 e33d 1858 803e d568 643e 2876 8f3e
000000a0: f412 b0bc 0411 80be c247 a8bd d76f 45be
000000b0: 2f6c 60b9 d905 8f3e 93c8 4e3e 458d 833e
000000c0: 6ea0 e8bd e28b 8cbe e09b e0bd f400 a23d
000000d0: cba1 203e c568 a0bd 48ae c73d fdf6 773d
000000e0: 7b10 6ebd 30a4 573e f21f 6cbe 80d1 5a3e
000000f0: db9e e53d a7d0 7cbe eb87 3abe 7be6 84be
00000100: 6b9e ebbd 7220 723e 754d 7f3e 3442 0e3d
00000110: 303d 0abe 79f7 1cbe f1f7 853d 7c28 83bd
00000120: 5447 213e 82f2 be3d 0b65 6abd 28a4 9b3e
00000130: 3558 1e3e 37c5 783e 8b83 013e 4275 9b3e
00000140: c444 813e a81f 29be dcbb 883e 92e8 ac3d
00000150: f011 5fbe 8424 093e fad3 94be 2236 8abe
00000160: e98b cfbd 19e7 0c3d cd49 ddbc b3b1 a2bd
00000170: d2c4 5f3e 9a7a 303e e9d4 86bd 1c7d 6a3d
00000180: 77c6 1d3e d702 76be ee3d 2fbe f78e 903e
00000190: b6a5 8e3e 7a5a a8bc 8527 14be ff41 ecbd
000001a0: c403 1ebe 63aa 923e 5649 8fbd c953 04bd
000001b0: 0172 443e dbd1 e7bd 6da3 c1bd 806a 893e
000001c0: cc84 3ebe b2d8 44be 45de 663d 8d30 4bbe
000001d0: fe3e 063e b7ef b83d 384c 52bd 44c6 323d
000001e0: 8a9c 623b b833 85be 9fce 9d3e 48ea 22bd
000001f0: 09bf 8d3e 1fe1 5a3e 239c 3abd 8d39 863e
00000200: 058b 1e3e b375 48bc 8edb 0e3b 01b8 913d
00000210: 5155 153e 9544 79be 87a2 0f3e 335f 0d3e
00000220: 273f 293e 88d0 5b3e 1f4a d2bd 441f 29be
00000230: 0882 8cbe 7c79 9d3c bb8f 73bd 0003 49be
00000240: 6c82 abbc dc37 07be f6e9 7cbe 65b8 383e
00000250: 08a0 b33c fce7 e0bd 3685 0e3e 04a4 403e
00000260: b0b2 8ebe 072b 12be 1655 8e3e edc0 1dbe
00000270: 162f d1bd 94b1 523e e521 1bbe 6d8b 62bd
00000280: 308c 573e 69c5 65be 28c0 653e 680f 91be
00000290: 865c 4abe 7866 513e 3b9b 3d3e 51fe 063e
000002a0: f5af 793d ff7c 31be 3e1b ef3d d979 73bd
000002b0: 7c20 4c3e 6c12 04be c1ee 3c3e 0e0d 123e
000002c0: a782 6dbe 9f2d 963e 6c7a d8bd f52d 85be
000002d0: e992 26be 9b8b a93d 5638 a53d b146 953e
000002e0: 26b6 68be 4026 f63d 3fe6 6e3d 654f 0dbe
000002f0: 7922 46be 900a 97be 1e75 47be 5e8f 7e3e
00000300: 25f2 2f3e f799 76be eba7 c4bb ce49 84be
00000310: 9346 8cbe 8316 3bbe fab8 b9bd 8212 0abe
00000320: 201c bfbc 64e9 8b3e 263a 873d ed98 883e
00000330: 2dbd 8c3e a096 503c ee71 343e 5b78 b6bd
00000340: 8fc2 b43d 8279 67be 81cb 5fbe 411c 1abe
00000350: 11fb 2cbe 4083 d53d bad0 743e 011a 94be
00000360: 58cf d7bd c0f6 d73d 7348 973d 2a28 00be
00000370: 7a4d 343c 9aac 8a3d 72d8 0cbe 5b44 5abe
00000380: 2d82 06be 85bb 113e aaf3 b73d d9ec 253d
00000390: 79bc 95be a97e 96be acb2 d3bc c2fa 51be
000003a0: 94d0 4bbe e509 97be 287e 73be 7c06 87be
000003b0: bd45 73be 4be3 a23d 37e2 893d a165 d9bc
000003c0: 087c c2bd 8caa 853e 778b 15bd d89f c13d
000003d0: 5426 b93d cd95 363e a774 813e f3fd 823c
000003e0: 1dc1 10bc 89cb 983b 6671 673e 50e9 83be
000003f0: db64 61be db49 823d f340 393d dc86 023e

conv_v_to_c.feature_module_final.0.weight f4 [64]
1.000772 0.9992238 0.99964714 1.000576 0.9988727 1.0031993 0.99914086 0.9999427
1.0010297 1.0021507 1.0017881 1.0000488 1.0004795 1.0017474 0.99875194 1.0001036
1.0011282 1.0005934 0.9980712 1.0019897 1.0001024 0.99898535 1.0058912 0.9990773
0.9993693 0.99893034 1.0005474 1.0007055 0.9984857 1.0015638 1.0015552 1.0002295
0.9980085 1.0001961 1.001571 1.0000433 0.99684703 0.9996577 1.0029348 0.9999441
1.0015718 0.9971058 0.99711066 0.99942535 1.0021735 0.9994781 0.9984267 1.0013651
1.0000346 0.99897295 0.9990806 1.0011871 0.9987319 1.0012501 1.0004338 1.0010523
1.0001572 1.0010453 0.99746376 0.99885803 1.0020866 0.9997859 1.0018626 0.9994658
00000000: 4c19 803f 22cd 7f3f e0e8 7f3f e012 803f
00000010: 1fb6 7f3f d668 803f b2c7 7f3f 3ffc 7f3f
00000020: be21 803f 7946 803f 983a 803f 9901 803f
00000030: b60f 803f 4239 803f 35ae 7f3f 6503 803f
00000040: f824 803f 7213 803f 9881 7f3f 3341 803f
00000050: 5b03 803f 81bd 7f3f 0bc1 803f 88c3 7f3f
00000060: abd6 7f3f e6b9 7f3f f011 803f 1e17 803f
00000070: c29c 7f3f 3e33 803f f632 803f 8507 803f
00000080: 7c7d 7f3f 6d06 803f 7b33 803f 6b01 803f
00000090: 5e31 7f3f 91e9 7f3f 2b60 803f 56fc 7f3f
000000a0: 8133 803f 5342 7f3f a542 7f3f 57da 7f3f
000000b0: 3947 803f ccdd 7f3f e498 7f3f bb2c 803f
000000c0: 2201 803f b1bc 7f3f bfc3 7f3f e626 803f
000000d0: e5ac 7f3f f728 803f 370e 803f 7b22 803f
000000e0: 2705 803f 4122 803f c959 7f3f 29b5 7f3f
000000f0: 6044 803f f8f1 7f3f 093d 803f fedc 7f3f

conv_v_to_c.feature_module_final.0.bias f4 [64]
-4.407496e-05 -0.0010236291 0.00039114497 0.0006002966 -0.0014569658 0.0031749115 0.00031014814 -8.563583e-05
-0.000113983835 0.0011019829 0.0015919601 -0.00041888002 0.00027306756 0.0018858509 -0.001211577 -0.00030939726
0.0004420768 0.00027034702 -0.0009168472 0.0019358996 -0.00010773141 -0.0018064416 0.006955507 -0.0016667574
2.67526e-05 -0.00059396937 -5.598024e-05 0.0007422605 -0.00114058 0.0014634271 0.00078310573 -0.00040394434
-0.0014084238 8.8651585e-05 0.0013391915 0.00023947809 -0.00242518 6.7508896e-05 0.0022937828 -0.00010514185
0.0010442949 -0.0027027754 -0.003259453 -0.00065975095 0.0015439659 -0.0008781287 -0.0012875586 0.0010421085
0.00023851592 -0.0011114464 -0.0005026842 0.00086984155 -0.0012973873 -7.990409e-05 -9.3641764e-05 0.001307558
6.931117e-05 0.0016174967 -0.0032759872 -2.1562502e-05 0.00179689 -0.0012447594 0.0018180348 -0.0014989839
00000000: 21dd 38b8 4b2b 86ba 9712 cd39 395d 1d3a
00000010: a9f7 beba 2d12 503b 619b a239 6397 b3b8
00000020: 9b0a efb8 6970 903a 51a9 d03a 209d dbb9
00000030: 822a 8f39 a82e f73a c7cd 9eba 9936 a2b9
00000040: 8bc6 e739 5dbd 8d39 9358 70ba 03be fd3a
00000050: dced e1b8 1fc6 ecba 06eb e33b 1977 daba
00000060: c56a e037 9cb4 1bba 53cc 6ab8 4294 423a
00000070: 847f 95ba 77d0 bf3a 5649 4d3a 7ec8 d3b9
00000080: dc9a b8ba 75ea b938 cf87 af3a 691c 7b39
00000090: c5ef 1ebb 9093 8d38 4a53 163b 9a7f dcb8
000000a0: b9e0 883a 0c21 31bb 8c9c 55bb 23f3 2cba
000000b0: e65e ca3a 3832 66ba 4cc3 a8ba 5c97 883a
000000c0: 211a 7a39 f4ad 91ba 91c6 03ba 1406 643a
000000d0: 180d aaba 2f92 a7b8 8a61 c4b8 5e62 ab3a
000000e0: 275b 9138 2f02 d43a f2b1 56bb 1fe1 b4b7
000000f0: a085 eb3a 3227 a3ba 204b ee3a 8e79 c4ba
