rl_model/SCPPO_policy_239.pth (torch_old, 472694 bytes, 71 tensors)

cons_embedding.0.weight f4 [4]
0	0x3f7ffebc	0.9999807
1	0x3f7fb993	0.9989254
2	0x3f7ffd71	0.99996096
3	0x3f802255	1.0010477

cons_embedding.0.bias f4 [4]
0	0x376c8939	1.4098646e-05
1	0x3a8cb7aa	0.0010735888
2	0xb831e9e5	-4.241792e-05
3	0x3a891994	0.0010459893

cons_embedding.1.weight f4 [64, 4]
0	0x3e747353	0.23872118
1	0x3f532251	0.8247424
2	0x3e9863a2	0.29763514
3	0x3f10a06f	0.564948
4	0x3b8161b7	0.003948416
5	0xbed52025	-0.41626087
6	0xbf9c9295	-1.2232233
7	0x3f5e8d85	0.8693469
8	0xbf93d40b	-1.1549085
9	0x3dba3a13	0.09093108
10	0xbf1a47dc	-0.602659
11	0xbf3bd23a	-0.73367655
12	0xbf941963	-1.1570247
13	0xbf685e8a	-0.90769255
14	0xbea0abc3	-0.31381044
15	0x3f36b288	0.7136617
16	0x3f12437a	0.5713421
17	0xbf0ce272	-0.5503303
18	0xbf8ccd80	-1.1000214
19	0xbf730651	-0.94931513
20	0x3f28557c	0.6575544
21	0x3f57a9af	0.8424329
22	0xbe43fbe0	-0.19139051
23	0x3f50e5dd	0.81600744
24	0x3f028a63	0.5099241
25	0x3f19c4c9	0.60065895
26	0xbe373aee	-0.17893574
27	0xbf0b6e47	-0.54465145
28	0xbe082ba3	-0.13297896
29	0xbee2088c	-0.44147146
30	0xbeb45a42	-0.3522511
31	0xbeecd0cd	-0.46253052
32	0x3f0e1d94	0.5551388
33	0xbf6e2f43	-0.93040866
34	0x3f6dbbaa	0.9286448
35	0x3f9427d2	1.1574652
36	0x3a34d4d4	0.0006898169
37	0x3f9892f8	1.1919851
38	0x3f9a93a6	1.2076309
39	0x3f2fc30d	0.68657
40	0xbf94ffb2	-1.1640532
41	0x3eb0fbc2	0.34567076
42	0x3f21a973	0.63149184
43	0xbf46021b	-0.7734696
44	0xbf79410d	-0.97364885
45	0xbf2fbe69	-0.6864992
46	0xbe27240b	-0.16322343
47	0x3f392318	0.72319174
48	0xbe0dbcea	-0.13841596
49	0xbea8b3c3	-0.32949647
50	0x3f3f8945	0.7481883
51	0xbf0b299b	-0.5436036
52	0xbe3dceba	-0.18535891
53	0xbe53ff2f	-0.20702814
54	0x3f09c384	0.5381396
55	0x3f86d644	1.0534139
56	0x3efbb005	0.4915773
57	0x3f6d3039	0.92651707
58	0xbf90e6a2	-1.1320384
59	0xbf2013af	-0.62530035
60	0xbf4d12a2	-0.80106556
61	0xbf86f389	-1.0543071
62	0xbead9d1f	-0.33908936
63	0x3e3f466c	0.18679208
64	0xbd46af2c	-0.0485069
65	0x3e23d27a	0.15998259
66	0xbe65d0d0	-0.22442937
67	0x3d910433	0.07080879
68	0xbf5522e1	-0.83256346
69	0xbf8669a2	-1.0500987
70	0xbec33706	-0.38127917
71	0xbf0bb6b4	-0.5457566
72	0x3f95461c	1.1662021
73	0x3f2c3918	0.6727462
74	0x3f960ec8	1.1723261
75	0x3e5ed7cf	0.21762012
76	0xbcb7668d	-0.022387767
77	0xbdc7b827	-0.09751921
78	0xbdf8a050	-0.12139952
79	0x3f093202	0.5359193
80	0xbf2a9797	-0.6663756
81	0x3f66967b	0.90073365
82	0x3ded9f16	0.11602609
83	0xbecbe9a7	-0.398267
84	0x3c336219	0.010948681
85	0x3f541aa5	0.82853156
86	0xbed38a11	-0.41316274
87	0x3e25be66	0.16185912
88	0x3e602bb4	0.21891671
89	0xbdbd3859	-0.09239263
90	0x3f77ee74	0.96848226
91	0x3f0b5fa0	0.5444279
92	0x3f7f8f97	0.99828476
93	0xbe05347c	-0.13008302
94	0x3f38f31b	0.7224595
95	0xbf91f1f9	-1.1401969
96	0x3eb8e96d	0.3611559
97	0x3ea770d1	0.3270326
98	0xbf5bf005	-0.85913116
99	0x3f97c8ec	1.1858191
100	0xbf3a2709	-0.7271581
101	0x3e59bb95	0.21262963
102	0xbea8f54a	-0.3299964
103	0xbf32b6af	-0.69810003
104	0x3e27efd4	0.16400081
105	0xbf2567c3	-0.6461145
106	0xbf6149df	-0.88003343
107	0x3f6af399	0.9177795
108	0x3ec4184b	0.38299784
109	0xbf8c9efa	-1.0986016
110	0x3e56c1c2	0.2097235
111	0xbdad35e5	-0.08457545
112	0x3f861c2d	1.0477349
113	0x3e88056b	0.26566634
114	0x3e0c4a9c	0.13700336
115	0xbe468cb1	-0.19389607
116	0xbf191b1b	-0.59806985
117	0x3f81569f	1.010456
118	0xbf887001	-1.0659181
119	0xbf51321f	-0.81717104
120	0x3f85ff7e	1.0468595
121	0xbf491028	-0.7854028
122	0x3f33ead0	0.7028017
123	0xbe0f6fc1	-0.14007474
124	0x3e43e76b	0.19131248
125	0xbf8d7de5	-1.1054045
126	0x3f14770d	0.5799416
127	0x3d3d29e9	0.046182547
128	0xbf8da7d2	-1.106684
129	0xbdd9014b	-0.1059595
130	0xbf71fcf6	-0.9452661
131	0x3f81977b	1.0124353
132	0x3e5b1f3e	0.21398637
133	0x3e22b09d	0.15887685
134	0xbf43bb4c	-0.7645767
135	0x3f7b3a1c	0.9813554
136	0x3e5b0aa3	0.21390776
137	0x3e8c7ad0	0.27437449
138	0xbf433454	-0.7625172
139	0xbe88f516	-0.26749486
140	0x3f020610	0.507905
141	0xbed49b21	-0.41524604
142	0xbe213802	-0.15744022
143	0xbec074ce	-0.37589115
144	0xbf398307	-0.72465557
145	0x3f83bfa9	1.0292865
146	0x3eef470d	0.46733895
147	0xbf8a3410	-1.0797138
148	0x3f71c033	0.944339
149	0xbf9bcd0d	-1.2171952
150	0xbf379067	-0.71704715
151	0xbf2e04cf	-0.6797609
152	0x3f13c378	0.57720137
153	0x3ee4c8a8	0.4468434
154	0xbf727bc1	-0.94720083
155	0x3e362f1c	0.17791408
156	0xbf268667	-0.6504883
157	0x3f506864	0.8140929
158	0x3e22e64a	0.15908161
159	0xbf13e9e5	-0.5777877
160	0xbf35f6fc	-0.71079993
161	0xbe3d1998	-0.18466794
162	0x3f118718	0.5684676
163	0x3ed0dfc0	0.40795708
164	0xbd0f7b3c	-0.035029635
165	0xbf58c652	-0.8467761
166	0xbf788507	-0.97077984
167	0x3f139336	0.576465
168	0xbe81f3e0	-0.25381374
169	0x3f81fb18	1.0154753
170	0xbf591662	-0.8479978
171	0x3f8f5a6c	1.119947
172	0xbf07631f	-0.5288562
173	0xbf66fded	-0.9023121
174	0xbf257456	-0.6463064
175	0x3f7f71e3	0.9978315
176	0xbf1f59c8	-0.6224637
177	0xbf1719ce	-0.5902375
178	0x3f09dfc4	0.53857064
179	0x3ecb27cb	0.39678797
180	0xbe9a82c3	-0.30177888
181	0xbf772f43	-0.9655649
182	0xbf807b75	-1.0037676
183	0xbed0e81c	-0.40802085
184	0xbdf7bb85	-0.120963134
185	0xbe42cc00	-0.19023132
186	0xbe8fece3	-0.28110418
187	0x3e289b95	0.164656
188	0xbdcd2140	-0.100161076
189	0xbf3fb7a3	-0.7488958
190	0xbe920dd2	-0.2852617
191	0xbf4c6118	-0.79835653
192	0x3e8ab5cd	0.27091828
193	0x3dd71762	0.10502507
194	0xbf0dc8a5	-0.55384284
195	0xbe5e8bd1	-0.21733023
196	0x3f3d67a1	0.7398625
197	0x3ef14cd6	0.47128934
198	0xbf50dc9f	-0.8158664
199	0x3f62000e	0.88281333
200	0x3f36a867	0.7135071
201	0xbe9f52ac	-0.3111776
202	0xbf827d73	-1.0194534
203	0xbf7174df	-0.94318956
204	0x3ef5cf3e	0.48009676
205	0x3f2d5a28	0.6771569
206	0x3e5929e5	0.21207388
207	0x3f8eb129	1.1147815
208	0xbebff78b	-0.37493548
209	0x3f1da35d	0.615774
210	0x3e836eb1	0.25670388
211	0x3e7b95da	0.24568883
212	0xbf2c4991	-0.67299753
213	0xbf10b6c1	-0.5652886
214	0xbf91fbe3	-1.1404995
215	0xbec0baa3	-0.37642393
216	0xbe42fcfb	-0.19041817
217	0xbea7385b	-0.32660183
218	0x3f74af4d	0.9557999
219	0x3f07481d	0.5284441
220	0xbf51056d	-0.81648904
221	0xbf8e9a1f	-1.1140784
222	0x3f9491e3	1.1607021
223	0x3f3e06c3	0.7422907
224	0xbf19eeb7	-0.60129875
225	0xbe588401	-0.21144105
226	0x3e01623b	0.12635128
227	0x3f631656	0.88705957
228	0xbea07603	-0.31340036
229	0xbeb7f287	-0.3592722
230	0xbf092040	-0.53564835
231	0xbf98709c	-1.1909366
232	0xbe0711e4	-0.13190418
233	0xbe921278	-0.28529716
234	0x3f751d6c	0.9574802
235	0x3d37ea42	0.04490114
236	0xbec6b756	-0.3881175
237	0xbec27dd1	-0.37986615
238	0xbf919caf	-1.1375941
239	0xbf6ee102	-0.93312085
240	0xbe4013d7	-0.18757568
241	0x3f02e0ee	0.51124465
242	0xbf265367	-0.6497101
243	0xbf897e1b	-1.0741609
244	0x3f47bc3b	0.7802159
245	0xbf95166b	-1.1647466
246	0xba098c60	-0.0005247053
247	0xbf03f6e4	-0.515486
248	0x3f44d6ef	0.7689046
249	0x3f94a211	1.1611959
250	0xbf3e6cb3	-0.7438461
251	0x3f8183cb	1.0118345
252	0xbf60cab2	-0.8780929
253	0xbf04553d	-0.51692563
254	0x3dd3e2bc	0.103459805
255	0xbf667e45	-0.9003642

cons_embedding.1.bias f4 [64]
0	0xbeead4f8	-0.45865607
1	0x3ea86368	0.3288834
2	0x3ea9c040	0.33154488
3	0x3efff0f0	0.49988508
4	0x3eb1ed53	0.34751377
5	0x3e434d24	0.19072396
6	0xbec385c6	-0.38188
7	0x3e3e229d	0.18567891
8	0xbd47b37f	-0.048755165
9	0xbc836876	-0.016041022
10	0xbe99c148	-0.30030274
11	0xbecd88e2	-0.40143496
12	0xbee6e90a	-0.4509967
13	0xbed5d967	-0.41767427
14	0xbca1ad48	-0.019735947
15	0xbe742696	-0.23842844
16	0x3e6daf10	0.23211312
17	0xbe246977	-0.16055857
18	0xbdf06dc2	-0.11739685
19	0xbe47b730	-0.19503474
20	0x3e816ff8	0.25280738
21	0xbe994eba	-0.29942876
22	0xbecc1c4d	-0.39865342
23	0x3d7b03bd	0.061282862
24	0xbedde1d7	-0.43336365
25	0x3d5bb800	0.053642273
26	0x3ec65207	0.38734457
27	0x3e82650b	0.25467715
28	0x3d33109b	0.043717008
29	0x3e72f502	0.23726276
30	0x3e05147c	0.12996095
31	0xbecafbbd	-0.39645186
32	0x3efd354b	0.49454722
33	0x3ebb5ab1	0.3659263
34	0xbe7b7187	-0.24555026
35	0xbea0224f	-0.31276175
36	0xbd6091a8	-0.05482641
37	0x3ec6c5ad	0.3882269
38	0xbe9ebf22	-0.31005198
39	0x3dc39e22	0.09551646
40	0x3ea10dfa	0.31455976
41	0xbeece0e5	-0.4626533
42	0xbef40271	-0.47658113
43	0xbeb78515	-0.3584372
44	0x3e59ce6a	0.21270147
45	0xbe92bb6c	-0.28658617
46	0xbee5f338	-0.44912124
47	0x3e2d6d65	0.16936262
48	0xbe833229	-0.25624207
49	0x3eefeb5b	0.4685925
50	0x3ef1f7bb	0.47259316
51	0xbe03dcdd	-0.12877221
52	0xbe71fc0f	-0.23631309
53	0x3d4d82ef	0.050173696
54	0xbea4f2d5	-0.32216516
55	0x3e91ec2e	0.28500503
56	0xbeb62dc4	-0.3558179
57	0x3e385fc6	0.18005285
58	0x3edd2b33	0.4319702
59	0xbe96262a	-0.29325992
60	0x3e8916c9	0.26775196
61	0x3ee820a2	0.45337397
62	0xbe9ad672	-0.30241734
63	0xbe0ec385	-0.13941772

cons_embedding.3.weight f4 [64, 64]
0	0x3dcc11aa	0.09964307
1	0x3e6dd29c	0.23224872
2	0xbdb62b86	-0.0889502
3	0xbe37128d	-0.1787817
4	0x3db6ba5c	0.08922264
5	0xbe4c050f	-0.19923805
6	0x3e46824f	0.19385646
7	0xbe848572	-0.2588306
8	0xbdf2c789	-0.118544646
9	0x3d8b84e6	0.06812458
10	0xbe96f38f	-0.29482695
11	0xbe301bb1	-0.17198063
12	0xbe95f9a1	-0.29292014
13	0x3d1e1b38	0.038600177
14	0xbd332eca	-0.043745793
15	0xbe173154	-0.14764911
16	0x3dfaa2df	0.122380964
17	0xbe96420a	-0.2934726
18	0xbdb6960c	-0.08915338
19	0x3e798d60	0.24370337
20	0xbe62b8fb	-0.22140877
21	0x3e79707a	0.24359313
22	0x3e936a44	0.28792012
23	0x3d5768cc	0.052590176
24	0xbe8d587d	-0.27606574
25	0xbe8e2086	-0.27759188
26	0x3e96a757	0.29424545
27	0xbe6a1713	-0.22860365
28	0xbd11002d	-0.03540056
29	0x3d8686ef	0.06568705
30	0x3cd8b7b6	0.026454788
31	0x3e98b978	0.29829
32	0xbe13a8dd	-0.14419885
33	0xbe88fecb	-0.26756892
34	0x3e89e82b	0.26934943
35	0xbd7cf36a	-0.061755575
36	0x3e818352	0.25295502
37	0xbe83368d	-0.25627556
38	0xbe01eff4	-0.12689191
39	0x3d007509	0.031361613
40	0x3e008f5a	0.12554684
41	0x3d033207	0.03203013
42	0x3ddf6d9f	0.109095804
43	0x3e3db0d9	0.18524493
44	0xbdc87bb2	-0.09789218
45	0x3dcabc1c	0.0989916
46	0x3d02222b	0.031770866
47	0xbe17bcc2	-0.14818099
48	0x3ca5c033	0.02023325
49	0xbe00abe3	-0.1256557
50	0xbe7b9c1d	-0.24571271
51	0x3e0b6c47	0.13615523
52	0xbe6b00f3	-0.22949581
53	0x3db09c1a	0.08623524
54	0xbe8bda70	-0.27315092
55	0x3d6e2859	0.058143947
56	0x3a9b26a8	0.0011837082
57	0xbdac86e4	-0.08424166
58	0xbc98a153	-0.018631613
59	0x3dc626b2	0.09675349
60	0xbc12729b	-0.008938457
61	0x3e65706d	0.22406168
62	0x3e552a78	0.20816982
63	0x3e077270	0.13227248
64	0x3cdb5d76	0.026777964
65	0x3e051a4c	0.12998313
66	0xbe725d68	-0.23668444
67	0x3e7d92c1	0.24763013
68	0xbe1bbb9e	-0.15208289
69	0x3e08db9c	0.13365024
70	0x3d4cddaa	0.050016083
71	0xbe33a34c	-0.17542762
72	0x3d2cc68b	0.042181533
73	0xbe09ab8a	-0.13444343
74	0x39e899a3	0.00044364957
75	0xbe65977d	-0.2242107
76	0x3e7ab9cc	0.24484938
77	0xbe173031	-0.14764477
78	0xbbda4a52	-0.0066616917
79	0x3e7754fa	0.2415351
80	0xbe638628	-0.22219145
81	0x3e86a2c4	0.26296055
82	0xbcbb0cd0	-0.022833258
83	0xbe25a98d	-0.1617796
84	0x3e978f1c	0.2960137
85	0xbcf582d4	-0.02996961
86	0xbe035a8d	-0.12827511
87	0x3d96a315	0.07355324
88	0x3e068020	0.13134813
89	0xbe71ae9b	-0.23601763
90	0x3e04aa9d	0.12955709
91	0x3e3db14f	0.18524669
92	0xbe8b5ec0	-0.27220726
93	0x38bde1e3	9.054297e-05
94	0x3e4ef4de	0.20210597
95	0xbd839f28	-0.06426841
96	0x3e68f620	0.22750139
97	0x3dc28661	0.09498287
98	0x3e29c960	0.16580725
99	0x3e8ccfd9	0.27502325
100	0x3e943012	0.28942925
101	0x3e25741b	0.16157572
102	0xbe2223ff	-0.15834044
103	0x3e8f3221	0.27967933
104	0xbe2f5044	-0.17120463
105	0xbe97c74c	-0.2964424
106	0xbc3eecb2	-0.011653112
107	0x3e86c785	0.26324096
108	0x3e96c352	0.29445893
109	0xbe907b62	-0.28219134
110	0x3e8293d6	0.25503415
111	0xbd46b70c	-0.04851441
112	0x3df5cf79	0.12002463
113	0x3e0c7887	0.13717853
114	0x3e976493	0.2956892
115	0x3e8b63ef	0.2722468
116	0x3d710da4	0.0588509
117	0xbe38c21b	-0.18042795
118	0x3c82ac64	0.015951343
119	0xba82bed9	-0.000997509
120	0x3c2348d1	0.009966091
121	0xbde1be84	-0.11022666
122	0x3e9a4c73	0.3013645
123	0x3e95f5eb	0.29289183
124	0xbe695a1f	-0.22788285
125	0x3e0b1534	0.13582307
126	0xbe5c3f7a	-0.2150859
127	0xbe874bff	-0.26425168
128	0xbdd055db	-0.10172626
129	0x3e2fea0f	0.1717913
130	0xbdafb61b	-0.08579656
131	0xbe1dadf6	-0.15398392
132	0xbcdf43d3	-0.02725402
133	0xbd892ad0	-0.06697619
134	0xbaa2f3e8	-0.0012432309
135	0x3e4afdcc	0.19823378
136	0x3e9238bc	0.2855891
137	0x3c3d06a5	0.011537229
138	0x3e9be1b6	0.3044564
139	0x3e4f9566	0.20271835
140	0x3e0d35b0	0.13790011
141	0xbded3a59	-0.115833946
142	0x3e6668a1	0.2250085
143	0x3d3f1bdb	0.046657424
144	0xbc7953ca	-0.015217731
145	0x3d8a404b	0.06750544
146	0xbd0caeb1	-0.034346286
147	0x3e8b50e5	0.27210155
148	0x3cdfae5c	0.02730482
149	0x3e6a0187	0.22852145
150	0xbe3c40aa	-0.18384042
151	0xbd774210	-0.060365736
152	0x3e598109	0.2124063
153	0xbe052125	-0.13000925
154	0xbda15401	-0.078773506
155	0x3e23ddf0	0.16002631
156	0xbddf59f4	-0.10905829
157	0xbd8245cc	-0.06360969
158	0xbdb88ef5	-0.09011642
159	0xbc96f32f	-0.018426506
160	0xbe8b1eb6	-0.27171868
161	0xbe3f0365	-0.18653639
162	0x3d73f7fe	0.059562676
163	0xbe92f8f3	-0.28705558
164	0xbe9ac5e0	-0.30229092
165	0x3e0419d5	0.12900479
166	0xbd28550d	-0.041096736
167	0xbe4f7480	-0.20259285
168	0x3e93a692	0.2883802
169	0xbca0549a	-0.019571591
170	0xbe0b95ea	-0.13631406
171	0xbdba686c	-0.09101948
172	0x3c3a908c	0.011387002
173	0x3c1fa32b	0.009743492
174	0x3d52095c	0.051278457
175	0xbd6c4c39	-0.05768988
176	0xbc698ea4	-0.0142552
177	0xbaac49a9	-0.0013144511
178	0x3e908398	0.28225398
179	0xbe1bbdc0	-0.15209103
180	0xbbefd047	-0.0073185298
181	0xbe9044b9	-0.2817743
182	0xbe9b490e	-0.30329174
183	0x3e996082	0.29956442
184	0x3d0bba59	0.03411326
185	0xbe83aa38	-0.25715804
186	0xbe926863	-0.28595266
187	0xbe70e153	-0.23523454
188	0x3c6a1162	0.014286371
189	0x3cbed883	0.0232966
190	0x3e3c22aa	0.18372598
191	0xbe4ec6a7	-0.20192967
192	0xbe044314	-0.12916213
193	0xbdc4e358	-0.09613675
194	0xbd5a7567	-0.05333462
195	0xbbfff3ba	-0.007811037
196	0x3e463017	0.19354282
197	0xbc890a71	-0.016728612
198	0xbe1fe1e1	-0.1561351
199	0x3e3c29be	0.18375298
200	0x3e99a465	0.30008236
201	0xbdef54bf	-0.11686086
202	0xbe6672d2	-0.22504738
203	0x3e870ae7	0.26375505
204	0xbe3f6158	-0.18689477
205	0x3e8796b8	0.26482177
206	0xbe1f9352	-0.15583542
207	0x3cbbbbaf	0.022916643
208	0x3e5c53ad	0.21516295
209	0xbe228235	-0.15869983
210	0x3db5714c	0.088595
211	0x3e53b504	0.2067452
212	0x3daedd2c	0.08538279
213	0x3dcf5f2f	0.10125577
214	0x3d1408e9	0.03614131
215	0x3e196a25	0.14981897
216	0xbe89c959	-0.2691143
217	0xbe3f1c41	-0.18663122
218	0xbe56e530	-0.20985866
219	0xbdd33909	-0.10313613
220	0x3d953053	0.07284608
221	0x3d842f33	0.06454315
222	0xbb0e21aa	-0.0021687546
223	0x3e922ced	0.285499
224	0x3e1826d5	0.14858563
225	0x3dce573f	0.100752346
226	0xbd540f8d	-0.051772643
227	0x3e466cbe	0.1937742
228	0x3dd8a8ed	0.10579095
229	0xbe9405fc	-0.28910816
230	0x3db149fb	0.08656689
231	0x3db5297f	0.088458054
232	0x3d963abf	0.07335424
233	0xbd6b5d97	-0.0574623
234	0x3e95718d	0.29188195
235	0x3e169c11	0.14707972
236	0xbe4d0aa8	-0.20023596
237	0x3c891dd8	0.016737863
238	0x3dbb84e1	0.09156204
239	0xbe8c4544	-0.27396595
240	0x3d64064d	0.05567007
241	0xbdf4e1ae	-0.119571075
242	0x3e55bdf3	0.20873241
243	0x3e32f156	0.17474875
244	0x3e18b769	0.14913715
245	0x3e7bbddc	0.24584144
246	0x3e7bde15	0.24596436
247	0xbe5070e1	-0.2035556
248	0x3e82c1cd	0.25538483
249	0x3daef29d	0.085423686
250	0xbe8d5eeb	-0.2761148
251	0xbd83a0e8	-0.06427175
252	0x3e01ce0e	0.1267626
253	0xbdbf7fcd	-0.09350548
254	0xbe885b64	-0.26632226
255	0xbc6a91bb	-0.014316971

cons_embedding.3.bias f4 [64]
0	0xbc6565ec	-0.014001351
1	0xbd655084	-0.05598499
2	0x3d869867	0.06572037
3	0x3da49f46	0.080381915
4	0x3dfe1b37	0.124075346
5	0xbdd949d6	-0.10609786
6	0xbdf7d2e5	-0.12100772
7	0x3d818771	0.063246615
8	0x3cfe0282	0.031007055
9	0x3da20234	0.079105765
10	0x3de3a87a	0.11116119
11	0xbdcfa11c	-0.10138151
12	0xbdb7d640	-0.08976412
13	0x3dd8d767	0.1058796
14	0x3dfb1fd8	0.12261933
15	0x3d50f574	0.051015332
16	0x3da7df52	0.08196892
17	0x3e00dfba	0.12585345
18	0x3d2d9dfa	0.042386986
19	0x3d5abd43	0.05340315
20	0xbddbb28e	-0.10727416
21	0xbd4dfeb2	-0.050291725
22	0x3c29071b	0.0103166355
23	0xbbfaaa41	-0.0076496904
24	0xbd9c01cb	-0.076175295
25	0x3d680428	0.05664459
26	0xbdbedc58	-0.09319371
27	0x3dd8f9d2	0.105945244
28	0x3d9c23ec	0.07624039
29	0xbd749feb	-0.059722822
30	0x3dd4bf6a	0.10388072
31	0xbcd94d5e	-0.02652615
32	0x3dd3f98b	0.10350331
33	0x3da1fe4c	0.079098314
34	0xbd39ff48	-0.04540947
35	0x3cbfb6dc	0.023402624
36	0x3c6d1acd	0.014471722
37	0xbdb44ddb	-0.08803912
38	0x3d94c1ee	0.07263552
39	0xbdbe1430	-0.09281194
40	0x3dfad776	0.12248127
41	0xbd91f8d3	-0.071275376
42	0xbd831e89	-0.064023085
43	0xbd20b7b0	-0.039237678
44	0x3d472016	0.048614584
45	0x3ddc8568	0.10767633
46	0xbcd9b7d2	-0.02657691
47	0xbd71e533	-0.059056472
48	0x3df840db	0.12121745
49	0x3d9dfa3b	0.07713743
50	0x3d922ad9	0.07137079
51	0xbcf08dd8	-0.029364511
52	0xbc7b4387	-0.015335924
53	0xbdc14dfc	-0.094387025
54	0xbcea00f0	-0.0285649
55	0x3d82eb5a	0.06392546
56	0xbdc521b5	-0.0962557
57	0xbd8861c7	-0.066592745
58	0xbd5dd0db	-0.05415426
59	0xbc890c03	-0.01672936
60	0x3d86bbb1	0.06578768
61	0x3d1c43f4	0.038150743
62	0x3dc34682	0.09534933
63	0xbd3ebb32	-0.046565242

var_embedding.0.weight f4 [7]
0	0x3f8008ac	1.0002646
1	0x3f8068c0	1.0031967
2	0x3f801305	1.0005804
3	0x3f7fd3d8	0.9993262
4	0x3f7fbc81	0.9989701
5	0x3f7f8887	0.998177
6	0x3f8006d0	1.0002079

var_embedding.0.bias f4 [7]
0	0x38ab8645	8.178925e-05
1	0x3b029c9b	0.001992977
2	0x390e1be3	0.00013552564
3	0x3a5556ab	0.000813822
4	0x3a80f2fb	0.0009838039
5	0x3ab8da01	0.0014103056
6	0x3acc34ee	0.0015579739

var_embedding.1.weight f4 [64, 7]
0	0x3e70f027	0.23529111
1	0xbf06e1c7	-0.5268826
2	0x3e6ec93e	0.23318955
3	0xbd8e5f3c	-0.06951758
4	0x3f2c08ad	0.6720074
5	0xbe10f7c7	-0.1415702
6	0xbf633d55	-0.8876546
7	0xbdec2514	-0.115305096
8	0xbf1f565a	-0.6224114
9	0xbf051746	-0.5198864
10	0xbf0810c4	-0.5315058
11	0xbf2cb350	-0.6746111
12	0xbf4cd132	-0.80006707
13	0x3ece8dcb	0.40342554
14	0xbdf139a9	-0.11778576
15	0xbf5fc7d7	-0.87414306
16	0x3e0100c0	0.12597942
17	0x3ead9539	0.3390291
18	0x3de287f7	0.110610895
19	0x3f13fd67	0.57808536
20	0xbbd1b4f2	-0.006399744
21	0xbebafe82	-0.365223
22	0x3ef3ab10	0.47591448
23	0xbcfbe8f8	-0.030750737
24	0x3ec01f2f	0.3752379
25	0x3f62a475	0.8853219
26	0x3efae5f4	0.49003565
27	0xbdca45dd	-0.098766066
28	0x3f1a9013	0.6037609
29	0xbc86fede	-0.016478952
30	0xbe3a2388	-0.18177617
31	0xbebb7328	-0.36611295
32	0x3e12a2cc	0.14319915
33	0x3f068f3f	0.52562326
34	0xbec3e1f2	-0.3825832
35	0x3f192ccb	0.59833974
36	0x3f169819	0.5882583
37	0x3f5ca744	0.8619273
38	0xbeb0ae65	-0.34508052
39	0x3e6b856a	0.23000112
40	0x3f1c9c24	0.6117575
41	0x3f2359f3	0.63809127
42	0xbf11c53b	-0.56941575
43	0xbe3c54fa	-0.18391791
44	0xbe9c1703	-0.30486307
45	0xbea6b717	-0.3256156
46	0x3f00ec5b	0.5036065
47	0xbf2bb076	-0.67066133
48	0xbf139b40	-0.5765877
49	0x3e67403c	0.22583097
50	0x3e1f87a7	0.15579091
51	0x3f207128	0.6267266
52	0xbe29663d	-0.16542907
53	0x3ea22d71	0.31675294
54	0x3d0fdbcd	0.035121728
55	0x3f36ec00	0.7145386
56	0x3da01dbf	0.078181736
57	0x3eb5e919	0.35529402
58	0xbe8d1d76	-0.2756154
59	0xbe235a37	-0.15952383
60	0xbddb724c	-0.1071516
61	0x3ea8e234	0.3298508
62	0x3f1f19ae	0.6214856
63	0x3f171b53	0.5902607
64	0x3f5e5352	0.86845887
65	0x3d9f299d	0.07771609
66	0xbf089031	-0.5334502
67	0x3dddeae9	0.10835821
68	0xbf0a18a6	-0.5394386
69	0x3f253693	0.645364
70	0x3f625f12	0.88426316
71	0x3f5c99eb	0.8617236
72	0xbdc0d566	-0.094157025
73	0x3d2f66ed	0.042822767
74	0x3f2206af	0.6329145
75	0x3ef3e47d	0.4763526
76	0xbc8ab9f5	-0.016934374
77	0xbf3c45a9	-0.7354379
78	0xbf382fc9	-0.71947914
79	0xbf63ba76	-0.8895639
80	0x3ebb52b3	0.36586532
81	0x3dc9a184	0.0984526
82	0x3f0da4ca	0.55329573
83	0x3f5ffd0b	0.8749549
84	0x3f19b92d	0.6004818
85	0xbe2c7b2e	-0.16843864
86	0x3e4eb2d6	0.20185408
87	0xbf24c72e	-0.64366424
88	0xbf255b46	-0.645924
89	0xbf5d6084	-0.86475396
90	0x3d5cb0e5	0.053879637
91	0x3c9c2807	0.019062055
92	0x3ef12b96	0.47103566
93	0xbf4b7420	-0.7947407
94	0x3c253e94	0.010085721
95	0x3f3c593c	0.7357366
96	0x3f68be28	0.90915155
97	0xbc11e994	-0.008905787
98	0x3e999168	0.2999375
99	0xbf185603	-0.59506243
100	0xbf0cdeaf	-0.5502729
101	0xbe7aa3d0	-0.24476552
102	0x3f19c5a9	0.6006723
103	0xbe7cb0ad	-0.24676771
104	0xbf0bff04	-0.54686
105	0x3f670fe1	0.90258604
106	0xbd178bbe	-0.036998503
107	0xbe973cdf	-0.29538628
108	0xbd338bfc	-0.04383467
109	0x3f1f75dc	0.62289214
110	0xbf471a0f	-0.7777414
111	0xbf6c82f2	-0.92387307
112	0x3f2e76d7	0.68150085
113	0x3dde6c7c	0.108605355
114	0x3ec974d2	0.3934694
115	0x3f679297	0.90458053
116	0xbe175727	-0.1477934
117	0xbeaac4ee	-0.3335337
118	0x3e83d742	0.25750166
119	0x3d90273b	0.070387326
120	0xbf656e45	-0.8962138
121	0xbe415e80	-0.18883705
122	0x3f476f55	0.77904254
123	0xbe0ee2d3	-0.13953714
124	0x3f2e2a56	0.6803335
125	0xbf64c488	-0.8936238
126	0xbef249c9	-0.4732192
127	0x3f3b7d85	0.732384
128	0x3f323154	0.6960652
129	0x3f264d26	0.6496147
130	0xbd87439b	-0.066046916
131	0xbf01859c	-0.50594497
132	0x3d92c208	0.07165915
133	0x3f393f4a	0.72362196
134	0x3ea6a8ec	0.32550752
135	0x3e02190b	0.12704866
136	0xbeea6a63	-0.45784292
137	0xbf28d8eb	-0.6595599
138	0xbf4a239c	-0.78960586
139	0xbd9b410a	-0.075807646
140	0x3f3c1aaa	0.73478186
141	0xbf0d72e0	-0.5525341
142	0x3f1f29b2	0.62172997
143	0x3f5b00b4	0.8554795
144	0x3f6a2994	0.91469693
145	0xbf30fb87	-0.691338
146	0xbf211b68	-0.62932444
147	0x3d0cb747	0.034354474
148	0x3f430662	0.76181614
149	0xbf1f4d3e	-0.6222724
150	0x3f23a5aa	0.6392466
151	0x3e8ac589	0.27103832
152	0xbe0990ab	-0.13434093
153	0x3d345cc5	0.044033784
154	0xbd828c47	-0.06374412
155	0x3f37febf	0.71873087
156	0xbf14275d	-0.57872564
157	0x3eb3a24b	0.35084757
158	0xbf601a75	-0.8754037
159	0xbf6924e7	-0.91071934
160	0xbf3e89ed	-0.7442921
161	0x3efa8cb5	0.48935476
162	0xbf14aaa0	-0.58072853
163	0x3dcf96c8	0.10136181
164	0xbf1f9c81	-0.6234818
165	0x3f10abb8	0.5651202
166	0x3ec9761e	0.3934793
167	0xbe94f87d	-0.29095832
168	0x3f19781f	0.59948915
169	0x3ec4f093	0.38464794
170	0x3f5d9ad2	0.8656436
171	0x3f19281e	0.5982684
172	0xbf37d087	-0.7180256
173	0x3ea30883	0.3184243
174	0xbf4fc78a	-0.8116385
175	0x3d1780e7	0.036988165
176	0x3c8ab3c6	0.016931426
177	0xbf150339	-0.5820804
178	0xbe5f4165	-0.2180229
179	0x3ec29529	0.38004425
180	0xbf3645d0	-0.71200275
181	0x3d9cd92f	0.07658612
182	0xbe1feaf9	-0.15616979
183	0x3f33e39c	0.7026918
184	0x3f010001	0.5039063
185	0x3f595a3e	0.84903324
186	0xbece2382	-0.40261465
187	0x3ed55ffd	0.41674796
188	0x3e963965	0.29340664
189	0x3f6292ec	0.88505435
190	0xbc681337	-0.014164737
191	0xbdd56f61	-0.104216345
192	0xbed3c979	-0.4136465
193	0x3e83d74a	0.2575019
194	0xbf39bf26	-0.72557294
195	0xbe608505	-0.21925743
196	0x3f1f72c0	0.6228447
197	0xbf11097e	-0.5665511
198	0x3d3cb9f6	0.046075784
199	0x3f2ec7ab	0.6827342
200	0xbeddd903	-0.4332963
201	0xbf4b7001	-0.7946778
202	0xbedfb3dc	-0.4369191
203	0xbed4537b	-0.4146994
204	0x3f57f75f	0.84361833
205	0xbe6ce67f	-0.23134802
206	0xbe634189	-0.22192968
207	0x3ef8cba3	0.48592862
208	0x3f3bf837	0.7342562
209	0xbe9040ea	-0.28174525
210	0x3f3430b2	0.70386803
211	0x3ef17fbf	0.47167775
212	0xbd815bd6	-0.063163444
213	0x3e8cf7d6	0.27532834
214	0x3eae8eff	0.34093472
215	0xbf63ba84	-0.88956475
216	0xbe2ad1aa	-0.16681543
217	0xbee3967a	-0.44450742
218	0x3f171ed4	0.59031415
219	0x3f6956d3	0.9114811
220	0x3f1cf3d0	0.6130953
221	0x3f566ad0	0.8375673
222	0x3f17af0d	0.5925148
223	0x3e64ba5d	0.22336717
224	0xbd58444e	-0.052799515
225	0xbe1bc66d	-0.15212412
226	0x3f4b7dff	0.7948913
227	0x3f38f3b3	0.72246855
228	0xbd1b0b05	-0.037852306
229	0xbcde148b	-0.027109405
230	0x3ec56cb6	0.38559502
231	0x3f6638b9	0.899303
232	0x3f27fccf	0.6562013
233	0xbdec3905	-0.11534313
234	0xbc912f97	-0.017722888
235	0xbf3ef064	-0.74585557
236	0xbf261468	-0.6487489
237	0xbf0864da	-0.5327889
238	0xbcbaabab	-0.022786936
239	0xbe4f0c7f	-0.2021961
240	0xbf5c6f1f	-0.8610706
241	0xbf0256e2	-0.5091382
242	0xbe27373b	-0.16329663
243	0x3f4b63ad	0.7944897
244	0xbef9785f	-0.48724648
245	0xbf115daa	-0.56783545
246	0x3ee013f5	0.43765226
247	0x3eee9010	0.46594286
248	0x3e8e8d29	0.27842072
249	0x3f0e2662	0.5552732
250	0xbd4e1d68	-0.050321013
251	0x3f34388a	0.7039877
252	0xbf258a34	-0.64664006
253	0xbef11fcb	-0.4709457
254	0xbd6a6300	-0.05722332
255	0x3f251d89	0.6449819

var_embedding.1.bias f4 [64]
0	0x3d8d7bfc	0.06908414
1	0xbe449b14	-0.19199783
2	0x3e769f1e	0.24084136
3	0x3e97c885	0.29645172
4	0x3e1cc27e	0.15308568
5	0x3eb36b5a	0.3504284
6	0x3ea97db1	0.33103707
7	0x3eb86a09	0.36018398
8	0x3e8cba48	0.2748587
9	0x3e6e1952	0.23251846
10	0x3eb2c6a6	0.34917182
11	0xbd9dc3af	-0.07703339
12	0x3e89505b	0.2681912
13	0x3e85cd32	0.26133114
14	0x3eaf74ba	0.34268743
15	0xbea9c54c	-0.33158338
16	0xbe6a9cbd	-0.22911353
17	0x3e47776f	0.19479154
18	0x3e54ab2d	0.20768423
19	0x3e62405a	0.2209486
20	0xbdfae0aa	-0.122498825
21	0xbea981d6	-0.3310687
22	0xbe79c3ae	-0.24391052
23	0xbeae8e3f	-0.340929
24	0xbebf15bd	-0.37321272
25	0x3e1b7da0	0.15184641
26	0xbe908345	-0.2822515
27	0xbda704a6	-0.081551835
28	0x3eb8304f	0.35974357
29	0xbea6a557	-0.3254802
30	0xbea6fd28	-0.32615018
31	0xbea41c25	-0.32052723
32	0xbe211a23	-0.15732627
33	0xbd076bbe	-0.033061735
34	0x3d97843d	0.07398269
35	0x3e194b54	0.14970142
36	0xbdcdf7cc	-0.10057029
37	0xbe267b7d	-0.16258045
38	0x3e5992ce	0.21247408
39	0x3c5a9c9f	0.013343005
40	0x3ebba7a2	0.3665133
41	0x3ea28807	0.31744406
42	0x3e885b69	0.2663224
43	0x3e2d3a14	0.16916686
44	0xbe87aaa3	-0.26497373
45	0x3eaaf654	0.33391058
46	0x3e4d9006	0.20074472
47	0xbe83d7f2	-0.2575069
48	0x3e92aae7	0.28646013
49	0x3d338069	0.043823633
50	0x3e862f37	0.26207897
51	0x3c241aab	0.010016124
52	0x3ea47840	0.32122993
53	0x3eba0dab	0.36338553
54	0xbeb4def7	-0.3532636
55	0x3e139076	0.14410576
56	0x3eb8f7b9	0.36126497
57	0xbe716793	-0.23574667
58	0xbe98af1b	-0.29821095
59	0xbe88cc11	-0.2671819
60	0x3e9e525c	0.3092221
61	0xbe339742	-0.17538169
62	0x3ec09cb6	0.3761956
63	0xbd125a4e	-0.035730653

var_embedding.3.weight f4 [64, 64]
0	0xbde3daff	-0.111257546
1	0x3dc81e63	0.09771421
2	0x3e38f82a	0.18063417
3	0x3e96ab07	0.29427359
4	0xbd442e45	-0.04789569
5	0xbe288809	-0.16458143
6	0xbe890cd9	-0.26767614
7	0x3db41f57	0.0879504
8	0x3db1d9d6	0.08684127
9	0x3c7aeb79	0.01531493
10	0xbc7eadc4	-0.015544359
11	0xbdaff0df	-0.085908644
12	0x3e85ca3d	0.26130858
13	0x3dd818a7	0.10551577
14	0xbe714453	-0.2356122
15	0xbe938102	-0.28809363
16	0x3e1f6c65	0.15568693
17	0xbe48bf1c	-0.19604152
18	0x3e72e5a7	0.23720418
19	0xbd90ba08	-0.07066733
20	0xbe2b5551	-0.16731764
21	0xbe9c2978	-0.30500388
22	0x3c70e0cf	0.014702036
23	0xbcdbc071	-0.026825162
24	0xbc7431c6	-0.014904445
25	0x3e343cfc	0.17601389
26	0x3e80756b	0.25089583
27	0x3d933d10	0.07189381
28	0x3db2cfdc	0.08731052
29	0x3e4106d4	0.18850261
30	0x3e78864d	0.24269982
31	0x3df65362	0.12027623
32	0xbe952729	-0.2913144
33	0x3d97240e	0.07379924
34	0xbe827d22	-0.25486094
35	0x3e3eb22a	0.18622652
36	0x3ddad129	0.106844254
37	0x3e1e3b84	0.15452391
38	0xbb9129d3	-0.0044300347
39	0xbe8cd1eb	-0.27503905
40	0x3e873e8c	0.26414907
41	0x3e94b9fc	0.29048145
42	0xbdaa76fa	-0.08323474
43	0xbe2d43c2	-0.16920379
44	0x3d1c8580	0.038213253
45	0x3e933397	0.28750297
46	0x3d992c8a	0.07479198
47	0x3e884193	0.2661253
48	0xbdddf2d7	-0.10837334
49	0x3e5fd60f	0.21859
50	0x3cb06085	0.0215304
51	0xbe7bac2f	-0.24577402
52	0x3e9c741d	0.30557337
53	0xbdf7f3ea	-0.1210707
54	0xbe2790ef	-0.16363882
55	0x3e73aee1	0.2379718
56	0x3d979961	0.074023016
57	0x3d6f8744	0.05847861
58	0xbe4a7ba3	-0.19773726
59	0xbd8eb05a	-0.0696723
60	0x3de344dd	0.11097119
61	0x3e41c660	0.1892333
62	0x3d92ffa7	0.07177668
63	0x3def48b6	0.116837904
64	0x3e405613	0.18782835
65	0xbdc18168	-0.094485104
66	0xbd628463	-0.055302035
67	0x3e8dab39	0.27669695
68	0x3e393097	0.18084942
69	0xbdf463af	-0.11933076
70	0x3d405fea	0.04696647
71	0x3e54aa89	0.20768179
72	0x3e714bc1	0.23564054
73	0xbbb687ca	-0.0055703865
74	0x3d813915	0.06309716
75	0xbd836929	-0.06416542
76	0xbd8b60de	-0.06805585
77	0xbe633a7e	-0.22190282
78	0x3e04253f	0.12904833
79	0xbb91ddc0	-0.0044514835
80	0x3e7fdf64	0.2498756
81	0xbe72cfcb	-0.23712079
82	0x3e40ca59	0.1882719
83	0x3ddbd9f0	0.10734928
84	0xbe47ea79	-0.19523038
85	0xbdb7aecb	-0.08968886
86	0x3e2441c8	0.16040719
87	0xbe847d47	-0.2587683
88	0xbe717b37	-0.23582159
89	0x3d4cac96	0.04996928
90	0xbe6b663f	-0.22988223
91	0x3d1ee5e2	0.038793452
92	0x3c6d62a5	0.014488851
93	0x3e8f66e1	0.28008178
94	0xbdd59cbb	-0.104302846
95	0xbe9ac163	-0.30225667
96	0xbe11dab2	-0.14243582
97	0xbd4a0068	-0.049316794
98	0x3e914a08	0.28376794
99	0x3d7d7eb7	0.061888423
100	0xbe1936fc	-0.14962381
101	0x3e48ae48	0.19597733
102	0xbbfe7058	-0.0077648573
103	0xbd0da019	-0.03457651
104	0x3de94fc7	0.113921694
105	0xbe25ca3d	-0.16190429
106	0xbe640175	-0.22266181
107	0x3e99e368	0.3005631
108	0xbc012aee	-0.00788377
109	0xbda3b436	-0.07993357
110	0xbd532e0e	-0.051557593
111	0x3e1aa96e	0.15103695
112	0xbe8f4ed8	-0.2798984
113	0x3e04f521	0.12984134
114	0xbe1565b6	-0.14589581
115	0x3caf8cbc	0.021429412
116	0xbcaddbc4	-0.021222956
117	0xbe48c44c	-0.19606131
118	0xbd93bed8	-0.07214135
119	0x3e02a680	0.12758827
120	0xbe1f15a7	-0.15535603
121	0xbe850097	-0.25977013
122	0xbdcafacd	-0.09911118
123	0xbce158c0	-0.02750814
124	0xbe46298b	-0.19351785
125	0xbdb15669	-0.086590596
126	0xbd8bfcd9	-0.06835336
127	0xbe885c37	-0.26632854
128	0x3dab7f57	0.083738975
129	0x3e349f9d	0.17639013
130	0x3e9548a7	0.29156992
131	0x3e99504d	0.29944077
132	0xbe8ba481	-0.27273944
133	0xbe91773b	-0.28411278
134	0xbe384808	-0.17996228
135	0x3d124612	0.035711356
136	0xbe808d87	-0.25107977
137	0x3e6b6034	0.22985917
138	0xbe8776d7	-0.26457855
139	0x3db8c184	0.09021285
140	0xbe74c5a8	-0.23903525
141	0x3e7ac1de	0.24488017
142	0xbd9a3a4a	-0.07530649
143	0x3e0d1ef5	0.1378134
144	0x3e2c2fa7	0.16815053
145	0x3cb98a12	0.022648845
146	0x3b767ad5	0.0037609835
147	0x3e268bcf	0.1626427
148	0x3e9aaf6c	0.3021196
149	0xbe6254da	-0.22102681
150	0x3e688134	0.22705537
151	0x3e61240a	0.21986404
152	0x3e57b558	0.21065271
153	0x3e8af548	0.2714026
154	0xbe5dcc33	-0.21659927
155	0x3e050c30	0.1299293
156	0x3e8401c7	0.25782606
157	0xbe1590aa	-0.14605966
158	0xbd27ca54	-0.04096444
159	0xbdd60bbb	-0.10451456
160	0x3e7bcfd4	0.24590999
161	0xbe7a2b30	-0.24430537
162	0xbe6b8284	-0.22999007
163	0xbdf07dfa	-0.11742778
164	0xbe7e838b	-0.24854867
165	0xbe26f7aa	-0.16305414
166	0x3e1841da	0.1486887
167	0xbe027139	-0.12738504
168	0x3e0706f3	0.13186245
169	0x3e1eb005	0.15496834
170	0xbe14c3f5	-0.14527877
171	0xbe2408d1	-0.16018988
172	0x3bbb22ca	0.0057109343
173	0xbcd0957b	-0.025461903
174	0xbe5c9821	-0.21542408
175	0xbe1fbf78	-0.15600383
176	0xbe459429	-0.192948
177	0xbe839709	-0.25701168
178	0x3e84980c	0.25897253
179	0x3e2895c1	0.16463377
180	0x3d784f61	0.060622577
181	0x3e8e0b3c	0.27742946
182	0x3df18f23	0.11794879
183	0xbe2adbd0	-0.16685414
184	0x3e144fbb	0.1448354
185	0x3e6b79a8	0.22995627
186	0xbd7939c6	-0.060846113
187	0x3d24ce9d	0.040236104
188	0x3e91cb1a	0.28475267
189	0x3dd22731	0.102613814
190	0x3e274159	0.16333522
191	0x3dfe49f4	0.12416449
192	0xbdca5e42	-0.098812595
193	0xbe9c85bf	-0.3057079
194	0xbe6c259a	-0.23061219
195	0xbe190966	-0.14944991
196	0xbe822184	-0.25416195
197	0x3d41ca60	0.04731214
198	0x3dcc3022	0.09970118
199	0x3e55cf3c	0.20879835
200	0x3e5d7bd6	0.21629271
201	0x3b9536f7	0.0045536715
202	0x3e6b7ee7	0.22997628
203	0xbe0352f9	-0.1282462
204	0xbe92387e	-0.28558725
205	0x3e35656c	0.1771447
206	0xbe48a2f2	-0.19593409
207	0x3e1c9ddc	0.15294594
208	0x3e7c1243	0.24616341
209	0xbd858146	-0.065187976
210	0xbe4942ea	-0.19654432
211	0xbe3ec54c	-0.1862995
212	0x3de923d7	0.11383789
213	0x3e942a66	0.28938597
214	0x3e00d4f5	0.12581237
215	0x3e5841a1	0.21118785
216	0xbe850ee7	-0.25987932
217	0x3cf1b78f	0.029506473
218	0xbe2ba011	-0.16760279
219	0xbe8c7859	-0.27435568
220	0xbe2e2b7c	-0.17008775
221	0xbe290234	-0.16504747
222	0x3e00423c	0.12525266
223	0x3de927a3	0.11384513
224	0xbe3f5314	-0.18684036
225	0xbe1ddd7a	-0.15416518
226	0xbe2247c7	-0.15847693
227	0xbe38a000	-0.18029785
228	0xbe87522c	-0.2642988
229	0xbdc6bb79	-0.09703726
230	0xbd033715	-0.032034952
231	0x3d3c1a39	0.045923445
232	0x3e0d0d20	0.13774538
233	0xbe25398f	-0.16135238
234	0xbe43f98c	-0.19138163
235	0xbe889033	-0.26672515
236	0x3e9acc25	0.30233875
237	0xbe8b7959	-0.27241018
238	0xbc9bd3d0	-0.019021899
239	0x3ba227eb	0.0049486062
240	0xbd9493e5	-0.07254771
241	0xbdc3bc7d	-0.09557436
242	0x3e4bebee	0.19914219
243	0x3cf17f3f	0.029479621
244	0xbc90116c	-0.017586432
245	0x3d3bae36	0.045820437
246	0xbe515648	-0.2044307
247	0xbe9a4358	-0.30129504
248	0x3e560128	0.20898879
249	0xbdbc340d	-0.091896154
250	0xbe87f93f	-0.26557347
251	0x3e7ed48f	0.24885772
252	0x3c945672	0.018107627
253	0x3e8500a2	0.25977045
254	0x3e829f13	0.2551199
255	0x3e5c730d	0.21528263

var_embedding.3.bias f4 [64]
0	0x3dbd9494	0.09256855
1	0x3cca65dc	0.024706773
2	0x3dfcf6a2	0.12351729
3	0xbdaa2d5f	-0.08309435
4	0xbc3fdae4	-0.011709902
5	0xbce2eec9	-0.027701752
6	0x3d8a53e7	0.06754284
7	0x3c08367c	0.008313771
8	0xbd3e21c2	-0.046418913
9	0xbd8783ff	-0.06616973
10	0x3cb154f2	0.02164695
11	0x3dc6bbf8	0.09703821
12	0xbd5c5eb2	-0.053801246
13	0x3d93a95a	0.072100356
14	0xbcc061d2	-0.023484144
15	0xbdd040e3	-0.10168626
16	0xbdf4ee1a	-0.11959477
17	0xbd1f0b9e	-0.03882944
18	0xbda873e8	-0.08225232
19	0xbd4e6195	-0.05038603
20	0x3cf90e41	0.030402305
21	0x3deb8f4d	0.11501942
22	0x3cf28b04	0.029607303
23	0xbd57ca79	-0.052683327
24	0x3d2d8b8a	0.042369403
25	0x38cb81fd	9.7040065e-05
26	0x3db7e916	0.089800045
27	0x3d9a8afe	0.07546042
28	0xbdfb4d73	-0.12270632
29	0xbd2e1015	-0.042495806
30	0x3d9ffcbc	0.07811877
31	0x3dd66c94	0.104699284
32	0xbddb5565	-0.10709647
33	0xbb8af275	-0.004240329
34	0xbc6efebc	-0.014587101
35	0xbdebb7e1	-0.115096815
36	0xbdc85eaa	-0.09783681
37	0xbc953c14	-0.018217124
38	0xbdf653fe	-0.12027739
39	0x3de5895c	0.1120784
40	0x3d54c6f4	0.05194755
41	0xbc15c9fe	-0.009142397
42	0x3d9817ca	0.074264124
43	0x3c8314f3	0.0160012
44	0x3dc6741a	0.09690113
45	0x3db76092	0.08953966
46	0x3c50e4d5	0.01274987
47	0x3ddedfc2	0.10882522
48	0x3da5f5c7	0.08103519
49	0xbd47a057	-0.048736896
50	0xbd9eca1b	-0.07753392
51	0x3b762df5	0.0037564014
52	0x3dad2ade	0.08455442
53	0xbba60bf0	-0.005067341
54	0x3d412c83	0.04716159
55	0x3d413559	0.047170017
56	0xbdf50eef	-0.11965739
57	0x3d5a593e	0.053307764
58	0xbcd8fb44	-0.026487
59	0xbdc1e3e5	-0.094672956
60	0x3d9fdcd2	0.0780579
61	0xbdadfce6	-0.08495502
62	0x3c981a19	0.018567132
63	0xbddb63b9	-0.1071238

conv_v_to_c.feature_module_left.0.weight f4 [64, 64]
0	0xbdd482f5	-0.103765406
1	0xbe8d4ed9	-0.27599218
2	0xbe72093e	-0.23636338
3	0x3dd777dc	0.10520908
4	0xbe8e910a	-0.2784503
5	0xbe779cda	-0.24180928
6	0xbe8777a6	-0.26458472
7	0xbda33b62	-0.07970311
8	0x3e0f8d00	0.14018631
9	0xbdd2ebf4	-0.10298911
10	0xbbc002f5	-0.0058597275
11	0x3e38c109	0.18042387
12	0x3df565ab	0.11982282
13	0xbdadd012	-0.08486952
14	0xbe06d858	-0.13168466
15	0x3e05d54b	0.13069646
16	0xbe647381	-0.22309686
17	0x3e4d1c23	0.20030265
18	0x3e8b4f8f	0.27209136
19	0xbd95ffcf	-0.07324182
20	0x3cde418a	0.02713086
21	0xbced154b	-0.028940817
22	0x3e6dfe01	0.23241426
23	0x3ccfd563	0.025370305
24	0x3e00e01b	0.1258549
25	0xbe58ff58	-0.21191156
26	0xbcce57ea	-0.025188405
27	0x3e40a139	0.18811502
28	0xbe839ae5	-0.25704113
29	0x3e85891b	0.26081166
30	0xbe9977fd	-0.29974356
31	0x3be1611a	0.0068780305
32	0xbe3d33c5	-0.1847678
33	0x3e098ea6	0.13433322
34	0x3e455c07	0.19273387
35	0x3d0806bb	0.033209544
36	0x3e8b3568	0.27189183
37	0xbe631dbb	-0.2217931
38	0x3e1ab038	0.15106285
39	0xbdb7e3fb	-0.08979031
40	0x3e36d839	0.1785592
41	0x3e506800	0.20352173
42	0x3d94c13d	0.0726342
43	0x3e9b48e3	0.30329046
44	0x3e639527	0.22224866
45	0x3da3fbe6	0.0800703
46	0xbd220d78	-0.039563626
47	0xbc0119de	-0.007879702
48	0x3e8ca6a7	0.27470896
49	0xbdd1ff0a	-0.10253723
50	0x3e66ba3d	0.22531982
51	0xbe1072e0	-0.14106321
52	0xbe963667	-0.2933838
53	0x3db0ef66	0.08639412
54	0x3dd01326	0.10159902
55	0x3d35bd28	0.044369847
56	0xbe2a5174	-0.16632634
57	0x3e88e8d2	0.26740128
58	0x3c086ba2	0.008326443
59	0x3d3cb128	0.046067387
60	0xbdc39812	-0.095504895
61	0xbe4e73c9	-0.20161356
62	0x3b639c6f	0.0034730693
63	0xbe80850d	-0.2510151
64	0xbe11391e	-0.14181945
65	0xbdbcf735	-0.092268385
66	0x3e81863d	0.25297728
67	0xbd854255	-0.065067925
68	0x3dd3d0cf	0.103425615
69	0xbe0bb0e1	-0.13641693
70	0xbe8bb387	-0.27285406
71	0xbe0edd50	-0.13951612
72	0x3e19d6fb	0.15023415
73	0xbe836037	-0.25659344
74	0xbe598dd8	-0.21245515
75	0x3e806548	0.2507727
76	0x3ce9798d	0.028500343
77	0x3e0169fc	0.12638086
78	0xbd017fe1	-0.031616095
79	0x3bfccd01	0.007714868
80	0x3e8797ae	0.2648291
81	0xbe2f7011	-0.17132594
82	0xbdd48018	-0.103759944
83	0xbe15e264	-0.14637142
84	0xbd53a209	-0.0516682
85	0xbe8252e1	-0.25453857
86	0xbe974faf	-0.2955298
87	0x3d832560	0.06403613
88	0x3e1cee44	0.15325266
89	0x3e4f659c	0.20253605
90	0xbded2fd8	-0.11581391
91	0x3e44639e	0.19178626
92	0x3d85e27b	0.06537338
93	0xbe78e441	-0.24305822
94	0xbe48e8a0	-0.1961999
95	0x3dce199e	0.1006348
96	0xbd848af3	-0.06471815
97	0xbcb20d9f	-0.02173501
98	0xbe43fbe4	-0.19139057
99	0x3e8dd87d	0.2770423
100	0x3cc0fc39	0.02355777
101	0x3d7de0d7	0.061982002
102	0x3e57d1c5	0.21076114
103	0x3e21a89d	0.15786977
104	0x3e7b9b90	0.24571061
105	0x3d2f15ed	0.04274552
106	0x3e0a190f	0.13486122
107	0x3c9e9ce9	0.01936193
108	0xbe1cf326	-0.15327129
109	0x3a68fbe3	0.00088876317
110	0xbdd57b59	-0.10423917
111	0xbcebc111	-0.028778585
112	0xbcc86ab0	-0.024464935
113	0xbe134a52	-0.1438382
114	0xbe59f6b1	-0.21285512
115	0x3e92589d	0.28583232
116	0xbe556c3a	-0.20842066
117	0xbe569d5e	-0.20958468
118	0xbdea8a22	-0.11452128
119	0x3c965080	0.018348932
120	0xbdfd8f76	-0.123808786
121	0x3e5f9926	0.21835765
122	0x3d410740	0.047126055
123	0xbe10afd8	-0.14129579
124	0xbe22ee84	-0.15911299
125	0x3cee61f5	0.029099444
126	0xbdd83e30	-0.10558736
127	0x3e299b6a	0.16563192
128	0xbe24902c	-0.16070622
129	0xbd80cafc	-0.06288716
130	0x3e1084cc	0.14113158
131	0x3e404a70	0.18778396
132	0x3e0de51a	0.13856927
133	0x3e62231f	0.2208371
134	0x3d82da60	0.06389308
135	0x3e89ca66	0.2691223
136	0xbe5c6ad7	-0.21525131
137	0xbb89a5c4	-0.004200669
138	0x3e3a0894	0.18167335
139	0x3e907724	0.28215897
140	0x3da3e1df	0.08002066
141	0x3e0a00bf	0.13476847
142	0xbe349963	-0.17636637
143	0xbdd337da	-0.10313387
144	0x3d645735	0.05574723
145	0x3e26d90a	0.16293731
146	0xbd3dea45	-0.046365995
147	0xbd36e3a5	-0.044650692
148	0xbe083d12	-0.13304546
149	0x3e0bb057	0.13641487
150	0x3e8bef9c	0.27331245
151	0xbe252b5a	-0.16129819
152	0xbe00606c	-0.12536782
153	0x3e3a450f	0.18190406
154	0x3de0e93c	0.10981986
155	0x3dde9eeb	0.10870155
156	0xbe866287	-0.26247045
157	0x3d54b910	0.0519343
158	0x3e0c3e0f	0.13695548
159	0xbe8d229f	-0.27565476
160	0xbdc876af	-0.09788262
161	0xbb67a803	-0.0035347946
162	0x3e2ae521	0.16688968
163	0xbe95e67a	-0.29277402
164	0x3e98efeb	0.29870543
165	0x3da74dc6	0.08169131
166	0xbe961c47	-0.2931845
167	0x3dfb1b15	0.12261025
168	0x3d95c801	0.07313538
169	0xbe4a32f2	-0.19745997
170	0x3dfbd307	0.1229611
171	0xbe78765e	-0.24263903
172	0xba26fa35	-0.0006369681
173	0xbe72c558	-0.23708093
174	0xbdb73d89	-0.08947284
175	0xbe8d980f	-0.27655074
176	0xbde77099	-0.11300773
177	0xbe949847	-0.29022428
178	0xbe98b922	-0.29828745
179	0xbe7f2967	-0.24918137
180	0x3e332e8c	0.17498225
181	0xbc9d8b3c	-0.019231431
182	0xbe0299e5	-0.12754019
183	0x3e17aada	0.14811268
184	0xbdd3473a	-0.1031632
185	0x3e2f625a	0.17127362
186	0x3e09e632	0.13466719
187	0xbe64471a	-0.22292748
188	0x3e24be56	0.16088232
189	0xbe2d2e6c	-0.1691224
190	0xbe21e6d1	-0.15810706
191	0x3e536c1b	0.20646708
192	0x3e68cc9f	0.22734307
193	0x3e8d8a8e	0.2764477
194	0xbe67e25c	-0.22644943
195	0xbd9d22e2	-0.07672669
196	0x3dd60fc1	0.104522236
197	0x3e80c11f	0.2514734
198	0xbe09295f	-0.13394688
199	0xbe1b91fc	-0.15192407
200	0x3c5473d0	0.012967065
201	0xbdc1e48d	-0.09467421
202	0x3e704b1f	0.23466156
203	0x3d8deab3	0.06929531
204	0xbd677bd8	-0.05651459
205	0x3d8edaf2	0.06975354
206	0xbd9c3def	-0.076290004
207	0xbe7adbec	-0.24497956
208	0x3e0b37a5	0.13595445
209	0xbdf04a40	-0.11732912
210	0xbe2c1a61	-0.16806938
211	0xbdda197d	-0.10649393
212	0xbe5fcfb8	-0.21856582
213	0xbe6a16c8	-0.22860253
214	0x3da06f97	0.07833784
215	0xbd5b53fe	-0.053546898
216	0x3e234d0c	0.1594736
217	0x3e68d2ff	0.22736739
218	0xbced8dc5	-0.028998265
219	0xbd4b99d4	-0.04970725
220	0x3e0cadac	0.13738126
221	0x3d15a2f5	0.03653236
222	0x3e354c09	0.17704786
223	0xbddf9b12	-0.10918249
224	0xbddbe46f	-0.107369296
225	0xbe3e9dc0	-0.18614864
226	0x3c14f199	0.0090908045
227	0xbe82091e	-0.2539758
228	0x3e97f021	0.2967539
229	0xbe88a000	-0.2668457
230	0x3cab00ad	0.020874346
231	0xbe69d376	-0.22834572
232	0x3d93ed0b	0.07222947
233	0x3d90549e	0.070473894
234	0x3e537770	0.2065103
235	0x3e80d96d	0.25165883
236	0x3e159a8d	0.14609738
237	0xbe87f62c	-0.26555002
238	0xbe94e127	-0.29078028
239	0xbe2cbd9d	-0.16869207
240	0xbdd95c40	-0.106132984
241	0x3db6de7b	0.089291535
242	0x3c822560	0.015886962
243	0x3e964d39	0.2935579
244	0xbd6526a2	-0.055945046
245	0xbe1b4eb0	-0.15166736
246	0xbcb6b701	-0.02230406
247	0xbe44a5a9	-0.1920382
248	0x3e849ff7	0.25903293
249	0xbe3bb46d	-0.18330546
250	0xbe9642ad	-0.29347745
251	0xbde2b9d9	-0.11070604
252	0xbe620b82	-0.22074702
253	0xbe6ebf79	-0.23315229
254	0xbe32931f	-0.17438935
255	0x3e897584	0.2684747

conv_v_to_c.feature_module_left.0.bias f4 [64]
0	0x3d7152c3	0.05891682
1	0xbd9ef79e	-0.07762073
2	0xbd9a0783	-0.07520964
3	0xbdac32cb	-0.084081255
4	0xbbcfd5c0	-0.0063426197
5	0xbd949362	-0.072546735
6	0xbcda4fcb	-0.026649376
7	0xbdb32ae4	-0.08748415
8	0x3daf9097	0.085725
9	0x3d94569b	0.07243081
10	0x3c6c3df3	0.014419067
11	0xbc71df5d	-0.014762727
12	0xbd9197db	-0.07109042
13	0xbda6d346	-0.08145766
14	0xbdbde58a	-0.09272297
15	0xbd04eaf6	-0.03245064
16	0x3c98209c	0.018570237
17	0x3d905c00	0.070487976
18	0xbd8c87fc	-0.068618745
19	0x3ddac7cb	0.10682639
20	0x3c8c43c5	0.017122159
21	0xbdd856da	-0.105634406
22	0xbdf7c888	-0.12098795
23	0xbde1b987	-0.11021715
24	0x3c3d9906	0.011572128
25	0xbda312b9	-0.079625554
26	0xbc3fa8fe	-0.011698006
27	0x3d20c23a	0.03924773
28	0x3de42b13	0.11141028
29	0x3baeac61	0.0053306078
30	0x3bc8c063	0.00612645
31	0xbdb0831a	-0.08618756
32	0xbc69255e	-0.0142301
33	0xbd5e97a9	-0.054343853
34	0xbd76a05f	-0.060211536
35	0x3de072a2	0.109593645
36	0x3dab78d1	0.08372653
37	0xbd45c354	-0.048281983
38	0xbcc1f07d	-0.023674244
39	0xbcb8baa2	-0.022549931
40	0x3d9deecb	0.07711562
41	0xbd2741da	-0.040834285
42	0xbdb24521	-0.087045915
43	0xbdad29ad	-0.08455215
44	0x3d6bf56f	0.05760711
45	0x3da0b8b7	0.078477316
46	0x3c8d6925	0.01726205
47	0xbd487fb5	-0.048949916
48	0x3d6733b3	0.05644579
49	0xbd75cdcc	-0.060010716
50	0xbde6f7d4	-0.11277738
51	0xbde50b53	-0.111838005
52	0x3d30bde6	0.04314985
53	0x3dead7f3	0.1146697
54	0x3debf02d	0.11520419
55	0x3d1e6704	0.038672462
56	0xbdad5d2a	-0.08465035
57	0xbda5085f	-0.08058237
58	0x3c7de3ca	0.015496204
59	0xbd3f034b	-0.046634
60	0x3cc45b02	0.023969177
61	0x3cfc321e	0.030785616
62	0x3c8abd14	0.016935863
63	0x3df1a1cf	0.11798441

conv_v_to_c.feature_module_edge.0.weight f4 [64, 1]
0	0xbfb3067c	-1.3986354
1	0xc01c0d99	-2.43833
2	0xc009fefd	-2.1561882
3	0xbf97d83d	-1.1862866
4	0xbeeb34d6	-0.45938748
5	0xbef036a4	-0.46916687
6	0x3e212904	0.15738302
7	0xbe677c3e	-0.22605988
8	0x3e11a3d0	0.14222646
9	0xbfa34961	-1.2756768
10	0x3f24d448	0.64386415
11	0xbf957f91	-1.1679555
12	0xbf0039d2	-0.50088227
13	0x3f65505a	0.8957573
14	0x3fa8c6c1	1.3185655
15	0x3fc9b8b1	1.5759488
16	0x4000d2df	2.0128706
17	0x3fb343c3	1.4005054
18	0xbf8ce6b6	-1.1007907
19	0xbd4fbf00	-0.05071926
20	0xba1ea171	-0.00060512783
21	0xbdeac9dc	-0.11464283
22	0x3fa822ac	1.3135581
23	0x3edf3aac	0.4359945
24	0xbe8ce518	-0.27518535
25	0xc014e055	-2.3261921
26	0xbf93e5fa	-1.1554558
27	0xbf2ba92a	-0.67055
28	0x3f5f8f35	0.8732789
29	0xbfffdff5	-1.9990221
30	0x3f1326c9	0.57481056
31	0x3f12409c	0.57129836
32	0xbfec84d8	-1.8478041
33	0xbf2c87c4	-0.6739466
34	0xbeb7d780	-0.359066
35	0xbfb2023c	-1.3906932
36	0x3f7dfed7	0.9921698
37	0xbf8e4efa	-1.1117852
38	0x400a7052	2.1631055
39	0x3ed8ff00	0.4238205
40	0xbff589bb	-1.9182657
41	0x3ebd8435	0.37014928
42	0xbe9f88d6	-0.31159085
43	0x3ff06590	1.8780994
44	0x3f9c2fb0	1.2202053
45	0x3fdee2e7	1.7412995
46	0x3f3772a1	0.71659285
47	0xbdb16f7e	-0.086638436
48	0xbe8fbb40	-0.28072548
49	0x3eda44e6	0.4263069
50	0xc01389c4	-2.3052835
51	0xc0060cf8	-2.0945415
52	0xbf3c1217	-0.734651
53	0x3f9cddf3	1.2255234
54	0x3fbc38e6	1.4704864
55	0xbf4ce5d3	-0.80038184
56	0xc0015e65	-2.0213864
57	0x4011b09f	2.276405
58	0xbf728223	-0.9472982
59	0xc00a3fb1	-2.1601374
60	0x3f821d1b	1.0165132
61	0xbf92e917	-1.1477383
62	0x40179dc1	2.3690035
63	0xbf484001	-0.7822266
