rl_model/SCPPO_value_239.pth (torch_old, 472694 bytes, 71 tensors)

cons_embedding.0.weight f4 [4]
0	0x3f7ff7e2	0.99987614
1	0x3f802342	1.001076
2	0x3f80053e	1.00016
3	0x3f7fdbfc	0.99945045

cons_embedding.0.bias f4 [4]
0	0x390cb2bf	0.00013418029
1	0xba8e4d74	-0.0010856823
2	0x39273148	0.0001594472
3	0xba16e0d6	-0.0005755549

cons_embedding.1.weight f4 [64, 4]
0	0x3ee0aa81	0.43880084
1	0xbf135e37	-0.57565635
2	0x3eff8319	0.49904707
3	0xbf4484ff	-0.76765436
4	0x3f7fc0c5	0.9990352
5	0x3dfa3599	0.12217254
6	0x3f757c74	0.95893025
7	0x3f184053	0.5947315
8	0x3ed169b5	0.4090096
9	0x3ec20316	0.3789298
10	0x3f249408	0.6428838
11	0xbe1df848	-0.15426743
12	0x3e34ac08	0.1764375
13	0xbdfb59f8	-0.122730196
14	0xbf8188ae	-1.0119836
15	0xbf3458f1	-0.70448214
16	0x3f00baf1	0.5028525
17	0x3ca205dc	0.019778185
18	0x3e960b39	0.29305437
19	0xbf635666	-0.8880371
20	0x3f2bc389	0.6709524
21	0xbe66116d	-0.22467585
22	0x3f9beeea	1.2182286
23	0x3e312576	0.17299446
24	0x3f03fcac	0.5155742
25	0xbf828843	-1.0197834
26	0x3f2f3cd2	0.6845218
27	0x3f77945c	0.96710753
28	0x3f8b3579	1.0875694
29	0x3ef62189	0.4807246
30	0xbe97ba82	-0.29634482
31	0xbf1670fb	-0.58766145
32	0xbe3706f2	-0.17873743
33	0x3f804e62	1.002392
34	0xbf240f5d	-0.6408594
35	0xbde2c089	-0.110718794
36	0x3e8c0128	0.27344632
37	0x3f3e1b06	0.74259984
38	0xbea0ae7d	-0.31383124
39	0xbec6afd5	-0.38806024
40	0x3f0c05c7	0.54696316
41	0xbf3c3803	-0.7352297
42	0x3f9b9af4	1.2156663
43	0xbf5c736c	-0.8611362
44	0x3f07cdea	0.53048575
45	0x3ecfc243	0.40577897
46	0x3f179f14	0.5922711
47	0x3e757437	0.23970114
48	0x3e61bfeb	0.22045867
49	0x3f7332c2	0.94999325
50	0x3f89e27b	1.0772241
51	0xbf450ece	-0.76975715
52	0x3c5f84df	0.013642519
53	0x3ddd39ca	0.10802038
54	0x3f00fd3c	0.50386405
55	0xbf3ed081	-0.745369
56	0x3f83f551	1.030924
57	0x3ed81637	0.4220445
58	0x3ec9f73e	0.39446443
59	0x3f5c6df5	0.8610528
60	0x3f9729b4	1.1809602
61	0xbf9852ab	-1.1900228
62	0xbe8c3fd9	-0.27392462
63	0xbf906302	-1.1280215
64	0x3e018733	0.1264923
65	0xbefe0863	-0.49615774
66	0x3dab5aa7	0.083669
67	0x3f964857	1.1740826
68	0xbee403a9	-0.44534042
69	0x3e4de258	0.20105875
70	0xbf69e3ce	-0.9136323
71	0xbf50b15d	-0.81520635
72	0xbe72a9a2	-0.23697522
73	0xbe0a6e19	-0.13518561
74	0x3f699d9a	0.91256106
75	0x3f6f92e9	0.9358354
76	0x3d8dc08e	0.069214925
77	0xbf830d3f	-1.0238417
78	0xbeae1314	-0.3399893
79	0xbf7a5024	-0.97778535
80	0xbf8abcb8	-1.0838842
81	0x3eddbb7f	0.4330711
82	0xbf7d1c99	-0.9887176
83	0x3f7d64b5	0.9898179
84	0xbdcaa79f	-0.098952524
85	0x3f53b33d	0.8269537
86	0xbe959f56	-0.29223126
87	0xbe422910	-0.18960977
88	0x3e30375d	0.1720862
89	0xbf5ef466	-0.8709167
90	0x3f0fdea3	0.5619909
91	0x3f79edd1	0.97628504
92	0xbf28ca4f	-0.659337
93	0xbf869aa9	-1.0515949
94	0xbef33589	-0.47501782
95	0xbf34d556	-0.70638025
96	0x3eea8bd0	0.45809793
97	0x3ebcf42e	0.36905044
98	0xbf1fb2d8	-0.6238227
99	0xbf8f2e62	-1.118603
100	0x3f64806d	0.8925846
101	0x3e738ba2	0.23783734
102	0xbf7b1102	-0.98072827
103	0x3ea73885	0.32660308
104	0xbf67310f	-0.9030923
105	0xbe10736e	-0.14106533
106	0xbf01a7b6	-0.5064653
107	0xbe4ea695	-0.20180734
108	0x3f90d77d	1.1315762
109	0xbe80749a	-0.2508896
110	0x3e17b1f2	0.14813974
111	0x3f2ad496	0.6673063
112	0xbe830495	-0.25589433
113	0x3e3e754c	0.18599433
114	0x3f82f806	1.0231941
115	0x3f372460	0.7153988
116	0x3f4a7115	0.790788
117	0xbf598b1e	-0.849779
118	0x3f6d8b45	0.92790633
119	0xbf4bb80d	-0.79577714
120	0x3e5e30e8	0.21698344
121	0xbcb01c4a	-0.021497864
122	0x3eafa440	0.34305
123	0x3f3a2661	0.7271481
124	0xbf713c75	-0.94232875
125	0x3f94805f	1.1601676
126	0xbf941866	-1.1569946
127	0x3f90f885	1.1325842
128	0x3ea01fab	0.3127416
129	0xbf9bb6a7	-1.2165116
130	0xbe801057	-0.25012466
131	0xbf484001	-0.7822266
132	0x3f46a9ad	0.77602655
133	0x3f970ca3	1.1800731
134	0xbe9a6375	-0.30154005
135	0xbf4275be	-0.7596091
136	0x3f2eeb5c	0.6832788
137	0xbf1462ad	-0.5796307
138	0x3f30f469	0.6912294
139	0x3c91e831	0.017810913
140	0x3ca17153	0.019707358
141	0x3d9b1b95	0.0757362
142	0x3e8a1b91	0.26974156
143	0xbefe19b9	-0.49629
144	0x3e59bdc7	0.212638
145	0xbe9d4ffd	-0.3072509
146	0x3d2580f3	0.04040618
147	0xbe3190a7	-0.17340337
148	0xbf4579ca	-0.7713896
149	0xbefec098	-0.49756312
150	0xbf7a8150	-0.97853565
151	0x3f5ce070	0.86279964
152	0xbe788f3d	-0.24273391
153	0xbe8609eb	-0.26179442
154	0xbefcffe8	-0.4941399
155	0xbf840388	-1.0313578
156	0xbf8e3bf5	-1.1112047
157	0xbed0edd1	-0.4080644
158	0xbea050f6	-0.31311768
159	0x3d973b5b	0.07384368
160	0xbf135f48	-0.5756726
161	0xbf676275	-0.9038461
162	0x3f6ef973	0.9334938
163	0xbf1af496	-0.6052946
164	0xbf6357b7	-0.8880572
165	0x3dd56915	0.104204334
166	0x3efd4f2b	0.49474463
167	0xbf3009d6	-0.6876501
168	0xbf13cf09	-0.57737786
169	0xbf815544	-1.0104146
170	0xbf860c0b	-1.0472425
171	0x3f3ac1ba	0.72951853
172	0xbef77a39	-0.48335436
173	0xbf4c2620	-0.79745674
174	0x3f2cab20	0.67448616
175	0xbf269fe0	-0.650877
176	0x3f243ff3	0.6416008
177	0x3eb386b5	0.3506371
178	0xbd9891e8	-0.074497044
179	0x3da350f7	0.07974427
180	0x3f4aa34d	0.7915543
181	0xbec043fb	-0.37551865
182	0x3f8c35aa	1.0953877
183	0x3aafa537	0.0013400678
184	0x3f97c826	1.1857955
185	0x3f0e35a7	0.55550617
186	0xbe87be0f	-0.2651219
187	0xbe93ee18	-0.2889259
188	0x3f1beab5	0.6090501
189	0x3f7e4280	0.9932022
190	0xbf82e478	-1.0225973
191	0x3f837bfd	1.0272213
192	0xbee3db75	-0.4450337
193	0x3f8f9560	1.1217461
194	0x3f4a2026	0.78955305
195	0xbf584006	-0.8447269
196	0x3f4cdbe8	0.8002305
197	0xbf6379fd	-0.88858014
198	0xbe7675d0	-0.2406838
199	0xbf98e812	-1.1945822
200	0xbf4dde62	-0.80417454
201	0x3f27f8cc	0.6561401
202	0x3f8a6aa2	1.0813792
203	0xbf99233a	-1.1963875
204	0x3e4ea18d	0.20178814
205	0x3f7bd77c	0.9837568
206	0x3eff8dba	0.49912816
207	0x3f8a12be	1.078697
208	0x3c8c9c16	0.017164271
209	0xbf85f451	-1.0465184
210	0x3f62bd10	0.88569736
211	0x3f73c821	0.9522725
212	0xbe09f55c	-0.13472503
213	0xbeef9fc0	-0.46801567
214	0x3e970343	0.29494676
215	0xbf3eaa4c	-0.744786
216	0x3e641e35	0.22277148
217	0x3e4a76aa	0.19771829
218	0xbf8b3f69	-1.0878726
219	0x3f3402f2	0.70316994
220	0x3f3006aa	0.6876017
221	0xbeed3a80	-0.46333694
222	0x3ed124cb	0.40848383
223	0x3ded06dc	0.11573574
224	0xbe7aeba2	-0.2450395
225	0xbe7db2f1	-0.24775292
226	0xbf0f51b4	-0.55984044
227	0x3ec20be5	0.378997
228	0xbf345c41	-0.7045327
229	0xbf3586c0	-0.7090874
230	0xbf087ec9	-0.5331846
231	0x3f6eeed2	0.9333316
232	0x3d70476e	0.05866187
233	0xbf8c8758	-1.0978804
234	0x3f87e209	1.0615855
235	0x3dd74fbf	0.10513257
236	0x3e7741a9	0.24146141
237	0x3f06e7af	0.5269727
238	0x3f58196d	0.84413797
239	0xbecde215	-0.4021155
240	0xbde06f64	-0.10958746
241	0xbe41480d	-0.18875141
242	0x3ef038ce	0.4691834
243	0xbf831033	-1.0239319
244	0xbf8c1383	-1.0943455
245	0x3f764e5f	0.96213335
246	0xbf1271ac	-0.572047
247	0xbe858ce8	-0.26084065
248	0x3f0df61a	0.55453646
249	0x3e983cc3	0.29733858
250	0xbe3985e7	-0.18117486
251	0xbf4b7a89	-0.7948385
252	0xbf404f87	-0.7512135
253	0x3d151319	0.036395166
254	0xbde18c58	-0.110130966
255	0xbf9b6852	-1.2141211

cons_embedding.1.bias f4 [64]
0	0x3ec8afef	0.39196727
1	0x3e69875c	0.22805542
2	0xbbb7194c	-0.0055877324
3	0x3da75d07	0.081720404
4	0xbe891d3e	-0.26780123
5	0xbd94039f	-0.07227253
6	0xbebc11d9	-0.36732367
7	0xbe68a4e7	-0.22719155
8	0xbee430c5	-0.44568458
9	0xbd3966f0	-0.045264184
10	0xbefd29ab	-0.49445853
11	0xbee3912e	-0.444467
12	0xbe3ee526	-0.186421
13	0xbeaf08d5	-0.34186426
14	0x3dee612a	0.11639626
15	0x3e4e1282	0.20124248
16	0x3e840831	0.257875
17	0x3e985f34	0.29760134
18	0x3df4af44	0.11947492
19	0xbe8f1d2c	-0.27951944
20	0xbedeac5d	-0.43490878
21	0x3e6ab03c	0.2291879
22	0xbc74a257	-0.014931283
23	0x3e46586c	0.19369668
24	0x3e7af5bd	0.24507804
25	0x3d97f261	0.07419277
26	0xbd220fa0	-0.039565682
27	0xbee57e9d	-0.4482316
28	0xbeacda73	-0.33760414
29	0x3e8246e2	0.25444704
30	0xbef9d202	-0.48793036
31	0xbe1a7273	-0.15082721
32	0xbd5f870d	-0.054572154
33	0x3e9f5947	0.311228
34	0xbd2065a7	-0.039159443
35	0xbe65c289	-0.2243749
36	0x3e48cb84	0.19608885
37	0xba905676	-0.0011012095
38	0xbe523268	-0.20527041
39	0xbea12e08	-0.31480432
40	0xbeb691a1	-0.3565798
41	0xbe163be5	-0.14671285
42	0x3effa85b	0.49933133
43	0xbe7c0a75	-0.24613364
44	0x3ec7afee	0.3900141
45	0x3e36a422	0.17836049
46	0x3dacfad1	0.08446277
47	0xbc9f28ac	-0.019428574
48	0xbe90b0bb	-0.28259835
49	0x3cd65a16	0.026166003
50	0xbe6a0b4e	-0.22855875
51	0x3eb432bb	0.35194954
52	0x3ec675c4	0.38761723
53	0xbeb7ff05	-0.35936752
54	0xbe19192f	-0.14951013
55	0x3e8f4d8d	0.27988854
56	0xbd19b6d2	-0.037527867
57	0xbdf3ba00	-0.11900711
58	0xbed84a03	-0.42243966
59	0x3e906a73	0.28206214
60	0x3df1a484	0.11798957
61	0xbe8f2bbc	-0.27963054
62	0x3ebeabc8	0.37240434
63	0x3c1db3e5	0.00962541

cons_embedding.3.weight f4 [64, 64]
0	0xbd8f5b86	-0.069998786
1	0x3df3a697	0.11897009
2	0xbe47ac20	-0.19499254
3	0x3ce7212b	0.028214058
4	0x3de38fc6	0.11111407
5	0xbdc4c4b9	-0.09607834
6	0xbe81f53f	-0.2538242
7	0xbdb3f7bf	-0.08787488
8	0x3e750a95	0.23929818
9	0x3e1004f1	0.14064385
10	0x3d832229	0.06403
11	0xbe4a8abd	-0.19779487
12	0x3d87b2e3	0.06625917
13	0x3af1d2f1	0.0018449706
14	0xbe69bb85	-0.2282544
15	0xbd298d5e	-0.041394584
16	0xbe221500	-0.15828323
17	0xbde3b1df	-0.111179106
18	0x3e072fb0	0.13201785
19	0xbe7e5f4e	-0.24841043
20	0x3e9a8074	0.30176127
21	0x3de41944	0.111376315
22	0xbd949eff	-0.072568886
23	0x3e53bfe7	0.20678674
24	0x3dc241aa	0.09485181
25	0x3e963d9a	0.29343873
26	0x3dcb774c	0.099348634
27	0xbde97a39	-0.11400265
28	0xbde7af1b	-0.113126956
29	0x3e99b3b6	0.3001992
30	0xbda5d834	-0.08097878
31	0x3e9c515d	0.30530825
32	0x3e2a8ac3	0.16654496
33	0x3e00cbc9	0.12577738
34	0xbdd85673	-0.10563364
35	0x3e45a921	0.19302799
36	0xbd78732f	-0.060656723
37	0xbb892729	-0.0041855765
38	0xbc1be53f	-0.009515106
39	0x3d059d09	0.032620464
40	0xbd0fe659	-0.035131786
41	0xbe310be6	-0.17289695
42	0xbe689ea3	-0.22716765
43	0x3e2ff309	0.17182554
44	0xbe97c0bf	-0.2963924
45	0x3e463ab2	0.19358328
46	0xbcdb6e5b	-0.02678602
47	0xbc48bde8	-0.012252308
48	0xbc1928f6	-0.009348145
49	0x3e5910db	0.21197836
50	0x3dcc8e10	0.09988034
51	0xbe1ba8ca	-0.15201107
52	0x3e873d23	0.2641383
53	0x3d88a62c	0.0667232
54	0xbe5740a1	-0.21020748
55	0xbce8bf93	-0.028411662
56	0xbde97f6b	-0.11401256
57	0xbe91f0ee	-0.28504127
58	0x3d4de739	0.05026934
59	0xbe1ac870	-0.15115523
60	0xbe3e6825	-0.18594415
61	0x3e4a2175	0.19739325
62	0xbe176e0a	-0.1478807
63	0xbe43069f	-0.19045494
64	0xbc80b037	-0.015709026
65	0xbe908871	-0.28229097
66	0xbe35fb42	-0.17771628
67	0x3e182816	0.14859042
68	0xbe317995	-0.17331536
69	0xbe6d5634	-0.23177415
70	0x3d8798d5	0.06620947
71	0xbdcd126f	-0.100132816
72	0x3d995b10	0.07488072
73	0xbe4ee2e3	-0.20203738
74	0x3cbcb198	0.023033902
75	0x3e23d1bf	0.1599798
76	0xbe352102	-0.17688373
77	0xbdcf0541	-0.10108424
78	0x3d9337d9	0.071883865
79	0xbdaf587e	-0.085618004
80	0x3e294ab3	0.16532402
81	0xbe2c6e99	-0.16839065
82	0xbd09d48d	-0.03364997
83	0xbe838112	-0.2568441
84	0xbe06d5ec	-0.13167542
85	0xbe5a50fa	-0.21319953
86	0x3a3f22dd	0.0007291267
87	0x3e269fa7	0.1627184
88	0xbe972f88	-0.2952845
89	0x3e611a8f	0.21982788
90	0x3e87e4bc	0.26541698
91	0xbe3a6b2e	-0.18204948
92	0xbd6212a3	-0.055193555
93	0xbe896e25	-0.26841846
94	0x3d12c420	0.03583157
95	0x3dcc9835	0.09989969
96	0x3d7dd2b0	0.061968505
97	0x3e7ea063	0.2486587
98	0x3e5ed79f	0.2176194
99	0xbdc604e6	-0.09668903
100	0xbe77972b	-0.2417876
101	0x3db96ea6	0.09054308
102	0x3d17061b	0.036871057
103	0xbd397114	-0.045273855
104	0x3cc1fafd	0.02367925
105	0xbe934740	-0.28765297
106	0x3ddfba96	0.1092426
107	0x3d109a63	0.035303485
108	0x3e5eb77f	0.21749686
109	0xbbbc62d3	-0.0057490855
110	0x3d310251	0.0432151
111	0xbe0bfc2c	-0.13670415
112	0x3e2a6edf	0.16643856
113	0xbdaa5a4a	-0.083180025
114	0x3e40e4b6	0.18837246
115	0x3e444172	0.1916559
116	0x3dee8b1f	0.11647629
117	0xbe9b5510	-0.30338335
118	0x3e8da3a4	0.2766391
119	0x3dc1ce29	0.0946315
120	0x3e50d7f6	0.20394883
121	0x3e170c96	0.14750895
122	0x3df54702	0.11976434
123	0x3e86cfb3	0.26330337
124	0xbcb2606c	-0.021774493
125	0x3b2d8f03	0.0026482947
126	0xbe96469f	-0.29350755
127	0xbe3cf98b	-0.18454568
128	0xbd3d09af	-0.046151813
129	0x3dc349b7	0.09535544
130	0x3cb0067a	0.021487463
131	0xbdb26922	-0.08711459
132	0xbe70db61	-0.23521186
133	0x3d68bbab	0.0568196
134	0xbdbc547b	-0.09195801
135	0xbe633ee7	-0.22191964
136	0x3da9b091	0.082856305
137	0xbe31f017	-0.17376743
138	0xbc1d88d4	-0.009615142
139	0xbca93528	-0.02065523
140	0x3d823713	0.06358161
141	0xbe3cca90	-0.18436646
142	0x3e517a31	0.20456769
143	0xbe700b23	-0.23441748
144	0x3e98706f	0.2977328
145	0x3e884251	0.26613095
146	0xbdcb09ba	-0.099139646
147	0xbe97d698	-0.2965591
148	0x3e43d241	0.19123174
149	0xbe92440d	-0.28567544
150	0xbd9d5134	-0.07681504
151	0x3d02d447	0.031940725
152	0xbe41b3d9	-0.18916263
153	0xbe9a9f5e	-0.30199713
154	0x3e7cad86	0.24675569
155	0xbd38ddf1	-0.045133535
156	0x3e6c1549	0.23054995
157	0x3df30cae	0.11867653
158	0x3e60ff72	0.21972445
159	0xbe8dadb8	-0.276716
160	0xbe74ae31	-0.23894574
161	0x3d9d0c49	0.07668359
162	0xbe79219c	-0.24329227
163	0x3bb65a4f	0.005564965
164	0x3d409299	0.047014806
165	0xbe58426b	-0.21119086
166	0xbe3032f6	-0.1720694
167	0x3e4b5e65	0.19860227
168	0xbdfe8379	-0.1242742
169	0x3e098293	0.13428716
170	0x3e867e18	0.26268077
171	0xbe8f8115	-0.2802817
172	0xbe9c5feb	-0.3054193
173	0xbe29655a	-0.16542569
174	0xbe9b7b99	-0.30367735
175	0xbe3fe5c0	-0.18739986
176	0x3dc5fdaa	0.09667523
177	0xbe8d3e18	-0.27586436
178	0x3e20bb40	0.1569643
179	0x3e6240d3	0.22095041
180	0x3e7b079c	0.24514621
181	0x3d71f321	0.059069756
182	0xbbb75da5	-0.00559588
183	0x3e77dec1	0.24206068
184	0xbe2e8d15	-0.17046006
185	0x3e9955a3	0.29948148
186	0xbd8cd54a	-0.06876619
187	0xbd4ad671	-0.049520914
188	0xbe04d9f0	-0.12973762
189	0xbe59c4e2	-0.21266511
190	0x3e96c2b7	0.2944543
191	0xbda1e77f	-0.079054825
192	0xbcd393f7	-0.025827391
193	0xbe8a42e1	-0.2700415
194	0x3e761c44	0.2403422
195	0x3e8e31fd	0.27772513
196	0x3d30bd46	0.043149255
197	0xbc947eba	-0.018126834
198	0x3d88177e	0.06645106
199	0x3dae2665	0.08503417
200	0xbdd17d36	-0.1022896
201	0x3e913ce7	0.28366777
202	0xbe24b67d	-0.16085239
203	0x3e5af035	0.21380694
204	0xbe3614db	-0.17781393
205	0xbdb22213	-0.086979054
206	0x3bc9f57d	0.0061632977
207	0xbe49fefb	-0.19726174
208	0x3ba2e3bf	0.004970997
209	0x3d97c51a	0.07410641
210	0xbe272745	-0.16323574
211	0x3d159947	0.03652313
212	0xbe464159	-0.19360866
213	0x3e50c716	0.20388445
214	0xbe848c60	-0.25888348
215	0x3e0f15e0	0.13973188
216	0xbe86f344	-0.26357472
217	0x3dcd243c	0.10016677
218	0xbe4e83b8	-0.20167434
219	0xbd096626	-0.033544682
220	0x3e4c563c	0.19954771
221	0x3e17738e	0.14790174
222	0x3e8cf583	0.2753106
223	0x3d8488e0	0.06471419
224	0x3e83dc34	0.2575394
225	0xbe62486e	-0.22097942
226	0x3db897d3	0.09013333
227	0x3e9396bd	0.28825942
228	0xbde5e91d	-0.112261035
229	0xbe803db3	-0.25047073
230	0xbd18f15a	-0.037339546
231	0xbe3788da	-0.17923298
232	0xbe693f7e	-0.22778127
233	0x3e8b47a3	0.27203092
234	0x3e8ca075	0.2746617
235	0x3e141dc5	0.14464481
236	0x3e2944c4	0.16530138
237	0x3e9704d9	0.29495886
238	0x3e93aa78	0.28840995
239	0xbcb1a6f4	-0.021686055
240	0xbd81416d	-0.06311307
241	0x3d6f78be	0.058464758
242	0xbd77f14f	-0.060532864
243	0xbd0ce127	-0.03439441
244	0xbdc7335f	-0.09726595
245	0xbdca9dbe	-0.09893368
246	0xbe6fb74b	-0.23409764
247	0x3c559a19	0.013037228
248	0x3e9a0ffc	0.3009032
249	0x3d294530	0.041325748
250	0x3e173329	0.1476561
251	0x3e0eb02f	0.13934396
252	0x3e4161e9	0.18885006
253	0xbdc6a011	-0.09698499
254	0x3e8872e6	0.2665016
255	0xbe22d527	-0.15901624

cons_embedding.3.bias f4 [64]
0	0xbd1d1c70	-0.0383572
1	0xbdad8f1f	-0.08474564
2	0x3ca3b2ff	0.019982813
3	0xbd2964b9	-0.041355822
4	0xbdf84454	-0.121224076
5	0x3d5b373b	0.05351947
6	0xbcaf0e42	-0.021369103
7	0xbde31127	-0.11087256
8	0xbdbcf502	-0.09226419
9	0xbd26bed3	-0.040709328
10	0xbd84032a	-0.06445916
11	0x3ccdee80	0.02513814
12	0x3d5e0551	0.05420429
13	0xba88a645	-0.0010425529
14	0x3d9c426e	0.07629858
15	0xbdf8567e	-0.12125872
16	0xbd091b7e	-0.033473484
17	0x3c4c0dda	0.012454474
18	0xbdeca0d5	-0.11554114
19	0xbc455e25	-0.012046372
20	0x3d73152a	0.059346355
21	0xbb94c013	-0.0045394986
22	0xbd9dab22	-0.076986566
23	0xbdc7bb02	-0.09752466
24	0xbd2c9b4d	-0.042140294
25	0xbc77549e	-0.015095858
26	0x3dd405a5	0.10352639
27	0x3dd01ac5	0.10161356
28	0x3d477881	0.048698906
29	0xbdeae165	-0.11468772
30	0x3b88b439	0.004171875
31	0xbda618a1	-0.08110166
32	0x3db486f3	0.08814802
33	0xbda1d1c6	-0.07901339
34	0x3d1204d5	0.03564914
35	0xbc2804ce	-0.010255052
36	0xbd8a15d1	-0.067424424
37	0x3c036b0c	0.008021127
38	0x3df66076	0.12030117
39	0xbd8d9502	-0.069131866
40	0x3dbc60c3	0.09198143
41	0x3b2dcbe6	0.0026519238
42	0x3da83144	0.08212522
43	0xbc0c9641	-0.008580745
44	0x3c8cc76d	0.017184937
45	0xbdab914e	-0.08377324
46	0x3d6567e3	0.056007277
47	0x3cf46861	0.029834928
48	0x3d970292	0.07373537
49	0x3cc188e6	0.023624849
50	0xbd8bb2f7	-0.06821244
51	0x3dc4907e	0.09597872
52	0xbd68b709	-0.05681518
53	0x3c360459	0.011109435
54	0xb815a00a	-3.5673416e-05
55	0xbdb7dba8	-0.08977443
56	0xbd6ca896	-0.057777964
57	0xbdd0a0cb	-0.10186919
58	0x3ddc43bc	0.10755107
59	0xbdb4d858	-0.08830327
60	0xbdf3677c	-0.118849725
61	0xbdee566c	-0.116375774
62	0xbc6dbcd1	-0.014510349
63	0xbdf16d6d	-0.117884494

var_embedding.0.weight f4 [7]
0	0x3f80081a	1.0002472
1	0x3f800698	1.0002012
2	0x3f7f7813	0.99792594
3	0x3f8019ee	1.0007913
4	0x3f7fa95f	0.99867815
5	0x3f80084e	1.0002534
6	0x3f7f99a6	0.99843824

var_embedding.0.bias f4 [7]
0	0xb86e14b9	-5.676292e-05
1	0xb90e2611	-0.00013556356
2	0xbb099f9e	-0.002099968
3	0xba2e8b55	-0.00066583353
4	0x3a67a356	0.00088362896
5	0xb95ea3d9	-0.00021232608
6	0x3a3684be	0.0006962529

var_embedding.1.weight f4 [64, 7]
0	0xbf213203	-0.62966937
1	0x3d84b9ca	0.06480749
2	0x3e97bf90	0.29638338
3	0x3ecd13b7	0.40054104
4	0xbf131996	-0.57460916
5	0xbe4d3be5	-0.20042379
6	0xbece83aa	-0.40334827
7	0xbebddbe1	-0.37081817
8	0x3f1ea8ba	0.61976206
9	0x3c10a85f	0.008829205
10	0x3c911fc3	0.01771534
11	0xbf2ea953	-0.6822712
12	0xbf3fa6b9	-0.74863774
13	0xbe9dcd0c	-0.308205
14	0xbf0fbef9	-0.56150776
15	0xbef948cf	-0.4868836
16	0xbf685361	-0.90752226
17	0xbe52d42e	-0.20588753
18	0x3f5d9892	0.8656093
19	0xbeffce97	-0.49962303
20	0xbe94d906	-0.29071826
21	0xbd4ff5d8	-0.050771564
22	0xbe3cb5dd	-0.1842875
23	0xbf141e83	-0.5785906
24	0x3e6995cb	0.22811048
25	0xbf44b759	-0.76842266
26	0xbccf2e92	-0.025290761
27	0xbea72865	-0.32648006
28	0x3d52cea5	0.051466603
29	0xbf56992a	-0.8382746
30	0x3f0830bb	0.53199357
31	0x3c53984a	0.0129147265
32	0xbf52eb5f	-0.823904
33	0xbc68471a	-0.014177108
34	0xbe9e2c04	-0.30892956
35	0xbf63cc96	-0.8898405
36	0x3f03fe1c	0.51559615
37	0xbf35102d	-0.7072781
38	0xbf549107	-0.83033794
39	0x3d1480bd	0.036255587
40	0x3e56cc92	0.20976475
41	0xbea0a54d	-0.31376114
42	0x3eb4f3dc	0.353423
43	0xbe5bf0d3	-0.21478586
44	0x3e8b7c56	0.27243298
45	0x3f6c386a	0.9227358
46	0xbec07df7	-0.37596104
47	0x3e02a3f2	0.12757853
48	0x3f1229b8	0.5709491
49	0xbd6aab55	-0.0572923
50	0xbf35e94f	-0.71059126
51	0xbe92107d	-0.28528205
52	0x3f0935b2	0.5359756
53	0x3f22cbf2	0.63592446
54	0x3e3cf38e	0.18452284
55	0x3ec078b1	0.3759208
56	0x3f3de58e	0.741784
57	0x3f0a9c3b	0.5414464
58	0x3e8c055b	0.27347836
59	0xbdf16142	-0.117861286
60	0x3eb5bed0	0.3549714
61	0x3ebf2557	0.37333176
62	0xbe19d941	-0.15024282
63	0xbf122c0e	-0.5709847
64	0x3f08bf2e	0.5341672
65	0xbe36a3fc	-0.17835993
66	0x3f1ee07b	0.6206128
67	0xbe990c4c	-0.29892194
68	0xbef403f5	-0.4765927
69	0xbf4d54b2	-0.8020736
70	0xbb9be2fd	-0.0047572837
71	0x3daa7fd8	0.083251655
72	0xbf33791a	-0.7010666
73	0x3e71a0b1	0.23596455
74	0x3e9d3ff8	0.30712867
75	0x3d9caf87	0.07650667
76	0x3eea13d8	0.45718265
77	0xbe192b16	-0.14957842
78	0x3e07a195	0.13245232
79	0x3f3ad487	0.7298054
80	0x3f34c1cb	0.70608205
81	0xbf569038	-0.8381381
82	0xbf00d273	-0.5032112
83	0x3c3330e9	0.010936954
84	0x3f630b07	0.886887
85	0x3f13f28b	0.57791966
86	0xbdc921bc	-0.098208874
87	0x3b9391b8	0.004503455
88	0xbf66de26	-0.9018272
89	0xbe91e8f8	-0.28498054
90	0x3ef51fc1	0.4787579
91	0xbdaeeef9	-0.08541674
92	0xbeae222d	-0.3401045
93	0xbf0a6d36	-0.5407289
94	0xbf2602d3	-0.6484806
95	0x3e8e2a4c	0.27766645
96	0xbef538e7	-0.47894976
97	0xbec0b2b4	-0.3763634
98	0xbf299eda	-0.66258013
99	0x3f0f521b	0.5598466
100	0xbf6a0c36	-0.9142488
101	0xbecfbbc9	-0.40572956
102	0x3f3ac466	0.7295593
103	0xbf1e8a3e	-0.6192969
104	0xbf678893	-0.9044277
105	0xbe783e5e	-0.24242541
106	0x3f34e278	0.70658064
107	0x3f431e02	0.76217663
108	0xbea5ba49	-0.32368687
109	0x3f2a77c8	0.6658902
110	0xbf3d53bf	-0.7395591
111	0x3d91f847	0.07127433
112	0xbf2da546	-0.6783031
113	0x3f4950fc	0.786392
114	0xbf348327	-0.7051262
115	0x3e4425cb	0.19155042
116	0xbeec9f5f	-0.4621534
117	0xbdabf553	-0.08396401
118	0x3e8969e1	0.26838592
119	0xbda5898e	-0.08082877
120	0x3e765f08	0.24059689
121	0x3e45e5ae	0.19325897
122	0xbf1ba701	-0.608017
123	0xbf1e089c	-0.61731887
124	0x3e6f77fc	0.23385614
125	0xbe211f08	-0.15734494
126	0xbec79241	-0.3897877
127	0x3f020f56	0.5080465
128	0xbe29b183	-0.16571622
129	0x3eace599	0.3376892
130	0xbf0c15a8	-0.54720545
131	0xbf231e77	-0.6371836
132	0x3ee05aa4	0.43819153
133	0xbe8a22fb	-0.26979813
134	0x3f3e0b0e	0.7423562
135	0xbcc30295	-0.023804942
136	0xbf411c7d	-0.75434095
137	0xbf3a1425	-0.7268699
138	0x3f537918	0.8260665
139	0xbe839886	-0.25702304
140	0x3f18c79c	0.5967958
141	0xbf1558c1	-0.5833855
142	0x3f336566	0.70076597
143	0x3f504492	0.8135463
144	0xbe10074d	-0.14065285
145	0xbf0ab5ce	-0.5418366
146	0xbecae285	-0.39625946
147	0xbf44b168	-0.768332
148	0xbf241d18	-0.64106894
149	0xbe924a3f	-0.2857227
150	0xbda64b95	-0.08119885
151	0x3f5fff32	0.8749877
152	0xbdebf7b0	-0.11521852
153	0xbf10c587	-0.565514
154	0x3f495307	0.78642315
155	0x3e29bc2e	0.16575691
156	0x3e1257ac	0.14291257
157	0xbf46eb61	-0.7770291
158	0x3d49cbac	0.049266502
159	0x3d5e9062	0.054336913
160	0x3eca768e	0.39543575
161	0xbf0c9a37	-0.54922813
162	0xbf38425c	-0.71976256
163	0xbe945d80	-0.28977585
164	0xbeca2a1c	-0.39485252
165	0xbeabd2e0	-0.33559322
166	0x3ef8779b	0.48528752
167	0x3f1bde62	0.60886204
168	0x3b99f775	0.0046986886
169	0x3ebdf1f7	0.37098667
170	0xbe3348fb	-0.17508309
171	0x3ec813d8	0.3907764
172	0xbeacc11f	-0.3374109
173	0x3d9d604b	0.07684382
174	0x3e494dd6	0.19658598
175	0x3e8537de	0.26019186
176	0xbf686179	-0.9077373
177	0x3f633bde	0.88763225
178	0xbe88f087	-0.26746008
179	0xbf31ed5f	-0.69502825
180	0xbd553a28	-0.052057415
181	0x3ec5d7e3	0.3864127
182	0x3f6417cf	0.8909883
183	0xbf64e237	-0.89407676
184	0xbe9a42fe	-0.30129236
185	0x3dac1ed0	0.084043145
186	0x3f510be1	0.8165875
187	0x3ed25650	0.41081476
188	0xbd99c5c1	-0.07508422
189	0x3db86b48	0.09004837
190	0x3f46d7ec	0.7767322
191	0xbf3b01c0	-0.73049545
192	0x3e6e3f04	0.23266226
193	0xbf533051	-0.824956
194	0x3f4a8ff7	0.7912592
195	0x3f0a2a48	0.53970766
196	0x3f068807	0.5255131
197	0xbedd685a	-0.43243676
198	0x3e242f71	0.16033722
199	0x3e4f32cb	0.2023422
200	0x3f2347c8	0.63781404
201	0xbe486c4c	-0.19572562
202	0x3f59fe3e	0.8515357
203	0xbf4964d2	-0.78669465
204	0x3f5c2747	0.8599743
205	0xbf5dedc1	-0.8669091
206	0x3ede0e55	0.4337031
207	0x3ed3c2af	0.4135947
208	0x3f48e41e	0.7847308
209	0x3b8606fd	0.0040901885
210	0x3f2ca9df	0.674467
211	0xbc7d211d	-0.015449789
212	0x3f28f215	0.6599439
213	0x3f374f2c	0.7160518
214	0x3f074d82	0.5285264
215	0xbf5ccceb	-0.8625018
216	0x3e8d6c2c	0.2762159
217	0x3f23d39c	0.63994765
218	0x3e9e8e13	0.3096777
219	0xbf2da4d2	-0.6782962
220	0xbf33c6ff	-0.7022552
221	0x3f4a1793	0.7894222
222	0xbda2cfe5	-0.07949809
223	0x3f539350	0.82646656
224	0x3ed73479	0.4203222
225	0x3f3d60cd	0.7397583
226	0xbebf334b	-0.3734382
227	0x3f4881ef	0.7832326
228	0x3f4a3ffa	0.7900387
229	0xbefc9097	-0.49329063
230	0x3f437f34	0.7636597
231	0xbeb9fc2c	-0.36325204
232	0xbee31d84	-0.44358456
233	0xbeaf79f4	-0.3427273
234	0x3d791ccf	0.06081849
235	0x3eac2bd4	0.33627188
236	0xbec47252	-0.3836847
237	0x3e8b2646	0.27177638
238	0xbe27040c	-0.16310138
239	0xbf5f28de	-0.87171733
240	0xbdf4e960	-0.11958575
241	0x3ea1e41f	0.31619355
242	0xbf2e1430	-0.67999554
243	0x3f4f2250	0.8091173
244	0xbed1ee08	-0.41001916
245	0x3d8a11aa	0.067416504
246	0x3e08120c	0.13288134
247	0x3f4b311f	0.7937183
248	0xbeed59bf	-0.46357533
249	0x3f273281	0.6531144
250	0xbe3d5d6f	-0.18492673
251	0xbb32c153	-0.0027275875
252	0xbe499717	-0.19686542
253	0x3ebaee58	0.36509967
254	0x3e3baefe	0.18328473
255	0xbebc38b1	-0.36762002

var_embedding.1.bias f4 [64]
0	0xbe87bfeb	-0.2651361
1	0xbea7dcbe	-0.327856
2	0xbe577297	-0.21039806
3	0xbe8fb909	-0.28070858
4	0xbeacab07	-0.33724234
5	0xbdd0934d	-0.101843454
6	0x3e1ee92d	0.15518637
7	0xbdaca926	-0.084307
8	0xbd44bcf0	-0.048031747
9	0xbe8ee4b4	-0.27908862
10	0xbea35df1	-0.3190761
11	0xbe817bd3	-0.25289783
12	0x3e20d393	0.15705709
13	0xbdf30a98	-0.11867255
14	0xbaf45976	-0.0018642384
15	0xbcee42d2	-0.029084597
16	0x3ebc4362	0.3677016
17	0x3e2b8f80	0.1675396
18	0xbd20a16b	-0.03921644
19	0xbe562f19	-0.20916404
20	0xbeacadfb	-0.33726487
21	0xbd1fc573	-0.03900666
22	0x3ea4cb60	0.32186413
23	0x3d99dae6	0.07512455
24	0x3e78efbb	0.243102
25	0x3e966706	0.29375476
26	0xbe2fc879	-0.17166318
27	0x3d5aafe7	0.05339041
28	0xbe6d6e6c	-0.23186654
29	0xbe8e3303	-0.27773294
30	0x3e203634	0.15645677
31	0x3d87f40c	0.06638345
32	0xbe33985b	-0.17538588
33	0xbe6b7def	-0.22997259
34	0x3e526278	0.20545375
35	0xbe730a45	-0.23734386
36	0x3ea1f71f	0.3163385
37	0xbdaf1ce8	-0.08550435
38	0x3eaee94b	0.34162363
39	0xbe42741d	-0.18989606
40	0x3d8e46ae	0.06947075
41	0x3eb431c7	0.35194227
42	0x3de8f844	0.11375478
43	0xbe9ea8f4	-0.30988276
44	0xbe938f71	-0.28820375
45	0x3eb93482	0.36172873
46	0x3eb0fe54	0.34569037
47	0x3e5e3e47	0.21703444
48	0xbe70eae5	-0.23527105
49	0x3e282c10	0.16423059
50	0xbe19bda1	-0.15013744
51	0xbeb3bbdf	-0.35104272
52	0x3d5ee97c	0.054421887
53	0x3dfc20e1	0.12310959
54	0xbe46ca1e	-0.19413039
55	0xbea7d46d	-0.32779256
56	0xbe1a98f3	-0.15097408
57	0xbea19949	-0.3156226
58	0x3e510782	0.2041302
59	0xbd9ec2f6	-0.077520296
60	0x3e6a54bb	0.22883885
61	0xbc99bee0	-0.018767774
62	0xbd8106cb	-0.06300124
63	0xbe20131c	-0.1563229

var_embedding.3.weight f4 [64, 64]
0	0x3ade0172	0.0016937687
1	0x3e7cd304	0.24689871
2	0x3e10ddb3	0.14147072
3	0x3e01c376	0.12672219
4	0x3e6e5830	0.23275828
5	0xbe33548e	-0.17512724
6	0x3e64e266	0.22351989
7	0x3d950487	0.07276254
8	0x3e44fb8e	0.19236585
9	0xbe899436	-0.26870888
10	0xbe7278a2	-0.2367883
11	0xbe152459	-0.14564647
12	0xbdd27591	-0.1027633
13	0xbbd2e1ac	-0.0064355936
14	0xbd96b4e3	-0.0735872
15	0x3e0e8c44	0.13920695
16	0xbe05bdac	-0.13060635
17	0xbd167a56	-0.036737762
18	0x3be1b3ce	0.0068878895
19	0x3df95c0e	0.12175761
20	0xbdd94e65	-0.10610656
21	0xbe8b0d3b	-0.27158532
22	0x3e47f86f	0.19528364
23	0x3e4c9442	0.19978431
24	0xbe0baecb	-0.13640897
25	0xbe26a5af	-0.16274141
26	0x3e8b396d	0.2719225
27	0xbe50edac	-0.20403165
28	0x3e8b8b56	0.27254742
29	0xbe970e68	-0.2950318
30	0xbe95c4cc	-0.29251707
31	0xbe2a0f24	-0.16607338
32	0xbe1c5179	-0.15265454
33	0x3e0563f1	0.13026406
34	0x3da9dbe3	0.08293893
35	0xbd4f4de9	-0.05061141
36	0xbdda0f00	-0.10647392
37	0xbe2b9294	-0.16755134
38	0x3e0141af	0.12622713
39	0x3dea9de6	0.11455898
40	0xbe710872	-0.23538378
41	0x3bbe6799	0.0058106896
42	0xbd5853c3	-0.052814256
43	0xbe9867f8	-0.29766822
44	0xbce068b9	-0.027393686
45	0xbcad96d1	-0.021190079
46	0xbe53798d	-0.20651837
47	0x3db1feef	0.08691203
48	0xbccf58ba	-0.025310863
49	0x3e0dea8e	0.13859007
50	0x3e870980	0.26374435
51	0x3d2b6ee1	0.04185379
52	0xbc8ec4c7	-0.017427815
53	0xbe46bcf3	-0.19408016
54	0xbd56d710	-0.052451193
55	0x3e7d7bd8	0.24754274
56	0xbd35fea2	-0.04443229
57	0x3da7954c	0.08182773
58	0x3e95012e	0.29102463
59	0xbcc0e196	-0.023545068
60	0xbe6a46e5	-0.22878607
61	0x3c4a0f8f	0.012332811
62	0x3d08a708	0.03336242
63	0xbe3f65dd	-0.18691202
64	0x3dac16f8	0.084028184
65	0x3e15856d	0.14601679
66	0xbd79a590	-0.06094891
67	0x3a86f078	0.0010295054
68	0xbd2d9c75	-0.042385537
69	0xbc29344d	-0.010327411
70	0xbd0edd8e	-0.03487926
71	0xbe40c043	-0.18823342
72	0xbdb17a72	-0.08665933
73	0xbbf7b41a	-0.0075593116
74	0x3e83903f	0.2569599
75	0x3e3ef433	0.18647842
76	0xbe1f5e34	-0.1556328
77	0x3d30a183	0.04312278
78	0xbe90b642	-0.28264052
79	0x3e912f95	0.28356615
80	0x3e13a0a8	0.14416754
81	0x3de196a4	0.110150605
82	0xbe5e53ff	-0.2171173
83	0x3d6ca7f3	0.057777356
84	0xbd5ac703	-0.05341245
85	0xbd02d80f	-0.03194433
86	0xbdaee1d1	-0.08539165
87	0xbda9fae2	-0.08299805
88	0xbaf0871b	-0.0018350811
89	0x3e632a99	0.22184218
90	0xbe17909a	-0.14801255
91	0xbe24a112	-0.16077068
92	0xbd688b39	-0.056773398
93	0xbe8a39b3	-0.26997146
94	0xbe2f0d17	-0.17094837
95	0x3ab7296e	0.0013974139
96	0x3d0c1368	0.034198195
97	0x3d18d972	0.037316747
98	0x3d74c3b5	0.059756953
99	0x3e36d036	0.17852864
100	0x3e388e73	0.1802309
101	0xbe5a6fd7	-0.21331726
102	0xbe8fdaff	-0.28096768
103	0xbe3f7ae5	-0.18699224
104	0x3c5656ad	0.013082189
105	0x3e29758c	0.16548747
106	0x3e2a75dc	0.16646522
107	0xbdd08e6c	-0.10183415
108	0xbe985abf	-0.29756734
109	0x3e281d8a	0.16417518
110	0xbb0036c4	-0.0019563893
111	0xbe8087e2	-0.2510367
112	0x3da1f188	0.079073966
113	0xbe8aa727	-0.27080652
114	0xbe656a45	-0.2240382
115	0x3e715d17	0.23570667
116	0x3e6de97d	0.232336
117	0x3e928407	0.28616354
118	0x3e130a87	0.14359485
119	0x3e95dfda	0.29272348
120	0x3e3c3341	0.18378927
121	0xbd2a39dd	-0.04155909
122	0xbe016d23	-0.12639289
123	0xbd9cb6b4	-0.07652035
124	0x3e92b90c	0.28656805
125	0xbdc8da77	-0.09807294
126	0x3e8db201	0.2767487
127	0x3db3c53a	0.08777852
128	0xbd43d8a3	-0.047814023
129	0xbde67f70	-0.112547755
130	0x3d633b42	0.055476435
131	0xbe68f566	-0.22749862
132	0x3d9e1dfa	0.07720561
133	0xbe801125	-0.2501308
134	0xbb90f969	-0.0044242633
135	0x3e4ed541	0.20198537
136	0xbc885e44	-0.016646512
137	0xbe663cf1	-0.22484185
138	0xbe93ca20	-0.28865147
139	0x3e99eb8c	0.3006252
140	0x3dbafbdd	0.0913007
141	0xbe22170e	-0.15829107
142	0x3e7601d9	0.24024142
143	0x3dd55f5b	0.10418578
144	0xbd6cba14	-0.057794645
145	0xbdba0cfc	-0.09084508
146	0xbe406fef	-0.187927
147	0xbd718def	-0.05897325
148	0xbd0424d8	-0.0322617
149	0xbe7653f9	-0.2405547
150	0x3e8d5be8	0.2760918
151	0x3e8b7ebc	0.27245128
152	0x3c47fdf3	0.012206542
153	0x3d3c253e	0.045933954
154	0x3e18326a	0.14862981
155	0x3d561d48	0.05227402
156	0xbe89c2f2	-0.26906544
157	0x3e232c1c	0.15934795
158	0x3e1a3b60	0.15061712
159	0xbe2d24cb	-0.16908567
160	0xbd4d5175	-0.05012651
161	0xbdeaf3ae	-0.114722595
162	0xbda74009	-0.081665106
163	0x3e090c48	0.13383591
164	0xbde41995	-0.11137692
165	0xbdcb6cb8	-0.09932846
166	0xbe63fed8	-0.22265184
167	0x3e95e707	0.29277822
168	0xbe91ea24	-0.28498948
169	0x3e7818ef	0.24228261
170	0x3dd1c488	0.102425635
171	0x3e916a7a	0.28401548
172	0xbe9b9c58	-0.30392718
173	0x3e3a7cc3	0.18211655
174	0x3e4f674c	0.20254248
175	0xbe54fff6	-0.20800766
176	0xbe6020a5	-0.21887453
177	0xbd6f6082	-0.058441646
178	0xbe900081	-0.28125384
179	0xbe7b31ef	-0.24530767
180	0x3e3374ae	0.17524979
181	0x3e600d75	0.21880133
182	0xbd178ab3	-0.03699751
183	0xbe18d4f4	-0.14924985
184	0xbd5cd164	-0.053910628
185	0xbdd0552a	-0.10172494
186	0x3e1874d3	0.14888315
187	0xbccac476	-0.024751883
188	0x3e5cdda8	0.2156893
189	0xbe88d0f9	-0.26721933
190	0xbda4f042	-0.08053638
191	0x3db14b86	0.08656983
192	0x3e5109de	0.2041392
193	0xbc509a4c	-0.0127321
194	0x3e373476	0.17891106
195	0xbe162097	-0.1466087
196	0xbe73c03f	-0.23803805
197	0xbe4893d0	-0.19587636
198	0x3ddb1e85	0.106991805
199	0xbe066761	-0.13125373
200	0x3e5fb918	0.21847951
201	0x3c8f3d85	0.01748539
202	0x3e408f17	0.18804584
203	0x3e8a2ec0	0.26988792
204	0x3e0a52ae	0.13508102
205	0xbe8b8c2f	-0.2725539
206	0xbd68ee4a	-0.056867875
207	0xbe79033d	-0.24317642
208	0xbda19321	-0.07889391
209	0xbe8d0038	-0.2753923
210	0xbd707dbf	-0.05871367
211	0xbe5a6dd7	-0.21330963
212	0x3e1f90ea	0.15582624
213	0xbe03c447	-0.12867843
214	0x3e8f8ffc	0.2803954
215	0xbddf7256	-0.1091048
216	0xbe51e306	-0.20496759
217	0xbd3116cb	-0.043234628
218	0x3e0d65de	0.1380839
219	0xbd0971c1	-0.03355575
220	0x3e7b593a	0.24545756
221	0x3e9c9608	0.30583215
222	0xbe7bdf65	-0.24596937
223	0x3e6b9b4e	0.23008463
224	0x3e95c69f	0.29253098
225	0xbd211ba5	-0.039333005
226	0x3db55aba	0.08855195
227	0x3d02d014	0.03193672
228	0xbce58d99	-0.02802162
229	0x3d79d142	0.06099058
230	0x3c661b6f	0.014044627
231	0xbdf31099	-0.118684
232	0x3d7f6e9d	0.06236135
233	0xbe1b95d0	-0.15193868
234	0xbe28bc8f	-0.1647818
235	0xbe847347	-0.258692
236	0xbe50ef94	-0.20403892
237	0xbd4b4204	-0.049623504
238	0x3e01ac8b	0.12663476
239	0xbce6f62e	-0.02819356
240	0xbd66e781	-0.056373123
241	0x3de03bb1	0.10948885
242	0xbe49712e	-0.19672081
243	0xbc69002b	-0.014221231
244	0x3e8f7984	0.28022397
245	0xbe95666c	-0.29179704
246	0xbe388bc4	-0.18022066
247	0x3e114919	0.14188041
248	0xbe7feae0	-0.24991941
249	0x3df95025	0.121734895
250	0x3e93fcb6	0.2890374
251	0x3e0bdb1a	0.136578
252	0xbae6027e	-0.001754835
253	0xbd85a60f	-0.06525814
254	0xbe86f0c3	-0.26355562
255	0x3d49b2c3	0.049242746

var_embedding.3.bias f4 [64]
0	0xbc5c9e19	-0.013465428
1	0x3d88ce4f	0.06679975
2	0x3db797b7	0.08964484
3	0xbddc3f95	-0.10754315
4	0xbdd12d06	-0.10213666
5	0xbac45e50	-0.0014981721
6	0xbdb42132	-0.08795394
7	0x3b87ce7f	0.0041444893
8	0xbb6d5be6	-0.0036218106
9	0xbd1a1398	-0.037616342
10	0xbd5c1d87	-0.053739097
11	0x3ce46233	0.027878856
12	0xbda00116	-0.07812707
13	0xbdbc9f5b	-0.09210082
14	0xbda2d9d6	-0.07951705
15	0xbd9b20f0	-0.07574642
16	0x3d0367a6	0.03208127
17	0xbbf2daa5	-0.0074113184
18	0xbdbb4956	-0.09144847
19	0xbd228ec8	-0.039686948
20	0xbdb46384	-0.088080436
21	0x3db761a6	0.08954172
22	0xbdff91e0	-0.12478995
23	0x3dd7f068	0.10543901
24	0x3d052e6f	0.032514986
25	0xbd7b35b6	-0.06133052
26	0xbd0be96e	-0.034158163
27	0xbcfa1b40	-0.030530572
28	0xbdbc7c07	-0.09203344
29	0x3de1da2f	0.11027943
30	0x3cbbe59e	0.022936638
31	0x3dbca211	0.09210599
32	0x3da7eb3a	0.08199163
33	0x3ddc0582	0.10743238
34	0x3d7ecc8d	0.062206794
35	0x3d569e9b	0.05239735
36	0x3d37ea6e	0.044901304
37	0x3da76895	0.08174244
38	0x3ba7f1f2	0.0051252777
39	0xbd6f62fc	-0.05844401
40	0xbda31898	-0.07963675
41	0xbd9a354c	-0.07529697
42	0xbd331cbd	-0.04372858
43	0xbb369bf8	-0.002786396
44	0x3db833fe	0.08994292
45	0xbdb27d8d	-0.08715353
46	0x3df4efc4	0.11959794
47	0xbd92651b	-0.071481906
48	0xbdc40bf8	-0.09572595
49	0x3cc1c9ab	0.023655733
50	0x3da8e33b	0.08246466
51	0x3daab02d	0.08334384
52	0xbd1e36cb	-0.038626473
53	0x3dff5387	0.124671035
54	0xbcc39e2d	-0.023879135
55	0x3bdd84ad	0.006760201
56	0xbd99835b	-0.07495757
57	0x3c9d566e	0.019206252
58	0x3c50bdd0	0.012740567
59	0x3d8b8546	0.06812529
60	0x3d9f8a73	0.07790079
61	0xbdec4685	-0.11536888
62	0x3c68033f	0.01416093
63	0xbde3eafd	-0.11128805

conv_v_to_c.feature_module_left.0.weight f4 [64, 64]
0	0x3d31be48	0.043394357
1	0xbe924d93	-0.2857481
2	0x3e06ede6	0.13176689
3	0x3deab338	0.114599645
4	0x3e995cc7	0.29953596
5	0xbe664cae	-0.22490188
6	0x3e72fa91	0.23728396
7	0xbe9b583c	-0.30340755
8	0xbd57e65d	-0.052709926
9	0x3e7092ed	0.23493548
10	0xbe9920dc	-0.29907882
11	0xbe7296bb	-0.23690312
12	0x3e886e11	0.26646474
13	0xbb0d3290	-0.002154503
14	0xbd1439ad	-0.036187816
15	0x3b8f0090	0.0043640807
16	0xbe92f05c	-0.28699005
17	0x3e30e9d7	0.17276703
18	0xbdcf9ad9	-0.10136957
19	0xbe6db733	-0.23214416
20	0x3db90eee	0.09036051
21	0xbe3eed4c	-0.18645209
22	0xbe1206ca	-0.14260402
23	0xbe2d5692	-0.16927555
24	0x3c390882	0.011293532
25	0x3e76539d	0.24055333
26	0xbe4eca0c	-0.20194262
27	0x3da8b7e2	0.08238198
28	0x3df68ce2	0.1203859
29	0x3e7470ad	0.23871107
30	0xbe2abc14	-0.16673309
31	0x3e6650c4	0.22491747
32	0xbe8cfdd1	-0.27537397
33	0x3e60fafa	0.2197074
34	0xbe2b6118	-0.16736257
35	0x3e537c66	0.20652923
36	0x3e299451	0.16560484
37	0xbe88d3d6	-0.26724118
38	0x3d2e3f77	0.042540994
39	0x3e94e0e8	0.2907784
40	0x3d64c4d1	0.05585176
41	0xbbcc1570	-0.0062281415
42	0x3e52e02e	0.2059333
43	0xbe4d13eb	-0.2002713
44	0xbe2de73e	-0.16982743
45	0xbd01237d	-0.031527985
46	0xbdb26445	-0.08710531
47	0xbc6c1230	-0.014408633
48	0x3ddcbcc4	0.10778192
49	0xbcbc366e	-0.022975173
50	0x3e961c7d	0.2931861
51	0x3cfc025c	0.030762844
52	0x3da007e2	0.078140035
53	0x3e80d201	0.2516022
54	0xbe378afd	-0.17924114
55	0x3e8eca8d	0.2788891
56	0x3d2794fa	0.04091356
57	0xbe729a1f	-0.23691605
58	0x3d8927c8	0.06697041
59	0xbe39f932	-0.18161467
60	0xbe349f9d	-0.17639013
61	0x3e5b3756	0.21407828
62	0xbdf6e5aa	-0.12055524
63	0x3e89f6ef	0.26946208
64	0x3dfe3aa3	0.12413528
65	0x3da6e712	0.08149542
66	0x3d895b79	0.067069
67	0x3e16053c	0.14650434
68	0x3d4648ba	0.0484092
69	0xbe645108	-0.22296536
70	0x3e0c9864	0.13730007
71	0x3e2d0cd6	0.16899428
72	0xbe556510	-0.20839334
73	0x3e5b221b	0.21399729
74	0x3e0fe2f6	0.14051422
75	0xbe039f82	-0.12853816
76	0xbe0c8f37	-0.13726507
77	0xbe984730	-0.29741812
78	0x3e8ca424	0.2746898
79	0xbdb9bce5	-0.09069232
80	0x3e5e590a	0.21713653
81	0xbe08345d	-0.13301225
82	0xbe02ae17	-0.12761723
83	0x3e299315	0.16560014
84	0x3d94b904	0.072618514
85	0x3d2dc819	0.042427156
86	0xbe1ca9dd	-0.15299173
87	0xbe694f72	-0.22784212
88	0xbdc1d105	-0.094636954
89	0x3e0344ed	0.12819262
90	0x3dbd6c48	0.09249169
91	0x3e461852	0.19345215
92	0xbe06b7d6	-0.13156065
93	0x3c4f642b	0.012658159
94	0xbdc0b061	-0.094086416
95	0xbe69b1c1	-0.22821714
96	0x3db8602d	0.09002719
97	0xbd19d72d	-0.037558723
98	0xbcc36454	-0.023851551
99	0x3e512bee	0.20426914
100	0x3e75c693	0.24001531
101	0x3e4b7d19	0.1987194
102	0xbe7eed3c	-0.24895185
103	0xbe774e2a	-0.24150911
104	0x3e834aab	0.25642905
105	0xbe6dc0e5	-0.23218115
106	0xbe681719	-0.22665061
107	0x3c56ada3	0.013102922
108	0xbd8d471f	-0.06898331
109	0x3e36add9	0.17839755
110	0xbe85bd70	-0.26121092
111	0x3e58dc30	0.21177745
112	0xbddef935	-0.10887376
113	0xbe962619	-0.2932594
114	0xbe75d1be	-0.24005792
115	0x3e08115d	0.13287874
116	0xbd8fb2c7	-0.07016521
117	0x3e8d238b	0.2756618
118	0xbe5d4b9c	-0.21610874
119	0x3e6d20e6	0.23157081
120	0xbd570bf5	-0.052501637
121	0xbe83337b	-0.25625214
122	0x3da4620b	0.08026513
123	0xbdf142a9	-0.117802925
124	0x3d44c9e7	0.04804411
125	0xbdc76ce6	-0.097375676
126	0x3dc6ace4	0.09700945
127	0x3e5e6090	0.21716523
128	0xbe2015c0	-0.15633297
129	0x3e81762d	0.25285473
130	0x3e5b8f8a	0.21441475
131	0x3e532036	0.20617756
132	0xbe1c7f6f	-0.15282987
133	0x3d9d7a5c	0.07689354
134	0x3dac41cd	0.08410988
135	0xbbc440c2	-0.005989165
136	0x3e202f13	0.15642957
137	0x3e94f0c1	0.2908993
138	0x3e4afd68	0.1982323
139	0x3d42a394	0.04751928
140	0x3de57781	0.11204434
141	0xbd0bf7d7	-0.034171905
142	0xbd64fa6c	-0.055902883
143	0x3e2de5d2	0.169822
144	0xbd97d766	-0.07414131
145	0xbe649f02	-0.22326282
146	0x3e5bd2c6	0.21467122
147	0x3e9012c2	0.2813931
148	0x3d0d5ce5	0.03451242
149	0xbcb70e4e	-0.022345688
150	0xbdbc5d29	-0.091974564
151	0xbe24fdb7	-0.1611241
152	0xbe900f32	-0.28136593
153	0xbe4e0f3a	-0.20122996
154	0xbe45eb9f	-0.19328164
155	0xbbc7c7cd	-0.006096816
156	0xbe9b25cb	-0.3030227
157	0xbe8631d3	-0.26209888
158	0x3c77fd50	0.015136078
159	0x3e7d5057	0.24737678
160	0x3d8df482	0.06931402
161	0x3e0c280b	0.1368715
162	0xbe06b106	-0.13153467
163	0x3d6b0aa6	0.057383202
164	0x3d5ac5ba	0.053411223
165	0x3e27cd1f	0.16386841
166	0x3ce5ab72	0.028035853
167	0x3e779a5a	0.24179974
168	0x3e74df6b	0.23913352
169	0x3d98ba69	0.0745743
170	0xbe685adb	-0.22690909
171	0x3e899f88	0.26879525
172	0xbcbeee7c	-0.023307078
173	0x3e322807	0.17398082
174	0xbd8c9510	-0.06864369
175	0xbe4eaa46	-0.20182142
176	0xbe44f157	-0.19232689
177	0xbe8720f5	-0.26392332
178	0xbd94f323	-0.07272937
179	0x3b4c489f	0.0031171215
180	0xbd47d043	-0.0487826
181	0x3e42a28e	0.19007322
182	0x3e5f0b98	0.21781766
183	0xbe3e9f53	-0.18615465
184	0x3e05feea	0.13085523
185	0xbe2dad81	-0.16960718
186	0xbcf40765	-0.029788682
187	0x3e747990	0.23874497
188	0x3c87a638	0.016558751
189	0xbe8fcf02	-0.28087622
190	0x3e27586a	0.16342321
191	0x3ced582a	0.028972704
192	0x3dc87bed	0.09789262
193	0xbe54a547	-0.20766173
194	0xbe44744c	-0.19184989
195	0x3e66b018	0.22528112
196	0x3e890a98	0.26765895
197	0x3e13d03d	0.14434905
198	0x3e5f996d	0.21835871
199	0x3e6a15f5	0.22859938
200	0x3e394524	0.18092781
201	0x3cbab25b	0.022790125
202	0xbe553e2e	-0.20824501
203	0x3e24745c	0.16060013
204	0x3e23cfad	0.15997191
205	0xbe65e61c	-0.22451061
206	0x3e9787b7	0.2959573
207	0xbe5f5a61	-0.2181182
208	0xbd347e1c	-0.04406558
209	0x3e3eac41	0.18620397
210	0xbe96321d	-0.29335108
211	0x3e795925	0.24350412
212	0x3e7c2915	0.24625047
213	0x3d75d303	0.06001569
214	0x3e359306	0.17731866
215	0xbd575e7e	-0.05258035
216	0xbe921835	-0.28534093
217	0xbe38565c	-0.18001693
218	0x3e23292b	0.15933673
219	0x3e88cfd7	0.2672107
220	0x3e06d30d	0.13166447
221	0xbceba626	-0.02876575
222	0x3e2b0502	0.16701129
223	0x3d800d17	0.06252497
224	0xbd0eb590	-0.03484112
225	0xbe2fa014	-0.17150909
226	0x3e87cbfd	0.26522818
227	0xbe17a25a	-0.14808026
228	0x3e4591f9	0.19293965
229	0x3e3001bc	0.17188162
230	0x3d313b95	0.043269712
231	0xbd68289a	-0.056679346
232	0xbd8e986f	-0.06962668
233	0x3dec5cdb	0.11541148
234	0xbe8c36c7	-0.27385542
235	0x3e36205d	0.17785783
236	0x3cfd6684	0.030932672
237	0xbe569b22	-0.20957616
238	0xbe316935	-0.1732529
239	0xbe17ea13	-0.14835386
240	0x3df0e10b	0.117616735
241	0x3e1854c7	0.1487609
242	0xbe52cc52	-0.20585755
243	0xbd831136	-0.06399767
244	0x3e039edc	0.12853569
245	0xbdbd330c	-0.09238252
246	0x3e8ad023	0.2711192
247	0x3e8d9835	0.27655187
248	0xbc8a6581	-0.016894104
249	0xbe94a44e	-0.29031605
250	0x3df5bfe3	0.1199949
251	0xbd339656	-0.043844543
252	0x3ca3d3d2	0.019998465
253	0x3c06f695	0.008237501
254	0x3e92c6ec	0.2866739
255	0xbde78967	-0.11305504

conv_v_to_c.feature_module_left.0.bias f4 [64]
0	0xbdd08f77	-0.10183614
1	0x3c1129a5	0.0088600265
2	0x3d7b680a	0.061378516
3	0xbdc2a616	-0.09504335
4	0x3c2eb339	0.010662847
5	0xbda0afaa	-0.07846005
6	0x3d8ac544	0.06775907
7	0x3d0576cc	0.032583997
8	0xbda0751d	-0.078348376
9	0xbd484ffc	-0.048904404
10	0xbd165082	-0.036697872
11	0xbddcf9ed	-0.10789857
12	0x3d8f3f8d	0.06994543
13	0xbd23380b	-0.03984837
14	0xbc9da2d4	-0.019242682
15	0x3df81eef	0.12115275
16	0xbd13e7bc	-0.03610967
17	0x3dd47d85	0.103755035
18	0x3bf480e9	0.0074616564
19	0xbd5a347b	-0.053272706
20	0x3abc6f62	0.0014376456
21	0xbd2ba547	-0.041905668
22	0x3ddd1e47	0.107967906
23	0x3dc6b1ee	0.09701906
24	0x3d1e8a03	0.038705837
25	0xbd86340f	-0.06552898
26	0xbcfe3ae6	-0.031033944
27	0x3d6679b5	0.056268413
28	0xbbfddd86	-0.007747355
29	0x3db86108	0.09002882
30	0x3d16464d	0.036688138
31	0x3dd4ecad	0.10396705
32	0xbd519c07	-0.05117419
33	0xbd27f0b2	-0.04100103
34	0x3d082780	0.033240795
35	0x3db00ed8	0.08596581
36	0xbdc44ad7	-0.09584587
37	0x3b2b1f2c	0.002611111
38	0xbdb100a5	-0.08642701
39	0x3cebd63d	0.02878868
40	0x3cef2b06	0.02919532
41	0x3d065259	0.032793377
42	0x3d2c9069	0.042129908
43	0x3e01c24a	0.12671772
44	0xbd9e6638	-0.077343404
45	0xbdb8e5dc	-0.09028217
46	0x3a07e5da	0.0005184092
47	0xbdd0fdbf	-0.10204648
48	0xbd44d9b7	-0.04805919
49	0xbd88ca39	-0.06679196
50	0xbcb16b68	-0.02165766
51	0x3d8ff149	0.07028443
52	0xbd83e270	-0.06439674
53	0x3da6f634	0.08152428
54	0xbd98b3e3	-0.07456186
55	0x3dbda034	0.09259072
56	0x3d886647	0.06660133
57	0x3d57caf3	0.05268378
58	0xbbaf1b7c	-0.0053438526
59	0xbb005bc3	-0.0019585944
60	0xbdf654b2	-0.12027873
61	0x3da517cf	0.08061182
62	0xbdf5fa82	-0.12010671
63	0x3dda9481	0.10672856

conv_v_to_c.feature_module_edge.0.weight f4 [64, 1]
0	0xbf5cb59d	-0.8621462
1	0x3f7af85e	0.9803523
2	0xbfb47a32	-1.4099791
3	0xbfedec53	-1.8587745
4	0xbf049903	-0.5179598
5	0x3fc593f5	1.5435778
6	0xbe246c35	-0.16056903
7	0xbe950aee	-0.291099
8	0x400cfefa	2.2030625
9	0xbf880ac8	-1.062829
10	0x4013867d	2.3050835
11	0x4010bf2d	2.2616684
12	0x3fafc898	1.3733091
13	0xbf11e9ca	-0.5699736
14	0x3dc1df11	0.09466375
15	0x3f926b79	1.1439048
16	0x4016016c	2.3438368
17	0x3ffe9a03	1.9890751
18	0xbff49ac3	-1.910973
19	0x3fdc33fb	1.7203363
20	0xbfc85c5a	-1.5653183
21	0x3f9a6899	1.2063171
22	0x40185445	2.3801434
23	0x400a01dd	2.1563637
24	0x3fd93f7e	1.6972501
25	0xbf4916c9	-0.7855039
26	0x400ebd7d	2.2303154
27	0xbf8e39d4	-1.1111398
28	0x4009ff94	2.1562243
29	0x3f6b3ddb	0.9189126
30	0xbf72e040	-0.9487343
31	0x3e9ce9a4	0.30647004
32	0x3fbd0cef	1.4769572
33	0xbee8bbd4	-0.454558
34	0xbfd3695b	-1.6516527
35	0x3f36aff7	0.7136225
36	0x3fce0f3c	1.6098399
37	0x3f861487	1.0475014
38	0xbffc805b	-1.9726671
39	0x3f3569ed	0.70864755
40	0x3ff23032	1.8920958
41	0xbf59ec58	-0.85126257
42	0x3ebc439b	0.3677033
43	0xc00fc8aa	-2.2466226
44	0x3fb31a56	1.3992412
45	0xc00a805a	-2.164084
46	0xbf6e8fb0	-0.93188
47	0x3fffe096	1.9990413
48	0x3feb033c	1.8360362
49	0xbf623993	-0.883691
50	0xbf342ddb	-0.7038247
51	0x3f5bbd04	0.8583529
52	0xbfde77e1	-1.7380334
53	0x3f81d42e	1.0142877
54	0x3fe4aa44	1.7864461
55	0x3ec803a9	0.39065292
56	0xbe0c86b6	-0.13723263
57	0x3eb4474d	0.35210648
58	0x3e9617bf	0.29314992
59	0x3f6adcd3	0.917432
60	0xbfc5e564	-1.546063
61	0xbf979116	-1.1841152
62	0xbfad002e	-1.351568
63	0xbfb387b1	-1.4025785
