rl_model/SCPPO_policy_149.pth (torch_old, 472694 bytes, 71 tensors)

cons_embedding.0.weight f4 [4]
0	0x3f7fbe5a	0.9989983
1	0x3f7fc9a7	0.9991707
2	0x3f8038d7	1.0017346
3	0x3f7fba04	0.9989321

cons_embedding.0.bias f4 [4]
0	0x3a84dcc2	0.0010136592
1	0x3a56356a	0.00081714115
2	0x3ae28175	0.0017281013
3	0xba8c315a	-0.001069586

cons_embedding.1.weight f4 [64, 4]
0	0xbf4f17c6	-0.8089565
1	0x3f5d0624	0.86337495
2	0x3e1ac1c3	0.15112977
3	0x3f316ba8	0.69304895
4	0xbdf01a4f	-0.11723768
5	0xbf886cca	-1.06582
6	0x3f4cc1c0	0.7998314
7	0x3d8852d0	0.0665642
8	0xbda8d422	-0.08243586
9	0x3daa73f3	0.08322897
10	0xbe6aa348	-0.2291385
11	0xbf05f76b	-0.52330655
12	0x3f19bace	0.60050666
13	0x3ec442d2	0.3833223
14	0x3d8c44b5	0.06849042
15	0x3f36a009	0.71337944
16	0x3ed43fa4	0.41454804
17	0x3eecc883	0.46246728
18	0xbcf44d8b	-0.029822132
19	0xbf4304eb	-0.7617938
20	0x3f37b61f	0.7176227
21	0xbdd3ded8	-0.103452384
22	0xbf8f6b4c	-1.120462
23	0x3f41b86e	0.7567204
24	0xbc6e1836	-0.0145321395
25	0x3e06f5c3	0.13179688
26	0xbf1af0ed	-0.60523874
27	0x3eeff1cf	0.46864173
28	0xbf7cc827	-0.9874291
29	0xbf921dc9	-1.141534
30	0x3e8a404e	0.27002186
31	0x3f2d0b0a	0.6759497
32	0xbf22aef3	-0.635482
33	0x3f039707	0.51402324
34	0xbd27c944	-0.040963426
35	0x3f190192	0.5976802
36	0xbf4fe2b7	-0.81205314
37	0x3f2773bb	0.65410966
38	0x3f5842f4	0.8447716
39	0x3f691c7b	0.9105908
40	0x3f4133e4	0.75469804
41	0xbf7f4ab3	-0.99723357
42	0x3f8abb7e	1.0838468
43	0x3d3f382f	0.04668444
44	0x3f81ce11	1.0141011
45	0x3ee02442	0.43777663
46	0x3f2f5600	0.684906
47	0x3f21ab24	0.63151765
48	0x3e472634	0.19448167
49	0x3f6a029b	0.91410226
50	0xbead9d33	-0.33908996
51	0xbf14f53e	-0.5818671
52	0xbcaeab68	-0.021321967
53	0x3e076ad4	0.13224345
54	0x3f82247d	1.0167385
55	0x3efd9e4f	0.49534842
56	0xbf2c6d09	-0.67353874
57	0x3f3d445b	0.7393243
58	0x3f8679e7	1.0505952
59	0xbf75b1fd	-0.95974714
60	0x3f8d36f7	1.1032399
61	0xbed1f329	-0.4100583
62	0x3f86c56d	1.0529
63	0xbf671e43	-0.9028055
64	0x3f2b3e33	0.66891783
65	0x3e82a060	0.2551298
66	0x3e8e5887	0.27801916
67	0xbeb6bb7e	-0.3568992
68	0xbf488971	-0.7833472
69	0x3f6a1c41	0.9144936
70	0x3f95d0c0	1.170433
71	0xbf3216b0	-0.6956587
72	0x3f173877	0.59070534
73	0xbeed7cb2	-0.46384197
74	0x3f9966db	1.1984514
75	0xbf997a10	-1.1990376
76	0x3f52aefc	0.82298255
77	0xbd7284fe	-0.059208862
78	0x3dcba188	0.09942919
79	0xbf3342cc	-0.700238
80	0xbec8cfde	-0.3922109
81	0x3e5b58cb	0.2142059
82	0xbf988ca1	-1.1917917
83	0xbe88e58f	-0.2673764
84	0x3e34546a	0.17610326
85	0xbe848492	-0.25882393
86	0xbf85084b	-1.0393156
87	0x3f65a86f	0.89710134
88	0xbe824e68	-0.25450444
89	0xbf68298d	-0.906884
90	0x3f523bf0	0.8212271
91	0xbe570e23	-0.21001486
92	0x3f990d4e	1.1957185
93	0x3f465dcc	0.7748687
94	0x3e104c67	0.14091645
95	0x3f0a98ff	0.54139704
96	0x3e4f55b2	0.20247534
97	0xbf917088	-1.1362467
98	0xbf2fe55f	-0.6870937
99	0xbf9c8937	-1.2229375
100	0xbe93aab5	-0.28841177
101	0x3f828ca1	1.0199167
102	0x3f3fc8f8	0.7491603
103	0x3f7ff322	0.99980366
104	0xbd30e946	-0.043191217
105	0x3f84b33a	1.0367196
106	0x3f3f8e81	0.7482682
107	0xbd392314	-0.04519947
108	0xbf86f750	-1.0544224
109	0x3f25f86c	0.64832187
110	0xbf4dcccc	-0.8039062
111	0x3f14d760	0.58141136
112	0xbe89484f	-0.2681298
113	0x3f21add6	0.6315588
114	0xbf050ffb	-0.5197751
115	0x3e5b8f1e	0.21441314
116	0x3f84eaa1	1.0384103
117	0x3f8f2524	1.118321
118	0xbecc61aa	-0.39918262
119	0xbf91e5e0	-1.1398277
120	0xbeb98567	-0.3623459
121	0x3d67d061	0.05659521
122	0x3f70c353	0.9404804
123	0xbf1c919b	-0.61159676
124	0xbf85b9b6	-1.04473
125	0xbe3fc301	-0.18726732
126	0x3df45a4d	0.11931286
127	0x3ea2d655	0.31804147
128	0x3dc1a4e3	0.09455278
129	0xbf8a1766	-1.0788391
130	0xbf80a2d5	-1.0049692
131	0x3e26dad6	0.16294417
132	0x3ec99583	0.3937188
133	0xbf2b7488	-0.6697469
134	0x3c91355a	0.017725635
135	0xbe65e8b3	-0.22452049
136	0x3e3784fd	0.17921825
137	0x3e600109	0.21875395
138	0xbf5435e5	-0.82894737
139	0xbf8bed57	-1.0931805
140	0xbea6df2f	-0.3259215
141	0xbf0275ae	-0.50960815
142	0x3e49dc02	0.19712833
143	0xbf8dc0e4	-1.107449
144	0xbf82ca87	-1.0218056
145	0xbcc02453	-0.02345482
146	0x3ebb47fd	0.3657836
147	0xbf8d5f82	-1.1044772
148	0x3da85f8e	0.082213506
149	0xbf4e8471	-0.8067084
150	0xbe5b4341	-0.21412374
151	0xbf2e4f16	-0.68089426
152	0xbf5396e8	-0.8265214
153	0x3f4b9920	0.79530525
154	0xbf494a1e	-0.7862872
155	0x3ec871e6	0.39149398
156	0xbf9572da	-1.1675675
157	0x3efe6016	0.49682683
158	0x3f941c16	1.1571071
159	0x3f031ade	0.5121287
160	0x3f930a80	1.1487579
161	0xbf7c3748	-0.9852185
162	0x3f753eea	0.95799124
163	0xbf257b97	-0.6464171
164	0xbbde95f8	-0.00679278
165	0xbeb3e6f5	-0.35137144
166	0x3ee307c5	0.44341865
167	0x3f03e4b1	0.5152083
168	0x3f015c7b	0.5053174
169	0x3f9369ac	1.1516623
170	0xbf83e069	-1.030286
171	0xbe58d023	-0.21173148
172	0xbd98e2c7	-0.07465129
173	0xbf81172b	-1.0085195
174	0x3f60199d	0.8753908
175	0xbda302f1	-0.079595454
176	0xbe9bfb39	-0.30465105
177	0xbf0a59e4	-0.5404341
178	0x3f691935	0.9105409
179	0x3f296137	0.66163963
180	0x3eca5931	0.39521173
181	0xbd2953ff	-0.04133987
182	0xbe514b94	-0.20438987
183	0xbf1bed52	-0.60909
184	0xbf55fd96	-0.83590066
185	0x3f9689a3	1.1760753
186	0x3f889a8e	1.0672166
187	0x3e8bea32	0.27327114
188	0xbeb8dedb	-0.36107525
189	0xbf218995	-0.6310056
190	0x3ea52294	0.32252944
191	0x3ed9080c	0.42388952
192	0xbc0fe27e	-0.008782027
193	0x3f03530f	0.5129861
194	0x3e908b41	0.28231242
195	0xbecd6037	-0.4011247
196	0x3d5a1212	0.05323989
197	0x3f232fd0	0.6374483
198	0xbe70c074	-0.23510915
199	0xbf639371	-0.8889685
200	0xbebba012	-0.3664556
201	0xbf9a3f71	-1.2050611
202	0x3f1be904	0.6090243
203	0xbf6ba0ef	-0.9204244
204	0x3f84a2f6	1.0362232
205	0xbc005fa3	-0.007835302
206	0x3e12ad92	0.14324024
207	0x3e949e03	0.29026803
208	0xbf210051	-0.6289111
209	0x3ed40706	0.41411608
210	0x3f3696ff	0.7132415
211	0xbeafb660	-0.3431883
212	0xbf80fde1	-1.0077478
213	0x3ee8ee52	0.45494324
214	0x3f9900e5	1.1953398
215	0xbe2adf3e	-0.16686723
216	0xbf4c7741	-0.7986947
217	0xbe050209	-0.12989058
218	0xbf5d474a	-0.86436903
219	0x3f84f9df	1.0388755
220	0xbf0b9ae2	-0.5453321
221	0xbf52d037	-0.8234896
222	0xbdfdb4da	-0.1238801
223	0xbf2211bd	-0.63308316
224	0xbeb5b24b	-0.3548759
225	0xbf394cfa	-0.7238308
226	0x3f82fe82	1.023392
227	0xbf23db00	-0.6400604
228	0x3f40cf38	0.7531619
229	0xbf1083ff	-0.5645141
230	0x3f6c16aa	0.9222208
231	0xbf065e4f	-0.52487653
232	0x3f0dc60c	0.5538032
233	0xbe82531b	-0.2545403
234	0xbedc4778	-0.43023276
235	0x3eed58d0	0.4635682
236	0x3d496717	0.04917058
237	0xbef7d3d8	-0.4840381
238	0xbf05d336	-0.5227541
239	0x3eb72968	0.35773778
240	0x3eb464f6	0.35233277
241	0x3ed6d874	0.41962016
242	0xbe87f907	-0.2655718
243	0xbea9737f	-0.3309593
244	0x3c8ca1d8	0.017167017
245	0x3f72e622	0.94882405
246	0x3dc84cfe	0.0978031
247	0x3f4d92f4	0.8030236
248	0x3e0ff488	0.14058125
249	0x3f1f5ed4	0.6225407
250	0xbddb4655	-0.10706774
251	0xbf182e70	-0.5944586
252	0xbf79f336	-0.97636735
253	0x3e3014e6	0.17195472
254	0x3f72535c	0.94658446
255	0xbe129c0f	-0.14317344

cons_embedding.1.bias f4 [64]
0	0x3e962044	0.29321492
1	0x3eee8ede	0.46593374
2	0x3eb553b9	0.35415438
3	0xbc832137	-0.016007049
4	0xbe816bc6	-0.25277537
5	0x3e68d7e4	0.22738606
6	0xbe9cbf63	-0.30614766
7	0x3e6a837a	0.22901717
8	0x3db94779	0.090468355
9	0x3eabc757	0.33550522
10	0xbde6b94c	-0.11265811
11	0x3e5b34e5	0.21406896
12	0x3eb4677c	0.35235202
13	0x3edc5494	0.43033278
14	0x3d6a1012	0.057144232
15	0xbdedc3d7	-0.11609619
16	0xbe5c0ac2	-0.21488479
17	0xbdeef3b8	-0.116675794
18	0x3e634ba6	0.22196826
19	0xbe82702c	-0.25476205
20	0x3e47ade7	0.19499932
21	0x3ea30d0d	0.31845894
22	0x3ecb684e	0.39728016
23	0xbe394d21	-0.18095829
24	0xbe6f27fe	-0.233551
25	0x3e9bde8c	0.30443227
26	0xbdce8368	-0.100836575
27	0x3bc67ace	0.00605712
28	0x3efe699d	0.49689952
29	0xbe97df99	-0.2966278
30	0xbee5d5cf	-0.44889686
31	0x3e052860	0.13003683
32	0xbd28e3e7	-0.04123297
33	0xbe9c1a74	-0.30488932
34	0xbe0aee21	-0.13567401
35	0xbdaa5379	-0.083167024
36	0x3e308bc7	0.17240821
37	0x3d3f1c33	0.046657752
38	0x3eaa0ff6	0.33215302
39	0xbea75a9a	-0.3268631
40	0x3ee984c8	0.45609117
41	0xbeb0694f	-0.34455344
42	0x3d8f6ddb	0.07003375
43	0xbdd86734	-0.105665594
44	0x3e63d4d3	0.22249155
45	0x3de4690c	0.111528486
46	0x3e37cbe9	0.1794888
47	0xbd1994dc	-0.03749548
48	0x3ee495de	0.4464559
49	0xbe39a112	-0.1812785
50	0xbeaf13e0	-0.3419485
51	0xbe85832c	-0.2607664
52	0xbeeb5d11	-0.45969442
53	0x3ee44164	0.4458114
54	0x3e87f8e4	0.26557076
55	0x3ebaa2b3	0.36452255
56	0xbe9014ea	-0.28140956
57	0xbe825062	-0.25451952
58	0x3e5b7df4	0.21434766
59	0x3decf1b3	0.11569538
60	0x3ebe6fe4	0.3719474
61	0x3e9a2145	0.30103508
62	0x3dd9f845	0.10643057
63	0xbe887f0d	-0.26659432

cons_embedding.3.weight f4 [64, 64]
0	0x3ded3e93	0.11584201
1	0xbd13bbfc	-0.036067948
2	0x3e8d6498	0.2761581
3	0x3caa4949	0.020786898
4	0xbcd1f734	-0.025630571
5	0x3df094f2	0.11747159
6	0xbdbb8a47	-0.09157234
7	0xbcca5c14	-0.02470211
8	0x3e8a1d06	0.26975268
9	0x3e686dba	0.22698107
10	0x3e84691d	0.25861445
11	0x3e97d934	0.296579
12	0xbb02da30	-0.0019966476
13	0xbd131e57	-0.035917606
14	0x3e6e51eb	0.23273437
15	0x3d9b9cc7	0.07598262
16	0x3e01b5af	0.12666963
17	0x3e8304fc	0.2558974
18	0x3e1f1726	0.15536174
19	0xbe4df2a2	-0.20112088
20	0x3c9a818c	0.0188606
21	0x3d8fc1ff	0.07019424
22	0x3e6b4fac	0.22979611
23	0x3e3fa6e8	0.18716013
24	0xbbebb31e	-0.0071929833
25	0xbe9b3893	-0.303166
26	0xbe43a1c6	-0.1910468
27	0xbe77438f	-0.24146865
28	0xbdc6d846	-0.0970922
29	0x3e88f255	0.26747385
30	0x3e5c95c6	0.21541509
31	0xbe302af8	-0.17203891
32	0xbe7e3770	-0.24825835
33	0xbd193764	-0.03740634
34	0xbe2be4ee	-0.16786548
35	0x3e72cc0e	0.23710653
36	0x3e25aa6c	0.16178292
37	0xbe85e59f	-0.2615175
38	0xbd7999ed	-0.06093781
39	0x3e4dab84	0.2008496
40	0x3e35d4e8	0.17756999
41	0x3c667e60	0.014068216
42	0x3e93c96e	0.28864616
43	0x3d22e8e7	0.039772894
44	0x3c0ac713	0.008470315
45	0xbc4cbcf4	-0.012496222
46	0xbe51adfd	-0.20476528
47	0xbe75dea6	-0.24010715
48	0x3e42a024	0.19006401
49	0x3d862e37	0.065517835
50	0xbe558d35	-0.20854647
51	0xbd2fd26d	-0.042925287
52	0xbd991d75	-0.074763216
53	0x3e6b0b4a	0.22953525
54	0x3e358960	0.17728186
55	0x3e0f9297	0.14020763
56	0xbe26b6d3	-0.1628068
57	0x3e36d50f	0.17854713
58	0xbe98bd44	-0.29831898
59	0xbe958a34	-0.29207003
60	0x3e98fb62	0.2987929
61	0x3e972555	0.2952067
62	0xbdd45efb	-0.103696786
63	0x3da47c5a	0.08031531
64	0x3e80ab26	0.25130576
65	0x3dbe340b	0.0928727
66	0xbd8cefa3	-0.068816446
67	0xbc04c4e5	-0.008103584
68	0xbe6ab8d0	-0.22922063
69	0x3dfcef1b	0.12350293
70	0xbe8a68af	-0.27032992
71	0x3d872c3a	0.066002324
72	0x3e4800ef	0.19531606
73	0xbd7fd9fe	-0.062463753
74	0xbd7cfd02	-0.061764725
75	0xbe8d06dc	-0.27544296
76	0xbdced4e5	-0.100992
77	0xbe26640f	-0.16249107
78	0xbe3d9758	-0.18514764
79	0x3e8d5c81	0.27609637
80	0x3d594ea5	0.053053517
81	0x3e653da0	0.2238679
82	0xbe7668f7	-0.24063478
83	0xbdad60e8	-0.08465749
84	0xbe7e82a5	-0.24854524
85	0x3e0d188b	0.13778894
86	0x3d95b683	0.07310202
87	0x3e7a1735	0.24422915
88	0x3e086d8c	0.13323039
89	0x3c97ff7c	0.018554442
90	0xbce9d3f3	-0.028543448
91	0xbe719ea3	-0.23595671
92	0x3cdfbf49	0.027312892
93	0xbe42709e	-0.18988273
94	0xbd900d4f	-0.070337884
95	0x3e95c602	0.2925263
96	0x3e8b5655	0.27214304
97	0xbe3d3fd4	-0.1848138
98	0xbcc39810	-0.02387622
99	0x3d930ffe	0.07180785
100	0x3d35f6d9	0.044424865
101	0x3e8f7d0f	0.280251
102	0xbd2876ae	-0.041128807
103	0x3cbb26f1	0.022845717
104	0xbe7bddb0	-0.24596286
105	0x3e53f063	0.20697169
106	0xbd0e4a48	-0.03473881
107	0xbe4786d1	-0.19485022
108	0xbe655683	-0.22396283
109	0x3d82c6cf	0.06385576
110	0xbe6c9f12	-0.23107556
111	0xbe5626cf	-0.20913242
112	0xbe8f69d2	-0.28010422
113	0xbe91021d	-0.28321925
114	0xbe992ad3	-0.29915485
115	0xbd28a557	-0.041173305
116	0xbe47c6fa	-0.19509497
117	0xbe83a04f	-0.25708243
118	0x3e7c43a6	0.24635181
119	0x3d8bd049	0.068268366
120	0xbdf1c1f0	-0.11804569
121	0xbe927715	-0.28606477
122	0xbc296a94	-0.010340352
123	0x3d3dcd70	0.0463385
124	0x3d81b17f	0.06332683
125	0x3e945236	0.28968972
126	0x3e8ea59b	0.27860722
127	0x3d849075	0.064728655
128	0x3e822255	0.25416818
129	0xbaffcc49	-0.0019515838
130	0xbe6f39bc	-0.23361868
131	0xbe0fd45f	-0.14045857
132	0x3e455e57	0.19274269
133	0xbd9ac2b8	-0.07556671
134	0x3e1522ac	0.14564008
135	0xbe0270ee	-0.12738392
136	0xbe516cbd	-0.20451637
137	0xbcd6fb11	-0.026242765
138	0x3e8bae81	0.27281573
139	0xbe856e84	-0.2606088
140	0xbcb6d14c	-0.022316597
141	0xbd561480	-0.052265644
142	0x3e85681b	0.2605599
143	0xbe2fd35e	-0.17170474
144	0x3df1bee5	0.11803988
145	0x3dab5c43	0.08367207
146	0x3e630cd8	0.22172868
147	0xbe168542	-0.14699271
148	0x3e565cb8	0.20933807
149	0x3e6bb2e9	0.23017468
150	0xbe1536ab	-0.14571635
151	0x3d1f219b	0.038850408
152	0x3de720be	0.11285542
153	0xbcd3f3cd	-0.02587309
154	0xbe895491	-0.26822332
155	0x3e28e1e0	0.16492414
156	0x3e7b9c22	0.24571279
157	0xbe96916f	-0.29407832
158	0x3dcb1002	0.099151626
159	0xbe4aa5f5	-0.1978987
160	0xbe1ca276	-0.15296349
161	0x3d666b05	0.056254406
162	0xbe58a6ec	-0.21157426
163	0x3db4bbf0	0.08824909
164	0xbdef5cab	-0.11687597
165	0x3c29a087	0.010353214
166	0x3e0b5345	0.13605984
167	0x3e145302	0.1448479
168	0x3e97608b	0.29565844
169	0xbe970ffc	-0.29504383
170	0xbc67ddcb	-0.014152001
171	0x3e705306	0.23469171
172	0xbe678c0a	-0.22612014
173	0xbd253444	-0.040333048
174	0xbe01564a	-0.12630573
175	0xbdbcf08c	-0.09225568
176	0xbd78960b	-0.060689967
177	0x3e384875	0.1799639
178	0xbe93082c	-0.28717172
179	0x3d5f2223	0.054475915
180	0x3e1506a2	0.14553311
181	0xbd8b64d1	-0.068063386
182	0xbdf4b4da	-0.11948557
183	0xbde19761	-0.11015201
184	0x3e5d5484	0.21614271
185	0xbd8e52bf	-0.06949376
186	0x3e062a81	0.13102151
187	0xbdb39c59	-0.08770055
188	0x3ca969a1	0.02068025
189	0x3e10ac04	0.14128119
190	0xbc54fd96	-0.012999913
191	0x3e47c2c9	0.19507898
192	0x3d8c9cd8	0.06865853
193	0xbd35286f	-0.044228014
194	0xbe0ea0bf	-0.13928507
195	0x3d785cb4	0.060635284
196	0x3e5864ba	0.21132174
197	0x3e4d5298	0.20051038
198	0xbddbf6f3	-0.10740461
199	0x3d2b3f44	0.04180838
200	0x3d8be7f8	0.06831354
201	0x3d98df7f	0.074645035
202	0x3db134bb	0.08652636
203	0xbe20aaed	-0.15690203
204	0xbdf17416	-0.1178972
205	0x3d82fdde	0.063960776
206	0xbe89b031	-0.26892236
207	0xbe61f35e	-0.22065493
208	0xbe6e79d7	-0.23288666
209	0xbd5a7940	-0.05333829
210	0x3e90e847	0.28302214
211	0x3e92215d	0.2854108
212	0xbe543064	-0.20721585
213	0x3d92d6ab	0.07169851
214	0x3e625a73	0.22104816
215	0x3da29b94	0.079398304
216	0xbe82ab01	-0.2552109
217	0x3dffa730	0.1248306
218	0x3e8fc62a	0.28080875
219	0xbd9deda5	-0.07711343
220	0x3e70189e	0.2344689
221	0x3d5b236f	0.05350059
222	0xbe230eb5	-0.15923579
223	0x3d117a58	0.035517067
224	0x3e8e68fc	0.27814472
225	0xbe6c5670	-0.23079848
226	0x3e908d8d	0.28232995
227	0xbe851325	-0.2599117
228	0x3e80baa3	0.25142393
229	0x3e01a5e7	0.12660943
230	0x3bbdaa50	0.005788125
231	0x3e22f089	0.1591207
232	0xbe5085b4	-0.20363504
233	0x3b15fa86	0.002288492
234	0x3da7988b	0.08183392
235	0xbdb55da6	-0.08855753
236	0xbe79fc44	-0.24412638
237	0xbc046a2e	-0.008081956
238	0x3e0f03d3	0.13966303
239	0x3e3b51e0	0.18292952
240	0xbe501c10	-0.20323205
241	0x3e05f3b7	0.13081251
242	0x3db13777	0.08653157
243	0xbe79485c	-0.24344009
244	0x3d9a6e6b	0.07540592
245	0x3d10373a	0.03520892
246	0x3d0b9e27	0.034086373
247	0x3e8a7511	0.2704244
248	0xbddf3741	-0.10899211
249	0xbcee0394	-0.02905444
250	0xbc2f9374	-0.010716308
251	0x3d67d8e1	0.056603316
252	0xbe99697e	-0.29963297
253	0xbd4f6647	-0.05063465
254	0x3d9efd49	0.07763154
255	0x3e25b4a1	0.16182186

cons_embedding.3.bias f4 [64]
0	0xbbd0a162	-0.0063668946
1	0x3dafd3ee	0.08585344
2	0x3dfe0518	0.12403315
3	0xbdbf367e	-0.093365654
4	0x3da06bc5	0.078330554
5	0xbd7f6991	-0.062356535
6	0x3d5bdf9c	0.053680047
7	0x3dc62895	0.09675709
8	0xbccfa6d2	-0.0253481
9	0x3d06c6f3	0.032904577
10	0x3d5313d5	0.051532585
11	0xbc4c92f8	-0.012486212
12	0x3d8518e4	0.06498888
13	0xbd212c96	-0.03934916
14	0xbda0c182	-0.07849409
15	0xbb3762ba	-0.002798243
16	0xbc16e0ae	-0.009208841
17	0x3dd807d1	0.10548366
18	0x3b391126	0.002823898
19	0x3db9fafc	0.090810746
20	0xbc0dc0a9	-0.008651891
21	0x3e01ac23	0.12663321
22	0xbd98af61	-0.07455326
23	0xbd90a63e	-0.07062958
24	0x3ddb09b3	0.10695209
25	0xbda6c7b5	-0.0814356
26	0xbdaa985f	-0.08329844
27	0xbdca0553	-0.09864297
28	0xbda8fd8c	-0.08251485
29	0xbdea7bda	-0.11449404
30	0x3d116034	0.035492137
31	0x3c2b41cb	0.010452698
32	0xbdb9e32d	-0.090765335
33	0x3dc77c71	0.09740532
34	0x3def9a09	0.11699302
35	0x3d0cb2bd	0.034350146
36	0x3d841acc	0.064504236
37	0x3dedeeb5	0.116177954
38	0xbdad3f3b	-0.08459326
39	0xbdb1745e	-0.086647734
40	0x3a5d7594	0.00084480015
41	0x3cf540db	0.029938152
42	0xbd48f855	-0.049064953
43	0x3d9d74ae	0.076882705
44	0x3c1db574	0.009625781
45	0x3d1e211a	0.038605787
46	0x3c9136f9	0.017726408
47	0x3deb06c5	0.114759006
48	0xbde31b1e	-0.110891566
49	0xbd8b8700	-0.068128586
50	0xbd9f47ca	-0.077773646
51	0xbd75b6c2	-0.059988745
52	0xbc615afd	-0.013754603
53	0xbd7b59e0	-0.06136501
54	0xbc9be103	-0.019028192
55	0x3accd06d	0.001562608
56	0x3dfb2226	0.12262373
57	0xbca516f6	-0.02015255
58	0x3df910dc	0.12161419
59	0xbdff8d3b	-0.124781094
60	0xbd825e6c	-0.06365666
61	0xbdca4b0b	-0.098775946
62	0x3d12853d	0.035771597
63	0xbcd759ae	-0.02628788

var_embedding.0.weight f4 [7]
0	0x3f8019bc	1.0007854
1	0x3f7fe62c	0.9996059
2	0x3f8004f8	1.0001516
3	0x3f7f5fe2	0.9975568
4	0x3f7fbb46	0.9989513
5	0x3f80131b	1.000583
6	0x3f7f654e	0.99763954

var_embedding.0.bias f4 [7]
0	0x3a39f2d6	0.00070933753
1	0x38e14601	0.00010741875
2	0xb9af8803	-0.00033479938
3	0x3b0c398f	0.0021396612
4	0x3a8e5e37	0.0010861818
5	0xba1ed790	-0.0006059343
6	0x3a60f8fd	0.0008582024

var_embedding.1.weight f4 [64, 7]
0	0x3f43f6e4	0.765486
1	0x3f1b93be	0.6077231
2	0xbb82825c	-0.003982825
3	0x3f495ed4	0.7866032
4	0x3e92dc14	0.2868353
5	0x3f6bab09	0.92057854
6	0xbe979296	-0.29604024
7	0xbf28b9c3	-0.6590845
8	0xbeb7653e	-0.3581943
9	0x3f563fa8	0.8369088
10	0xbebee76e	-0.37285942
11	0xbe0bc56a	-0.13649526
12	0x3f29b2d6	0.66288507
13	0x3c7d9bd8	0.015479051
14	0xbf2ccfa4	-0.67504334
15	0xbee6078e	-0.4492764
16	0xbc1e7c77	-0.009673229
17	0x3f01728d	0.50565416
18	0xbe4614b0	-0.19343829
19	0x3da406e7	0.08009129
20	0xbef6c465	-0.48196712
21	0xbf274257	-0.653356
22	0x3ef7f603	0.4842988
23	0x3d844feb	0.06460556
24	0x3e9a778a	0.30169326
25	0xbca8051b	-0.020510247
26	0x3ef75833	0.48309478
27	0xbdf8d828	-0.121506035
28	0xbe96867e	-0.29399484
29	0x3f28e44e	0.65973365
30	0x3f0381b1	0.5136977
31	0x3ef5074c	0.4785713
32	0x3efab16b	0.48963484
33	0x3ec51715	0.38494173
34	0xbe74cf3d	-0.2390718
35	0xbf1fc6e0	-0.62412834
36	0x3f234c10	0.6378794
37	0xbf0cf728	-0.5506463
38	0x3f002501	0.50056463
39	0x3f5338b2	0.82508385
40	0x3f025a59	0.5091911
41	0xbe02f0c2	-0.12787154
42	0x3d674a67	0.05646744
43	0xbf56eab1	-0.8395186
44	0xbed9ab0a	-0.42513305
45	0x3eb9f7e6	0.36321944
46	0xbf0facd2	-0.5612308
47	0x3e2fd969	0.17172779
48	0xbf45fa68	-0.77335215
49	0x3f676ad5	0.9039739
50	0x3f33f83f	0.7030067
51	0xbd79d967	-0.060998347
52	0xbf66cca2	-0.90155995
53	0xbe11d3ec	-0.14240998
54	0x3eabfd27	0.33591577
55	0x3dc55129	0.09634621
56	0x3f19b082	0.60034955
57	0x3dce450a	0.10071762
58	0x3ca51792	0.02015284
59	0xbf11a42a	-0.5689112
60	0xbe1e85df	-0.15480755
61	0x3d78193f	0.06057095
62	0x3e8ed2cf	0.2789521
63	0xbf513bb5	-0.8173173
64	0x3f03dd36	0.51509416
65	0x3f65366f	0.89536184
66	0x3e431260	0.19049978
67	0xbf51f615	-0.82016116
68	0x3c749908	0.014929064
69	0x3f175560	0.59114647
70	0xbed63f05	-0.41844955
71	0xbf145f6c	-0.579581
72	0x3f56801c	0.8378923
73	0x3d74c504	0.0597582
74	0xbe5a1d49	-0.21300234
75	0x3ec3ee19	0.38267592
76	0x3f63cfdf	0.8898906
77	0xbf3b5a57	-0.7318472
78	0xbe65c3ad	-0.22437926
79	0x3da7ac2b	0.08187135
80	0x3edc8abb	0.43074593
81	0xbe2b791c	-0.16745418
82	0x3f293aa6	0.66105115
83	0x3f13b613	0.576997
84	0xbef1d225	-0.4723064
85	0x3dbd664c	0.09248027
86	0x3f54190c	0.8285072
87	0xbec74986	-0.3892328
88	0xbe10a0bf	-0.1412382
89	0xbe0cb269	-0.13739933
90	0x3eca52a7	0.39516184
91	0xbf0018bc	-0.5003774
92	0x3a10ad48	0.0005518985
93	0xbe1df705	-0.15426262
94	0x3efa6ca0	0.48911
95	0xbe8659a1	-0.26240256
96	0x3f2dacc8	0.6784177
97	0x3e518258	0.20459878
98	0x3f38facb	0.7225768
99	0x3f65ec23	0.8981344
100	0x3dcd1333	0.100134276
101	0x3f1af684	0.60532403
102	0x3e69e039	0.2283944
103	0xbee3387f	-0.4437904
104	0x3eae39b3	0.34028396
105	0x3f1cfc95	0.6132291
106	0x3ec84472	0.3911472
107	0x3f099756	0.53746545
108	0x3f232de6	0.6374191
109	0xbf41fbdf	-0.7577495
110	0xbf0b5395	-0.5442441
111	0x3f26e79d	0.65197164
112	0x3f528cd2	0.82246125
113	0x3e86b38d	0.2630886
114	0x3f6bcd61	0.9211026
115	0x3ea16cd1	0.31528333
116	0x3f2ffac8	0.68742037
117	0x3f62470d	0.88389665
118	0xbf22be7a	-0.63571894
119	0xbf5f845d	-0.87311345
120	0xbf60ec8b	-0.87860936
121	0xbf430244	-0.7617533
122	0x3e2bb910	0.16769814
123	0xbed7a120	-0.42115116
124	0x3eda18df	0.425971
125	0xbe2aebe6	-0.1669155
126	0x3f635dc6	0.8881496
127	0xbe54132f	-0.20710443
128	0xbec7c2ab	-0.39015707
129	0x3f39c656	0.7256826
130	0x3f6a6ffd	0.9157713
131	0x3f61b4ab	0.881663
132	0xbeb7bd48	-0.35886598
133	0xbf33332b	-0.6999995
134	0xbf3cc52d	-0.73738366
135	0x3f05b37e	0.5222701
136	0x3f5b869e	0.85752285
137	0xbf5b74f1	-0.85725313
138	0x3eb6f165	0.35731044
139	0x3ebca60e	0.3684544
140	0x3f3cff64	0.73827195
141	0x3f549cd4	0.830518
142	0x3f5dd054	0.8664601
143	0x3e88562b	0.2662824
144	0xbf3791fa	-0.7170712
145	0xbf4e6847	-0.80627865
146	0xbf086bf8	-0.5328975
147	0x3ee587cc	0.44830167
148	0x3eaacf74	0.333614
149	0xbf001b06	-0.50041234
150	0x3ed0aed6	0.4075839
151	0x3e35e553	0.17763261
152	0xbe29b6ea	-0.16573682
153	0xbf36ebbd	-0.7145346
154	0x3f682ff9	0.906982
155	0xbf3cf369	-0.73808914
156	0xbe5c45fd	-0.21511073
157	0x3eb4be79	0.3530157
158	0xbf38c9bc	-0.7218282
159	0xbf02e436	-0.5112947
160	0x3f2da14c	0.67824244
161	0x3f65d956	0.89784753
162	0x3f31f49e	0.6951388
163	0xbde3c0ae	-0.11120735
164	0xbf3769cc	-0.7164581
165	0xbea685bb	-0.32523903
166	0x3ec82f74	0.39098704
167	0x3f1f8962	0.62319005
168	0xbf38627b	-0.7202527
169	0xbe797f12	-0.2436488
170	0x3f1431a3	0.5788824
171	0x3f4cfa63	0.8006956
172	0xbf3d6c81	-0.7399369
173	0x3f3146ec	0.69248843
174	0x3ee6b24b	0.45057902
175	0xbedb3025	-0.4281017
176	0xbf472569	-0.7779146
177	0xbe923196	-0.28553456
178	0xbf60fed8	-0.8788886
179	0x3f60d748	0.87828493
180	0x3cf89b0a	0.030347366
181	0xbed348d7	-0.4126651
182	0xbe72216f	-0.23645566
183	0xbedbff81	-0.42968372
184	0x3ed44628	0.41459775
185	0xbeee92f6	-0.46596497
186	0x3f435b89	0.76311547
187	0x3dd9b151	0.106295235
188	0xbf24c07e	-0.6435622
189	0x3d31d427	0.043415215
190	0xbe3367eb	-0.1752011
191	0xbed3b61b	-0.41349873
192	0xbeacfdb4	-0.3378731
193	0x3db8c70b	0.090223394
194	0x3f070bf0	0.5275259
195	0x3ead0c73	0.3379856
196	0xbf336c4e	-0.70087135
197	0xbf11fe31	-0.5702849
198	0x3f1ba4a8	0.6079812
199	0xbef94e4d	-0.4869255
200	0x3e64324d	0.22284813
201	0x3f4ef329	0.8083978
202	0x3f0a67c6	0.54064596
203	0xbf5996b8	-0.84995604
204	0xbf53c97e	-0.8272933
205	0xbf488b3e	-0.78337467
206	0xbf122def	-0.5710134
207	0x3ecde1fd	0.40211478
208	0xbf61f999	-0.8827148
209	0x3d8e9eae	0.069638595
210	0xbf11c488	-0.5694051
211	0xbedd9756	-0.43279523
212	0xbf37d40b	-0.71807927
213	0xbf5e9abf	-0.86954874
214	0xbf693f2e	-0.9111203
215	0x3f6c7603	0.9236757
216	0x3f2de0d0	0.6792116
217	0xbd2e2061	-0.042511348
218	0x3f27fde9	0.6562181
219	0xbdfa7f5e	-0.122313246
220	0x3e6922de	0.22767207
221	0x3ec94cfc	0.39316547
222	0x3f4243a7	0.7588448
223	0x3d9f97d6	0.07792632
224	0x3f39a1e1	0.7251263
225	0x3f2ca3ea	0.67437613
226	0x3eb57c10	0.35446215
227	0x3d9531a4	0.07284859
228	0x3e0cef9e	0.13763282
229	0x3f55ef23	0.8356802
230	0x3e108c06	0.14115915
231	0x3f1cb28c	0.6120994
232	0x3f072cb3	0.5280258
233	0x3f61372a	0.879748
234	0x3e10e9c0	0.14151669
235	0x3e26ae39	0.16277398
236	0xbe8b8930	-0.27253103
237	0xbf558bc7	-0.8341641
238	0x3e0da5cb	0.13832776
239	0x3ed8b16f	0.4232287
240	0xbe91ed1c	-0.28501213
241	0x3f4ae86d	0.79260904
242	0x3f4bac28	0.79559565
243	0x3f23987f	0.63904566
244	0x3f04cb00	0.51872253
245	0x3f68c243	0.9092142
246	0xbef45377	-0.4771993
247	0x3ed690d0	0.41907358
248	0xbf47ce98	-0.7804961
249	0xbf1a8019	-0.6035171
250	0xbdb2674e	-0.0871111
251	0x3f320bfc	0.69549537
252	0x3ef8f78a	0.48626357
253	0xbf3626e3	-0.71153086
254	0x3e9b608b	0.30347094
255	0xbe82b7f2	-0.25530964

var_embedding.1.bias f4 [64]
0	0x3e85a2ce	0.26100773
1	0x3dcb6d33	0.099329375
2	0xbeb25d9d	-0.34837046
3	0x3e970d69	0.2950242
4	0x3ebdc96e	0.3706774
5	0xbea06ca8	-0.31332898
6	0x3e3f8f00	0.18706894
7	0x3d853aed	0.0650538
8	0x3eac8b7b	0.33700165
9	0xbda6959d	-0.08134005
10	0xbdc9a2fc	-0.0984554
11	0xbe262878	-0.16226375
12	0x3e8cc9f8	0.2749784
13	0xbe099d73	-0.13438968
14	0x3e1e0740	0.15432453
15	0xbe9bdf64	-0.3044387
16	0xbeb556f0	-0.3541789
17	0xbe8add1d	-0.2712182
18	0x3c260c63	0.010134789
19	0x3d7435b6	0.059621535
20	0x3d6c13a0	0.057635903
21	0xbe2070bc	-0.15668005
22	0x3ec1df52	0.37865692
23	0x3ebeb256	0.37245435
24	0x3dd8bda8	0.10583049
25	0x3e543aec	0.20725602
26	0xbca4cabc	-0.020116203
27	0xbcff8eac	-0.031195961
28	0x3e990e17	0.29893562
29	0x3ea4550b	0.32096133
30	0x3d85968c	0.06522855
31	0xbdfe7eea	-0.12426551
32	0xbe935391	-0.28774694
33	0x3e18e38d	0.14930554
34	0xbea26561	-0.3171797
35	0xbcd451af	-0.025917856
36	0xbdd15604	-0.10221484
37	0xbe925c0b	-0.28585848
38	0x3ea39b64	0.3195449
39	0x3e38f36d	0.1806161
40	0xbe0c8482	-0.13722423
41	0x3d93d10c	0.07217607
42	0x3e3a2195	0.18176873
43	0xbdd2022c	-0.102543205
44	0x3d30419b	0.043031316
45	0x3e0b27c7	0.13589393
46	0xbe676ca3	-0.22600035
47	0x3dec55cf	0.11539804
48	0xbd9c1033	-0.07620277
49	0xbddda124	-0.10821751
50	0x3da1c9f9	0.07899851
51	0x3eafbf65	0.3432571
52	0x3e03fc2b	0.12889163
53	0x3e9ed021	0.31018165
54	0xbdd0ba4b	-0.101917826
55	0x3eaa7b68	0.33297276
56	0x3ea4bda6	0.3217594
57	0x3d9d31ae	0.07675491
58	0xbd84a77d	-0.06477258
59	0x3e8631dc	0.26209915
60	0x3e836ebc	0.2567042
61	0x3ea5e1b3	0.32398757
62	0xbad05ade	-0.0015896221
63	0x3def7f3a	0.116941884

var_embedding.3.weight f4 [64, 64]
0	0xbd02c294	-0.031923845
1	0xbd500374	-0.050784543
2	0x3e019153	0.12653093
3	0x3e81ce8a	0.2535289
4	0xbe965609	-0.29362515
5	0xbe683956	-0.22678122
6	0x3c665a1f	0.0140595725
7	0x3e905cc4	0.28195775
8	0xbe97869d	-0.2959489
9	0xbd876efd	-0.06612966
10	0x3cbe8ac0	0.02325952
11	0x3e82c8ca	0.25543815
12	0xbd6ca9d9	-0.057779167
13	0x3dbbb05c	0.09164497
14	0x3d049b08	0.03237441
15	0xbd5c1473	-0.05373044
16	0xbe8ae4fa	-0.2712782
17	0x3e2664a6	0.16249332
18	0xbc097353	-0.008389312
19	0x3e28b9a4	0.16477066
20	0xbe3a5c72	-0.18199328
21	0xbdfb146e	-0.12259756
22	0xbe53a10f	-0.20666908
23	0x3d7e6d0d	0.062115718
24	0x3d2de7d5	0.04245742
25	0xbd83a93c	-0.06428763
26	0xbe975b02	-0.2956162
27	0x3e25b196	0.16181025
28	0x3e733f04	0.23754507
29	0x3e8712f2	0.26381642
30	0xbdf763a6	-0.12079553
31	0xbe05bdd7	-0.130607
32	0x3d7f2373	0.062289666
33	0xbc73da7f	-0.0148836365
34	0x3e4dd34e	0.20100138
35	0x3e88d0e1	0.26721862
36	0x3d0ec2b2	0.034853645
37	0xbd04eb29	-0.03245083
38	0x3dbce859	0.09224004
39	0x3d6eea49	0.0583289
40	0xbd82e04e	-0.06390439
41	0x3d1463d9	0.036228035
42	0xba133393	-0.000561529
43	0x3d84412c	0.06457743
44	0xbe9986c1	-0.29985622
45	0x3cfb5ed2	0.030684862
46	0xbe8eee75	-0.27916303
47	0xbe072575	-0.13197882
48	0xbdd3b84a	-0.10337885
49	0xbdd620b0	-0.104554534
50	0xbd018ed5	-0.031630356
51	0x3e6840a4	0.22680908
52	0xbe02819d	-0.12744756
53	0x3dd664ae	0.10468422
54	0x3dac3a85	0.08409599
55	0x3e414e86	0.1887761
56	0xbddd15af	-0.107951514
57	0xbda7f482	-0.08200933
58	0x3e420544	0.18947321
59	0xbdbc15ae	-0.091838226
60	0x3dd2a500	0.102853775
61	0x3e1efe20	0.15526628
62	0xbddfcd27	-0.109278016
63	0xbddd3927	-0.108019166
64	0x3e811728	0.2521298
65	0xbdc67108	-0.09689528
66	0x3d88b367	0.06674843
67	0x3cbee415	0.023302117
68	0xbd815bcf	-0.06316339
69	0xbe102e09	-0.14080061
70	0xbdbf0d8a	-0.09328754
71	0xbcad001d	-0.021118218
72	0xbdd18c4b	-0.10231837
73	0xbda27645	-0.079327144
74	0x3dbbb38b	0.091651045
75	0x3e97c4f0	0.2964244
76	0x3dc2bc06	0.09508519
77	0xbe293e24	-0.16527611
78	0xbe1a0a23	-0.1504293
79	0xbce30998	-0.027714536
80	0x3e8dee7b	0.2772101
81	0x3e38cfd1	0.18048026
82	0xbe5c6ec4	-0.21526629
83	0x3c1acd93	0.009448427
84	0x3be775de	0.0070636114
85	0xbc97299f	-0.018452464
86	0x3e5ce269	0.21570744
87	0xbe4e79b3	-0.20163612
88	0x3e6ee387	0.23328982
89	0xbe804a9b	-0.2505692
90	0xbe566561	-0.2093711
91	0x3dcc48b5	0.09974805
92	0x3d357994	0.0443054
93	0x3e90ecaf	0.28305575
94	0xbdf464fc	-0.11933324
95	0x3e20a26e	0.15686962
96	0xbcb2b8b8	-0.021816596
97	0x3e81f31e	0.25380796
98	0x3df7718d	0.12082205
99	0x3ddcfa82	0.10789968
100	0xbdfc9ff5	-0.12335197
101	0x3e42eaf4	0.1903494
102	0xbe9acf95	-0.30236498
103	0x3cc5e60f	0.024157552
104	0xbda2466d	-0.07923589
105	0xbe365bd1	-0.17808463
106	0xbe63e1aa	-0.22254053
107	0x3bbb0516	0.0057073934
108	0x3d8d102f	0.068878524
109	0x3e39f7ac	0.18160886
110	0x3d54e4f3	0.051976155
111	0x3de0d6fb	0.10978504
112	0xbbd8b2f3	-0.0066131293
113	0xbe325188	-0.17413914
114	0xbd478b70	-0.048716962
115	0xbe910bf4	-0.28329432
116	0x3e8e60b8	0.27808166
117	0xbccfb6d9	-0.025355743
118	0xbd6057d1	-0.05477125
119	0x3e4b874a	0.19875827
120	0x3bc05ca6	0.0058704196
121	0xbc3dd13f	-0.011585533
122	0xbe3091ec	-0.17243165
123	0x3df86ac2	0.121297374
124	0x3e44f7c2	0.19235137
125	0xbd44ec92	-0.048077174
126	0xbe226266	-0.15857849
127	0x3d59ad88	0.053144008
128	0x3e7ec78b	0.24880807
129	0xbe52a973	-0.20572452
130	0xbe524d1b	-0.20537226
131	0xbe8467f4	-0.2586056
132	0x3e5ab71a	0.2135891
133	0x3d9fb76e	0.07798658
134	0x3e86c186	0.26319522
135	0xbe0f576a	-0.1399819
136	0x3e4b2eee	0.19842121
137	0xbd939506	-0.07206158
138	0xbd39ee7d	-0.045393456
139	0xbe56e668	-0.2098633
140	0xbdee3f37	-0.11633151
141	0x3e6b78a8	0.22995245
142	0xbe5fcb74	-0.21854955
143	0xbe18966b	-0.1490113
144	0x3e82824b	0.2549003
145	0xbda890ca	-0.08230741
146	0xbe1b3c90	-0.15159822
147	0x3d1d4c49	0.03840283
148	0xbcdfe49a	-0.027330685
149	0xbe74ff4a	-0.2392551
150	0x3df03563	0.11728933
151	0xbe155578	-0.14583385
152	0x3e92ff48	0.2871039
153	0x3da78206	0.08179097
154	0x3e0ef1bd	0.13959403
155	0x3c340760	0.010988086
156	0xbe8c97ce	-0.27459568
157	0xbe03d1c5	-0.1287299
158	0xbdc5759f	-0.09641575
159	0xbe2ec84f	-0.17068599
160	0xbe543725	-0.20724161
161	0x3e88aca6	0.2669422
162	0x3d94ef35	0.072721876
163	0x3d9d8e7b	0.076931916
164	0x3e2e2f9f	0.17010354
165	0xbe9343de	-0.28762716
166	0x3bc75fbb	0.00608441
167	0xbe87d523	-0.26529798
168	0x3defafa7	0.11703425
169	0xbde31d34	-0.110895544
170	0x3de25d2c	0.110529274
171	0x3e7b88cc	0.24563903
172	0xbd16685f	-0.03672063
173	0x3cfdbb23	0.030973023
174	0xbc449262	-0.011997791
175	0xbdc71a1c	-0.09721777
176	0x3e33b14a	0.17548099
177	0xbe987de3	-0.29783544
178	0xbe03c0c0	-0.12866497
179	0xbcb341bc	-0.02188193
180	0xbe841803	-0.2579957
181	0xbe9b2aee	-0.3030619
182	0xbe20fcfe	-0.15721509
183	0xbe721f01	-0.2364464
184	0x3ea05a1d	0.3131875
185	0xb98ce22a	-0.00026871386
186	0xbc9822c2	-0.018571261
187	0xbe67b9fd	-0.22629543
188	0xbd8e02ca	-0.06934126
189	0xbe8b1522	-0.2716456
190	0x3de6eb8c	0.11275396
191	0x3e036084	0.12829787
192	0xbe9198a5	-0.2843677
193	0x3e6ea8db	0.23306601
194	0x3e50fd97	0.20409237
195	0x3e4bb44f	0.19893001
196	0xbe8c61c7	-0.27418348
197	0xbd520f12	-0.051283903
198	0x3e18c802	0.14920047
199	0x3df783cb	0.120856844
200	0x3e99512c	0.29944742
201	0xbe87f359	-0.26552847
202	0xbe185fac	-0.14880246
203	0xbe3c2f78	-0.18377483
204	0x3c8e3ed9	0.017363952
205	0x3ddc337d	0.10752008
206	0x3e1ae74c	0.15127295
207	0xbcd5ef14	-0.026114978
208	0xbd1f1baa	-0.038844742
209	0x3dbc7edc	0.09203884
210	0xbdabdf99	-0.08392257
211	0xbdfa0125	-0.122072496
212	0x3e9564c5	0.29178444
213	0x3cd38a3a	0.025822747
214	0xbdfa23f0	-0.12213886
215	0x3e96199d	0.29316416
216	0x3e2c8abe	0.16849801
217	0x3e874b27	0.26424524
218	0x3e063427	0.13105832
219	0x3e3c9bdb	0.18418829
220	0xbe2d3bb4	-0.16917306
221	0x3e369f91	0.17834307
222	0x3e27bb6f	0.16380094
223	0xbd394356	-0.045230232
224	0xbe996b27	-0.29964563
225	0x3e6c4374	0.23072606
226	0x3e8016f6	0.25017518
227	0xbca0f53b	-0.019648185
228	0xbe9301ce	-0.28712314
229	0xbdd1ef04	-0.10250667
230	0x3e29ab0d	0.16569157
231	0x3df0e9ae	0.11763321
232	0xbd879b9e	-0.066214785
233	0x3e87a6fb	0.26494583
234	0x3c92de37	0.017928226
235	0xbca58c0b	-0.02020838
236	0x3e22513d	0.15851302
237	0xbe4249d8	-0.18973482
238	0xbde2bc49	-0.11071069
239	0xbe19dad2	-0.1502488
240	0x3e513148	0.20428956
241	0xbd8fc13d	-0.07019279
242	0x3d43d133	0.04780693
243	0x3e1cde57	0.15319191
244	0x3e1b2616	0.15151247
245	0x3e850b00	0.25984955
246	0xbe576ed6	-0.21038374
247	0x3e18cdf1	0.1492231
248	0x3e305380	0.17219353
249	0x3e0dac37	0.13835226
250	0x3dbf4e04	0.09341052
251	0xbdad030d	-0.084478475
252	0xbe586aee	-0.2113454
253	0xbe1c318b	-0.15253274
254	0x3e9b4a59	0.3033016
255	0x3e0909aa	0.13382593

var_embedding.3.bias f4 [64]
0	0x3da6d215	0.08145539
1	0xbc785315	-0.015156527
2	0x3d9f9658	0.07792348
3	0xbcb9773b	-0.022639861
4	0x3c1cc55f	0.009568541
5	0xbd8e403e	-0.06945847
6	0x3d6ab722	0.057303555
7	0x3de485c9	0.1115833
8	0xbdb6cce6	-0.089258
9	0x3d3230c0	0.043503523
10	0xbd426f9a	-0.047469713
11	0x3dfe59f7	0.12419503
12	0x3b1d1d64	0.0023973817
13	0xbd402520	-0.046910405
14	0x3d8a9a41	0.06767703
15	0x3db9123f	0.09036683
16	0x3bc6f6b5	0.0060718902
17	0xbd303780	-0.04302168
18	0x3dec811b	0.115480624
19	0xbdf0a030	-0.11749303
20	0xbd9bceea	-0.07607825
21	0xbc1f27e7	-0.009714103
22	0xbdbd9595	-0.09257046
23	0x3d00a80b	0.03141026
24	0x3dac34b2	0.08408488
25	0xbcc6716b	-0.024224004
26	0x3da0f7e4	0.078597814
27	0xbde55a17	-0.11198824
28	0xbd7fbcc1	-0.06243587
29	0x3dfeacf8	0.12435335
30	0x3c278845	0.01022536
31	0x3c5fe01d	0.013664273
32	0x3d4594bc	0.048237547
33	0x3cc877e7	0.024471236
34	0x3c653ac5	0.0139910625
35	0xbcdc4a2e	-0.02689084
36	0x3cd122d7	0.025529308
37	0xbc5c17b8	-0.013433389
38	0xbd53b4c2	-0.051686056
39	0xbdeef503	-0.11667826
40	0xbd061fcf	-0.03274518
41	0xbd5cc6ac	-0.053900406
42	0x3cbd5969	0.023113923
43	0xbdd887cf	-0.105727784
44	0xbdeed7a0	-0.11662221
45	0x3c09ac86	0.008402949
46	0xbd414e30	-0.047193706
47	0x3d35e6d8	0.044409603
48	0x3d93e07b	0.072205506
49	0x3db1b366	0.08676796
50	0xbc41f267	-0.011837578
51	0x3d8460fc	0.06463811
52	0x3da16d76	0.07882206
53	0xbd63b12a	-0.05558888
54	0xbd4b4fa6	-0.049636506
55	0x3ce1fe0e	0.027586963
56	0xbd023d70	-0.031796873
57	0xbcebfc9f	-0.028806983
58	0xbd99269f	-0.074780695
59	0xbde717d0	-0.11283839
60	0x3de09e66	0.10967712
61	0xbd8d16ac	-0.0688909
62	0x3de61071	0.11233605
63	0xbc6ea3c9	-0.014565417

conv_v_to_c.feature_module_left.0.weight f4 [64, 64]
0	0xbe2f5db3	-0.17125587
1	0xbe2623f0	-0.16224647
2	0x3dfba6c0	0.122876644
3	0x3e1b36d5	0.15157636
4	0x3e8af9af	0.27143618
5	0xbd62d618	-0.055379957
6	0x3e7e46c8	0.24831688
7	0xbe1aac9c	-0.15104908
8	0xbd660d47	-0.056165006
9	0xbd644250	-0.055727303
10	0x3e633da7	0.22191487
11	0x3e82eb3a	0.2557009
12	0xbe9c3171	-0.3050647
13	0x3e200877	0.15628229
14	0x3d065125	0.03279223
15	0xbe5ea54c	-0.21742743
16	0x3df94788	0.12171847
17	0xbe7920d0	-0.24328923
18	0xbce97eb4	-0.0285028
19	0xbe83f026	-0.25769156
20	0xbe1e29f9	-0.15445699
21	0xbe6ed4de	-0.2332339
22	0x3e9abf63	0.3022414
23	0x3dc3eb12	0.095663205
24	0x3e00c5a6	0.12575397
25	0xbd17ad6d	-0.037030626
26	0x3dc1a87d	0.09455965
27	0xbe71c223	-0.23609214
28	0x3e212187	0.15735446
29	0xbe79d729	-0.24398483
30	0xbdbdb475	-0.09262935
31	0x3e69c285	0.2282811
32	0xbe52b311	-0.20576121
33	0x3c5d2f8d	0.0135001065
34	0x3de907f3	0.11378469
35	0x3e9937bc	0.29925334
36	0xbe238a18	-0.15970647
37	0xbe6af5e9	-0.2294537
38	0x3e65d141	0.22443105
39	0x3e6068b2	0.21914938
40	0xbd82b89c	-0.06382868
41	0x3d315dd1	0.04330236
42	0x3e92b45e	0.28653234
43	0xbe25574c	-0.16146582
44	0xbe6c52cc	-0.2307846
45	0x3d0b6c2a	0.0340387
46	0xbe337fd4	-0.17529231
47	0x3e634d26	0.22197399
48	0x3e88d57b	0.26725373
49	0x3e8f6c14	0.28012145
50	0x3d903955	0.07042185
51	0x3da2ed56	0.079554245
52	0x3e94dca2	0.2907458
53	0x3d46207a	0.048370816
54	0xbe437492	-0.19087437
55	0x3e8f6733	0.28008422
56	0x3e28b295	0.16474374
57	0x3e1eda19	0.15512885
58	0xbe5ee9e5	-0.21768911
59	0xbe89cccd	-0.26914063
60	0xbd891873	-0.066941164
61	0x3e834b6e	0.25643486
62	0x3d03b423	0.032154214
63	0xbd47a195	-0.04873808
64	0x3e1cc261	0.15308525
65	0x3e8b645f	0.27225015
66	0x3d8ecba9	0.06972439
67	0xbe9be736	-0.30449837
68	0x3e3440a3	0.17602782
69	0x3e8c7009	0.27429226
70	0xbe8d7b43	-0.27633104
71	0x3e34640a	0.17616287
72	0x3d82c8cb	0.063859545
73	0x3e947c62	0.29001147
74	0x3e1728b1	0.14761616
75	0x3e8083f3	0.2510067
76	0xbe169929	-0.14706863
77	0x3e38e4f5	0.1805609
78	0xbe05d037	-0.13067709
79	0x3e8d2d30	0.27573538
80	0x3d7e7e36	0.062132083
81	0xbda41de3	-0.08013513
82	0xbe6d036e	-0.2314584
83	0xbc4d35a2	-0.012524994
84	0x3e29096c	0.165075
85	0xbe855329	-0.2604001
86	0x3e074e25	0.13213404
87	0x3e05940d	0.13044758
88	0x3cd36fcb	0.025810143
89	0x3e6328e3	0.22183566
90	0x3e0869ea	0.13321653
91	0xbcd9bc4a	-0.026579041
92	0xbe9c0b6f	-0.30477473
93	0x3e86f96a	0.26362163
94	0xbe0ab856	-0.13546881
95	0x3e00d8c6	0.12582693
96	0x3e264964	0.16238934
97	0x3e9bf269	0.30458382
98	0x3e4e598b	0.20151345
99	0xbdf1542c	-0.11783633
100	0x3e6c64d6	0.23085341
101	0xbe355bba	-0.17710772
102	0xbded1ada	-0.11577387
103	0xbe239cad	-0.15977736
104	0xbdcbb20a	-0.09946068
105	0x3e6df7f7	0.23239122
106	0xbe0e1ddd	-0.1387858
107	0x3e67562d	0.22591467
108	0xbe892ac5	-0.26790443
109	0x3d1ee2b9	0.03879044
110	0xbe6a79f3	-0.22898082
111	0x3d3a75ee	0.045522623
112	0xbe64468b	-0.22292535
113	0x3e07eb65	0.1327339
114	0xbe3aa299	-0.18226089
115	0x3e03192f	0.12802576
116	0xbe3b7cb1	-0.18309285
117	0xbe935e85	-0.2878305
118	0xbd3738f9	-0.044732068
119	0xbde1b47b	-0.11020752
120	0x3d155470	0.03645748
121	0xbe9bda14	-0.30439818
122	0xbe5783dc	-0.21046394
123	0x3e8b9224	0.27259934
124	0xbe452cbc	-0.19255346
125	0xbd4d8af2	-0.050181337
126	0xbd60e627	-0.05490699
127	0xbc5cc159	-0.013473832
128	0xbd85e2cc	-0.06537399
129	0x3e58d262	0.21174005
130	0xbe9b89dc	-0.30378616
131	0x3cc33eea	0.02383371
132	0x3db12632	0.08649863
133	0x3dde430c	0.10852632
134	0x3d8504f6	0.06495087
135	0xbe4acd5d	-0.19804902
136	0x3e857c83	0.26071557
137	0x3e80e685	0.25175872
138	0x3d968afb	0.07350727
139	0x3e443ba9	0.19163384
140	0x3e94f409	0.29092434
141	0x3e6878c8	0.22702324
142	0x3cb59171	0.022164078
143	0x3e9b9f37	0.3039491
144	0x3e6a7fcb	0.22900312
145	0xbe4d7d67	-0.20067368
146	0x3e62e227	0.22156583
147	0xbe1564d2	-0.14589241
148	0xbe865af3	-0.26241264
149	0xbd83f392	-0.06442942
150	0x3e59b940	0.21262074
151	0xbdc73be0	-0.09728217
152	0x3e3cef0a	0.18450561
153	0x3e8932b8	0.26796508
154	0x3e91659e	0.2839784
155	0x3e54c3b9	0.20777787
156	0xbe51278a	-0.20425239
157	0x3e693da1	0.22777416
158	0xbe81bef3	-0.25340995
159	0xbddf0b35	-0.108908094
160	0x3e6797f9	0.22616567
161	0x3db0800a	0.086181715
162	0xbd78254a	-0.060582437
163	0xbe8ec299	-0.2788284
164	0x3e80f04c	0.25183332
165	0x3e95779e	0.29192823
166	0xbe193548	-0.14961731
167	0xbe28f7e1	-0.16500808
168	0xbdeb1774	-0.11479083
169	0x3e7e761b	0.24849741
170	0xbe93c926	-0.28864402
171	0x3dc33889	0.095322676
172	0xbe811392	-0.25210243
173	0xbdc27856	-0.094956085
174	0xbd9ef080	-0.077607155
175	0xbe86a780	-0.26299667
176	0xbe880c83	-0.26572046
177	0x3e18502a	0.1487433
178	0xbde60eb6	-0.11233275
179	0x3d81db9f	0.063407175
180	0x3e49b21a	0.19696847
181	0x3e1ea4f4	0.15492612
182	0x3daf21c6	0.08551364
183	0x3e33d590	0.17561936
184	0x3e959d9f	0.29221818
185	0x3e93e05f	0.2888212
186	0x3e08e7da	0.13369694
187	0x3e8369c1	0.2566662
188	0x3e836ec0	0.25670433
189	0x3d36625d	0.0445274
190	0x3d92fa08	0.07176596
191	0xbe7d0af2	-0.24711207
192	0x3e46e1ae	0.19422027
193	0xbe8bc335	-0.2729737
194	0xbe24ea86	-0.16105089
195	0x3d453961	0.048150424
196	0xbe21b8df	-0.15793179
197	0xbe76645e	-0.24061725
198	0x3e907a1f	0.2821817
199	0xbda7eeac	-0.0819982
200	0xbe5c127a	-0.21491423
201	0x3d4ad844	0.049522653
202	0xbd8eed7f	-0.069788925
203	0x3bd88981	0.0066081886
204	0x3e8ee8f2	0.27912098
205	0xbe9354ca	-0.28775626
206	0xbe8a5502	-0.2701798
207	0xbd8bba3e	-0.06822632
208	0x3be71969	0.0070525897
209	0x3c86c896	0.016453069
210	0xbe22e1d6	-0.15906462
211	0x3e43990a	0.19101349
212	0x3cb7f761	0.022456827
213	0x3b4d762f	0.003135096
214	0xbe07dc9e	-0.13267753
215	0xbe438e68	-0.19097292
216	0x3c975bfc	0.018476479
217	0x3e081304	0.13288504
218	0xbd3a0a1d	-0.0454198
219	0x3de4b407	0.1116715
220	0xbde0910b	-0.10965165
221	0xbcff1527	-0.031138016
222	0xbceb2b0e	-0.028707054
223	0x3cd7ee3c	0.026358716
224	0x3dae5cfa	0.085138276
225	0xbde05922	-0.10954501
226	0x3e338887	0.1753255
227	0xbdf97976	-0.1218137
228	0xbdd59011	-0.10427869
229	0xbe828865	-0.25494686
230	0x3e386c67	0.18010102
231	0x3e394174	0.18091375
232	0xbe92d71a	-0.28679734
233	0xbde6cad1	-0.11269153
234	0x3d3d19c7	0.04616716
235	0xbe605755	-0.21908315
236	0xbe8d002e	-0.275392
237	0xbba92980	-0.005162418
238	0xbe823f9e	-0.2543916
239	0xbe15bc7a	-0.1462268
240	0x3ddd09bd	0.10792873
241	0x3e74afff	0.23895262
242	0x3e9791ef	0.29603526
243	0x3d4f72dd	0.05064665
244	0xbe757f96	-0.23974451
245	0x3c8ed46f	0.01743528
246	0xbe09f47d	-0.13472171
247	0xbe892321	-0.26784614
248	0x3d4b78fb	0.049675923
249	0x3d357885	0.04430439
250	0xbe529fef	-0.20568822
251	0x3d0228d4	0.031777218
252	0x3e010822	0.12600759
253	0x3e4dfdad	0.20116301
254	0xbe239ade	-0.15977046
255	0x3e375db4	0.17906839

conv_v_to_c.feature_module_left.0.bias f4 [64]
0	0x3dac3b5d	0.0840976
1	0x3cb4e459	0.02208154
2	0x3d566c32	0.052349277
3	0xbdd84c87	-0.105614714
4	0xbb01ffe6	-0.0019836365
5	0xbbe0e0e5	-0.006862747
6	0x3db8c9b5	0.090228476
7	0xbd104deb	-0.03523056
8	0x3c815904	0.015789516
9	0xbd9b3746	-0.07578902
10	0xbdce63c7	-0.10077625
11	0xbcaa9e08	-0.020827308
12	0x3ccc8585	0.02496601
13	0x3dfac019	0.12243671
14	0x3d6d466d	0.05792849
15	0xbce2f72c	-0.027705751
16	0xbd0bc848	-0.03412655
17	0xbdac839b	-0.08423539
18	0xbd016380	-0.03158903
19	0xbcd61311	-0.026132138
20	0xbd76bfae	-0.060241394
21	0x3dafa835	0.08577005
22	0xbd3d6583	-0.046239387
23	0x3d46e70b	0.048560183
24	0x3db54ca9	0.088525124
25	0xbc7f0564	-0.01556525
26	0x3d9a2b41	0.07527781
27	0x3dd2f7fa	0.10301204
28	0xbcff86d6	-0.031192224
29	0x3cbe0c0e	0.023199107
30	0xbd96c600	-0.07361984
31	0xbd206d6c	-0.039166853
32	0x3da2521f	0.079258196
33	0xbd01a3aa	-0.031650223
34	0x3de88a13	0.113544606
35	0x3ccf42a1	0.025300326
36	0x3a168d56	0.00057431066
37	0xbdbeea96	-0.093220875
38	0xbc527669	-0.012845614
39	0x3da09463	0.078408025
40	0x3d946d26	0.07247381
41	0x3c79892d	0.015230459
42	0xbdaff3c5	-0.08591417
43	0xbddd334d	-0.108008005
44	0xbdcc6b42	-0.09981395
45	0xbdff4727	-0.12464743
46	0x3d665661	0.05623472
47	0x3d72bd7c	0.059262738
48	0x3ce72922	0.028217856
49	0x3b4aec4c	0.0030963598
50	0xbda6972f	-0.08134305
51	0x3decc3a8	0.11560756
52	0x3d2344df	0.039860602
53	0x3d8ff0e1	0.07028366
54	0x3cf17aab	0.029477438
55	0x3de8768c	0.11350736
56	0xbd8da77b	-0.0691671
57	0x3df27788	0.11839205
58	0x3df09eff	0.11749076
59	0xbded10c9	-0.11575467
60	0x3dc42da6	0.09579019
61	0x3dd2e24e	0.102970704
62	0xbdc7cc6f	-0.097557895
63	0xbc412584	-0.01178873

conv_v_to_c.feature_module_edge.0.weight f4 [64, 1]
0	0xbfb51091	-1.4145681
1	0xbf467044	-0.77515054
2	0x3f855180	1.0415497
3	0xbfc2b1c6	-1.5210502
4	0x3fae7c60	1.3631706
5	0x3d8c3329	0.068456955
6	0x3ea1d44c	0.31607282
7	0xbfceabbc	-1.6146159
8	0xbe575016	-0.21026644
9	0x3ff77c98	1.9334898
10	0x3e3ba696	0.18325266
11	0x3e725d43	0.23668389
12	0xbf2a09c0	-0.6642113
13	0xbfab316a	-1.3374455
14	0xbee0ca92	-0.4390455
15	0x3f8c74e5	1.0973173
16	0xbf847908	-1.0349436
17	0xbf572cfb	-0.8405301
18	0x3f5133f2	0.8171989
19	0x3ecda0c1	0.40161708
20	0x3ee4dde6	0.44700545
21	0x3fdde194	1.7334466
22	0x3fcf050d	1.6173416
23	0xbee98401	-0.45608523
24	0x3fcd8de9	1.6058933
25	0xbef89277	-0.48549244
26	0xbf1db10d	-0.61598283
27	0x4013e71b	2.3109806
28	0x3e9af4a6	0.30264777
29	0x3f6c4c52	0.92303956
30	0xbf4dcba0	-0.8038883
31	0xbea1cb6d	-0.31600514
32	0x40062585	2.09604
33	0xbfb59e1f	-1.418888
34	0xc015b778	-2.339323
35	0xbfef1fc9	-1.8681575
36	0xbf80b270	-1.0054455
37	0xbfa00ddf	-1.2504233
38	0xbe2fce4f	-0.17168544
39	0xbfe61cd2	-1.7977545
40	0x3c509c12	0.012732523
41	0xbf8137ad	-1.0095116
42	0xbf916e28	-1.1361742
43	0xbe903067	-0.28161928
44	0xbf81fb8b	-1.015489
45	0x3ff33ff0	1.9003887
46	0xbec5e3e2	-0.38650423
47	0xc01cb5cb	-2.4485958
48	0xbf215c4d	-0.63031465
49	0xc00d52e0	-2.2081833
50	0x3ef595d1	0.47965863
51	0xc01ad6b0	-2.4193535
52	0xbf16412d	-0.586932
53	0x3fe19b93	1.7625602
54	0xbf23b2f1	-0.6394492
55	0xc001a669	-2.0257819
56	0x4007d0db	2.1221225
57	0x3fce57c0	1.6120529
58	0xc00bda85	-2.1852124
59	0x400db255	2.2140095
60	0xbfd87b37	-1.6912602
61	0x3daa3ac1	0.08311988
62	0xc00a6bce	-2.1628299
63	0xbf23a9b6	-0.63930833
