rl_model/SCPPO_value_149.pth (torch_old, 472694 bytes, 71 tensors)

cons_embedding.0.weight f4 [4]
00000000: 56e6 7f3f c9e2 7f3f b5d7 7f3f 2206 803f
0.9996084 0.9995542 0.9993852 1.0001872

cons_embedding.0.bias f4 [4]
00000000: 9910 cc39 f1be f239 0c7c 20ba 6d6e 3d39
0.00038922278 0.000463001 -0.0006122 0.00018065581

cons_embedding.1.weight f4 [64, 4]
00000000: f44f f03d 0851 6f3e e53e 933e 3c0b 26bf
00000010: 07ce 70bf e083 9fbe ac92 893f 1b4b 3dbd
00000020: cd15 233f c4d1 8f3f 2178 8ebf f27c 933f
00000030: 9a22 5cbf 699b 06bf a160 8d3f 6eb5 9a3f
00000040: 4c36 87be 5837 273f e764 abbe c16b 03bf
00000050: d890 433e fbc0 fd3d 70a9 7ebe eaa1 42be
00000060: 9678 0ebf 9a50 f4be 4550 94bf 8d26 3dbf
00000070: b548 123f 0a7e 183f 885b 7fbf 7bd6 5fbf
00000080: 5710 483f 8a14 6a3f f9b8 5a3f eae4 80bf
00000090: 8961 ccbd d9d3 3dbf aee7 2d3f d9ef 14bf
000000a0: 146c 48be ef48 6abf 0be3 133e 49e1 713f
000000b0: 2098 32be 9cea 3a3f c9e7 59bf c3e0 14bf
000000c0: 57ad 263f e15e 763f ac8c 11be 57a6 833e
000000d0: a748 673f aa54 853f d0c3 663f 6726 b8be
000000e0: 93e7 253f df25 cd3e 30e3 93bd f3f4 5b3f
000000f0: 2e92 613f 9ee1 163e 49cb 5d3f e9bb 30bf
00000100: 0c12 32bf 04c3 723f ae9b 923f 5802 903f
00000110: 55a8 973e e7e5 8cbf fdf6 9a3f 32e7 733f
00000120: 22da ef3e f0a0 1bbf 803f 59bf 3fc0 02bc
00000130: 426b 9d3d d2a5 973f 002f a13e 4bf5 003f
00000140: 0993 943c 7981 bf3e dc82 f8bd 06a4 a2bd
00000150: 428f d7be d8d7 0dbf 986c 4fbf 2693 393f
00000160: d2f1 1abf 7dec 563f 024c 7abf 02fd 00bf
00000170: 77b5 47be 1b31 b53e 73b4 453e c39b 593f
00000180: 471d 1cbd afe2 b9be f7db 653d c73f 653f
00000190: a33e 89bf 101e 9d3e ba2f 5bbf d771 983f
000001a0: 9f22 44bf 19ae 943e 3f16 23be f2eb 2e3f
000001b0: c69d 11bf 8016 0f3f 8746 57bf 1174 863e
000001c0: caee 213f 7725 0ebf ba5c 11bf 2510 273f
000001d0: 10b1 c63d edef 39bf 7605 7f3e 4571 ecbe
000001e0: 0b77 3cbe a54c a4be c4af 293f d528 853f
000001f0: 32be ba3e 7de1 05bf f877 3d3f 7d23 3a3c
00000200: 07a4 bf3b e947 8b3e 2119 e9be 200c 013f
00000210: d96c 0abe d4d9 4ebf 40de 043f a388 51bf
00000220: 6a8b 87bf 733d 203f 1f0e 873f d1ba 67bf
00000230: 03a8 7abe 5c17 813f 0999 6b3f 5538 ff3e
00000240: 1507 26bd 77b1 093f 6af1 2a3f 7157 66bf
00000250: 7f7f 0ebf dfc5 23bf 3d62 89bf 64dc 69bf
00000260: 8e71 4d3f 9d66 e2bd 4dee d83d 4a45 b3be
00000270: 1f9b a43b 2465 93bf 94b2 693f 1537 783f
00000280: 61e1 7e3e 48cf 9a3f 4c2b d5be fa57 48bf
00000290: faf0 1a3e 59d9 973f 4dcb 493f a336 6dbe
000002a0: 023c 26bc f6e9 34bf af1d e43d 0378 23bf
000002b0: 47ce 6e3f 850b 97bf b9b5 943f 4148 0f3f
000002c0: 3c92 b43e d5de 833f 8792 9c3f 378e fb3e
000002d0: 1e19 8abf f454 273e 6432 883f 90c7 b4be
000002e0: 7703 1abe d041 76bf fdd1 253f d39f 603f
000002f0: b1ba 0abf 0937 9b3f 694d d43b ab5c e83e
00000300: 80d3 783e 8c78 913f f695 6dbe f1be 843e
00000310: b8cf 01be aeb2 1abf 85aa 523f 3d2c 793e
00000320: 40a8 5f3f 7f60 1f3f 94f5 6bbf d7df 0ebe
00000330: bc9b 0d3f bd10 8bbf 84b8 ec3e f209 593f
00000340: 658e 8c3e f191 213f de13 44bf 30a9 69be
00000350: a2e4 3cbf a42f 19be 62fb 9b3f 1cbe 5fbe
00000360: 2d34 93bf 07a8 2ebe 5de6 a0bc 5325 6abf
00000370: 06f9 9dbe b810 9abe bf9a a8be d70b 223f
00000380: c280 8f3f fe28 2cbf 53c7 84bf 63c9 1a3f
00000390: ab80 2a3d dfe4 9d3d 7774 dc3e e096 84bd
000003a0: 0c40 5a3e 411a 473f 29c6 2fbf 1efb b13e
000003b0: f90a f13d 2feb 1b3f cdef 393f 5e64 a43e
000003c0: 2ab4 1cbf c663 99bf 0d2f 343f f575 433f
000003d0: b62a 09be ca94 833e 0ce1 063f d9ce 45be
000003e0: c73a 613f 2b3f 17bf fcdf 1f3f 92e6 05bf
000003f0: 26c4 8dbf b482 30bf 4480 15bf 1ee3 a5bd
0.11734 0.23370755 0.28758922 -0.6486089 -0.9406437 -0.311553 1.0747886 -0.046214204
0.6370514 1.123589 -1.113041 1.1522505 -0.859903 -0.5258089 1.1045114 1.2086618
-0.26408613 0.6531882 -0.3347542 -0.51336294 0.19098222 0.12390324 -0.24869323 -0.19007078
-0.5565275 -0.47717744 -1.1586996 -0.7388695 0.5714219 0.5956732 -0.9974904 -0.87436646
0.7814993 0.9143759 0.85438496 -1.0069859 -0.09979541 -0.7415138 0.6793164 -0.5817848
-0.19572479 -0.9151754 0.14442079 0.9448438 -0.17440844 0.73014235 -0.851193 -0.5815546
0.65108246 0.96238524 -0.14213818 0.25712845 0.90345234 1.0416462 0.90142536 -0.359668
0.6480648 0.40067956 -0.07221067 0.8592064 0.8811368 0.14734504 0.86638314 -0.6903673
-0.6955879 0.9482882 1.145376 1.1250715 0.29620615 -1.1007661 1.2106625 0.9527465
0.4684611 -0.60792446 -0.8486252 -0.007980405 0.076864734 1.1847479 0.3148117 0.5037429
0.018136518 0.37403467 -0.121343344 -0.07941441 -0.42101485 -0.55407476 -0.81025076 0.72490156
-0.6052524 0.839546 -0.9777223 -0.5038606 -0.19502817 0.35389027 0.19307117 0.850033
-0.03811386 -0.36305758 0.056117978 0.8955044 -1.072224 0.30686998 -0.856197 1.1909741
-0.7661533 0.29039076 -0.15926455 0.68328774 -0.5688137 0.5589371 -0.8409199 0.26260427
0.6325499 -0.55525917 -0.56782115 0.6525901 0.09701741 -0.7263172 0.24904427 -0.46180168
-0.18404786 -0.32089725 0.6628382 1.0403086 0.36473233 -0.5229719 0.7401118 0.011361
0.005848411 0.272033 -0.45526984 0.50409126 -0.13518085 -0.8080113 0.51901627 -0.81849116
-1.0589421 0.62593764 1.0551184 -0.90519434 -0.24478154 1.0085254 0.9203039 0.49847665
-0.040534098 0.53786415 0.6677462 -0.89977175 -0.55663294 -0.639738 -1.0733105 -0.91351914
0.80251396 -0.11054728 0.10592327 -0.350138 0.0050233747 -1.1515241 0.91288114 0.9695905
0.24890663 1.2094507 -0.41634595 -0.7825924 0.15130988 1.1863204 0.7882584 -0.23165374
-0.010146143 -0.70669496 0.11138474 -0.63855 0.93283504 -1.180039 1.1617957 0.55969626
0.35267818 1.0302378 1.2232217 0.4913194 -1.0788915 0.16341001 1.0640378 -0.35308504
-0.15040384 -0.9619417 0.6477354 0.8774387 -0.5419112 1.212617 0.0064789546 0.453832
0.24299431 1.1364913 -0.23201737 0.25926927 -0.12676895 -0.60428894 0.8229144 0.24333282
0.87366104 0.62256616 -0.921716 -0.13952576 0.55315757 -1.0864483 0.46234524 0.847808
0.27452388 0.63113314 -0.76592815 -0.22818446 -0.73786366 -0.1495958 1.2186091 -0.21849865
-1.1500298 -0.17056285 -0.019641096 -0.914632 -0.30854052 -0.3009088 -0.32930562 0.63299316
1.1211169 -0.6725005 -1.0373329 0.6046354 0.041626614 0.07709669 0.43057606 -0.064740896
0.21313494 0.77774435 -0.68661743 0.347619 0.11769671 0.60905737 0.7263153 0.32107824
-0.6121241 -1.1983573 0.70384294 0.76351863 -0.13395199 0.25699455 0.52687144 -0.19317187
0.8798031 -0.5908076 0.6245115 -0.5230495 -1.1075485 -0.6894944 -0.5839884 -0.0809996

cons_embedding.1.bias f4 [64]
00000000: 236e fe3e 5acc 36bd 65d2 bf3e 205f 973e
00000010: a7ef aabc b9c3 f13d 6495 073e 0313 ee3e
00000020: 339e 0b3e 2f59 a03e 7cd8 c4be 13ee 03bd
00000030: 9022 f03e d417 db3e bfc2 f4be b660 a7be
00000040: 2435 df3e 90f8 c63e fef3 fe3d e20d d23e
00000050: 30ea e23e 8607 e9bd ad7b ff3e 4a59 fe3d
00000060: 849c d43e f17f 49be bac2 dcbe 1924 403d
00000070: 7a1a 79bc 2924 b5be 5c88 223e 049c 693e
00000080: 0e8b 3d3d 0fc3 91be 3e5a 8dbb d59c 12bd
00000090: 43c5 80be 5e08 ad3e 876b d9bd ac7c e2be
000000a0: 64aa 77be 37b4 9dbe a39c e83e 451e abbd
000000b0: e884 7ebe b3d4 56bd 7875 343d a0c5 aa3d
000000c0: 8e3f 4ebe 0f8c 7cbe 30bb e33e 4654 c63e
000000d0: 046b fa3e 7d4c 273e 9a77 993e 811c 48bd
000000e0: 8a1e d63e 51ab fbbe cfb1 ebbd 05a9 643e
000000f0: d7cb e53e 56a5 36be 5a1b eebe a433 f9be
0.49693403 -0.04462848 0.37465206 0.29564762 -0.020866228 0.11804909 0.13240582 0.4649888
0.13634567 0.31318042 -0.38446414 -0.032209467 0.4690137 0.42791617 -0.4780483 -0.32690972
0.4359523 0.38861513 0.124488816 0.41026217 0.44319296 -0.11378388 0.49899045 0.12419374
0.41525662 -0.19677712 -0.43117315 0.046909425 -0.015204066 -0.3537915 0.1587233 0.22813421
0.04627519 -0.2846913 -0.004313736 -0.035794098 -0.251505 0.33795446 -0.10616212 -0.44235742
-0.24186093 -0.30801556 0.45432004 -0.08355383 -0.24855387 -0.05244894 0.04405734 0.08338475
-0.20141432 -0.24662803 0.4447875 0.3873617 0.4890977 0.16337772 0.2997406 -0.04885531
0.41820174 -0.49154142 -0.11508524 0.22330101 0.4488208 -0.17836508 -0.46505243 -0.4867221

cons_embedding.3.weight f4 [64, 64]
00000000: 4c01 783e e595 58bd ac48 943e 9eda 05be
00000010: 21fc 6dbd 5fbc 8b3e 808d b63d 2654 6abe
00000020: 8078 eb39 2fef 25bd 378e 3abe c8ed 213e
00000030: 5593 923e 9ce1 473d fa26 973e 338f 89be
00000040: 75bd 61be 1afa e13d 7d28 62be d38b 85be
00000050: a4c8 71be c032 c73d 9af8 ae3d f9b1 4c3e
00000060: 9dc3 b23d 899f 803d 5083 d6bd 904d 883e
00000070: 1150 693e fec8 ea3d 7c66 9bbe 29fe 16bd
00000080: 8892 67be d550 ba3c 04a7 f8bc 1d6d 88bd
00000090: f48d 883d 009f 883e 4a56 63be c101 97bd
000000a0: 14e5 163e 9f26 6ebe f02e 853e e0f4 49bd
000000b0: 48c6 0ebe d3c7 a1bb ca69 8a3e 5bbd 7b3e
000000c0: 9b2d 153e 32b4 24bd df10 10be 2389 343e
000000d0: 1acb 983e cc24 04be 8db6 853e c774 cabd
000000e0: b0e1 613e 55e0 2bbe 2308 e83c 1906 e93c
000000f0: 2fce bcbd 1411 62be 25ae 60be 1ddc 18be
00000100: 6074 d4bc c7b2 18be f24f 833e 2203 183e
00000110: 0148 1cbe d299 c3bd b186 c33d 440a 473e
00000120: 9dc7 22be 7fb6 44be 1c74 8ebe 3118 833e
00000130: 2b38 99be 9885 3dbe 9581 cb3d 1db3 673d
00000140: 7398 fabd 7532 2bbe c6a6 aabc 8175 29be
00000150: ffc1 00be 354b 48be 4b23 993e 7b14 f4bd
00000160: 801a 89bc ed9e e3bd 17bc 2ebe 978e 7b3e
00000170: 1bff 9abd 9b6e 6e3e c26a 06bd 466b 843e
00000180: fd15 3a3e ece0 0dbe 37fa 74be cac4 60bd
00000190: 4670 823d af00 efbd a21f 753e 1fde bd3d
000001a0: 8805 08bd 7546 9fba 8e4c 3cbc 3325 963e
000001b0: 7cf6 973e 5b22 e83c ae46 2ebe 5fac 8cbe
000001c0: 73a4 943e db26 1a3e ce5f 503e cb77 1d3e
000001d0: 538f 893d 6d6e f63c 9bca d83d bf9d 853e
000001e0: 253a 3f3e 1f20 8a3d 3c31 993e 280d 1cbe
000001f0: 3459 34bc 10ae 4b3e 88ff 6dbd c77f 69be
00000200: 36f3 fabd 673d 183e 52bd 7a3e 773e f93d
00000210: d0c3 23be e02e c3bd 9191 69be 3e7b 59be
00000220: aa63 823d cd09 7fbe 2b67 0d3e 7e54 cd3c
00000230: a40f 12bd e45f 5f3e 060a 92bd 640d 033e
00000240: d6f6 a73d d338 983e 8805 a7bc aaa3 693e
00000250: 7d32 9d3d e7cf 8dbe 5187 5abd 6c17 8d3d
00000260: ccec 5e3e 4a34 95bc 6e5e 23be 4d54 123e
00000270: a68b f5bd 3347 7dbe c9f5 a4bc 9bfc 6bbe
00000280: 78a3 5f3e ff6a 7dbd c5bf 23be c093 d83d
00000290: 33ca 193d 009c 263e e875 1cbe 237a 3cbe
000002a0: aa7f 0cbe 066e 493e f7dc 52be d1d7 babd
000002b0: 080a d9bc fea6 7fbe 8fb9 933d a49c 4b3e
000002c0: 5d9b 993e 3a13 7c3d 640e 14bc 027c 91bd
000002d0: 3f31 45be 8329 3bbe 5ec2 6fbe 579b 223e
000002e0: dda8 46be 128b 7abe dbc2 95be fb00 993d
000002f0: cb58 103d 766f 59be de8d 683d a7b2 69be
00000300: 2b79 a0bd d5a5 583e 8aa1 8c3e f02d 42be
00000310: 5335 c03a 5b52 95bc 9cf5 a0bb 5766 53be
00000320: 49bf ac3d 5080 db3d ca3b 87be 7041 533e
00000330: 470f 0ebe 3126 5bbd ddcc 79bc 4a34 4abe
00000340: 6da9 123e 1936 e53d aa77 5a3c 094b 0b3e
00000350: 5158 863e 4ab3 c9bd ee72 81be e16a 4ebe
00000360: b09b 9abe 75f1 51be 5877 883e 12f9 ce3d
00000370: 4524 9fbc f5ef a33d a3b1 29be 7bca 71be
00000380: a33b 9d3d 82dc 50bd a14f 5bbe 5eee 833e
00000390: a86d 0b3e ad00 95be 681a 77be f458 7ebe
000003a0: 7434 b6bd bfb3 29be 4467 eaba bd88 113e
000003b0: 3f8b 083d 6e69 c63d 3615 ecbc 9f24 3ebb
000003c0: dc4c 993e a101 3f3e cc77 703d a46c 7a3d
000003d0: 26c5 3a3e 69f5 89be f156 d23d da22 8b3d
000003e0: 8dd6 893e cddb 723e 5b0f 99be 12af 833e
000003f0: aede d23d 130e 4c3e 7c1f f3bc ff2b 193e
0.24219245 -0.052877326 0.28961694 -0.13071677 -0.058101777 0.27292153 0.08913708 -0.22883663
0.00044912472 -0.040511306 -0.18218313 0.15813363 0.2862803 0.048799142 0.29521924 -0.26867065
-0.22044928 0.11034031 -0.22085758 -0.2608324 -0.23611695 0.09726477 0.08543511 0.19989766
0.087287165 0.06280429 -0.104742646 0.26621675 0.22784449 0.114641175 -0.30351627 -0.03686348
-0.22614491 0.022743622 -0.030353077 -0.06661437 0.066677004 0.26683807 -0.22200885 -0.073733814
0.14735824 -0.2325692 0.26012373 -0.049305797 -0.13942826 -0.004937151 0.27033836 0.24583952
0.14568178 -0.04021091 -0.14068936 0.17630439 0.29842454 -0.12904662 0.26115838 -0.09885555
0.22058749 -0.16784795 0.028324192 0.02844529 -0.09219014 -0.22076827 -0.21941431 -0.14927717
-0.025934398 -0.14911948 0.2564693 0.14844945 -0.15261842 -0.09550823 0.09547175 0.1943751
-0.15896459 -0.19210242 -0.2782296 0.25604394 -0.29925665 -0.18507993 0.09936825 0.0565673
-0.12236109 -0.16718467 -0.020831477 -0.1654873 -0.12574004 -0.19559939 0.2990974 -0.11917969
-0.016736269 -0.11114297 -0.17063938 0.24566112 -0.07568189 0.2328438 -0.032816656 0.25863093
0.1817245 -0.13855332 -0.23923574 -0.054875173 0.06369071 -0.11670052 0.23937848 0.09270882
-0.0332084 -0.0012151735 -0.011492861 0.29325256 0.2968024 0.028336694 -0.1701915 -0.2747526
0.29031715 0.15053885 0.20349047 0.15377729 0.0671679 0.030081952 0.10585519 0.26096913
0.18674524 0.06744408 0.29920375 -0.15239394 -0.011007596 0.19890618 -0.05810502 -0.2280265
-0.1225342 0.14867173 0.24486282 0.12170117 -0.15992665 -0.09530425 -0.22809435 -0.2123842
0.06366666 -0.24906082 0.13808887 0.025064703 -0.035659447 0.21813923 -0.07130818 0.12798077
0.08201377 0.29730853 -0.02038838 0.22816339 0.076756455 -0.2769768 -0.053351704 0.06889233
0.21770018 -0.01821341 -0.15953991 0.1428997 -0.119895265 -0.24734192 -0.02013673 -0.2304558
0.21839702 -0.061869618 -0.15991123 0.10575056 0.037546348 0.16270447 -0.15279353 -0.18405966
-0.13720575 0.19670877 -0.20592104 -0.09123195 -0.026494041 -0.24966046 0.07213127 0.19883972
0.30001345 0.061541773 -0.009036634 -0.07103731 -0.19257067 -0.18277554 -0.23413989 0.1587957
-0.19400354 -0.24467114 -0.29250225 0.0747089 0.03524093 -0.21233925 0.05677592 -0.22822057
-0.07835611 0.2115701 0.27466995 -0.18962836 0.0014664329 -0.018227747 -0.0049120914 -0.20644508
0.08434922 0.10717833 -0.26412803 0.20630431 -0.13873015 -0.05350322 -0.015246597 -0.19746509
0.14322443 0.11191959 0.013334194 0.13602842 0.26239255 -0.0984865 -0.25282997 -0.20157959
-0.30196905 -0.20502265 0.26653552 0.101061 -0.019426474 0.080047525 -0.1657167 -0.23612396
0.076773904 -0.050991543 -0.21417095 0.25767797 0.1361605 -0.29102078 -0.24131167 -0.2483862
-0.088967234 -0.16572474 -0.0017883559 0.14212318 0.03333592 0.09688078 -0.028818708 -0.0029013527
0.29941452 0.18652965 0.058707997 0.061138764 0.18239269 -0.26945046 0.10270489 0.06793757
0.26921502 0.2371666 -0.29894528 0.25719506 0.10296379 0.19927244 -0.029678099 0.1495819

cons_embedding.3.bias f4 [64]
00000000: 45f8 b93d 9edb 0d3d 3340 3bbc 1e74 eb3a
00000010: d040 4c3d 01ea fc3d 8f05 043d 65fd f8bd
00000020: 89a4 a43d c09a 03bb a20a f1bc 3423 9a3d
00000030: 2125 0cbd 9e7b 90bd 608a fd3d 832f bdbc
00000040: 5620 72bc 7c25 a1bc 3116 883d f762 e5bd
00000050: e165 63bc a9b5 9d3d 6f22 9d3d 711d 6e3d
00000060: c765 cc3d 881b fcbd 3dde 51bb 3668 2c3d
00000070: bcf0 773d 03a0 363d 1bdd 3e3c 1d02 693d
00000080: b795 3bbd da5e c63d b8d9 91bd 3243 e4bd
00000090: 0efd bcbc 567b 1dbd 3787 cfbd 3b7a 5cbb
000000a0: 7fe9 f43c 69c0 66bd aaf0 a4ba 6d80 75bd
000000b0: bdfe bc3d 6eec d43d 1e6e e63d c2f8 c9bd
000000c0: a433 fe3d bfc6 993d 647a a73c 31e9 2ebd
000000d0: 9c2e 44bd 3667 e23d f1b0 15bc 127f e23d
000000e0: 0d1b 833c 5598 00bd f9ab d63d 1458 abbd
000000f0: 3325 02bd 5fd0 efbb bde9 a33d 18ae 5b3d
0.09080557 0.03463327 -0.0114288805 0.0017963683 0.049866498 0.1234932 0.032231864 -0.12157706
0.08039195 -0.0020081252 -0.029424015 0.07526246 -0.034215096 -0.07054828 0.123799086 -0.023093944
-0.014778217 -0.019671194 0.06644858 -0.11200517 -0.01387927 0.077006646 0.07672583 0.058133546
0.0998035 -0.12309939 -0.0032023333 0.04209157 0.060532317 0.044586193 0.011649395 0.05688678
-0.045797076 0.0968606 -0.07121605 -0.11145629 -0.023069885 -0.0384477 -0.10133212 -0.003364219
0.029896496 -0.05633584 -0.001258393 -0.05993693 0.09228275 0.10396658 0.11251472 -0.098619
0.124121934 0.07508611 0.020444103 -0.042702857 -0.047896013 0.11054842 -0.009136424 0.11059393
0.01600411 -0.031395275 0.1048202 -0.08366409 -0.031773757 -0.007318541 0.080035664 0.053632826

var_embedding.0.weight f4 [7]
00000000: 1b11 803f cd14 803f 2be5 7f3f c9dc 7f3f
00000010: b8d1 7f3f e5aa 7f3f 641f 803f
1.000522 1.0006348 0.9995906 0.99946266 0.9992938 0.9987014 1.000958

var_embedding.0.bias f4 [7]
00000000: c371 503a 719c 183a 41ad dfb9 fa7f ff39
00000010: 0667 333a c25b a03a 4a5b c739
0.0007951522 0.00058216514 -0.0004266296 0.0004873274 0.000684366 0.0012234377 0.00038024253

var_embedding.1.weight f4 [64, 7]
00000000: ca52 bb3e 0cef f4be d848 6a3f cde0 69bf
00000010: 99eb 2dbd 66c7 cfbe 6f36 443e fcb9 c6bd
00000020: 77f5 3bbe 4c4f 7abe b3a3 7dbe 8ea0 263f
00000030: 22b1 5cbf 3e52 e63e 0490 d4be c329 51bf
00000040: b89b 163f e286 e03e 5cd5 5a3f 15e6 edbe
00000050: 3dce 373f 7270 3a3e 4779 e3be 643f 18bf
00000060: 5e8b 943e d786 a13e 56dd 243f c8ab 2d3f
00000070: 216f 073f a33b 843e d413 95bc ca3d 5bbf
00000080: d940 64be b767 b4bd 5e4d 56bf 5bb5 2fbe
00000090: 816e 003e 9762 d9bd 6b52 10bf e081 88bd
000000a0: b4a2 8ebe e8de 3c3e deea 4a3e 8a55 e2be
000000b0: dc9b 003c 7d1c 153f 82ed cbbe 8188 07bf
000000c0: a9d0 8c3e 75b8 52bf e506 f9be 76b8 cabe
000000d0: 8e23 0a3f 46d8 3abf 0b75 82be 707a 00bf
000000e0: a2a9 453f 6b9c 74bd 5771 5abf 22ca 25be
000000f0: 86a5 ccbc c3f5 d6bd 42b2 29bf a561 fb3d
00000100: ddbe 0bbf a22d 143e f134 533f 2842 39bf
00000110: f79e 4ebf 4ddd 243e 532b 45bd 814e fabe
00000120: 26e7 6b3f f8d1 1cbf 87e6 5abe 50fa e9be
00000130: 4e25 433f bd36 b6be e30d 233e 9d68 ce3e
00000140: 5785 3f3f 2a2d 10bf 8737 9b3c 8761 03bf
00000150: 1a4a 303f 31a5 103e c72f 03bf 4e01 52be
00000160: 0d8d 42bf 79fc 22bf bb3c 4c3e 4d21 fcbe
00000170: 35b8 683f 824f 563f 40c8 f93e 4ec8 2ebf
00000180: 41a8 d23e 8087 4bbf 1c28 0abf 367c 39bf
00000190: 70d1 f13e e784 2fbe 5e27 233f bd87 c3be
000001a0: db92 a1be e69a 5fbf ef4b 153e f836 aebe
000001b0: f45c 063f 2042 6cbf dd13 6c3f 53f8 0abf
000001c0: b926 e6be 9608 063f a1e3 31be e276 053f
000001d0: 55a2 b93e ace0 bf3e b7bb 143e adf7 a23e
000001e0: d3b7 66bf d748 bbbd efd3 27bf 9440 ed3e
000001f0: 215d 61bf bcee ef3e 08b6 f13c 4d77 c93e
00000200: a5d2 093f b0d0 3a3f 4e3b 6bbf 674a 1e3f
00000210: cc4b 023f 659c ad3e 7a80 2ebf acf1 e73d
00000220: 3fbc e4be 8da8 5cbf 1730 34bf 7cfc 6b3f
00000230: e6c8 ef3e 88b5 0a3f 8f71 673f 653b 54be
00000240: 8895 453e e8dc ad3e 1ddb 52bf fcdc 103f
00000250: ad7e 40bf 684b 90be 3b32 64bf 580b 10bf
00000260: 7e99 5abf 492d a8bc e5a8 f0bc 52e4 983e
00000270: 5402 083f 71a7 873e ed70 4f3f 63e9 643f
00000280: 3680 1ebf bb14 023f beeb 543f c988 3d3d
00000290: bf23 d03e e571 43bf ff8a 1cbf d962 e73e
000002a0: b534 553f 0a4b eb3e 6d09 03be 418e e93e
000002b0: 4f06 a63e 1f2f 8ebd bf3b 6a3f 4346 ee3e
000002c0: 5cd7 c73e f761 b3bd 8dec 4fbf 0b47 41bf
000002d0: fad3 353f a0e6 5c3f ea1c 5fbf a8c6 253f
000002e0: f164 313f b478 cd3e e44f ab3e 7e11 debd
000002f0: bd7f 533f 5125 33be c364 11bf 7639 0f3f
00000300: 15b2 41bf fc99 293f bf3b b13e e9ef e2be
00000310: cbf9 e33e dfd0 5ebf e763 213f 0ccc a93e
00000320: 478f 11bf dffe cdbd 7557 303f d38e 003c
00000330: b2ae fabc 84eb aa3d 772f 383f 41a5 3b3f
00000340: ea98 3ebf 1819 fcbe 7f43 ee3d 78ac 1dbf
00000350: d268 033f 3720 4bbf 8eb0 8dbe 5b79 7b3e
00000360: f960 dfbd 0040 e13e df6b 82be a8a5 663f
00000370: bdd2 663e ca75 e6bd 6821 b23e 5b94 053e
00000380: 74fd 183f d688 3cbf 5282 9bbe af63 91bd
00000390: bf0d 653f 67b3 68bf 9234 fbbe 61fe 3bbf
000003a0: 6379 b13e 43fe 383e bdfb b43c e31a 30bf
000003b0: f5e1 6b3f 7473 f73e 3c31 173f 0267 493f
000003c0: fa4f c4bd 44ad 363f 841b 4a3e d01b e3bd
000003d0: 8c90 25be ec71 27bf 4d9d aa3c 4541 753c
000003e0: bd44 45bf e210 b9be 3c50 2f3e 0a1c 963d
000003f0: 608d 8bbd 0005 6dbf d243 933c 8dbe 1bbe
0.365866 -0.47838628 0.915174 -0.91358644 -0.04246101 -0.40581816 0.1916139 -0.097034425
-0.18355356 -0.24444312 -0.24769478 0.65088737 -0.86207783 0.4498462 -0.41516125 -0.8170435
0.5883136 0.43852907 0.8548181 -0.464646 0.7179907 0.18206957 -0.44428465 -0.59471726
0.2901258 0.31548187 0.6440023 0.6784024 0.52903944 0.2582675 -0.018197931 -0.8564116
-0.22290362 -0.088088445 -0.837118 -0.17159025 0.12542154 -0.10614508 -0.5637576 -0.06665397
-0.27858508 0.18444407 0.19816157 -0.44205886 0.00784966 0.58246595 -0.39829642 -0.52942663
0.27502945 -0.8231271 -0.48638073 -0.39593858 0.539605 -0.7298626 -0.25479922 -0.50186825
0.77211964 -0.059719484 -0.8532919 -0.16190389 -0.024981271 -0.10496094 -0.66287625 0.122744836
-0.5458811 0.14470533 0.8250266 -0.7236657 -0.8071131 0.16100045 -0.04813702 -0.4888802
0.9214958 -0.61257887 -0.21377002 -0.45698786 0.762288 -0.35588637 0.15923266 0.4031419
0.74812835 -0.56318915 0.018947376 -0.5132069 0.6886307 0.14125516 -0.5124478 -0.2050831
-0.75996476 -0.6366649 0.19945042 -0.49244156 0.9090608 0.8371507 0.4878559 -0.6827439
0.41143993 -0.7950363 -0.5396745 -0.72455156 0.472301 -0.17140542 0.63731945 -0.38189498
-0.31557354 -0.8734573 0.14579748 -0.34026313 0.52485585 -0.922884 0.9221781 -0.5428516
-0.44951418 0.5235685 -0.1737199 0.52134526 0.36256662 0.374761 0.14524733 0.31829587
-0.90124243 -0.091447525 -0.6555776 0.46338332 -0.8803273 0.46861827 0.029505745 0.39348832
0.53837043 0.7297468 -0.91887367 0.6183228 0.50896907 0.33908382 -0.6816479 0.11325392
-0.4467487 -0.8619469 -0.7038588 0.92182136 0.4683296 0.54183245 0.9040765 -0.20725782
0.19295323 0.339576 -0.8236559 0.56587195 -0.7519329 -0.2818253 -0.89139146 -0.5626731
-0.8539046 -0.020529406 -0.02937741 0.29861695 0.5312855 0.26494935 0.81031686 0.8941862
-0.61914384 0.5081288 0.83172214 0.046273027 0.40652272 -0.76345664 -0.6114959 0.45192602
0.8328355 0.45955688 -0.12796564 0.45616344 0.32426688 -0.069425814 0.91497415 0.4653798
0.39031494 -0.0875892 -0.8122032 -0.7549903 0.71026576 0.86289406 -0.87153494 0.6475625
0.6929465 0.40131152 0.3345939 -0.1084318 0.8261679 -0.17494704 -0.56794375 0.55947053
-0.75662357 0.66250587 0.34615895 -0.44323662 0.44526514 -0.8703746 0.63043064 0.33163488
-0.5685925 -0.100583784 0.6888345 0.007846552 -0.03060088 0.08345702 0.71947426 0.7329903
-0.7445208 -0.49237895 0.116339676 -0.6159129 0.5133182 -0.7934603 -0.27673763 0.24558012
-0.10907168 0.4399414 -0.25472924 0.9009652 0.22541328 -0.11252935 0.34791112 0.13044874
0.5976174 -0.73646295 -0.30372864 -0.07099091 0.894741 -0.90898746 -0.49063545 -0.73435026
0.34662923 0.18065743 0.022092694 -0.68791026 0.9214166 0.4833027 0.590595 0.786728
-0.09585567 0.7135813 0.19737059 -0.11089289 -0.16168422 -0.65408206 0.02082696 0.014969175
-0.7705801 -0.36145693 0.1712045 0.07329567 -0.068140745 -0.92585754 0.017976675 -0.15209408

var_embedding.1.bias f4 [64]
00000000: 5769 863e 4b06 ac3e 1421 c0be aad9 b5be
00000010: a245 aabe 019c 6b3e 4810 7cbe 8e77 523d
00000020: 24bc adbe 690c 85be a39f 67bd 235c b73e
00000030: 4f08 a23e 30e3 7d3e 9175 873d eb92 6cbe
00000040: 88bc aabe 1eee adbe daea 043d 2e69 87bd
00000050: cd7d ad3e b46f 243d aef2 233e d8ea 783d
00000060: 4215 a8bd cdf7 6a3e 1fab 563b 6435 bfbe
00000070: a972 173e 3752 753c c80b b9be 49ad 863e
00000080: ba9e 373e ea22 9abd 08b5 563e 64cb 4dbe
00000090: 06a9 9e3b b79e 893c 5644 1b3d cd6b a73d
000000a0: 2e78 2abe 0126 9dbe d156 963e ef65 84be
000000b0: b370 b53d c634 b2be c1bf a9be ddeb d93d
000000c0: 3cb8 a4be 8deb b23e 015e 303d a858 e23b
000000d0: ef1c 193e 294c fdbc 283b 043e d760 06be
000000e0: 9b8e 9c3d 7df2 3abe 822d f0bd c457 763e
000000f0: e52b 4b3e d069 823e f316 043e 70c2 b6be
0.26252243 0.3359855 -0.37525237 -0.35517627 -0.3325625 0.2300873 -0.24615586 0.051383547
-0.33932602 -0.2598603 -0.056548726 0.35812482 0.31646964 0.24793696 0.06614221 -0.2310292
-0.33346963 -0.33970731 0.032450534 -0.06611858 0.3388504 0.04014559 0.16010544 0.06077084
-0.082071796 0.22946091 0.0032755805 -0.3734542 0.14789833 0.014973215 -0.361418 0.2630408
0.17931643 -0.075261906 0.20967495 -0.20097119 0.0048419265 0.016799314 0.037906967 0.08174858
-0.16647407 -0.30693057 0.2936311 -0.2585902 0.08859386 -0.34805888 -0.3315411 0.106406905
-0.3217181 0.34945336 0.0430584 0.0069075413 0.14952444 -0.030920105 0.12913191 -0.13122879
0.07644387 -0.18256564 -0.1172743 0.24056917 0.19840963 0.25471354 0.1289938 -0.3569522

var_embedding.3.weight f4 [64, 64]
00000000: 1b9c 40bd 5118 c8bb dc56 693d 99d4 903e
00000010: bc4f 9bbd 59ca 3ebe ea70 6f3e 17b9 37be
00000020: 3c69 c3bd 9948 683e 6ec8 61bd 03f2 f63b
00000030: c1d4 06be 3b4e 91be 9c63 843e c10a a93d
00000040: ac46 313e 9b1f 00bd 6670 853e 8e45 663e
00000050: c24f 233e d1fe ecbd a220 2ebe 5311 92be
00000060: b3bc 6c3d c2b3 993e 4734 8d3e 1c85 fcbc
00000070: 510f 42be 6e5a a13d 35cc 403e 258b 823e
00000080: 28d4 3e3e 56d8 9b3e d66e ef3b a0ad 70bd
00000090: 8387 693e d10c da3c 8d51 85be 80ab 5ebe
000000a0: 1d90 6e3e 1cc2 82bc 96d4 ac3d 2d1f bf3d
000000b0: e7da 8c3e 9abf f5bd 5e2c 4c3b ef82 9abe
000000c0: 9eca 5f3d 1005 843e db29 2bbe 4fc2 8e3d
000000d0: 22d3 75bd 2c6b 31be d76b 44be 47fb 2f3e
000000e0: 4c2d 30be 2079 163d edbe 093d c93b f93d
000000f0: 1007 8e3e a861 433e 08c8 80be 0f85 ca3d
00000100: bab4 61be 71c4 8fbe a9f9 61be 120d 00be
00000110: 7983 44be 924d 073e 38ca 9b3d 1bd8 0abd
00000120: 7115 043e 3cd6 dabc 916a 0abd f80a 94be
00000130: daac 06bd adfa 4ebe 234f 983e 1328 ef3d
00000140: 0457 03be 24d4 a6bd b5a7 183e e7e6 513e
00000150: 2464 c43d 4426 46be 2582 cdbd 122e 0d3e
00000160: 7e2e d0bd 49c3 bd3d 6c46 04be 4dfc 3e3e
00000170: 4f2d 21bd 9a6b cfbd ad86 70be 4bef c93d
00000180: b335 083d 2d9a 32be e144 94be 8d31 6abe
00000190: 9edd 553e 11a1 723e 91b3 613e d905 92be
000001a0: 51fa 0b3e abae 8c3e 8264 083e 200d 5c3d
000001b0: 364f da3d e400 7cbe 43c4 fcbc 4903 81be
000001c0: af96 0e3e 317e 9dbd 8429 52be eabd 52be
000001d0: ff87 793e aa8f 32be df45 1d3e 55ea 203c
000001e0: 6cb9 88bc 3765 7cbe f308 cf3d 2a63 1e3e
000001f0: f6d2 393e 8abd 23be d8ef 413e 7c72 8abe
00000200: 1da0 893e 0d61 e4bd 5111 503d de43 813e
00000210: f902 173e 60b6 dbbd 874d 6c3e 2949 1dbe
00000220: 3849 993e 490f 65bc 800d 8c3e 9dbc 8cbe
00000230: c3fc bfbd 1958 283e 0146 50be 6438 eabd
00000240: ec5a 10bd 475b f7bc 8b9e 7fbc 6380 d93d
00000250: d16c 863e 1014 86be 75a5 49be 8634 4fbe
00000260: 9165 6e3e aa2a dfbd 0fb5 a2bc 9454 f63d
00000270: 6b25 353e 9e38 1bbd 76e9 db3d e0a4 8ebe
00000280: 12b3 94be 48e7 23be fc70 83be fbcd 93be
00000290: e6ba 953e 24d2 113e 025e 083e 6c30 983e
000002a0: 9f47 d53d 904e 94be 54a0 423e 336b a2bc
000002b0: 7a53 9abe 15c9 103e 6aa0 18be 8772 cbb9
000002c0: 8a42 983e 473e aa3d c75d 7d3e 5d27 6dbe
000002d0: 3b91 2fbe f6e8 d73c 50cc b5bd be15 96be
000002e0: 7282 8aba 141f 93be 618c 19be 7c3e 45be
000002f0: ce37 313e 69f7 7bbd a5a1 0abe 18bc acbd
00000300: 2ae7 023c 88bb c03d 3dd6 29be d97b 103e
00000310: 71e1 7c3e 863c 93be 3c18 13be 340d debc
00000320: d0ee 9b3e dfd0 86be f494 91be a931 04be
00000330: faf6 86be 5de8 943d b3d3 383e c48a 8ebe
00000340: 96c8 643c 2480 903e 21f9 bdbc 49b2 993e
00000350: 088f 88be 7c32 28bd 7748 a63d 266f 483e
00000360: 23a8 163e c546 bebd 14bb 72be 3fd7 4ebe
00000370: dffc c53d 8c42 6bbd 20b9 8abe f76a 9bbe
00000380: f87e 68be 947c 0ebe b65b 57be 75ae 26be
00000390: 24cf 1b3e 6283 82be a085 983e 0644 813e
000003a0: 3296 92be 7356 443e b6d1 8a3e 78e0 30bd
000003b0: 9ee9 8ebe 9869 67be 9f6d 84be 210c 69be
000003c0: 8b52 133e cece 20bc d37a 00be e19e 3fbe
000003d0: c411 90be d125 6abe e786 5abb c848 3bbd
000003e0: e2be 843d 8ffc bdbc e80e 883e dc23 813e
000003f0: 7539 88be 881b 453e 1069 ddbd f029 73bd
-0.047023874 -0.0061064144 0.0569676 0.282872 -0.075835675 -0.18631877 0.23382917 -0.179417
-0.09541556 0.22683944 -0.055122785 0.0075361743 -0.13167097 -0.28379998 0.25857246 0.08254004
0.17312115 -0.03128014 0.26062316 0.2248747 0.15948394 -0.1157204 -0.17004636 -0.28528842
0.057797145 0.30019957 0.27578947 -0.03082519 -0.18951155 0.07878576 0.18827899 0.25496784
0.18635619 0.3043849 0.007306914 -0.05875933 0.228056 0.02661744 -0.2603878 -0.2174511
0.23297162 -0.0159617 0.08438985 0.09332118 0.2751076 -0.11999436 0.0031154375 -0.3017802
0.05463659 0.25785112 -0.16715185 0.06970655 -0.060015805 -0.17326039 -0.19181763 0.17185698
-0.1720478 0.036736608 0.033629347 0.12169606 0.27739763 0.19080222 -0.25152612 0.0988866
-0.22041598 -0.2807956 -0.22067894 -0.12504986 -0.19190778 0.13213184 0.076069295 -0.0338975
0.12898804 -0.026713483 -0.033793036 -0.28914618 -0.032879688 -0.20212813 0.29747877 0.116775654
-0.12826163 -0.08145931 0.14907725 0.20498239 0.09589413 -0.19350535 -0.10034589 0.13787106
-0.10165118 0.09265763 -0.12917489 0.18650933 -0.03934985 -0.10127945 -0.23488875 0.09860095
0.033254337 -0.17441626 -0.289588 -0.22870465 0.20885321 0.23694254 0.22041155 -0.28520086
0.13669707 0.2747701 0.1331959 0.053723454 0.106596395 -0.24609715 -0.030855304 -0.2519782
0.13924669 -0.07690085 -0.2052365 -0.20580259 0.24368285 -0.17437616 0.15358685 0.009821494
-0.016689979 -0.24647985 0.10109129 0.15467516 0.18146881 -0.15990272 0.1893915 -0.2704047
0.2687997 -0.111513235 0.050797764 0.2524709 0.14747228 -0.10728145 0.2307645 -0.1535994
0.29938674 -0.013980695 0.2735405 -0.2748765 -0.09374382 0.16439857 -0.20339204 -0.11436537
-0.03524296 -0.030194892 -0.015601764 0.10620191 0.26254895 -0.2618718 -0.19692023 -0.2023488
0.23280932 -0.108968094 -0.019861726 0.12027851 0.17690055 -0.03789579 0.107378885 -0.27860165
-0.2904287 -0.16006196 -0.25672138 -0.28868088 0.29244155 0.14240319 0.13317111 0.29724443
0.10414051 -0.28966188 0.19006473 -0.019826507 -0.30141813 0.14139207 -0.14904943 -0.00038804507
0.29738265 0.0831266 0.24742804 -0.23159547 -0.17145245 0.026356202 -0.0887686 -0.29313463
-0.001056744 -0.28734648 -0.14994957 -0.19262117 0.17306444 -0.061515246 -0.13538225 -0.084343135
0.007989684 0.09410769 -0.16585632 0.14109744 0.24695374 -0.28757113 -0.14364713 -0.027105905
0.30455637 -0.2633123 -0.28433955 -0.12909569 -0.26360303 0.07270882 0.18049507 -0.27840245
0.013963839 0.28222764 -0.023190083 0.30018833 -0.26671624 -0.04106377 0.0811929 0.1957365
0.14712577 -0.09290842 -0.23704177 -0.20199297 0.09667372 -0.05743651 -0.27094364 -0.30355045
-0.22704685 -0.1391471 -0.21031079 -0.16277488 0.15215737 -0.25490862 0.29789448 0.2524721
-0.28630215 0.19173603 0.27113122 -0.04318282 -0.2791261 -0.22598875 -0.25864884 -0.22758533
0.14386956 -0.009814931 -0.12546854 -0.18712951 -0.28138554 -0.22865988 -0.0033344568 -0.045723706
0.064817205 -0.023191718 0.26573873 0.2522267 -0.26606336 0.19248784 -0.10811055 -0.059366167

var_embedding.3.bias f4 [64]
00000000: 2eec b63d c599 d03b 6d41 de3d 60a6 bfbd
00000010: 09a5 c03d ab05 eb3c cd4a c9bd 0c42 8e3d
00000020: 3dc4 e63d 1db0 54bc fa56 cfbc 775d ddbd
00000030: 4c42 fd3c 9ef5 cfbd 702f ebbd a3c5 073d
00000040: 1e23 863c 6e36 be3c a8ac 28bb 1fec bc3d
00000050: 61b8 f2bd 3490 f43d e714 dd3d 66f2 27bd
00000060: 42db 113d d801 333c d917 a93c 8ead 803d
00000070: 5e47 14bd 9fb9 69bd 7a97 c8bb 80ca f43d
00000080: d678 d53d 3c78 d03d 42ab c73d 8980 a93c
00000090: 43eb 113d fd07 d5bd fc9f 9b3d bdad 8c3d
000000a0: e255 be3c 5e84 8c3d 43cd 963d 34db 8ebd
000000b0: 1b40 c0bc 5016 bc3c 9e04 2fbd ab42 8cbd
000000c0: 557c 24bd ad78 49bd 1c47 29bd a5cb 9c3d
000000d0: b557 e7bd 2aa5 923c 38d4 ad3d fdbd dd3c
000000e0: 3e9d ae3c 3679 dabd 1070 7c3d ec04 8f3d
000000f0: 0db6 43bd a03d 6c3c eedb 803b 5b7d 523d
0.089317665 0.006365987 0.10852323 -0.093579054 0.09406478 0.028689226 -0.0982872 0.06946191
0.11267898 -0.012981442 -0.025310028 -0.10808843 0.030915402 -0.1015427 -0.11483657 0.033147465
0.016374167 0.023219313 -0.0025737677 0.09224724 -0.11851574 0.11941567 0.107950024 -0.041002654
0.03560949 0.010925733 0.020641254 0.06283103 -0.036200874 -0.057061788 -0.006121573 0.11952686
0.10423438 0.10179183 0.09749462 0.020691173 0.035624754 -0.10401914 0.07598874 0.068690754
0.023234311 0.068611845 0.07363369 -0.069754034 -0.023468068 0.022959858 -0.042729013 -0.068486534
-0.040157635 -0.04918735 -0.04132758 0.076560296 -0.11296026 0.017901022 0.08487743 0.027068133
0.021315213 -0.106676504 0.06163031 0.06983361 -0.04778104 0.014418989 0.0039324677 0.05138908

conv_v_to_c.feature_module_left.0.weight f4 [64, 64]
00000000: cae3 0bbe f4c9 d8bd ab74 cf3d bc13 773e
00000010: 2933 abbd 75e6 8abe d9c3 203e 5e88 fd3d
00000020: 9395 973e 7e6d 473e 66c8 c8bd 01dc 1cbe
00000030: d77c 663d d64c 0dbc 572d 83be ee1c 3d3d
00000040: 3696 913e daba ca3d 5379 173d 483a 8f3e
00000050: f8be 133d 0248 5f3e 5f34 943d a362 f2bd
00000060: c7d3 b73c 35b6 043e aeee 81be 4330 cfbd
00000070: 9f93 ae3d 674d 583d e453 08be 1521 793d
00000080: 3a6f 4cbe fc2e 05be faff 9bbd 6674 1a3e
00000090: aea5 c4bc 71ec 163e 6c2c e83d 2b6e c3bd
000000a0: f3c1 b1bd 7a72 563e 89cc 963c 3af2 7fbe
000000b0: afa9 943e d797 b8bc 4883 7fbe 9752 0abe
000000c0: 3ed7 403e 2ba7 4dbe ea69 6dbe 75b2 343e
000000d0: ee4a 173e 765b 8b3e a203 40be df58 a6bd
000000e0: e53e 58be 81ba 4cbd d950 90be 24b2 603e
000000f0: 86d1 2d3d 7e92 843e 3aa6 a2bd d70a c23c
00000100: 03e4 b13c 7542 193e 5763 f1bd d84d 013e
00000110: 0a6d 16be 45d6 923a d48d 26be 8b64 a23c
00000120: b8a9 27be 84f5 32be 8f67 7abd 6ae1 e33d
00000130: 391b cf3d 9423 253c 7177 883d a672 4c3e
00000140: 8679 ba3d 5753 8dbe 79f1 393c c2f1 153e
00000150: c3c7 5a3c 8964 1bbe f33c d6bd 7930 0c3e
00000160: d052 4d3d c9ac 233e f558 003e 3c47 42bd
00000170: 09ce 1fbe 80e8 873e d02d efbd 2dac 283e
00000180: 8a2e 873e cc2d 1a3e a140 083d 0182 223d
00000190: 6c88 8dbe e039 563e 462b 863e 1e64 133d
000001a0: 4d59 4c3d e1a5 febd 016f 1a3e 60aa 88be
000001b0: 5c37 6b3e 6e21 f3bd bcc3 ab3d dc37 d73d
000001c0: 86f1 32be e319 eabd 0b90 19bd bc55 9a3e
000001d0: 21be 3b3d cf7f 84be 0c9e 9bbe c266 5abe
000001e0: 5129 913e b250 88be 9829 4c3e 53da 02be
000001f0: 9091 a3bd 5c96 0bbe 0e5b 8bbe f5ec 13be
00000200: 70b4 96be b587 41be 50e2 32be f0f2 e1bc
00000210: 3d57 963e 7143 90be 2e0c 7bbe 5766 643d
00000220: b488 b4bd 1652 b6bd 22a3 153e 7fd4 053d
00000230: fd94 00be e13f 8dbe 9bb3 3dbe bb35 7cbe
00000240: 7be4 163d e05f d33c 2133 1dbd 23ae 833e
00000250: 032e 60be a10c 4dbd a90a 8dbe 1214 a43d
00000260: f370 90be e6a7 07be f250 92be 6c04 203e
00000270: ab4c 13be 8a38 1abd 6e45 09be 29ee 19be
00000280: c604 4f3e 8b67 703d 7397 81bd fc6c 963e
00000290: 6ede d2bd ad43 f53c 7032 9c3e 1a32 db3d
000002a0: db17 25be 59ee 533d 4018 ae3c 2a56 683e
000002b0: 381a ec3d 88d7 b1bd 81b9 033e 4d99 993e
000002c0: 5673 7abe 640b 5cbe 1a48 9cbe 1d86 5abe
000002d0: a534 493e 7624 063e 0a77 1b3d 60f1 973e
000002e0: d5e0 9a3e 6edd cfbc 669a 7abe 87a1 953e
000002f0: 40f9 3c3e fc4d d93d fbb0 84be 686b 2e3e
00000300: 71fd a1bd b95b 093e 9a99 5cbd 8036 073e
00000310: 711e 75bd 5747 053e b4db 073e d2cf 4abe
00000320: e5e2 44bb ad34 78bd c6d7 7d3e 6a5c e1bc
00000330: d884 953e 1415 8c3c 1435 8fbd 1caf 883e
00000340: 969f 44be bec8 97be 9f50 893e b70e aebc
00000350: 8502 243e a414 8a3e 9683 9b3c 910d dfbd
00000360: 065d 8ebe d819 6c3e 09f5 753e ff22 563e
00000370: c3e5 4dbe caca 7bbe d0a7 7abe 716f 96be
00000380: 971f 5bbe a2f2 83be 5500 76bd b7de 78be
00000390: eb4b 96be 24ef 4dbe d193 06be bc85 0b3e
000003a0: 57bb 2c3e e562 91be f399 8ebe 28e2 e9bd
000003b0: 6e28 2ebe 7e06 743e f71b 983e 3e7b dc3d
000003c0: 1c74 3cbe ffc7 293e 5748 febc c4be 8d3e
000003d0: f2b0 563e 436a 393d 9c72 99be 2317 383d
000003e0: cfd1 443e c8ed 18be bacf 33be ee7d 9c3e
000003f0: 5c8c c5bc d09d 83be 1fb5 80bd 53e6 463d
-0.13661113 -0.105853945 0.101296745 0.24128622 -0.083593674 -0.2712895 0.1569971 0.123795256
0.29606304 0.19475362 -0.09803848 -0.153183 0.0562714 -0.008624276 -0.2562053 0.046170168
0.28434914 0.0989892 0.03698094 0.27974153 0.036070794 0.21804813 0.072365515 -0.1183522
0.02243985 0.12960131 -0.2537741 -0.10116627 0.0852425 0.05280819 -0.13313252 0.060822565
-0.19964305 -0.13006204 -0.07617183 0.15083465 -0.024004783 0.14738633 0.11336598 -0.09542497
-0.08679571 0.20942107 0.018408077 -0.24994746 0.29035708 -0.02253334 -0.24952424 -0.13508068
0.18832108 -0.20083301 -0.23184934 0.17646201 0.14774677 0.27218217 -0.18751386 -0.081224196
-0.21117742 -0.04998255 -0.28186682 0.21942955 0.042436145 0.25893015 -0.079418615 0.02368681
0.02171517 0.14966758 -0.11786526 0.12627351 -0.14690033 0.0011202773 -0.1626504 0.019823333
-0.16373336 -0.1747647 -0.061133917 0.11126979 0.10112614 0.010079283 0.06663407 0.1996561
0.0910521 -0.27602646 0.0113490755 0.14643005 0.013353291 -0.1517507 -0.10460844 0.13690366
0.050127804 0.15983881 0.12533934 -0.047431216 -0.1560594 0.2654457 -0.1167866 0.1647193
0.26402694 0.15056533 0.03326476 0.039674763 -0.27643144 0.20920515 0.2620489 0.03598415
0.04988985 -0.12433983 0.15081407 -0.26692486 0.22970337 -0.118716106 0.08386943 0.10508701
-0.17474946 -0.11430719 -0.037490886 0.30143535 0.045835618 -0.2587876 -0.30394018 -0.21328261
0.28351834 -0.26624066 0.19937742 -0.12778597 -0.07986748 -0.13631576 -0.27217907 -0.1444586
-0.29434538 -0.18899424 -0.17469144 -0.027581662 0.29363433 -0.28176454 -0.24516365 0.05576166
-0.088151366 -0.089023754 0.14613011 0.032673355 -0.12556835 -0.27587798 -0.18525545 -0.24629872
0.03683899 0.025802553 -0.03837884 0.25718793 -0.21892552 -0.050060872 -0.27547196 0.080116406
-0.28211173 -0.13247642 -0.2857738 0.15626687 -0.14384715 -0.037651576 -0.13405392 -0.15032257
0.20216665 0.058692496 -0.06327715 0.29380023 -0.10296331 0.029939497 0.3050723 0.107029155
-0.16122381 0.051740978 0.021251798 0.22689119 0.11528438 -0.086836874 0.12863733 0.29999772
-0.2445806 -0.2148872 -0.3052376 -0.21340223 0.19648989 0.13099846 0.03795532 0.29676342
0.30249658 -0.02537414 -0.24472961 0.29224798 0.18454456 0.106105775 -0.25916275 0.1703316
-0.07909668 0.13413896 -0.053857423 0.13204384 -0.059843484 0.13015495 0.13267404 -0.1980584
-0.0030042466 -0.06059711 0.24789342 -0.027509887 0.29202914 0.017099895 -0.06992546 0.26696098
-0.19201502 -0.29645342 0.26819322 -0.021247251 0.16016586 0.26968873 0.018983644 -0.108912595
-0.27805346 0.23056734 0.24019255 0.20911787 -0.20107178 -0.24589077 -0.24478078 -0.29381898
-0.2139877 -0.25771052 -0.06005891 -0.24303709 -0.29354796 -0.20110756 -0.13142325 0.13625234
0.1686834 -0.28395763 -0.2785183 -0.11420089 -0.1700761 0.23830602 0.29708835 0.10765694
-0.18403667 0.16580199 -0.031040354 0.27684605 0.20965937 0.045267355 -0.29970253 0.04494394
0.1922066 -0.14934456 -0.1755971 0.30564827 -0.02411478 -0.2570634 -0.06284546 0.048559498

conv_v_to_c.feature_module_left.0.bias f4 [64]
00000000: b87e b3bc 40f2 6f3d 7930 663d 0c50 acbd
00000010: 5c93 5ebb 6cf1 533d 6a13 e8bc 2592 4dbc
00000020: 0beb 4a3d 1d9e 4cbd e5fd e8bb b9db 263d
00000030: 4081 b8bd a076 8ebd 26b4 f83d eac7 ad3d
00000040: fa01 c23d 7cb9 913d 210a 073a 118b 7d3d
00000050: 4361 2b3d 908e a0bd e9ef 8c3d 6265 86bd
00000060: 3888 493d 2fe7 67bd e34c fdbd ea1e d7bc
00000070: 9c78 c63d a3dd 9e3d 3acf a3bd 8101 6fbd
00000080: 6567 243d 586c 8e3d a49f 38ba d6d6 d0bc
00000090: b12c e8bd 1083 d1bd bd80 c3bd 3e75 ef3c
000000a0: 35d4 293d 2031 6dbc 0316 8bbd 5365 0abc
000000b0: d784 783b 38a6 e5bd bfbf 313d b258 5d3c
000000c0: f69c ff3d 280c 873d 18ad 95bd 59bb 7cbd
000000d0: 2d73 b3bd 10af 07bd 7639 953d 7237 5fbd
000000e0: 48c2 e5bd 47cf a33d 9cbf 113d c7a4 2c3d
000000f0: 2b7b 073d 4285 69bc 9c27 ec3d c93b fa3d
-0.02191101 0.058580637 0.05619857 -0.08413705 -0.0033962345 0.05174391 -0.02832957 -0.012547051
0.04954056 -0.049955476 -0.0071103447 0.040736888 -0.090090275 -0.0695622 0.121437356 0.08485396
0.09473033 0.071154565 0.00051513506 0.061900202 0.041840803 -0.07839692 0.06881697 -0.06562306
0.049202174 -0.05661696 -0.123681806 -0.026259858 0.09690973 0.077571176 -0.0799851 -0.058351044
0.040137667 0.06954259 -0.0007042831 -0.025493067 -0.11336649 -0.10230076 -0.09546039 0.02923071
0.041462142 -0.014477044 -0.06791308 -0.008447009 0.0037920976 -0.11213344 0.043395754 0.013509916
0.1248111 0.065941155 -0.07308406 -0.061702106 -0.087622024 -0.033125937 0.072863504 -0.054496236
-0.11218697 0.079985194 0.035583124 0.04214933 0.033076447 -0.014252963 0.115309924 0.12218434

conv_v_to_c.feature_module_edge.0.weight f4 [64, 1]
00000000: d97d 41bf 4d16 c2bf e9dd 07c0 212b 1040
00000010: b7e5 9abf a966 7d3e 9a42 15c0 15b6 04c0
00000020: 420b c8bf 7c5c fdbf 19df 253f 6f04 11c0
00000030: 5c45 c63f 27c5 5bbf 5117 39bf f92f 003d
00000040: 051e 0ec0 b4db 263f c5bf d73f 4553 1940
00000050: ebf4 c93f 16f5 ef3e da82 1740 ef3e 13c0
00000060: a618 1540 990d 78bf d159 ed3f f298 fb3e
00000070: 8395 cabb 0ed2 7b3e 73ad 163f 6309 adbf
00000080: 5b52 a83f 0137 84bf 234d 8b3f 1ce8 f9be
00000090: 643f 1a40 6ae2 b2bf 7a7f bebf d99d e13e
000000a0: d762 123f daa6 b9bf 7e46 9abe 4d3a 71bf
000000b0: 2969 91bf 2ee7 df3f 3a3b 01be 4ca0 b13f
000000c0: 7c51 70bf 34d1 f73f 83e7 f6bf fd25 533f
000000d0: 3dbd 183f 166b 0ac0 3426 4dbe b5e8 c5bf
000000e0: 1b7e 303f 2d45 ebbf 70f4 90bd 469f e33d
000000f0: 0c70 5a3f 9681 c9bf ca96 dc3f da93 c4bf
-0.75582653 -1.5163056 -2.1229193 2.2526324 -1.2101353 0.24746193 -2.33219 -2.0736134
-1.5628436 -1.9793849 0.64793545 -2.2658956 1.5489917 -0.85847706 -0.72301203 0.03129575
-2.2205822 0.6517899 1.6855398 2.3957074 1.5777868 0.46866673 2.3673615 -2.3007162
2.3296294 -0.9689575 1.8543035 0.49140126 -0.006182374 0.24591848 0.5885841 -1.351849
1.3150133 -1.0329286 1.0882915 -0.48809898 2.410119 -1.3975346 -1.4882653 0.4406574
0.5718207 -1.4504044 -0.30131906 -0.94229585 -1.1360217 1.7492425 -0.1262025 1.3877044
-0.93874335 1.9360719 -1.9289402 0.8247984 0.59663755 -2.162786 -0.20034105 -1.5461642
0.6894242 -1.8380486 -0.07077873 0.11114363 0.8532722 -1.5742671 1.7233517 -1.5357621

conv_v_to_c.feature_module_right.0.weight f4 [64, 64]
00000000: 2f18 45be c8b4 823e ce52 31be 5386 36bd
00000010: 0d90 223e 8122 3cbe 5429 9cbb 5844 5ebe
00000020: 77a5 11be ab6f 943e c237 873d b141 843e
00000030: 693b a0bd e5fa fc3c ba09 263d 32cc 27be
00000040: 6f76 26be f627 e53d 6933 c43d 1daf 80be
00000050: d755 21bd a3f1 99be 93f9 0b3e e8a1 51bd
00000060: a51e 50be 01b6 f73d 58b0 ddbd 91a7 50be
00000070: f031 acbd 8d62 983e 1672 633d 6958 8c3e
00000080: fce8 17be 4d65 95bd 3f56 083e eba4 67be
00000090: a13b 923b 99f3 42be d4f7 1bb8 1be5 32be
000000a0: c693 2fbe 3133 1b3e 8f16 983e 4e5a 9abe
000000b0: 1c24 8d3e e4dd 0e3e 186e a3bd f1a0 de3d
000000c0: a0ca 79be 059b 58be a1c2 99be 4a1d 3a3e
000000d0: f984 2abe 9f1d 87be 2919 4e3e 0711 72bd
000000e0: 18ff 58bd 2768 66bd e272 c83d 2fdc a9bd
000000f0: 55aa 36be 19e2 f7bd c7b9 06be 1e98 603c
00000100: 925e cf3d 7bb6 0c3e 1642 783e 83ca ccbd
00000110: 874e 15bd 7b64 563e 28ca 103e 5657 4b3d
00000120: 41e9 e9bc 5266 85be e6eb eebc ad31 2bbb
00000130: 6427 dcbb 267f 50bd 6abd 0fbc a63d efbd
00000140: cb3d 8ebe 8a6a 94bd 0a21 1c3e cb11 56be
00000150: 32f3 033e 2afc 113e fa63 95bd 573c f4bc
00000160: 930a c9bd bc85 5cbe 4403 803e e230 36be
00000170: 859d 473e 24a2 92be a5ac 01bc 1ed4 f9bd
00000180: 7cda 5e3e 3353 5e3e 5700 0bbe a6ec d93c
00000190: 5be5 81be 62da 913e 22dc 8b3e ea0e 003d
000001a0: dbbd 523e 6dc7 083d 75f6 f3bd 5095 a93d
000001b0: 97cd 1b3e 3af5 a6bd f1da 563e ebc6 363e
000001c0: f0f0 18be 3484 7d3e 3af9 76be ca3a 973e
000001d0: 613b 01be 120c 9a3e d34c 863e 8f91 023e
000001e0: 5610 8a3e 055d 53bc eb5c 8ebe 8ef2 9bbe
000001f0: f9c5 f5bd 644b 303e 78ae d4bd 2746 9dbd
00000200: 151a 9abe 3d6b 8a3e 032c 9cbe 19dc 8bbc
00000210: 80bc 33be b4dc 8b3e 735d 93be 4d6f 94be
00000220: f07b 83be 755d 203d b9a5 a9bb daaf 84be
00000230: 0148 34be fa0b 883d 546f aabd 421c 743e
00000240: ddc2 483e d7d4 553e 8524 53be 89ff 163e
00000250: 1b0c 22be 52a8 783d d212 973e 8481 39be
00000260: c068 923d 6152 41be f003 7dbd 7be4 9c3e
00000270: 7a47 563e f0a3 fc3d e38a 8dbe f290 8bbd
00000280: ac9f f43d 8502 713e e2c2 693e 4771 383e
00000290: bda7 b63c f645 933e f631 1fbc a0b0 fcbd
000002a0: a913 953e bd6d 8abb 6aa6 5c3e 5b23 92be
000002b0: 13d9 a3bd 3e8d cd3d 8d50 d7bc d490 3c3c
000002c0: 2d6e 53bd 6bd4 423e 56cd 5abe ad2d 843e
000002d0: e0c2 24bd 64ef 143e c469 ce3d 4361 d23d
000002e0: 1a7b b03d 4789 01be 1929 8bbe dd74 b5bd
000002f0: 3250 5ebe 6cc4 2cbe 50ae 8b3c 402e 26be
00000300: c0b7 833d 7146 9c39 9ceb 133d 1baf 88be
00000310: fe71 73be 3e35 003e 7860 6abd 845b 71be
00000320: 0c16 c4bd 0706 dabd 5b02 643e df80 1dbe
00000330: 4e5d 8c3d 6a68 56be 304e 9cbb e7b9 323e
00000340: 0c23 4ebd 74e1 263e 11bf 9b3e e332 65bd
00000350: 2959 7d3e 06b5 96be ec69 a03d 125f e13d
00000360: d78a 65bd 77c2 833d 3868 3dbe 45ec 06be
00000370: 9000 d73d 7fea 8cbe 58dd 3fbe ac6d 8f3e
00000380: 762c 14bc 35b8 5bbe 6d05 88be 2079 69be
00000390: 4151 913e c729 23be 32f4 2bbe d5e6 673e
000003a0: bfad 9bbe 6136 eb3d aec7 09be c177 d2bd
000003b0: 7280 efbd 6a5e 8bbe 245c 77be 6987 1cbe
000003c0: e055 9b3d e208 dfbd 9612 85be 8293 2e3e
000003d0: b80e 763e 7fac 133e 0e5b c53b bffe e13d
000003e0: 6dc5 efbd c084 7dbd 0492 55be d061 ecba
000003f0: 804c 553e dfba d5bc 84f4 41be c21f e7bd
-0.19247507 0.2552855 -0.17316744 -0.044561695 0.15875264 -0.18372537 -0.004765669 -0.21705759
-0.14223276 0.28991446 0.06602432 0.2583137 -0.078238316 0.030881355 0.04053662 -0.16386488
-0.16256116 0.111892626 0.09580118 -0.251336 -0.039388504 -0.30067167 0.13669424 -0.051179796
-0.2032419 0.12095261 -0.108246505 -0.20376422 -0.08407962 0.29762688 0.055528723 0.27411202
-0.1483497 -0.07294712 0.1331415 -0.22621505 0.0044626747 -0.19038238 -3.7185688e-05 -0.1747021
-0.17146215 0.15156247 0.2970471 -0.30147022 0.27566612 0.13951832 -0.07979983 0.10870541
-0.24393702 -0.21152885 -0.30031303 0.18175235 -0.16652288 -0.26389787 0.20126785 -0.05909827
-0.05297765 -0.05625167 0.09787537 -0.0829395 -0.17838414 -0.121036716 -0.13156806 0.013708143
0.1012546 0.13741486 0.2424396 -0.099995635 -0.036451843 0.20936768 0.14139616 0.049643837
-0.028553607 -0.26054627 -0.02916522 -0.0026122138 -0.006718563 -0.05090251 -0.008773187 -0.116816804
-0.2778152 -0.07246883 0.15246978 -0.20905225 0.1288574 0.14256349 -0.0729446 -0.029813929
-0.0981647 -0.2153539 0.2500249 -0.17792085 0.19493683 -0.28639328 -0.007914697 -0.12198661
0.21763033 0.21711425 -0.13574348 0.0266021 -0.25370297 0.28486925 0.27316386 0.031264223
0.20580237 0.033393312 -0.11912242 0.08280432 0.15215145 -0.08152242 0.20981957 0.17849319
-0.1493566 0.24757463 -0.2411851 0.2953704 -0.12620308 0.30087334 0.26230487 0.12750839
0.26965588 -0.012900596 -0.27805266 -0.30458492 -0.12000651 0.17216259 -0.1038484 -0.07679396
-0.30098024 0.2703494 -0.30502328 -0.017072724 -0.17552376 0.2731682 -0.28782234 -0.28991166
-0.25680494 0.039151628 -0.0051772264 -0.25915414 -0.17605592 0.06642909 -0.083220154 0.23838905
0.19605584 0.20881973 -0.206194 0.14745916 -0.1582493 0.060707398 0.29506546 -0.18115813
0.07148886 -0.18879081 -0.061771333 0.30643067 0.20925704 0.12335956 -0.27645025 -0.068147555
0.119445175 0.23536117 0.22828248 0.18011962 0.02229678 0.28764313 -0.009716501 -0.12338376
0.29116562 -0.0042245076 0.21547857 -0.285426 -0.08000388 0.100367054 -0.026283527 0.011509139
-0.051618744 0.19026344 -0.21367392 0.25816098 -0.04022491 0.14544445 0.10078767 0.102724575
0.0861723 -0.12650023 -0.27179793 -0.088601805 -0.2171028 -0.16871804 0.017050892 -0.1622858
0.06431532 0.00029807122 0.036113366 -0.26696095 -0.23773953 0.1252031 -0.057220906 -0.23570067
-0.095745176 -0.10645681 0.22266524 -0.15381192 0.06853734 -0.20938268 -0.004770063 0.17453729
-0.050326392 0.16296941 0.3041921 -0.055956732 0.24741043 -0.29434985 0.07832703 0.11004461
-0.05604061 0.064335756 -0.18496788 -0.13176067 0.10498154 -0.27522656 -0.1873678 0.2801336
-0.009043803 -0.21456988 -0.2656664 -0.22800112 0.28382304 -0.15933906 -0.16792372 0.22646649
-0.30405995 0.11484981 -0.13455078 -0.102767475 -0.11694421 -0.2722047 -0.24156243 -0.1528603
0.07584739 -0.10890366 -0.25990742 0.17048457 0.24029052 0.14421271 0.0060228175 0.11034917
-0.11707578 -0.06189418 -0.20856482 -0.0018034521 0.20829964 -0.026090084 -0.18940932 -0.11285354

conv_v_to_c.feature_module_final.0.weight f4 [64]
00000000: 0ed8 7f3f 04e3 7f3f 31ce 7f3f c4e3 7f3f
00000010: 4717 803f 46ce 7f3f 2533 803f 2f0a 803f
00000020: a218 803f aae9 7f3f 5d9f 7f3f 98cd 7f3f
00000030: e326 803f 8b16 803f 77ae 7f3f 5c17 803f
00000040: 5be3 7f3f 8174 7f3f 42dd 7f3f 8e0d 803f
00000050: b31e 803f 3e11 803f c4cb 7f3f fdff 7f3f
00000060: 60ea 7f3f a2e6 7f3f 31c4 7f3f 9df1 7f3f
00000070: 6520 803f c703 803f 620c 803f 82b6 7f3f
00000080: ceb8 7f3f 5fd4 7f3f d70c 803f dfc2 7f3f
00000090: 65e6 7f3f c309 803f b0c7 7f3f 0bcc 7f3f
000000a0: 301e 803f e0b9 7f3f 68e0 7f3f 481d 803f
000000b0: 0c12 803f 021d 803f e11b 803f 74cc 7f3f
000000c0: 14b8 7f3f 62dd 7f3f fdd7 7f3f af12 803f
000000d0: 35dc 7f3f 92f2 7f3f c5ff 7f3f 1723 803f
000000e0: dae4 7f3f 06c0 7f3f 0d23 803f 6924 803f
000000f0: 40cf 7f3f fda9 7f3f 1c10 803f f212 803f
0.9993905 0.99955773 0.99924 0.9995692 1.0007104 0.99924123 1.0015608 1.0003108
1.0007517 0.9996592 0.99852544 0.99923086 1.0011867 1.000688 0.9987559 1.0007129
0.9995629 0.99787146 0.9994699 1.0004137 1.0009369 1.0005262 0.99920297 0.9999998
0.99967 0.9996129 0.9990874 0.9997805 1.0009886 1.0001153 1.0003779 0.9988786
0.99891365 0.9993343 1.0003918 0.99906725 0.9996093 1.0002979 0.99914074 0.9992072
1.0009212 0.99893 0.9995179 1.0008936 1.0005507 1.0008852 1.0008508 0.99921346
0.99890256 0.9994718 0.99938947 1.0005702 0.99945384 0.9997951 0.9999965 1.0010709
0.99958575 0.9990238 1.0010697 1.0011111 0.99925613 0.99868757 1.0004916 1.0005782

conv_v_to_c.feature_module_final.0.bias f4 [64]
00000000: e788 22ba c6d2 d8b9 18c7 5fba bf52 cbb9
00000010: 8deb 753a 4925 61ba 7bf4 9b3a c969 f2b8
00000020: 620c 313a 1e8e bfb9 c5c2 95ba 899d 69ba
00000030: f924 893a e152 053a fe1c aaba d2ca 3f3a
00000040: 7e7d efb9 69c1 faba 6cc1 03ba 68ed eb39
00000050: d7f2 503a 2d58 0a3a d558 64ba 089d d0b5
00000060: 20b4 1bba 2f41 c2b9 175d 83ba 2e5f 87b9
00000070: 516f 853a be0e 26b9 a113 ce39 259a 76ba
00000080: 79cc 73ba d89f 2fba f3b3 d739 92fd 68ba
00000090: 2c89 a2b9 12ac b639 faf4 75ba c0a4 53ba
000000a0: 08ae 743a cd29 8dba 5597 10ba 23b4 493a
000000b0: 3fce 003a d794 5e3a 507b 203a a51d 53ba
000000c0: d6f9 a3ba 9d78 f8b9 c3d0 02ba e6c9 8c3a
000000d0: 2101 0fba 21fe 9939 140c d9b8 3246 9b3a
000000e0: bc56 1dba 2f63 81ba 2d16 8d3a 1996 2f3a
000000f0: 839c 31ba fd54 8fba a50a f739 2b5e 133a
-0.00062002096 -0.0004135577 -0.0008536442 -0.00038780828 0.0009381108 -0.0008588625 0.0011898422 -0.00011559163
0.00067538593 -0.00036536244 -0.0011425844 -0.0008911719 0.0010463289 0.0005085897 -0.0012978611 0.00073162944
-0.0004567913 -0.0019131127 -0.00050260755 0.00044999574 0.0007970756 0.00052774214 -0.0008710747 -1.554291e-06
-0.00059396215 -0.0003705113 -0.001002225 -0.0002582012 0.001018027 -0.00015836486 0.00039306007 -0.00094071246
-0.0009300183 -0.0006699539 0.00041142068 -0.00088878826 -0.0003100125 0.00034841947 -0.00093825127 -0.0008073561
0.0009333794 -0.0010769904 -0.00055157143 0.0007694384 0.00049135456 0.0008490807 0.00061218906 -0.00080534286
-0.001251037 -0.0004739211 -0.00049902144 0.0010741323 -0.00054551853 0.00029371775 -0.00010349616 0.0011846481
-0.0006001999 -0.0009871478 0.0010764055 0.00066980865 -0.0006775336 -0.0010935363 0.00047119442 0.0005621637
