rl_model/SCPPO_value_119.pth (torch_old, 472694 bytes, 71 tensors)

cons_embedding.0.weight f4 [4]
000000 ad e4 7f 3f 86 d9 7f 3f ac dc 7f 3f 02 06 80 3f
       0.99958307 0.9994129 0.99946094 1.0001833

cons_embedding.0.bias f4 [4]
000000 04 c7 d8 39 a8 1d 1e 3a 85 03 0c ba d7 14 32 39
       0.0004134701 0.0006031641 -0.00053411006 0.00016983166

cons_embedding.1.weight f4 [64, 4]
000000 95 33 f0 3d 38 42 6f 3e 1f 46 93 3e 90 07 26 bf
       0.117285885 0.23365104 0.28764436 -0.6485529
000010 35 c2 70 bf d7 6b 9f be b9 8c 89 3f c7 09 3e bd
       -0.94046336 -0.31136963 1.074607 -0.046396043
000020 a4 1a 23 3f 4b d4 8f 3f a4 7a 8e bf 6e 7a 93 3f
       0.63712525 1.1236662 -1.1131177 1.1521738
000030 d6 1b 5c bf ba 94 06 bf 2e 5d 8d 3f fb b1 9a 3f
       -0.85979974 -0.5257069 1.1044061 1.2085565
000040 a6 4c 87 be ec 2b 27 3f 43 4e ab be 75 60 03 bf
       -0.26425666 0.65301394 -0.33458146 -0.51319057
000050 2e b5 43 3e b7 0b fe 3d 4f ce 7e be ca c6 42 be
       0.19112083 0.12404578 -0.24883388 -0.19021145
000060 9b 79 0e bf c1 52 f4 be b8 4f 94 bf 8a 25 3d bf
       -0.55654305 -0.47719386 -1.1586828 -0.73885405
000070 fe 48 12 3f 3e 7e 18 3f c7 5b 7f bf bc d6 5f bf
       0.5714263 0.5956763 -0.99749416 -0.87437034
000080 22 0c 48 3f 5e 10 6a 3f 23 bd 5a 3f d6 e2 80 bf
       0.78143513 0.91431224 0.8544485 -1.0069225
000090 60 32 cc bd e4 cd 3d bf c7 e1 2d 3f c1 f5 14 bf
       -0.09970546 -0.7414229 0.67922634 -0.5818749
0000a0 25 6d 48 be fd 48 6a bf 7e e3 13 3e 75 e1 71 3f
       -0.19572885 -0.9151762 0.1444225 0.94484645
0000b0 4d a6 32 be 22 e7 3a 3f 48 e4 59 bf 43 dd 14 bf
       -0.17446251 0.7300893 -0.85113955 -0.5815012
0000c0 bc a6 26 3f 03 58 76 3f c8 71 11 be c8 b3 83 3e
       0.65098166 0.96228045 -0.1420356 0.257231
0000d0 96 48 67 3f ab 54 85 3f d4 c3 66 3f 16 26 b8 be
       0.9034513 1.0416464 0.9014256 -0.35966557
0000e0 b7 db 25 3f 09 0e cd 3e f2 83 93 bd d4 00 5c 3f
       0.64788383 0.4004977 -0.07202901 0.85938764
0000f0 b8 8c 61 3f 6f cb 16 3e c8 d0 5d 3f 6a b6 30 bf
       0.88105345 0.14726041 0.866467 -0.6902834
000100 d4 12 32 bf 77 c2 72 3f 02 9c 92 3f ac 02 90 3f
       -0.6955998 0.9482798 1.145386 1.1250815
000110 9f 8c 97 3e d3 ec 8c bf f2 fd 9a 3f d4 f4 73 3f
       0.29599473 -1.1009773 1.2108748 0.95295453
000120 f6 e4 ef 3e 86 9b 1b bf d8 44 59 bf c1 1a 04 bc
       0.4685437 -0.60784185 -0.8487067 -0.008063019
000130 08 82 9d 3d 26 a7 97 3f 5a 29 a1 3e 8f f2 00 3f
       0.07690817 1.1847885 0.3147686 0.50370115
000140 4d 2d 97 3c be ab bf 3e 93 2a f9 bd ba 4b a3 bd
       0.018454218 0.37435716 -0.121663235 -0.07973428
000150 24 90 d7 be 6e d8 0d bf 14 6c 4f bf aa 93 39 3f
       -0.42102158 -0.5540837 -0.8102429 0.7249094
000160 f7 f1 1a bf 92 ec 56 3f fc 4b 7a bf fc fc 00 bf
       -0.6052546 0.8395473 -0.9777219 -0.50386024
000170 5e b6 47 be 65 30 b5 3e 78 b5 45 3e 15 9c 59 3f
       -0.19503161 0.35388485 0.19307506 0.8500379
000180 ac 33 1c bd 76 e5 b9 be 7e f2 65 3d 3d 41 65 3f
       -0.038135216 -0.36307877 0.05613946 0.8955267
000190 f9 3d 89 bf 6a 21 9d 3e 76 31 5b bf 28 71 98 3f
       -1.0722038 0.30689555 -0.85622346 1.1909533
0001a0 d9 1d 44 bf 16 b8 94 3e f6 29 23 be 16 e7 2e 3f
       -0.76608044 0.29046696 -0.15933976 0.6832136
0001b0 58 9c 11 bf cf 17 0f 3f f3 47 57 bf 44 71 86 3e
       -0.56879187 0.55895704 -0.8409416 0.2625829
0001c0 78 ed 21 3f ce 26 0e bf 61 5b 11 bf 7f 11 27 3f
       0.63252974 -0.5552796 -0.5678006 0.6526107
0001d0 0b c0 c6 3d 02 ee 39 bf c3 fd 7e 3e 1b 75 ec be
       0.09704598 -0.72628796 0.2490149 -0.46183094
0001e0 68 8a 3c be 93 56 a4 be c2 b4 29 3f 25 2b 85 3f
       -0.18412173 -0.320973 0.6629144 1.0403792
0001f0 bc ed ba 3e d2 c9 05 bf 58 60 3d 3f bc 32 34 3c
       0.36509502 -0.5226108 0.73975134 0.010998424
000200 5e 2a c0 3b cf 49 8b 3e 20 1b e9 be 17 0b 01 3f
       0.0058644256 0.2720475 -0.45528507 0.50407547
000210 bb 52 0a be 4a d3 4e bf af d7 04 3f 34 8f 51 bf
       -0.13508122 -0.8079115 0.5189161 -0.81859136
000220 69 91 87 bf 2d 31 20 3f 3a 14 87 3f b5 ae 67 bf
       -1.0591251 0.62575036 1.0553048 -0.90500957
000230 8b ca 7a be 12 13 81 3f c3 a1 6b 3f b4 49 ff 3e
       -0.24491327 1.0083945 0.92043704 0.4986092
000240 62 87 25 bd bd b9 09 3f 4c e9 2a 3f 8e 5f 66 bf
       -0.040412314 0.5379904 0.6676223 -0.89989555
000250 71 7f 0e bf c4 c5 23 bf 45 62 89 bf 78 dc 69 bf
       -0.5566321 -0.6397364 -1.0733114 -0.91352034
000260 b1 72 4d 3f f8 5e e2 bd 39 e6 d8 3d 2f 47 b3 be
       0.8025313 -0.1105327 0.105907865 -0.35015246
000270 70 64 ab 3b 5d 5e 93 bf 01 a5 69 3f 81 29 78 3f
       0.005230479 -1.1513172 0.912674 0.9693833
000280 24 0a 7f 3e 82 d4 9a 3f b7 3f d5 be 31 62 48 bf
       0.24906212 1.2096102 -0.41650173 -0.7827483
000290 90 da 1a 3e 83 d6 97 3f f3 d0 49 3f 01 20 6d be
       0.15122437 1.1862339 0.78834456 -0.2315674
0002a0 25 48 28 bc 45 f2 34 bf e6 5f e4 3d cc 6f 23 bf
       -0.010271107 -0.70682174 0.11151104 -0.63842463
0002b0 fe b7 6e 3f c5 16 97 bf f8 c0 94 3f a1 5e 0f 3f
       0.932495 -1.1803824 1.1621389 0.5600377
0002c0 a5 88 b4 3e 51 dc 83 3f 08 95 9c 3f f0 97 fb 3e
       0.35260502 1.030161 1.2232981 0.49139357
0002d0 75 1b 8a bf 2d 43 27 3e b7 34 88 3f 94 be b4 be
       -1.0789629 0.1633422 1.0641087 -0.3530165
0002e0 48 40 1a be 51 51 76 bf 61 e1 25 3f 38 af 60 3f
       -0.15063584 -0.9621783 0.64797026 0.8776736
0002f0 8e b8 0a bf 19 38 9b 3f 44 3c d3 3b 58 58 e8 3e
       -0.5418786 1.2126495 0.006446393 0.453799
000300 50 e2 78 3e 6e 7a 91 3f fb a4 6d be 43 b7 84 3e
       0.24305081 1.1365488 -0.23207466 0.25921068
000310 c8 d7 01 be ad b4 1a bf 8d ac 52 3f 23 34 79 3e
       -0.1267997 -0.6043194 0.8229454 0.24336295
000320 1b a9 5f 3f 90 61 1f 3f 7e f6 6b bf 9a e3 0e be
       0.8736741 0.62258244 -0.9217299 -0.1395401
000330 da 99 0d 3f a7 11 8b bf 02 bc ec 3e bc 0b 59 3f
       0.55312884 -1.0864762 0.4623719 0.8478353
000340 07 6e 8c 3e 85 81 21 3f 93 03 44 bf 20 68 69 be
       0.27427694 0.63088256 -0.76567954 -0.22793627
000350 8a e4 3c bf f0 2e 19 be 61 fb 9b 3f 96 be 5f be
       -0.7378622 -0.14959311 1.218609 -0.21850047
000360 d0 2a 93 bf e3 5c 2e be b5 3d a3 bc 00 38 6a bf
       -1.149744 -0.17027621 -0.019926885 -0.914917
000370 d3 f1 9d be 38 09 9a be 0c a2 a8 be 38 08 22 3f
       -0.3084856 -0.30085158 -0.32936132 0.6329379
000380 b4 86 8f 3f cd 1c 2c bf 5d cd 84 bf 63 bd 1a 3f
       1.1212983 -0.67231447 -1.0375172 0.6044523
000390 e1 04 2c 3d e6 a4 9e 3d 43 44 dc 3e fc 57 85 bd
       0.04199684 0.07746296 0.4302083 -0.06510922
0003a0 63 43 5a 3e 23 1b 47 3f 14 c7 2f bf 81 f9 b1 3e
       0.21314768 0.7777578 -0.68663144 0.3476067
0003b0 bd ed f1 3d d7 07 1c 3f 57 d3 39 3f 6e 2b a4 3e
       0.11812923 0.6094946 0.72588104 0.32064384
0003c0 57 ab 1c bf 80 5f 99 bf 4a 26 34 3f 30 6d 43 3f
       -0.61198944 -1.1982269 0.70370924 0.7633848
0003d0 60 1f 09 be 99 9a 83 3e 00 de 06 3f 84 da 45 be
       -0.13390875 0.25703886 0.52682495 -0.19321638
0003e0 a4 3c 61 3f 25 3d 17 bf 0e de 1f 3f 7f e8 05 bf
       0.87983155 -0.59077674 0.62448204 -0.52307886
0003f0 70 ba 8d bf cc 6e 30 bf ee 93 15 bf 5e 80 a6 bd
       -1.1072521 -0.6891906 -0.5842885 -0.08129953

cons_embedding.1.bias f4 [64]
000000 4f 75 fe 3e 87 8b 37 bd 93 c8 bf 3e fd 50 97 3e
       0.49698874 -0.044810798 0.37457713 0.29553977
000010 3e 81 a9 bc 38 7a f1 3d 82 99 07 3e 8c 12 ee 3e
       -0.02069151 0.117908895 0.13242152 0.46498525
000020 11 af 0b 3e 36 4d a0 3e 3b d8 c4 be 07 b5 03 bd
       0.13641001 0.31308907 -0.3844622 -0.032155063
000030 fd 2f f0 3e 21 18 db 3e d4 aa f4 be 30 55 a7 be
       0.46911612 0.42791846 -0.47786582 -0.3268218
000040 61 36 df 3e 09 19 c7 3e 36 c9 fe 3d 31 08 d2 3e
       0.43596175 0.38886288 0.12440722 0.41021875
000050 2d c0 e2 3e 1a 03 e9 bd a1 7b ff 3e 15 5a fe 3d
       0.44287243 -0.11377545 0.4989901 0.124195255
000060 f1 9e d4 3e e2 86 49 be 67 cc dc be 42 0e 40 3d
       0.41527513 -0.1968036 -0.43124697 0.046888597
000070 7c cc 78 bc 0a 28 b5 be 5a 9c 22 3e fb 3b 69 3e
       -0.015185472 -0.3538211 0.15879956 0.22776787
000080 55 7a 3d 3d 1f d0 91 be df 52 87 bb d7 11 12 bd
       0.046259243 -0.28479096 -0.004129752 -0.035661545
000090 30 d5 80 be 27 08 ad 3e 2a 73 d9 bd cf 97 e2 be
       -0.2516265 0.33795282 -0.10617669 -0.44256446
0000a0 cf d3 77 be fb a7 9d be 4c ad e8 3e dc 67 aa bd
       -0.24201892 -0.3079222 0.45444715 -0.08320591
0000b0 7a 71 7e be bf 8b 56 bd 49 6c 35 3d dd b4 aa 3d
       -0.24847975 -0.052379366 0.044292722 0.08335278
0000c0 8b 4e 4e be f3 83 7c be 68 b9 e3 3e b0 57 c6 3e
       -0.2014715 -0.2465971 0.4447739 0.38738775
0000d0 b1 8b fa 3e 83 4c 27 3e 66 52 99 3e 49 56 48 bd
       0.489347 0.1633778 0.29945678 -0.048910413
0000e0 48 06 d6 3e 9f db fb be 41 b8 eb bd f0 37 64 3e
       0.41801667 -0.49190995 -0.11509753 0.22286963
0000f0 d9 b9 e5 3e 9d b1 36 be 5c 1f ee be 6e 5b f9 be
       0.44868353 -0.17841192 -0.465083 -0.48702568

cons_embedding.3.weight f4 [64, 64]
000000 8d 1c 78 3e 15 04 59 bd 70 56 94 3e 20 f6 05 be
       0.24229641 -0.05298241 0.28972197 -0.1308217
000010 25 8e 6d bd 21 ca 8b 3e 6c c4 b6 3d a5 38 6a be
       -0.057996888 0.2730265 0.08924183 -0.2287317
000020 27 3e 11 3a 40 5d 26 bd b0 a9 3a be 45 09 22 3e
       0.00055405725 -0.040616274 -0.18228793 0.15823849
000030 17 a1 92 3e 98 4f 48 3d cb 34 97 3e 64 81 89 be
       0.28638527 0.04890403 0.29532465 -0.2685653
000040 f7 d8 61 be 12 c3 e1 3d c8 0c 62 be bd a1 85 be
       -0.22055422 0.11023535 -0.22075188 -0.2609996
000050 f4 ad 71 be cf fb c6 3d 74 2f af 3d 6a 96 4c 3e
       -0.23601514 0.097159974 0.08553973 0.19979253
000060 8c 8c b2 3d 61 68 80 3d 6d ba d6 bd 3b 5b 88 3e
       0.087182134 0.06269909 -0.10484777 0.26632103
000070 34 6e 69 3e bb 9a ea 3d 3f 74 9b be 33 6c 17 bd
       0.22795945 0.11455294 -0.30362126 -0.03696842
000080 46 77 67 be 37 77 b9 3c f5 84 f9 bc 5c a4 88 bd
       -0.22604093 0.022639854 -0.030458907 -0.06671974
000090 f8 c4 88 3d b5 ac 88 3e b1 3a 63 be c9 38 97 bd
       0.06678194 0.26694265 -0.22190358 -0.07383878
0000a0 95 00 17 3e 26 0b 6e be 1b 21 85 3e e2 62 4a bd
       0.14746316 -0.2324644 0.2600182 -0.04941071
0000b0 3b e2 0e be ec 38 a5 bb 07 5c 8a 3e 86 d5 7b 3e
       -0.13953488 -0.005042186 0.27023336 0.24593171
0000c0 13 49 15 3e 49 22 25 bd 60 f5 0f be a0 6d 34 3e
       0.14578657 -0.0403159 -0.14058447 0.17619944
0000d0 dd d8 98 3e 4e 40 04 be a6 a8 85 3e c3 ab ca bd
       0.29852954 -0.12915155 0.2610523 -0.09896042
0000e0 79 fd 61 3e a6 c4 2b be 19 e4 e8 3c 0a 29 e8 3c
       0.22069348 -0.16774234 0.028429078 0.028339881
0000f0 39 05 bd bd e3 2c 62 be 5b 92 60 be ac f7 18 be
       -0.09229512 -0.22087435 -0.2193083 -0.1493823
000100 24 8f d4 bc b5 ae 18 be d8 4d 83 3e 34 07 18 3e
       -0.025947161 -0.14910395 0.25645328 0.14846498
000110 23 4c 1c be fc a1 c3 bd 7e 7e c3 3d 32 06 47 3e
       -0.15263419 -0.095523804 0.09545611 0.19435957
000120 ac cb 22 be 50 b2 44 be 00 72 8e be 10 16 83 3e
       -0.15898007 -0.19208646 -0.2782135 0.2560277
000130 40 3a 99 be 9e 89 3d be cb 78 cb 3d 10 a2 67 3d
       -0.29927254 -0.18509528 0.09935149 0.05655104
000140 23 90 fa bd 63 2e 2b be 7a c7 aa bc a4 5d 29 be
       -0.12234523 -0.16716914 -0.020847071 -0.16539627
000150 d4 c4 00 be 26 47 48 be 38 21 99 3e 37 0c f4 bd
       -0.12575084 -0.19558391 0.29908156 -0.11916392
000160 c9 f8 88 bc b3 96 e3 bd 1f b8 2e be b8 8a 7b 3e
       -0.016720193 -0.11112728 -0.17062424 0.24564636
000170 e6 08 9b bd e0 6d 6e 3e 19 5a 06 bd 6c 6d 84 3e
       -0.075700566 0.23284101 -0.032800768 0.25864732
000180 2b 12 3a 3e 3b dd 0d be 19 f6 74 be 23 b4 60 bd
       0.18170993 -0.13853924 -0.23922004 -0.05485929
000190 d5 67 82 3d 84 08 ef bd 75 1b 75 3e 60 e6 bd 3d
       0.06367461 -0.11671546 0.23936255 0.09272456
0001a0 2e 16 08 bd 10 67 a1 ba 8c 04 3c bc 53 27 96 3e
       -0.033224277 -0.001231404 -0.011475693 0.29326877
0001b0 21 f8 97 3e a1 43 e8 3c 9c 42 2e be cc ad 8c be
       0.29681495 0.02835256 -0.17017597 -0.27476346
0001c0 4f a2 94 3e ed 2a 1a 3e bb 5b 50 3e e3 7b 1d 3e
       0.29030082 0.15055437 0.20347492 0.1537929
0001d0 0c 87 89 3d 9f 8f f6 3c 51 d3 d8 3d df 9f 85 3e
       0.06715211 0.03009778 0.105871804 0.26098534
0001e0 24 36 3f 3e 17 16 8a 3d 19 2f 99 3e bd 08 1c be
       0.18672997 0.067424946 0.29918745 -0.15237708
0001f0 c2 16 34 bc 4f b0 4b 3e af 11 6e bd c9 7b 69 be
       -0.010991754 0.19891475 -0.058122333 -0.22801127
000200 49 d9 fa bd d0 30 18 3e fd c9 7a 3e 8e 25 f9 3d
       -0.12248475 0.1486237 0.24491115 0.12165366
000210 2b b7 23 be f2 15 c3 bd ec 84 69 be a2 6e 59 be
       -0.15987842 -0.0952567 -0.22804612 -0.2123361
000220 99 7c 82 3d 6c 16 7f be 8a 5a 0d 3e 7c b8 cd 3c
       0.06371421 -0.24910897 0.13804069 0.025112383
000230 42 dd 11 bd 87 6c 5f 3e 54 f1 91 bd ea 19 03 3e
       -0.0356114 0.21818744 -0.07126108 0.12802854
000240 f6 dd a7 3d ab 32 98 3e cc a3 a6 bc 54 c1 69 3e
       0.081966326 0.29726157 -0.020341776 0.22827655
000250 66 4d 9d 3d 1d d6 8d be bc 54 5a bd a9 fe 8c 3d
       0.07680778 -0.27702418 -0.053303465 0.0688451
000260 39 e0 5e 3e d5 96 95 bc ca 6a 23 be 40 61 12 3e
       0.21765222 -0.018260399 -0.15958706 0.1429491
000270 9f 7d f5 bd 27 5b 7d be a7 59 a5 bc 3b 09 6c be
       -0.11986851 -0.24741803 -0.020184351 -0.23050396
000280 5b b0 5f 3e 36 9f 7d bd e3 cb 23 be 60 7b d8 3d
       0.21844618 -0.061919414 -0.15995745 0.10570407
000290 4a fc 19 3d a8 a8 26 3e 61 69 1c be c1 86 3c be
       0.037594117 0.16275275 -0.15274574 -0.1841078
0002a0 0e 73 0c be a3 7a 49 3e 92 e9 52 be d1 f0 ba bd
       -0.13715765 0.19675688 -0.20596913 -0.09127963
0002b0 d8 66 d9 bc 91 b3 7f be a2 a0 93 3d 13 af 4b 3e
       -0.026538298 -0.24970843 0.07208373 0.19891004
0002c0 8c a1 99 3e 24 e1 7b 3d 9d 46 13 bc e9 94 91 bd
       0.30006063 0.061494008 -0.0089890035 -0.071084805
0002d0 9b 24 45 be 1a 36 3b be aa ce 6f be ba 8e 22 3e
       -0.19252245 -0.18282357 -0.2341868 0.15874758
0002e0 d0 9c 46 be f3 7e 7a be ad bc 95 be 6c e8 98 3d
       -0.19395757 -0.2446249 -0.2924551 0.07466206
0002f0 d0 26 10 3d f9 7a 59 be db bd 68 3d 42 bf 69 be
       0.035193264 -0.21238317 0.056821685 -0.22826865
000300 23 48 a0 bd ab 8d 58 3e b2 ad 8c 3e 1e 46 42 be
       -0.07826259 0.21147792 0.2747627 -0.1897206
000310 b4 64 cc 3a a2 90 94 bc 0f ed 9d bb 2a 4e 53 be
       0.0015593977 -0.018135373 -0.0048195194 -0.20635286
000320 c3 ef ac 3d be 4f db 3d ee 47 87 be ac 59 53 3e
       0.084441684 0.10708569 -0.26422065 0.20639676
000330 f8 f6 0d be 1a c5 5a bd 59 4b 78 bc 48 1c 4a be
       -0.13863742 -0.053410627 -0.015154683 -0.19737351
000340 48 91 12 3e a4 05 e5 3d 02 f2 5b 3c ea 84 0b 3e
       0.14313233 0.111827165 0.013424398 0.13624921
000350 12 65 86 3e d7 e3 c9 bd b5 66 81 be e8 82 4e be
       0.26248986 -0.0985791 -0.25273672 -0.20167124
000360 d5 a7 9a be 3b 09 52 be 77 6b 88 3e 52 2b cf 3d
       -0.3020617 -0.20511334 0.2664449 0.101156846
000370 36 bd 9e bc 95 a9 a3 3d d1 c9 29 be d4 e2 71 be
       -0.019377332 0.079913296 -0.16580893 -0.23621684
000380 69 6d 9d 3d d7 40 51 bd dd 66 5b be 7f e2 83 3e
       0.07686884 -0.051087227 -0.21425958 0.2575874
000390 f9 85 0b 3e 95 f4 94 be 71 02 77 be 27 71 7e be
       0.13625325 -0.2909285 -0.24122025 -0.24847852
0003a0 fd 03 b6 bd 5b 9b 29 be 2e b0 f6 ba 6c 70 11 3e
       -0.088874795 -0.1656317 -0.0018820816 0.14203042
0003b0 62 35 08 3d 2d 39 c6 3d 31 d7 ec bc 86 4d 35 bb
       0.033254035 0.09678874 -0.028911205 -0.0027664616
0003c0 03 59 99 3e 61 e9 3e 3e a3 d8 70 3d a4 0b 7a 3d
       0.29950723 0.18643714 0.05880035 0.061046258
0003d0 69 dd 3a 3e 88 01 8a be 58 27 d2 3d 64 f2 8a 3d
       0.18248524 -0.26954293 0.102614105 0.067845136
0003e0 01 e2 89 3e e2 f3 72 3e 33 03 99 be 16 a3 83 3e
       0.2693024 0.23725846 -0.29885253 0.25710362
0003f0 3b ae d2 3d 90 f9 4b 3e 74 63 f2 bc 02 14 19 3e
       0.10287138 0.1991942 -0.029588439 0.14949039

cons_embedding.3.bias f4 [64]
000000 f2 c0 b9 3d 3e ee 0d 3d 35 04 3c bc ef 5d df 3a
       0.090700045 0.034651034 -0.011475612 0.0017041544
000010 e0 7b 4c 3d 0e df fc 3d da ea 04 3d 3f bf f8 bd
       0.049922824 0.12347232 0.032450534 -0.12145852
000020 a3 ac a4 3d 68 b2 01 bb 93 58 f1 bc b6 38 9b 3d
       0.0804074 -0.0019790176 -0.02946118 0.07579176
000030 a2 44 0c bd 09 4a 91 bd fd 8c fd 3d b7 39 bd bc
       -0.03424514 -0.07094199 0.12380407 -0.02309881
000040 2a f5 74 bc 1e 54 9f bc 9c 80 88 3d 4d d3 e4 bd
       -0.01495103 -0.01944929 0.06665155 -0.11173115
000050 5f 50 63 bc 89 bb 9d 3d af 67 9d 3d fd 90 6e 3d
       -0.013874142 0.07701785 0.07685792 0.05824374
000060 47 7d cc 3d 15 70 fc bd 02 64 51 bb c3 42 2c 3d
       0.09984832 -0.123260655 -0.0031950478 0.042055856
000070 99 bc 77 3d f7 a0 36 3d 3c b9 3d 3c 98 39 69 3d
       0.060482595 0.0445871 0.011579808 0.05693969
000080 7e 2a 3d bd 0b 92 c6 3d 55 34 92 bd 8b 6e e4 bd
       -0.0461831 0.09695824 -0.07138888 -0.11153897
000090 f2 68 bd bc 91 e7 1d bd 2b 86 cf bd 64 61 66 bb
       -0.02312133 -0.038550917 -0.101330124 -0.0035153264
0000a0 7a 49 f4 3c 6c cd 66 bd 47 94 a1 ba 1e 88 74 bd
       0.029820193 -0.05634825 -0.0012327515 -0.059700124
0000b0 5d d2 bc 3d 7f c9 d4 3d 0e 5d e6 3d ee 0b ca bd
       0.09219811 0.10389995 0.112482175 -0.09865557
0000c0 32 36 fe 3d 1b 75 99 3d 30 d1 a9 3c a0 22 2f bd
       0.12412681 0.07493039 0.020729631 -0.04275763
0000d0 50 24 44 bd 0a 2d e2 3d c4 f1 13 bc 35 59 e2 3d
       -0.047886193 0.11043747 -0.009029809 0.11052171
0000e0 5d 29 83 3c 7e f2 00 bd 80 7e d6 3d 71 49 aa bd
       0.016010934 -0.03148126 0.10473347 -0.08314789
0000f0 44 e7 00 bd f7 9d e7 bb 54 de a3 3d 54 b6 5b 3d
       -0.031470552 -0.0070683914 0.0800139 0.05364068

var_embedding.0.weight f4 [7]
000000 a5 11 80 3f 21 14 80 3f b3 e1 7f 3f 85 dc 7f 3f
       1.0005385 1.0006143 0.99953765 0.9994586
000010 b6 d2 7f 3f b4 b6 7f 3f 65 1f 80 3f
       0.99930894 0.9988816 1.0009581

var_embedding.0.bias f4 [7]
000000 65 43 55 3a 30 41 12 3a cb 2c f0 b9 42 4b fb 39
       0.0008135348 0.00055791717 -0.0004580974 0.00047930522
000010 64 0f 30 3a 8e 85 89 3a 2c c7 f4 39
       0.00067161606 0.0010492073 0.000466877

var_embedding.1.weight f4 [64, 7]
000000 5d 5c bb 3e 32 eb f4 be be 4a 6a 3f fe e4 69 bf
       0.36593905 -0.4783569 0.915203 -0.9136504
000010 70 2e 2e bd ce cf cf be 80 3b 44 3e a5 e0 c6 bd
       -0.042524755 -0.4058823 0.19163322 -0.09710816
000020 57 1c 3c be 26 76 7a be 7e 79 7d be 2b ab 26 3f
       -0.18370186 -0.24459133 -0.24753377 0.6510493
000030 85 a6 5c bf fd 63 e6 3e cc 99 d4 be d8 22 51 bf
       -0.8619159 0.4499816 -0.41523588 -0.8169379
000040 a4 a2 16 3f 62 38 e0 3e 27 ae 5a 3f 96 34 ee be
       0.5884192 0.43793017 0.85421985 -0.46524495
000050 09 da 37 3f c2 0a 3a 3e 70 79 e3 be 69 3f 18 bf
       0.7181707 0.18168166 -0.44428587 -0.59471756
000060 f5 96 94 3e 6e 92 a1 3e f6 e2 24 3f c6 a6 2d 3f
       0.2902142 0.3155703 0.64408815 0.678326
000070 5f 80 07 3f fe 17 84 3e 91 4e 97 bc db 2a 5b bf
       0.52930254 0.25799555 -0.01847008 -0.8561227
000080 87 f5 63 be 20 d1 b3 bd aa 4d 56 bf b5 c5 2f be
       -0.2226163 -0.08780122 -0.83712256 -0.17165263
000090 bf e5 00 3e 2d 74 d8 bd e6 68 10 bf da 34 89 bd
       0.12587641 -0.10569034 -0.5641006 -0.06699534
0000a0 a0 cf 8e be 25 f5 3c 3e 03 52 4b 3e 29 55 e2 be
       -0.2789278 0.1845289 0.19855504 -0.44205597
0000b0 9e a5 00 3c c3 07 15 3f dd 16 cc be 39 9d 07 bf
       0.007851986 0.5821497 -0.39861193 -0.5297428
0000c0 e7 ce 8c 3e b6 be 52 bf 70 08 f9 be 01 ba ca be
       0.27501604 -0.8232225 -0.4863925 -0.39595035
0000d0 ba 26 0a 3f 19 d5 3a bf 88 6e 82 be 5a 81 00 bf
       0.5396534 -0.7298141 -0.25474954 -0.50197375
0000e0 c7 b3 45 3f 77 1e 73 bd 88 59 5a bf 32 19 26 be
       0.77227443 -0.059355225 -0.85292864 -0.16220549
0000f0 9a 1d cf bc c6 93 d7 bd b4 c5 29 bf 86 78 fb 3d
       -0.02528267 -0.105262324 -0.66317296 0.122788474
000100 fa be 0b bf eb 2c 14 3e 03 33 53 3f 16 44 39 bf
       -0.5458828 0.1447026 0.8249971 -0.72369516
000110 e4 a0 4e bf 18 e0 24 3e af 1f 45 bd 59 54 fa be
       -0.8071425 0.1610111 -0.04812592 -0.48892477
000120 66 e4 6b 3f ca d0 1c bf 83 e1 5a be d6 f7 e9 be
       0.92145383 -0.61256087 -0.21375088 -0.45696896
000130 96 26 43 3f ec 36 b6 be 73 1a 23 3e fa 6e ce 3e
       0.7623075 -0.35588777 0.15928058 0.40319043
000140 ec 81 3f 3f 95 30 10 bf af c9 9a 3c 64 53 03 bf
       0.7480762 -0.5632413 0.018894998 -0.5129912
000150 5a 4e 30 3f e1 9c 10 3e df 31 03 bf 67 f7 51 be
       0.68869555 0.14122345 -0.5124797 -0.20504533
000160 9f 8a 42 bf 0c fa 22 bf 80 3e 4c 3e ee 43 fc be
       -0.7599277 -0.6366279 0.19945717 -0.49270576
000170 cb b9 68 3f 1a 51 56 3f 3d cc f9 3e 43 c6 2e bf
       0.909085 0.837175 0.48788634 -0.68271273
000180 3c ac d2 3e 6b 53 4b bf 43 26 0a bf 13 7d 39 bf
       0.4114703 -0.7942416 -0.5396463 -0.72456473
000190 64 cf f1 3e cc 80 2f be 7f 28 23 3f 9b 85 c3 be
       0.4722854 -0.17138976 0.6373367 -0.3818787
0001a0 fa 97 a1 be e8 91 5f bf 5e 6d 15 3e 49 26 ae be
       -0.3156126 -0.8733201 0.14592502 -0.34013584
0001b0 9a 55 06 3f 7a 49 6c bf 83 0c 6c 3f 21 06 0b bf
       0.5247437 -0.92299616 0.9220659 -0.54306227
0001c0 19 29 e6 be 5d fd 05 3f 66 10 32 be f5 86 05 3f
       -0.4495323 0.52339727 -0.17389068 0.52159053
0001d0 9f c2 b9 3e f6 00 c0 3e 76 ba 14 3e 3d fa a2 3e
       0.36281297 0.37500733 0.14524254 0.31831542
0001e0 ae b4 66 bf a3 30 bb bd 2d d5 27 bf fc 3d ed 3e
       -0.90119445 -0.09140136 -0.65559655 0.46336353
0001f0 5f 5e 61 bf f3 e4 ef 3e 35 a5 f1 3c b3 6f c9 3e
       -0.88034624 0.46854362 0.029497722 0.39343032
000200 fa ce 09 3f 14 d6 3a 3f eb 35 6b bf ca 4f 1e 3f
       0.53831446 0.7298291 -0.9187915 0.618405
000210 86 43 02 3f 3c e0 ad 3e be 6b 2e bf 82 97 e8 3d
       0.5088428 0.3396014 -0.6813315 0.11357023
000220 e3 ec e4 be db c0 5c bf 65 48 34 bf ac e3 6b 3f
       -0.4471198 -0.86231774 -0.70422965 0.92144275
000230 10 fa ef 3e d0 b1 0a 3f d4 6d 67 3f 26 48 54 be
       0.4687047 0.5417757 0.9040196 -0.20730647
000240 c7 88 45 3e 76 d6 ad 3e 0c da 52 bf c3 e3 10 3f
       0.19290458 0.33952683 -0.82363963 0.56597537
000250 b9 76 40 bf aa 3b 90 be b4 39 64 bf d1 12 10 bf
       -0.75181156 -0.2817052 -0.8915055 -0.5627871
000260 f5 a0 5a bf 70 58 a9 bc a1 d3 ef bc 8a ee 98 3e
       -0.8540185 -0.020672053 -0.029275717 0.2986949
000270 77 07 08 3f 7f 9b 87 3e d0 6a 4f 3f 45 e3 64 3f
       0.5313639 0.26485822 0.8102236 0.89409286
000280 2b 86 1e bf 69 13 02 3f 0e f6 54 3f 67 2d 3e 3d
       -0.61923474 0.5081087 0.8318795 0.046430018
000290 c7 1a d0 3e 71 76 43 bf 8d 8f 1c bf f2 5a e7 3e
       0.4064543 -0.763526 -0.6115654 0.45186573
0002a0 e6 14 55 3f c5 4d eb 3e f3 03 03 be 23 8f e9 3e
       0.83235013 0.4595777 -0.12794475 0.45617017
0002b0 31 07 a6 3e 3a 2b 8e bd d5 44 6a 3f f6 40 ee 3e
       0.32427362 -0.069418386 0.9151128 0.46533936
0002c0 0a d7 c7 3e 3b 63 b3 bd bd eb 4f bf 3b 46 41 bf
       0.3903125 -0.08759161 -0.81219083 -0.7549779
0002d0 cb d4 35 3f 5b e7 5c 3f 94 19 5f bf 72 d4 25 3f
       0.7102782 0.8629052 -0.87148404 0.6477729
0002e0 b8 72 31 3f 69 4d cd 3e 9c 24 ab 3e 0c bf de bd
       0.6931567 0.40098122 0.33426368 -0.10876283
0002f0 da 86 53 3f b9 13 33 be a5 63 11 bf 94 3a 0f 3f
       0.8262764 -0.17487992 -0.5679267 0.5594876
000300 76 b4 41 bf 9b 97 29 3f f6 36 b1 3e 17 f4 e2 be
       -0.75665987 0.66246957 0.34612244 -0.4432685
000310 da fd e3 3e 27 d2 5e bf a1 62 21 3f f2 ca a9 3e
       0.4452961 -0.8703942 0.6304112 0.33162647
000320 d3 8f 11 bf 4d 03 ce bd 11 57 30 3f 0a fb fe 3b
       -0.56860083 -0.10059223 0.6888285 0.007781391
000330 fa 08 fc bc fa 94 aa 3d 96 37 38 3f 5f ad 3b 3f
       -0.030766 0.08329196 0.7195982 0.7331142
000340 cc 90 3e bf 86 06 fc be 39 24 ee 3d e8 a9 1d bf
       -0.7443969 -0.49223727 0.11628003 -0.6158738
000350 5f 6b 03 3f 7b 1f 4b bf ed ae 8d be 8b 7c 7b 3e
       0.5133571 -0.7934491 -0.2767252 0.24559228
000360 81 3f df bd df 22 e1 3e 78 72 82 be 69 a2 66 3f
       -0.10900784 0.43971917 -0.25477958 0.9009157
000370 39 0f 67 3e 01 fd e5 bd 9d 3f b2 3e f1 7e 05 3e
       0.225644 -0.11229897 0.34814158 0.13036706
000380 49 07 19 3f a6 83 3c bf 1a 78 9b be e9 9c 91 bd
       0.5977674 -0.7363838 -0.30365068 -0.07110006
000390 8f 06 65 3f 98 ba 68 bf d4 3b fb be 59 16 3c bf
       0.8946313 -0.9090972 -0.49069083 -0.734716
0003a0 dc 76 b1 3e 47 f9 38 3e d0 2e b6 3c 54 11 30 bf
       0.34660995 0.18063842 0.022239119 -0.6877644
0003b0 85 eb 6b 3f ed 68 f7 3e 95 29 17 3f 2f 69 49 3f
       0.9215625 0.4832224 0.59047824 0.7867612
0003c0 dc 3e c4 bd 9d aa 36 3f b8 10 4a 3e 49 31 e3 bd
       -0.09582302 0.71354085 0.1973294 -0.11093385
0003d0 e5 72 25 be 9f 76 27 bf a4 5b a9 3c ee bd 72 3c
       -0.1615711 -0.65415376 0.02067358 0.014815791
0003e0 61 3b 45 bf 1b fe b8 be 9b 75 2f 3e 7c 01 96 3d
       -0.7704373 -0.36131367 0.17134707 0.07324502
0003f0 6d 59 8b bd 72 fd 6c bf fa 34 94 3c 0d dd 1b be
       -0.06804166 -0.92574227 0.018091667 -0.15221043

var_embedding.1.bias f4 [64]
000000 e5 72 86 3e 30 f0 ab 3e 2d e0 bf be 72 e3 b5 be
       0.26259533 0.33581686 -0.3747572 -0.3552509
000010 f5 5c aa be 0c df 6b 3e a1 b4 7b be 1b 44 52 3d
       -0.33274046 0.23034304 -0.24580623 0.05133448
000020 a9 92 ad be f5 07 85 be 56 b0 67 bd 1c 5d b7 3e
       -0.33900955 -0.25982633 -0.05656465 0.35813224
000030 a2 03 a2 3e f7 d0 7d 3e 7a 71 87 3d 08 79 6c be
       0.31643397 0.24786745 0.06613441 -0.23093045
000040 f4 da aa be 37 eb ad be bf a5 04 3d b6 a4 86 bd
       -0.33370173 -0.33968517 0.03238463 -0.06574385
000050 03 83 ad 3e 08 e8 24 3d b3 08 24 3e 8c e5 78 3d
       0.33889017 0.040260345 0.16018943 0.060765788
000060 14 26 a8 bd 20 f4 6a 3e 74 a9 6f 3b 11 30 bf be
       -0.08210388 0.22944689 0.0036569508 -0.3734136
000070 48 75 17 3e c4 46 73 3c e0 0d b9 be c4 95 86 3e
       0.14790833 0.014848415 -0.36143398 0.26286137
000080 5b ba 37 3e 71 64 9a bd b7 bc 56 3e c4 f0 4d be
       0.17942183 -0.07538689 0.20970426 -0.20111376
000090 bf 66 a2 3b f1 74 89 3c b2 ae 1a 3d 5f 7e a7 3d
       0.004956096 0.016779395 0.03776426 0.081784
0000a0 f9 82 2a be 5b ff 9c be c5 5f 96 3e 85 5d 84 be
       -0.16651525 -0.3066357 0.2936994 -0.258526
0000b0 7c 8d b5 3d 09 1e b2 be ec bd a9 be b2 cc d9 3d
       0.08864877 -0.3478854 -0.3315271 0.10634746
0000c0 21 c9 a4 be aa e3 b2 3e 35 47 30 3d 3b 4e da 3b
       -0.321847 0.3493932 0.04303666 0.006662158
0000d0 95 26 19 3e 49 d3 fc bc 92 8c 04 3e 55 75 06 be
       0.14956124 -0.030862467 0.12944248 -0.13130696
0000e0 c6 79 9b 3d 24 d0 3a be ed 1d f0 bd ce 44 76 3e
       0.07591586 -0.18243462 -0.11724458 0.24049684
0000f0 2f bb 4a 3e dc 6f 82 3e 92 19 04 3e f2 0a b7 be
       0.19797967 0.25475967 0.1290038 -0.35750538

var_embedding.3.weight f4 [64, 64]
000000 bc f4 40 bd 4e 91 cb bb 12 69 69 3d fa df 90 3e
       -0.047108397 -0.00621239 0.05698497 0.2829588
000010 32 4d 9b bd 5f f5 3e be 22 a0 6f 3e 03 ab 37 be
       -0.07583083 -0.18648289 0.2340093 -0.1793633
000020 de 52 c3 bd 41 44 68 3e 6b 82 62 bd 24 b1 f0 3b
       -0.0953729 0.22682287 -0.055300158 0.0073453356
000030 95 e7 06 be c3 69 91 be 9a 68 84 3e f7 2d a9 3d
       -0.13174279 -0.28401002 0.25861055 0.0826072
000040 1c 55 31 3e e3 19 00 bd 06 57 85 3e e7 31 66 3e
       0.17317623 -0.031274687 0.26042956 0.22479974
000050 18 49 23 3e 11 1b ed bd 49 03 2e be b3 1c 92 be
       0.15945852 -0.11577428 -0.1699344 -0.2853752
000060 89 a2 6c 3d 6b a8 99 3e e9 2e 8d 3e 6b a5 fb bc
       0.057772193 0.30011305 0.27574852 -0.030718526
000070 42 21 42 be 3e e9 a1 3d 90 c7 40 3e b3 84 82 3e
       -0.18958 0.079058155 0.18826127 0.25491866
000080 c0 e2 3e 3e 79 d3 9b 3e b1 52 ef 3b 6e e9 70 bd
       0.18641186 0.30434778 0.0073035588 -0.058816366
000090 5c 7a 69 3e da 22 da 3c 1d 4f 85 be 2f bd 5e be
       0.22800583 0.026627947 -0.2603692 -0.21751855
0000a0 44 8e 6e 3e f0 f8 83 bc 8d d7 ac 3d be 19 bf 3d
       0.23296458 -0.016109914 0.084395505 0.09331082
0000b0 ec db 8c 3e 71 0d f6 bd cf 5b 49 3b a5 76 9a be
       0.27511537 -0.120142825 0.0030724888 -0.30168644
0000c0 17 f2 5f 3d 30 25 84 3e 77 32 2b be d3 cf 8e 3d
       0.054674234 0.25809622 -0.1671847 0.06973233
0000d0 f5 9d 75 bd 01 72 31 be a7 68 44 be 2c e7 2f 3e
       -0.059965093 -0.17328645 -0.19180547 0.17178029
0000e0 e8 39 30 be e0 ce 16 3d 9f 0a 0a 3d 0e 0f f9 3d
       -0.1720959 0.036818385 0.033701535 0.121610746
0000f0 92 0f 8e 3e 23 74 43 3e 6e d0 80 be d2 8f ca 3d
       0.27746254 0.19087271 -0.2515902 0.09890713
000100 fd b9 61 be 90 d8 8f be 0e fe 61 be 6b 0a 00 be
       -0.22043605 -0.28094912 -0.2206957 -0.12503974
000110 6b 7b 44 be 10 44 07 3e 2f b5 9b 3d e3 be 0a bd
       -0.19187705 0.13209558 0.076029174 -0.03387345
000120 32 25 04 3e 39 74 db bc 75 8e 0a bd d6 05 94 be
       0.12904814 -0.026788818 -0.033827264 -0.28910702
000130 1d ca 06 bd a0 f2 4e be c4 57 98 3e 93 3c ef 3d
       -0.032907594 -0.20209742 0.2975446 0.116814755
000140 63 52 03 be e3 f3 a6 bd f3 9b 18 3e ed 93 51 3e
       -0.12824397 -0.081519864 0.1490324 0.20466585
000150 6b 73 c4 3d c9 33 46 be 97 15 cd bd c3 28 0d 3e
       0.09592327 -0.19355692 -0.100138836 0.1378508
000160 04 5c d0 bd cb ae bd 3d 2a 57 04 be 60 15 3f 3e
       -0.101738006 0.09261855 -0.12923875 0.18660498
000170 67 d6 21 bd e6 c7 ce bd c6 88 70 be 18 ee c9 3d
       -0.03951111 -0.10096721 -0.23489675 0.09859866
000180 95 6a 08 3d c4 c8 32 be 86 3f 94 be 3c 46 6a be
       0.03330477 -0.17459399 -0.28954715 -0.22878355
000190 d6 cb 55 3e 7e a8 72 3e bb bf 61 3e 04 01 92 be
       0.20878538 0.23697087 0.22045796 -0.285164
0001a0 9c 0b 0c 3e 75 ab 8c 3e df 58 08 3e d5 f7 5b 3d
       0.13676304 0.2747456 0.13315152 0.053703148
0001b0 e5 77 da 3d 3f 00 7c be 24 2d fe bc 82 f8 80 be
       0.10667399 -0.24609469 -0.031027384 -0.25189596
0001c0 1d 90 0e 3e f6 7f 9d bd 83 26 52 be b6 b4 52 be
       0.13922162 -0.07690422 -0.20522504 -0.20576748
0001d0 a3 7c 79 3e 96 79 32 be f5 4f 1d 3e 26 bc 20 3c
       0.24363951 -0.17429194 0.15362532 0.009810483
0001e0 52 6f 88 bc 69 63 7c be 35 95 cf 3d 37 5e 1e 3e
       -0.016654644 -0.24647297 0.10135881 0.15465628
0001f0 ee d4 39 3e f5 c8 23 be 95 e3 41 3e e8 77 8a be
       0.18147632 -0.15994628 0.18934472 -0.27044606
000200 44 9b 89 3e 62 7d e4 bd 95 6b 50 3d 28 42 81 3e
       0.2687627 -0.111567274 0.05088385 0.25245786
000210 63 e5 16 3e 30 ca db bd 41 f8 6b 3e c9 3c 1d be
       0.14735942 -0.107319236 0.2304392 -0.15355219
000220 69 46 99 3e fe 81 66 bc 2a 08 8c 3e 0b 8c 8c be
       0.2993653 -0.0140690785 0.2734998 -0.27450594
000230 a0 0f c0 bd dd 96 28 3e c4 38 50 be 65 26 ea bd
       -0.0937798 0.164638 -0.20334154 -0.114331044
000240 e6 26 10 bd 02 14 f8 bc 07 f7 7f bc 64 76 d9 3d
       -0.035193346 -0.030282978 -0.015622861 0.10618284
000250 a2 6c 86 3e d5 18 86 be 07 a0 49 be 14 3e 4f be
       0.26254755 -0.2619082 -0.19689952 -0.20238525
000260 34 5a 6e 3e d5 3b df bd 21 cd a1 bc 5b 68 f6 3d
       0.23276597 -0.10900084 -0.019751133 0.12031623
000270 f8 1e 35 3e d2 0a 1b bd 74 c9 db 3d f2 aa 8e be
       0.17687595 -0.037852116 0.107317835 -0.27864796
000280 db c3 94 be cb c2 23 be 92 7a 83 be c9 bb 93 be
       -0.29055676 -0.15992276 -0.2567945 -0.28854206
000290 d8 ae 95 3e e1 b5 11 3e 01 34 08 3e 86 40 98 3e
       0.29234958 0.14229538 0.13301088 0.29736727
0002a0 f1 46 d5 3d f7 52 94 be f7 ab 42 3e da 5c a1 bc
       0.104139216 -0.28969547 0.19010912 -0.019697595
0002b0 01 5c 9a be 87 d2 10 3e 6d af 18 be a0 9e b1 b9
       -0.30148318 0.1414281 -0.1491067 -0.00033878256
0002c0 30 44 98 3e 73 8c a9 3d 82 77 7d 3e 6e 56 6d be
       0.29739523 0.08278742 0.2475262 -0.23177502
0002d0 dc aa 2f be 91 a6 d8 3c 5c 12 b6 bd 56 1a 96 be
       -0.17155021 0.026446613 -0.088902205 -0.29316968
0002e0 96 84 81 ba d7 1c 93 be fd 83 19 be 0e 48 45 be
       -0.0009881433 -0.2873294 -0.14991756 -0.19265768
0002f0 e2 44 31 3e a3 6a 7c bd 8e b0 0a be 68 b8 ac bd
       0.17311433 -0.061625134 -0.13543913 -0.0843361
000300 6d 69 02 3c 42 e3 bf 3d 2a d5 29 be 8d 7d 10 3e
       0.007959706 0.09369518 -0.16585222 0.14110394
000310 39 e5 7c 3e b0 42 93 be 5d 55 13 be 4e cc dd bc
       0.24696817 -0.28761816 -0.14388032 -0.02707496
000320 85 f2 9b 3e 23 f4 86 be f1 9a 91 be 68 0d 04 be
       0.30458465 -0.26358137 -0.28438523 -0.12895739
000330 17 fb 86 be e2 17 95 3d 35 de 38 3e 71 86 8e be
       -0.2636344 0.07279946 0.18053515 -0.27836946
000340 8d 40 65 3c e5 24 90 3e 25 13 bf bc e6 aa 99 3e
       0.013992441 0.28153148 -0.023324559 0.30013198
000350 c4 8a 88 be e2 55 28 bd 42 8f a6 3d 5e 67 48 3e
       -0.2666837 -0.04109753 0.08132793 0.19570681
000360 2c 7b 16 3e 2c 5b be bd 5d be 72 be 18 c5 4e be
       0.14695424 -0.092947334 -0.2370543 -0.20192373
000370 f5 c0 c5 3d 03 54 6a bd b5 bb 8a be 1d 6d 9b be
       0.09655944 -0.057209026 -0.27096334 -0.30356684
000380 0d 7e 68 be 7b 7d 0e be d7 56 57 be 57 b1 26 be
       -0.22704335 -0.13915055 -0.2102922 -0.16278587
000390 25 62 1b 3e 6f 84 82 be 28 87 98 3e e2 49 81 3e
       0.15174158 -0.25491664 0.29790616 0.2525168
0003a0 7a 8f 92 be ae 4e 44 3e 6e cd 8a 3e e0 d0 30 bd
       -0.2862509 0.19170639 0.27109855 -0.04316795
0003b0 07 e5 8e be 80 62 67 be 9e 75 84 be 49 e2 68 be
       -0.2790911 -0.22596169 -0.25870985 -0.22742571
0003c0 7d 4c 13 3e 29 c3 27 bc 13 75 00 be 70 a0 3f be
       0.14384647 -0.010239401 -0.1254466 -0.18713546
0003d0 50 1a 90 be 5f 1d 6a be 7a 2c 5a bb da 63 3b bd
       -0.28145075 -0.22862767 -0.003329067 -0.045749523
0003e0 16 d7 84 3d 79 e6 bd bc 9f 20 88 3e f3 1f 81 3e
       0.06486337 -0.023181187 0.26587388 0.25219688
0003f0 cb 35 88 be b5 09 45 3e ae 7a dd bd 89 54 73 bd
       -0.2660354 0.19241984 -0.10814415 -0.05940679

var_embedding.3.bias f4 [64]
000000 45 bf b6 3d 8d f2 cf 3b f3 2d de 3d 34 b6 bf bd
       0.089232005 0.006346053 0.10848608 -0.09360924
000010 f2 a7 c0 3d dd 1f eb 3c a0 83 c9 bd 9e 4f 8e 3d
       0.09407033 0.028701717 -0.098395586 0.069487795
000020 27 ce e6 3d 91 ff 50 bc 87 80 cf bc 41 25 de bd
       0.11269789 -0.012756244 -0.025329841 -0.10846949
000030 fa 99 fe 3c 27 f9 cf bd 1b fe ea bd 34 7d 07 3d
       0.031079281 -0.10154944 -0.11474248 0.033078387
000040 74 3c 86 3c 02 f2 bd 3c 7b 0d 3c bb 26 6c bd 3d
       0.016386248 0.023186687 -0.0028694558 0.09249143
000050 dc 1c f3 bd da b4 f4 3d f1 5d dd 3d 21 52 28 bd
       -0.11870739 0.11948557 0.108089335 -0.04109395
000060 08 4d 12 3d b2 9d 32 3c 0e 7b a9 3c 02 bf 80 3d
       0.035717994 0.010901855 0.02068856 0.06286432
000070 2a f1 14 bd 1f a5 6a bd 92 db cd bb 9a 73 f4 3d
       -0.036362804 -0.057286378 -0.0062822783 0.11936112
000080 4e af d5 3d 14 4f d0 3d 26 bd c7 3d ed d8 aa 3c
       0.10433827 0.10171333 0.09752874 0.020855391
000090 77 7a 11 3d 2f c3 d4 bd 9a f4 9b 3d 51 ec 8b 3d
       0.035517182 -0.10388791 0.076150134 0.06832183
0000a0 81 3a be 3c a8 8f 8c 3d 60 24 97 3d 90 b3 8e bd
       0.023221256 0.06863338 0.07379985 -0.069678426
0000b0 68 1c bf bc 11 83 ba 3c b4 05 2f bd 8e 6e 8c bd
       -0.023328975 0.022767575 -0.04273005 -0.06857024
0000c0 79 43 25 bd 02 48 4a bd 99 7d 29 bd fa 2e 9d 3d
       -0.04034755 -0.04938508 -0.041379545 0.07674976
0000d0 36 45 e7 bd 92 63 92 3c d1 a3 ad 3d cc f6 dd 3c
       -0.11292498 0.017869744 0.08478511 0.027095221
0000e0 42 4e af 3c 5e 49 da bd db dd 7b 3d b2 af 8e 3d
       0.02139962 -0.10658525 0.061490875 0.06967105
0000f0 d6 20 44 bd d1 78 6c 3c 83 7d 84 3b e0 c4 52 3d
       -0.047882877 0.014433102 0.0040432825 0.051457286

conv_v_to_c.feature_module_left.0.weight f4 [64, 64]
000000 b1 f4 0b be d1 eb d8 bd 70 55 cf 3d 8e 03 77 3e
       -0.13667561 -0.105918534 0.10123718 0.2412245
000010 1f 55 ab bd be ee 8a be ff b2 20 3e 17 ac fd 3d
       -0.08365845 -0.2713527 0.15693282 0.12386339
000020 50 8d 97 3e 23 63 47 3e 64 ea c8 bd f8 ec 1c be
       0.296 0.19471411 -0.098103315 -0.15324771
000030 92 39 66 3d 76 3f 0c bc cf 35 83 be 82 dc 3c 3d
       0.056207247 -0.008560052 -0.2562699 0.04610873
000040 cb 8d 91 3e 43 98 ca 3d be 35 17 3d ee 41 8f 3e
       0.28428492 0.09892323 0.036916487 0.27979988
000050 00 80 13 3d 70 34 5f 3e 39 56 94 3d 12 47 f2 bd
       0.036010742 0.21797347 0.07243008 -0.11829962
000060 34 5b b8 3c 3e c6 04 3e 38 e6 81 be ec 0d cf bd
       0.022504427 0.12966248 -0.25370955 -0.10110077
000070 ce 71 ae 3d 54 8e 58 3d 33 65 08 be bc 57 79 3d
       0.085178 0.05287011 -0.13319854 0.060874686
000080 27 80 4c be e3 3f 05 be 77 23 9c bd 1f 81 1a 3e
       -0.19970761 -0.13012652 -0.07623952 0.15088318
000090 8d 2c c5 bc 77 db 16 3e 5b 4e e8 3d 0c 90 c3 bd
       -0.024069095 0.14732157 0.1134307 -0.09548959
0000a0 d3 e3 b1 bd 36 83 56 3e 2f 45 96 3c d6 01 80 be
       -0.08686032 0.2094849 0.018343536 -0.250014
0000b0 b4 a3 94 3e b4 10 b8 bc 3c 94 7f be 9e 45 0a be
       0.29031146 -0.022468902 -0.2495889 -0.1350312
0000c0 08 c6 40 3e 1c 95 4d be c0 7a 6d be 16 9b 34 3e
       0.18825543 -0.20076412 -0.23191357 0.17637286
0000d0 0a 3a 17 3e 04 64 8b 3e 5c 14 40 be ef 36 a6 bd
       0.14768234 0.27224743 -0.18757766 -0.081159465
0000e0 da 2d 58 be bc 0c 4d bd 72 48 90 be 04 c3 60 3e
       -0.21111241 -0.050060973 -0.2818027 0.21949393
0000f0 03 14 2e 3d fd 89 84 3e 4a c7 a2 bd e2 92 c2 3c
       0.042499553 0.25886527 -0.079481676 0.02375168
000100 7e 2e b1 3c c8 2b 19 3e a3 92 f1 bd b5 36 01 3e
       0.021628615 0.14958107 -0.11795547 0.12618525
000110 b7 83 16 be 68 7a 87 3a f1 a4 26 be 78 11 a3 3c
       -0.14698683 0.0010336163 -0.16273858 0.01990579
000120 ab c0 27 be 94 0f 33 be ac c2 7a bd 08 b4 e3 3d
       -0.16382091 -0.17486411 -0.06122081 0.111183226
000130 af ed ce 3d f5 90 26 3c 41 4a 88 3d 8e 5b 4c 3e
       0.10103928 0.010166396 0.06654788 0.199568
000140 1e 4c ba 3d c6 5e 8d be a5 82 38 3c 7e 08 16 3e
       0.090965495 -0.2761137 0.011261617 0.14651677
000150 29 47 59 3c 8c 78 1b be 8c 0f d6 bd b0 4e 0c 3e
       0.013261595 -0.15182704 -0.10452184 0.13701892
000160 d5 ad 4d 3d db c5 23 3e aa 6f 00 3e 7a f1 41 bd
       0.050214607 0.15993445 0.12542596 -0.04734943
000170 bf e4 1f be 4a f4 87 3e 28 5b ef bd a5 c4 28 3e
       -0.15614603 0.26553565 -0.116873085 0.16481264
000180 18 23 87 3e 1a 17 1a 3e cf e6 07 3d d0 d7 22 3d
       0.26393962 0.15047875 0.0331791 0.039756596
000190 db 93 8d be 52 23 56 3e ab 36 86 3e 9f 09 13 3d
       -0.27651867 0.20911911 0.26213583 0.035897847
0001a0 6b fe 4b 3d 3b 78 fe bd 54 58 1a 3e a1 b5 88 be
       0.04980318 -0.12425276 0.15072757 -0.26701072
0001b0 a1 1e 6b 3e ed f3 f2 bd 4d 96 ab 3d cf 6b d7 3d
       0.22960903 -0.118629314 0.08378277 0.1051861
0001c0 25 08 33 be 2a ee e9 bd 93 eb 19 bd 16 4d 9a 3e
       -0.17483576 -0.11422379 -0.037578177 0.30136937
0001d0 ae 64 3b 3d 27 74 84 be 81 a9 9b be 16 50 5a be
       0.045750313 -0.25869867 -0.3040276 -0.21319613
0001e0 b7 34 91 3e d8 59 88 be 94 40 4c 3e 8f c3 02 be
       0.2836053 -0.26631045 0.1994651 -0.12769912
0001f0 42 64 a3 bd 68 ad 0b be 81 66 8b be 60 d6 13 be
       -0.07978107 -0.13640368 -0.27226642 -0.14437246
000200 64 be 96 be 87 9b 41 be b2 f6 32 be 77 91 e2 bc
       -0.29442132 -0.18906985 -0.1747692 -0.027657254
000210 4f 4d 96 3e 57 4d 90 be 55 20 7b be 88 b2 64 3d
       0.29355857 -0.28184006 -0.24524052 0.055834323
000220 6a b0 b4 bd 14 7c b6 bd 57 8f 15 3e 4e 85 05 3d
       -0.08822711 -0.08910385 0.14605461 0.032597832
000230 da a8 00 be ec 35 8d be 4b c7 3d be a4 49 7c be
       -0.12564412 -0.27580202 -0.18533055 -0.24637467
000240 5a 95 16 3d 28 c0 d2 3c f5 82 1d bd f0 b7 83 3e
       0.036763526 0.025726393 -0.03845497 0.2572627
000250 a4 42 60 be 91 56 4d bd b8 00 8d be 0d 45 a4 3d
       -0.21900421 -0.050131384 -0.2753961 0.08020983
000260 00 67 90 be 9e 92 07 be fe 46 92 be 74 17 20 3e
       -0.28203583 -0.13239524 -0.28569788 0.15633947
000270 7c 60 13 be 59 e7 19 bd 18 59 09 be 92 d9 19 be
       -0.14392275 -0.037574146 -0.13412893 -0.15024403
000280 f5 f0 4e 3e 43 18 70 3d 93 be 81 bd ce 76 96 3e
       0.20209105 0.058616888 -0.06335177 0.29387516
000290 2a 06 d3 bd e0 a5 f4 3c 5e 3c 9c 3e af 0a db 3d
       -0.1030391 0.029864252 0.30514807 0.10695397
0002a0 98 2b 25 be c9 3d 54 3d a3 79 ad 3c 9a 42 68 3e
       -0.16129911 0.051816735 0.021176165 0.22681656
0002b0 6d f0 eb 3d cc af b1 bd b3 a5 03 3e 1f a4 99 3e
       0.11520467 -0.08676109 0.12856178 0.30008027
0002c0 22 87 7a be fa f7 5b be 10 52 9c be 98 97 5a be
       -0.24465612 -0.21481314 -0.3053136 -0.21346891
0002d0 39 21 49 3e 86 38 06 3e b2 27 1b 3d 52 fb 97 3e
       0.1964158 0.131075 0.037879653 0.2968393
0002e0 be ea 9a 3e 36 67 d0 bc 68 86 7a be 79 ab 95 3e
       0.3025722 -0.02543984 -0.24465334 0.29232386
0002f0 f1 0c 3d 3e dd 25 d9 3d e4 ba 84 be 23 7f 2e 3e
       0.18461968 0.10602925 -0.25923836 0.17040686
000300 29 9e a1 bd 7a 8b 09 3e f6 d1 5b bd 6e 67 07 3e
       -0.07891495 0.13432112 -0.05366703 0.13223049
000310 db 5f 74 bd 1d 77 05 3e 32 0c 08 3e 7b fd 4a be
       -0.059661727 0.1303372 0.13285902 -0.19823258
000320 8d e1 38 bb a4 5b 77 bd 87 07 7e 3e 24 df df bc
       -0.002821061 -0.06039013 0.24807559 -0.027328081
000330 c7 9c 95 3e 03 96 8a 3c 8a d6 8e bd 31 c7 88 3e
       0.29221174 0.016917234 -0.06974514 0.2671447
000340 da 6f 44 be df b0 97 be b0 68 89 3e 29 8d af bc
       -0.19183293 -0.2962713 0.26837683 -0.021429615
000350 ec 34 24 3e 40 29 8a 3e 7b 06 9a 3c f1 95 df bd
       0.16035813 0.26984596 0.018801918 -0.10917271
000360 e4 74 8e be d6 e4 6b 3e 42 c5 75 3e 02 f6 55 3e
       -0.27823555 0.23036513 0.24001029 0.20894626
000370 00 b6 4d be 23 fc 7b be 04 78 7a be 2b 89 96 be
       -0.20088959 -0.24607901 -0.24459845 -0.29401526
000380 d1 ef 5a be c1 da 83 be a0 44 75 bd a6 0c 79 be
       -0.21380545 -0.25752833 -0.0598799 -0.24321231
000390 05 34 96 be 9e bf 4d be 62 c3 06 be 27 b5 0b 3e
       -0.29336563 -0.20092627 -0.1316047 0.13643323
0003a0 ff ea 2c 3e d6 7a 91 be 13 82 8e be d7 83 e9 bd
       0.16886519 -0.2841403 -0.27833614 -0.114020996
0003b0 0f f5 2d be b2 d6 73 3e d5 33 98 3e 6f 0e dc 3d
       -0.16988014 0.23812369 0.29727045 0.107449405
0003c0 70 44 3c be 2e 9a 29 3e 06 c9 fc bc c3 d1 8d 3e
       -0.18385482 0.16562721 -0.030857574 0.27699098
0003d0 d6 df 56 3e 24 a7 38 3d b1 5a 99 be 76 58 37 3d
       0.20983824 0.045081273 -0.29952005 0.044762097
0003e0 37 a2 44 3e ae c8 18 be 1f 00 34 be 05 66 9c 3e
       0.19202505 -0.14920303 -0.17578171 0.30546585
0003f0 c9 09 c7 bc be 85 83 be 9c 55 80 bd 4f 28 46 3d
       -0.024296658 -0.25687975 -0.06266329 0.048378285

conv_v_to_c.feature_module_left.0.bias f4 [64]
000000 f2 f2 b2 bc 22 4d 70 3d a2 7f 66 3d 83 af ac bd
       -0.021844361 0.05866731 0.056274064 -0.08431914
000010 52 88 61 bb b4 31 54 3d 5a 4a e9 bc 36 71 4c bc
       -0.0034413529 0.051805213 -0.028477836 -0.0124781635
000020 a4 01 4b 3d 88 48 4d bd f3 05 e8 bb ad 62 27 3d
       0.04956211 -0.050118 -0.0070807873 0.04086559
000030 7d c2 b8 bd 73 96 8e bd e2 c5 f8 3d 76 b0 ad 3d
       -0.09021471 -0.0696229 0.12147118 0.08480923
000040 a1 ed c1 3d f9 6c 92 3d 37 7a 07 3a 95 6d 7d 3d
       0.09469152 0.07149691 0.0005168053 0.061872084
000050 de d3 2a 3d 77 80 a0 bd 1e f1 8c 3d a5 02 86 bd
       0.04170596 -0.07837003 0.06881927 -0.06543473
000060 f3 9c 49 3d a7 a9 68 bd fa 40 fd bd 85 1b d5 bc
       0.049221944 -0.056802418 -0.12365909 -0.026014099
000070 31 64 c6 3d 61 67 9e 3d 5c a8 a3 bd b4 63 6e bd
       0.09687079 0.07734562 -0.079910964 -0.058200553
000080 8d a6 24 3d cd 67 8e 3d 7b c8 40 ba df 26 d0 bc
       0.040197898 0.06953392 -0.00073540927 -0.02540916
000090 49 7d e8 bd 11 5a d1 bd 1d 54 c3 bd f1 ca ef 3c
       -0.11352021 -0.10222257 -0.09537528 0.029271575
0000a0 b9 5a 29 3d 1d 86 6d bc 0f ba 8a bd ec 1a 0a bc
       0.041346285 -0.014497307 -0.06773769 -0.00842927
0000b0 14 d8 83 3b 1b df e5 bd 10 87 2f 3d e4 9f 5e 3c
       0.0040235613 -0.112241946 0.042853415 0.013587926
0000c0 f6 c5 ff 3d 76 19 87 3d 1b ac 95 bd c5 9a 7c bd
       0.1248893 0.06596653 -0.07308217 -0.061671037
0000d0 7c 6d b3 bd 50 f9 07 bd f7 bb 94 3d 98 9a 5f bd
       -0.08761117 -0.033196747 0.07262414 -0.05459079
0000e0 99 d7 e5 bd 4f f1 a3 3d e6 18 11 3d 13 7e 2c 3d
       -0.112227626 0.0800501 0.035424136 0.04211242
0000f0 14 79 07 3d 33 6c 6a bc 97 08 ec 3d 37 38 fa 3d
       0.033074453 -0.014308023 0.11525076 0.122177534

conv_v_to_c.feature_module_edge.0.weight f4 [64, 1]
000000 9b 79 41 bf 92 13 c2 bf 9d dc 07 c0 47 28 10 40
       -0.7557618 -1.5162222 -2.1228402 2.2524583
000010 82 e6 9a bf 3c 6e 7d 3e 25 44 15 c0 b7 b5 04 c0
       -1.2101595 0.24749082 -2.3322842 -2.073591
000020 ad 0a c8 bf ad 61 fd bf 5a e0 25 3f 4e 02 11 c0
       -1.5628258 -1.9795433 0.6479546 -2.2657657
000030 99 41 c6 3f b2 c8 5b bf 8b 16 39 bf c7 01 00 3d
       1.5488769 -0.8585311 -0.7230002 0.031251695
000040 32 1e 0e c0 28 e8 26 3f 91 bf d7 3f 0e 53 19 40
       -2.220593 0.6519799 1.6855336 2.3956943
000050 a4 f0 c9 3f 9f f8 ef 3e ba 82 17 40 41 3c 13 c0
       1.5776563 0.4686937 2.367354 -2.3005526
000060 e8 18 15 40 cb 18 78 bf b1 5a ed 3f 5b b7 fb 3e
       2.3296452 -0.9691283 1.8543302 0.49163327
000070 21 cc cb bb 57 9e 7b 3e 69 b2 16 3f 2d 05 ad bf
       -0.0062194024 0.2457212 0.5886598 -1.3517205
000080 44 54 a8 3f 15 37 84 bf 4d 4c 8b 3f c0 dd f9 be
       1.3150716 -1.032931 1.088266 -0.48801994
000090 0d 3d 1a 40 07 e0 b2 bf 03 7d be bf 0e a3 e1 3e
       2.4099762 -1.3974618 -1.48819 0.44069713
0000a0 62 5b 12 3f 03 a7 b9 bf 26 36 9a be 34 39 71 bf
       0.5717069 -1.4504093 -0.30119437 -0.9422791
0000b0 e1 65 91 bf c6 e3 df 3f ac 71 01 be da a2 b1 3f
       -1.1359216 1.7491386 -0.12641019 1.3877823
0000c0 f8 4e 70 bf f5 d1 f7 3f 80 e7 f6 bf 1a 28 53 3f
       -0.93870497 1.9360949 -1.9289398 0.82483065
0000d0 ef bd 18 3f 81 6b 0a c0 81 5b 4d be d6 ea c5 bf
       0.59664816 -2.1628115 -0.20054437 -1.5462291
0000e0 99 7b 30 3f 10 43 eb bf c6 45 91 bd 5e 97 e3 3d
       0.68938595 -1.8379841 -0.07093386 0.111128554
0000f0 eb 6f 5a 3f 31 82 c9 bf 05 95 dc 3f ef 93 c4 bf
       0.85327023 -1.5742856 1.7232977 -1.5357646
