rl_model/SCPPO_policy_59.pth (torch_old, 472694 bytes, 71 tensors)

cons_embedding.0.weight f4 [4]
000000 71 09 80 3f 95 cb 7f 3f 2f 2d 80 3f 6b c6 7f 3f
       1.0002881 0.99920017 1.0013789 0.99912137

cons_embedding.0.bias f4 [4]
000000 7c b2 94 b9 00 2f 4e 3a c8 c3 b3 3a 0c c6 66 ba
       -0.0002836174 0.000786528 0.0013714964 -0.0008803315

cons_embedding.1.weight f4 [64, 4]
000000 28 17 4f bf da 06 5d 3f 61 be 1a 3e 07 6b 31 3f
       -0.8089471 0.8633858 0.15111686 0.69303936
000010 20 15 f0 bd 9a 6c 88 bf 18 c1 4c 3f aa 4d 88 3d
       -0.11722779 -1.0658143 0.7998214 0.06655438
000020 01 7f a8 bd d2 c9 aa 3d 21 ce 6a be 5a 02 06 bf
       -0.08227349 0.083392754 -0.22930194 -0.5234734
000030 33 b2 19 3f a7 31 c4 3e c1 8a 8c 3d 98 a8 36 3f
       0.60037535 0.38319132 0.06862403 0.71351004
000040 d9 45 d4 3e 54 ce ec 3e b1 aa f4 bc ae 07 43 bf
       0.4145954 0.46251166 -0.029866548 -0.76183593
000050 02 b2 37 3f b6 fd d3 bd 5e 69 8f bf 52 bc 41 3f
       0.71755993 -0.10351126 -1.120403 0.7567798
000060 00 a1 70 bc cd cc 06 3e d1 e6 1a bf 3a 06 f0 3e
       -0.014686823 0.13164063 -0.6050845 0.4687975
000070 45 be 7c bf 13 19 92 bf a2 2c 8a 3e 33 01 2d 3f
       -0.9872783 -1.1413902 0.26987177 0.67579955
000080 37 bb 22 bf 75 8a 03 3f 90 00 27 bd ec 0d 19 3f
       -0.6356692 0.51383144 -0.04077202 0.5978687
000090 b0 dc 4f bf ba 79 27 3f e8 3c 58 3f 6d 16 69 3f
       -0.8119612 0.65420115 0.84467936 0.91049844
0000a0 16 37 41 3f 65 47 7f bf ac b9 8a 3f 09 02 3f 3d
       0.7547468 -0.99718314 1.0837913 0.0466328
0000b0 ac cd 81 3f 90 22 e0 3e 9a 56 2f 3f bc ab 21 3f
       1.0140891 0.4377637 0.6849152 0.6315267
0000c0 47 29 47 3e 1e 03 6a 3f 8b 9e ad be df f5 14 bf
       0.1944934 0.91411006 -0.3391002 -0.5818767
0000d0 03 01 af bc 3b 60 07 3e d8 25 82 3f 5e a3 fd 3e
       -0.021362787 0.13220303 1.0167799 0.49538702
0000e0 75 62 2c bf e0 4e 3d 3f e4 74 86 3f 94 bc 75 bf
       -0.67337734 0.7394848 1.0504422 -0.9599087
0000f0 df 41 8d 3f 1f c7 d1 be 82 ba 86 3f 99 34 67 bf
       1.1035727 -0.4097223 1.0525668 -0.9031463
000100 d9 3f 2b 3f 65 a4 82 3e cb 54 8e 3e 3d bf b6 be
       0.668943 0.25516048 0.27799067 -0.35692778
000110 d1 89 48 bf 04 1c 6a 3f 03 d1 95 3f 6b 16 32 bf
       -0.7833529 0.91449 1.170441 -0.6956546
000120 2a 4e 17 3f 7d 51 ed be 18 5c 99 3f d2 84 99 bf
       0.59103644 -0.46351233 1.198123 -1.1993659
000130 24 ab 52 3f 1d be 72 bd a4 be cb 3d 05 3f 33 bf
       0.8229239 -0.059263337 0.09948471 -0.70018035
000140 ac af c8 be fb 99 5b 3e 97 94 98 bf dd 05 89 be
       -0.39196527 0.21445458 -1.1920346 -0.26762286
000150 db 5f 34 3e b4 7e 84 be d3 09 85 bf 83 a5 65 3f
       0.17614691 -0.25877917 -1.0393623 0.89705676
000160 f5 7e 82 be 18 41 68 bf fa 53 52 3f cb ae 56 be
       -0.25487486 -0.90724325 0.8215939 -0.20965116
000170 d4 11 99 3f 1a 67 46 3f 8c 27 10 3e b1 8f 0a 3f
       1.1958566 0.7750107 0.14077586 0.54125506
000180 99 6e 4f 3e 78 6d 91 bf 8a eb 2f bf 5c 8c 9c bf
       0.20257033 -1.1361532 -0.6871878 -1.2230334
000190 4a b3 93 be a9 8a 82 3f 28 cd 3f 3f 51 f7 7f 3f
       -0.28847724 1.0198566 0.7492242 0.9998675
0001a0 83 ba 3a bd ff 64 84 3f 63 2b 40 3f 09 56 2f bd
       -0.045588028 1.0343322 0.750662 -0.04280666
0001b0 24 fb 86 bf ef f0 25 3f 6e c5 4d bf ba de 14 3f
       -1.0545392 0.6482076 -0.8037938 0.58152354
0001c0 78 56 89 be 26 a7 21 3f 24 09 05 bf 6c ab 5b 3e
       -0.26823783 0.63145673 -0.5196707 0.21452111
0001d0 84 ed 84 3f ea 27 8f 3f ad 6d cc be ad e8 91 bf
       1.0384984 1.1184056 -0.39927426 -1.1399132
0001e0 7f 7d b8 be 50 0a 70 3d 83 3f 70 3f 63 15 1d bf
       -0.36033246 0.058603585 0.9384691 -0.6136076
0001f0 c2 c0 85 bf f1 fb 3f be 41 cc f4 3d d3 f2 a2 3e
       -1.044945 -0.18748452 0.11953021 0.31825885
000200 c2 5e c1 3d 87 1b 8a bf aa 9e 80 bf d8 fd 26 3e
       0.09441902 -1.0789651 -1.004842 0.16307771
000210 a5 9d c9 3e 87 70 2b bf 06 b5 90 3c cf f8 65 be
       0.39378086 -0.6696858 0.017664444 -0.22458194
000220 f6 6f 37 3e ed eb 5f 3e b8 30 54 bf bb ea 8b bf
       0.17913803 0.21867342 -0.8288684 -1.0931009
000230 8d bc a6 be 12 64 02 bf 32 96 49 3e ad c9 8d bf
       -0.32565728 -0.50933945 0.19686201 -1.1077172
000240 c9 c5 82 bf 48 f9 be bc 52 35 bb 3e 43 64 8d bf
       -1.0216609 -0.023312226 0.36564118 -1.1046222
000250 ad 82 aa 3d 94 40 4e bf d9 53 5c be 2d 93 2e bf
       0.08325706 -0.8056729 -0.2151636 -0.6819332
000260 25 57 53 bf cc d8 4b 3f dc 89 49 bf 78 f2 c7 3e
       -0.82554847 0.7962768 -0.7872598 0.39052176
000270 a7 70 95 bf ff 68 fe 3e cc 19 94 3f 69 16 03 3f
       -1.1675004 0.4968948 1.1570373 0.5120607
000280 f2 06 93 3f 65 3e 7c bf 03 46 75 3f 7d 74 25 bf
       1.1486495 -0.98532706 0.95809954 -0.6463087
000290 70 1c d7 bb 19 ca b3 be 5b ea e2 3e 01 d6 03 3f
       -0.0065646693 -0.35115126 0.44319424 0.5149842
0002a0 53 5f 01 3f 0d 6b 93 3f bc e1 83 bf 64 db 58 be
       0.5053608 1.1517044 -1.0303264 -0.21177441
0002b0 22 6f 98 bd 00 10 81 bf dc 0a 60 3f 25 77 a3 bd
       -0.07443072 -1.0083008 0.8751657 -0.079817094
0002c0 4e 14 9c be 7e 66 0a bf c7 25 69 3f ca 6d 29 3f
       -0.3048424 -0.5406264 0.9107327 0.6618315
0002d0 c6 8e ca 3e c6 a5 27 bd ef b6 51 be 24 08 1c bf
       0.39562052 -0.04092958 -0.2047994 -0.6094992
0002e0 01 01 56 bf f0 87 96 3f 36 9c 88 3f 1f f1 8b 3e
       -0.8359528 1.1760235 1.0672672 0.27332398
0002f0 ac ed b8 be 10 91 21 bf 69 31 a5 3e e3 16 d9 3e
       -0.3611883 -0.6311197 0.3226426 0.42400274
000300 08 91 0e bc a2 58 03 3f 73 80 90 3e 03 6b cd be
       -0.00870157 0.5130712 0.28223 -0.40120706
000310 36 c9 5b 3d 3d 4b 23 3f 62 2e 71 be e9 ae 63 bf
       0.053658687 0.6378668 -0.2355285 -0.88938767
000320 af 39 bc be ee 65 9a bf 54 36 1c 3f 9f 53 6b bf
       -0.3676276 -1.2062356 0.610204 -0.9192447
000330 9f a8 84 3f 46 25 fb bb 29 80 12 3e 92 87 94 3e
       1.0363959 -0.0076643554 0.14306702 0.29009682
000340 1b df 20 bf 0c 4a d4 3e ac 75 36 3f 1b f9 af be
       -0.6284043 0.41462743 0.71273303 -0.3436974
000350 8c bc 80 bf d2 f1 e9 3e a9 bf 98 3f 19 e8 2c be
       -1.005754 0.45692307 1.193349 -0.16885413
000360 a1 70 4c bf da e6 04 be 09 4e 5d bf 93 f6 84 3f
       -0.7985936 -0.12978688 -0.864472 1.0387748
000370 f0 c1 0b bf 9b f6 52 bf 20 7e fc bd 09 eb 21 bf
       -0.545928 -0.8240754 -0.12328744 -0.6324926
000380 c4 bb b5 be f3 51 39 bf 09 01 83 3f 12 d6 23 bf
       -0.35494816 -0.7239067 1.0234691 -0.6399852
000390 07 d8 40 3f 49 7b 10 bf e4 0d 6c 3f 13 67 06 bf
       0.7532963 -0.5643812 0.92208695 -0.5250103
0003a0 8e ae 0d 3f 8e 81 82 be d4 18 dc be 70 87 ed 3e
       0.55344474 -0.25489467 -0.42987692 0.46392393
0003b0 56 f6 48 3d 32 e2 f7 be 47 cc 05 bf c3 37 b7 3e
       0.04906305 -0.4841476 -0.5226483 0.3578473
0003c0 8d 52 b4 3e 3b c6 d6 3e c3 e6 87 be 39 61 a9 be
       0.3521923 0.41948113 -0.26543245 -0.33081988
0003d0 68 a9 8d 3c ca ee 72 3f 94 0a c8 3d 70 8a 4d 3f
       0.017292693 0.94895613 0.097676426 0.80289364
0003e0 84 e6 0f 3e 3d 5b 1f 3f 0c 2a db bd fc 2a 18 bf
       0.14052778 0.62248594 -0.10701379 -0.5944059
0003f0 5d ef 79 bf 70 24 30 3e 8d 4f 72 3f a6 ab 12 be
       -0.97630864 0.172014 0.94652635 -0.14323291

cons_embedding.1.bias f4 [64]
000000 76 1e 96 3e 11 8d ee 3e fc 3d b5 3e 47 05 82 bc
       0.29320115 0.46592 0.35398853 -0.015871657
000010 08 72 81 be fb e6 68 3e 69 ab 9c be 33 5b 6a 3e
       -0.2528231 0.22744362 -0.30599526 0.22886352
000020 9b ac b9 3d 86 bb ab 3e c1 d3 e6 bd be 37 5b 3e
       0.09066125 0.33541507 -0.112708576 0.21407983
000030 27 66 b4 3e 28 5b dc 3e 99 67 69 3d 12 78 ee bd
       0.35234186 0.43038297 0.056983564 -0.11643995
000040 73 12 5c be ea f0 ee bd b1 f5 62 3e 08 67 82 be
       -0.21491413 -0.116670445 0.22164036 -0.25469232
000050 2e 6e 47 3e 96 07 a3 3e 57 9f cb 3e 64 72 39 be
       0.19475624 0.31841725 0.39770004 -0.18110043
000060 98 3f 6f be 53 e7 9b 3e 18 9f c9 bd eb 18 ca 3b
       -0.23364103 0.30449924 -0.09844798 0.0061675212
000070 e3 77 fe 3e 54 eb 97 be 2f df e6 be 89 5f 05 3e
       0.4970084 -0.2967173 -0.4509215 0.13024725
000080 ff 57 28 bd 90 21 9c be 90 d8 0a be f5 d9 aa bd
       -0.041099545 -0.30494356 -0.13559175 -0.08342353
000090 19 66 30 3e f3 da 3a 3d 0a 90 a9 3e 07 63 a7 be
       0.17226447 0.045618962 0.33117706 -0.3269274
0000a0 97 93 e9 3e 14 87 b0 be 25 56 8f 3d e3 da d8 bd
       0.45620415 -0.34478056 0.06998853 -0.10588624
0000b0 44 08 64 3e 72 93 e3 3d 2c d8 37 3e fc 1c 19 bd
       0.22268778 0.11112107 0.17953557 -0.037381157
0000c0 f1 8a e4 3e 7b 10 3a be 27 7a ae be 46 9a 85 be
       0.44637254 -0.1817035 -0.3407757 -0.26094264
0000d0 0b 9f eb be dc 31 e3 3e a4 eb 87 3e a9 ee ba 3e
       -0.46019778 0.44373977 0.26546967 0.36510208
0000e0 61 0b 90 be f9 61 82 be 32 db 5b 3e 95 29 ed 3d
       -0.2813368 -0.25465372 0.21470335 0.11580197
0000f0 32 82 be 3e 99 10 9a 3e 24 14 da 3d e4 86 88 be
       0.37208706 0.30090788 0.10648373 -0.26665413

cons_embedding.3.weight f4 [64, 64]
000000 46 1d ec 3d 2e fe 15 bd 39 ad 8d 3e 45 cd ae 3c
       0.11529021 -0.036619358 0.2767122 0.021338115
000010 58 72 cd bc 14 b6 f1 3d 0d 69 ba bd f9 e0 ce bc
       -0.025078937 0.11802307 -0.09102068 -0.02525376
000020 9f d4 89 3e 3d dd 67 3e 8b 20 84 3e 98 90 97 3e
       0.2692003 0.2264299 0.25806078 0.29602504
000030 c9 65 bd ba 84 60 15 bd 34 c2 6d 3e a2 bd 9c 3d
       -0.001444989 -0.036468998 0.23218614 0.07653357
000040 22 46 02 3e ba bc 82 3e 7d 85 1e 3e 29 62 4d be
       0.12722066 0.25534612 0.15480609 -0.20056976
000050 aa 06 9f 3c bd a0 8e 3d 21 bf 6a 3e 5b 37 40 3e
       0.019412357 0.06964252 0.22924472 0.18771116
000060 9a a0 d9 bb 0d 81 9b be 9a 10 43 be 54 d3 77 be
       -0.0066414597 -0.30371895 -0.19049302 -0.24201709
000070 01 b6 c5 bd df 3a 89 3e 79 04 5c 3e 6c bb 30 be
       -0.09653855 0.26802728 0.21486081 -0.17258996
000080 86 c8 7e be 13 f6 16 bd 69 54 2b be 48 5c 73 3e
       -0.24881181 -0.03685577 -0.16731419 0.23765671
000090 06 1a 25 3e 6b 9d 85 be 05 88 7b bd 13 1b 4d 3e
       0.16123208 -0.26096663 -0.061409015 0.20029859
0000a0 18 44 35 3e 02 74 5d 3c f7 11 94 3e aa a6 20 3d
       0.17701757 0.013516428 0.28919956 0.039221443
0000b0 74 bd 01 3c 95 b3 43 bc 41 3e 52 be 35 6f 76 be
       0.007918704 -0.011944671 -0.2053156 -0.2406586
0000c0 f1 30 43 3e 71 4f 87 3d d1 1d 56 be 62 90 2d bd
       0.19061638 0.06606949 -0.20909812 -0.042374022
0000d0 42 3e 9a bd ce 7a 6a 3e ec f8 34 3e 13 02 0f 3e
       -0.07531406 0.22898409 0.17673081 0.13965635
0000e0 5b 47 27 be cb 63 37 3e 67 75 98 be a8 d2 95 be
       -0.16335814 0.17909162 -0.2977707 -0.2926228
0000f0 f0 43 99 3e 12 dd 96 3e be 3d d3 bd 04 5b a3 3d
       0.29934645 0.29465538 -0.10314511 0.07976344
000100 af ac 80 3e c3 39 be 3d 7a f5 8c bd 8a f3 04 bc
       0.25131747 0.09288361 -0.068827584 -0.008114705
000110 7f bb 6a be 0a e9 fc 3d 1e 6a 8a be f3 31 87 3d
       -0.22923087 0.12349136 -0.27034086 0.06601324
000120 00 04 48 3e d9 ce 7f bd 32 f2 7c bd d1 06 8d be
       0.19532776 -0.062453125 -0.061754413 -0.27544263
000130 88 da ce bd 64 61 26 be 97 92 3d be de 5a 8d 3e
       -0.10100275 -0.16248089 -0.18512951 0.2760839
000140 85 43 59 3d be 41 65 3e 7a 6a 76 be b1 66 ad bd
       0.053042907 0.2238836 -0.24064055 -0.084668525
000150 5e 85 7e be 94 1a 0d 3e 33 bc 95 3d 8c 14 7a 3e
       -0.24855563 0.1377967 0.07311287 0.244219
000160 ae 6a 08 3e 0d 16 98 3c 33 e5 e9 bc 31 9a 71 be
       0.13321945 0.018565202 -0.028551674 -0.23593976
000170 a9 ad df 3c 4e 73 42 be f3 05 90 bd 86 c7 95 3e
       0.027304487 -0.18989298 -0.07032385 0.29253787
000180 f3 55 8b 3e 0b 43 3d be 4f ae c3 bc 32 0a 93 3d
       0.27214012 -0.18482606 -0.023886828 0.07179679
000190 d6 02 36 3d 10 7b 8f 3e 71 3f 28 bd 64 3d bb 3c
       0.0444363 0.28023577 -0.041076127 0.022856422
0001a0 cc db 7b be 15 f3 53 3e 6f 55 0e bd 27 84 47 be
       -0.24595565 0.20698197 -0.034749445 -0.19484006
0001b0 d3 53 65 be ec c0 82 3d 29 9c 6c be 20 24 56 be
       -0.22395258 0.06384453 -0.23106445 -0.20912218
0001c0 1a 6b 8f be ab 03 91 be 3d 29 99 be bd b0 28 bd
       -0.280114 -0.2832311 -0.29914275 -0.041184176
0001d0 37 c2 47 be ce 9e 83 be 4e 46 7c 3e b1 d5 8b 3d
       -0.19507681 -0.25707096 0.24636194 0.06827868
0001e0 59 bc f1 bd 8d 79 92 be 15 c2 29 bc 5f d7 3d 3d
       -0.118035026 -0.2860836 -0.010361214 0.046347972
0001f0 b4 ab 81 3d cb 53 94 3e 0e a4 8e 3e 5e 96 84 3d
       0.06331578 0.2897018 0.2785954 0.06473993
000200 aa 67 81 3e 0a 67 5d bb d4 c1 6d be 9a 5e 0e be
       0.25274402 -0.003378334 -0.23218471 -0.13903275
000210 6c d4 46 3e dc d5 97 bd 50 97 16 3e 10 e7 03 be
       0.1941697 -0.07413837 0.14706159 -0.12881112
000220 5e e2 52 be f9 aa e2 bc 79 f3 8a 3e bd 25 86 be
       -0.20594165 -0.027669417 0.2713888 -0.26200667
000230 e1 1f ab bc 98 eb 5b bd 6e ae 84 3e 17 5e 2e be
       -0.020889224 -0.053691477 0.2591433 -0.1702808
000240 60 aa f4 3d d7 6f a8 3d e6 9c 61 3e 55 0f 15 be
       0.11946559 0.08224457 0.22032508 -0.1455663
000250 22 d3 57 3e 91 40 6a 3e b5 ac 16 be 4b f9 24 3d
       0.21076635 0.22876193 -0.1471432 0.040276807
000260 24 0c ea 3d b6 a0 df bc 21 99 88 be 84 6d 27 3e
       0.11428097 -0.027298313 -0.26679328 0.1635037
000270 29 1a 7d 3e 6f d6 95 be c5 16 c8 3d 05 1c 4c be
       0.2471701 -0.29265162 0.09769968 -0.19932564
000280 e3 19 1e be 50 33 6c 3d ca 30 57 be 19 a4 b7 3d
       -0.15439562 0.057666123 -0.21014705 0.08966846
000290 5d 46 f2 bd 3c ee 40 3c 7b 3d 0a 3e db dc 12 3e
       -0.11829827 0.0117755495 0.13500015 0.14342062
0002a0 9a a6 96 3e 28 cb 97 be 0a 7c 50 bc c8 dc 6e 3e
       0.29423982 -0.29647183 -0.012724886 0.23326409
0002b0 2d 02 69 be ba 5b 1f bd 22 cc 02 be c7 dc bf bd
       -0.22754736 -0.038905837 -0.12773183 -0.09368282
0002c0 dd a5 72 bd 99 be 39 3e 45 c3 93 be a0 f6 64 3d
       -0.05924021 0.18139113 -0.28859916 0.055899262
0002d0 a5 8a 13 3e 89 50 8e bd 57 a0 f7 bd 43 81 e4 bd
       0.14408357 -0.069489546 -0.12091129 -0.11157467
0002e0 23 de 5b 3e d8 7f 8b bd dc a6 07 3e f8 86 b6 bd
       0.21471457 -0.06811494 0.13247246 -0.08912462
0002f0 10 1d b5 3c 7f 39 0f 3e a5 9a 3d bc 92 4c 46 3e
       0.022108585 0.13986777 -0.011572515 0.19365147
000300 7c a7 8c 3d 96 13 35 bd a6 a5 0e be 76 47 78 3d
       0.068678826 -0.04420813 -0.13930377 0.060615025
000310 98 5f 58 3e 62 4d 4d 3e 9f 01 dc bd 0c 54 2b 3d
       0.21130216 0.2004905 -0.10742497 0.0418282
000320 7e f2 8b 3d ee e9 98 3d e0 3e b1 3d 87 a5 20 be
       0.06833361 0.074664935 0.086545706 -0.15688144
000330 52 7e f1 bd 48 08 83 3d 39 ad 89 be dd f8 61 be
       -0.11791672 0.06398064 -0.2688997 -0.2206759
000340 12 7f 6e be 0d 62 5a bd 62 ea 90 3e a3 1e 92 3e
       -0.23290661 -0.053316165 0.2830382 0.28539
000350 86 35 54 be a6 e1 92 3d 90 5f 62 3e 2d 91 a2 3d
       -0.20723543 0.07171945 0.22106767 0.07937846
000360 d1 ad 82 be b7 b1 ff 3d b8 c3 8f 3e a9 e1 9d bd
       -0.25523236 0.12485068 0.2807901 -0.07709057
000370 f3 14 70 3e a7 0e 5b 3d c8 09 23 be 13 8f 11 3d
       0.23445491 0.05348077 -0.159217 0.035536837
000380 64 6a 8e 3e 4c 5c 6c be d5 8a 90 3e 00 16 85 be
       0.27815545 -0.23082083 0.2823092 -0.25993347
000390 83 bd 80 3e 32 a0 01 3e e4 d4 bf 3b ba f5 22 3e
       0.25144586 0.12658766 0.005854236 0.1591405
0003a0 76 80 50 be ac 43 17 3b 38 8e a7 3d 64 53 b5 bd
       -0.20361504 0.0023081107 0.08181423 -0.08853796
0003b0 23 f7 79 be 83 bd 04 bc 17 09 0f 3e fc 56 3b 3e
       -0.24410681 -0.008101824 0.13968311 0.182949
0003c0 1e 20 50 be 9a ee 05 3e 9b 41 b1 3d b5 4d 79 be
       -0.20324752 0.130793 0.086550914 -0.24346049
0003d0 c5 78 9a 3d 03 4c 10 3d 00 b3 0b 3d db 77 8a 3e
       0.07542566 0.03522874 0.034106255 0.27044567
0003e0 0b 2d df bd 85 41 ee bc 7a ea 2f bc 9a ed 67 3d
       -0.10897263 -0.029083977 -0.010737056 0.05662308
0003f0 39 6c 99 be 5a 4e 4f bd 0b f3 9e 3d d2 b9 25 3e
       -0.2996538 -0.05061183 0.077612005 0.16184166

cons_embedding.3.bias f4 [64]
000000 66 b3 e2 bb 0d d9 af 3d cf 1e fb 3d 84 2b bf bd
       -0.0069183586 0.08586321 0.12261736 -0.09334472
000010 51 79 a0 3d aa aa 7e bd 85 86 5b 3d c4 a8 c6 3d
       0.07835639 -0.062174477 0.053595085 0.09700158
000020 90 9b d8 bc c1 72 09 3d 83 b5 53 3d a7 63 43 bc
       -0.026441365 0.033556703 0.051686775 -0.011925614
000030 5e 27 85 3d f9 03 21 bd cf 4e a1 bd 77 e3 33 bb
       0.06501649 -0.03931043 -0.0787636 -0.0027448812
000040 98 85 08 bc 66 c5 d7 3d 7b 12 3f 3b a8 6e b9 3d
       -0.0083326325 0.10535698 0.0029155302 0.09054309
000050 46 8a 0d bc 03 7a 01 3e 00 b1 99 bd aa f6 90 bd
       -0.008638924 0.126442 -0.07504463 -0.070782974
000060 52 54 db 3d 48 08 a7 bd b7 cf aa bd 55 4b ce bd
       0.10709442 -0.081558764 -0.083404 -0.10072962
000070 58 b9 a9 bd 3d 6c ea bd 66 89 11 3d 21 3b 26 3c
       -0.08287305 -0.11446426 0.035531424 0.010145933
000080 fe 48 ba bd 5d a4 c7 3d c0 d9 e8 3d 48 11 0c 3d
       -0.090959534 0.09748147 0.113696575 0.03419617
000090 24 f4 83 3d 47 a5 ee 3d 43 9a ad bd 90 4c b2 bd
       0.064430505 0.11652618 -0.08476689 -0.087060094
0000a0 d9 f3 7c 3a 7b 03 f5 3c ef 01 48 bd a7 1d 9e 3d
       0.0009649373 0.029908886 -0.04882997 0.077204995
0000b0 66 42 1b 3c c4 f0 21 3d b6 7c 92 3c 59 0a eb 3d
       0.00947628 0.039536253 0.017881732 0.11476583
0000c0 44 21 e3 bd 57 4d 8b bd 5b 6a a2 bd a1 c7 75 bd
       -0.11090329 -0.06801861 -0.07930442 -0.060004834
0000d0 37 89 64 bc fb bb 76 bd 37 6e 9c bc bf c4 c8 3a
       -0.01394873 -0.060237866 -0.019095523 0.0015317424
0000e0 f6 66 fb 3d bc b7 a4 bc b0 c1 f8 3d 88 7a ff bd
       0.122754976 -0.020107143 0.12146318 -0.12474543
0000f0 2c 3d 83 bd aa f4 c9 bd 6e a0 11 3d f6 d4 d6 bc
       -0.06408152 -0.09861119 0.03555339 -0.026224595

var_embedding.0.weight f4 [7]
000000 5d 13 80 3f 07 03 80 3f 75 02 80 3f 9c 5c 7f 3f
       1.0005909 1.0000924 1.000075 0.99750686
000010 0b c5 7f 3f eb 11 80 3f de 7b 7f 3f
       0.9991004 1.0005468 0.9979838

var_embedding.0.bias f4 [7]
000000 04 fc 08 3a b6 a9 04 3a 7d 9b a8 b9 d1 20 15 3b
       0.00052255415 0.0005060689 -0.00032159305 0.0022755156
000010 2f 61 6c 3a a3 4e 10 ba 34 9e 02 3b
       0.0009017167 -0.0005504882 0.0019930722

var_embedding.1.weight f4 [64, 7]
000000 15 ed 43 3f 59 96 1b 3f ef 32 81 bb 49 60 49 3f
       0.76533633 0.6077629 -0.0039428393 0.78662544
000010 01 df 92 3e 7e ac 6b 3f 5d 90 97 be e1 ff 28 bf
       0.28685763 0.9206008 -0.29602328 -0.6601544
000020 9b de b6 be ef 82 56 3f f8 e9 be be d5 ca 0b be
       -0.3571671 0.8379354 -0.3728788 -0.13651593
000030 77 b1 29 3f 21 0c 7d 3c b5 de 2c bf 86 d3 e5 be
       0.66286415 0.015444786 -0.67527324 -0.44887942
000040 da f8 17 bc c1 7f 01 3f 0b e0 45 be 8b 70 a4 3d
       -0.009275639 0.5058556 -0.19323747 0.08029278
000050 d5 c3 f7 be 9d 38 27 bf d0 e8 f7 3e 72 1b 84 3d
       -0.48391595 -0.6532076 0.4841981 0.06450547
000060 ce 77 9a 3e b4 fe a7 bc 75 58 f7 3e 77 b4 f8 bd
       0.3016953 -0.020507194 0.48309675 -0.12143796
000070 1c 54 96 be 52 ef 28 3f b5 8c 03 3f b1 e9 f4 3e
       -0.29361045 0.65990174 0.51386577 0.47834542
000080 d1 93 fa 3e 79 f9 c4 3e 32 34 75 be 5f 1e 20 bf
       0.489409 0.38471583 -0.23945692 -0.6254634
000090 d3 2b 23 3f 69 17 0d bf 6b 20 00 3f 1e 34 53 3f
       0.63738745 -0.55113846 0.50049466 0.825014
0000a0 c4 55 02 3f ab ae fc bd 08 47 68 3d 6a e6 56 bf
       0.5091212 -0.12338003 0.056708366 -0.83945334
0000b0 98 a2 d9 be 10 e7 b9 3e 39 b5 0f bf 3c b8 2f 3e
       -0.42506862 0.363091 -0.561359 0.17160124
0000c0 cd 0a 46 bf 18 a9 67 3f 41 2e 34 3f 05 77 76 bd
       -0.7736023 0.9049239 0.7038308 -0.0601721
0000d0 ca d8 66 bf 30 04 12 be ec e4 ab 3e 84 13 c3 3d
       -0.90174544 -0.1425941 0.3357309 0.09525207
0000e0 42 1b 1a 3f 24 96 ce 3d 5d 5b a6 3c b9 b0 11 bf
       0.6019784 0.10087231 0.020307237 -0.5691028
0000f0 72 b7 1e be 8b 52 77 3d 0f 68 8e 3e cd 43 51 bf
       -0.15499666 0.060381453 0.27813765 -0.8174408
000100 62 d0 03 3f 9f 29 65 3f b8 73 43 3e 85 dd 51 bf
       0.5148984 0.89516634 0.19087112 -0.81978637
000110 bb ad 7a 3c fb 46 17 3f 51 21 d6 be 75 4e 14 bf
       0.01530021 0.5909268 -0.41822293 -0.57932216
000120 14 91 56 3f bf 3c 73 3d 68 7f 5a be 2d bd c3 3e
       0.8381512 0.059384104 -0.21337664 0.38230267
000130 b8 ff 63 3f f4 0e 3b bf 0f 66 65 be 7d 67 a8 3d
       0.8906207 -0.7306969 -0.22402214 0.08222864
000140 51 5b dc 3e 52 d8 2b be d6 22 29 3f 50 ba 13 3f
       0.4303842 -0.16781738 0.6606878 0.57706165
000150 f9 a1 f1 be a0 dd bd 3d f1 27 54 3f ae 6c c7 be
       -0.47193888 0.09270787 0.82873446 -0.38950104
000160 0e e7 10 be bf f8 0c be 59 17 ca 3e c8 d5 00 bf
       -0.1415064 -0.13766764 0.39470938 -0.50326204
000170 89 4a d8 3a 4f d7 1c be ee 05 fa 3e 5b c0 86 be
       0.0016501705 -0.15316509 0.4883265 -0.2631863
000180 94 79 2d 3f c8 74 52 3e f9 f4 38 3f f6 f3 65 3f
       0.6776364 0.20552361 0.722488 0.8982538
000190 45 53 cd 3d b8 f3 1a 3f 72 d5 69 3e e4 3d e3 be
       0.10025648 0.60528135 0.22835329 -0.44383156
0001a0 b1 35 ae 3e d2 2d 1d 3f 56 0c c8 3e 64 7b 09 3f
       0.34025338 0.6139804 0.39071912 0.53703904
0001b0 0c 1e 23 3f bc 0b 42 bf 77 63 0b bf 66 b4 26 3f
       0.6371772 -0.75799155 -0.54448646 0.65119016
0001c0 59 f8 52 3f 16 2f 86 3e 29 8b 6b 3f 14 61 a1 3e
       0.824102 0.262078 0.92009217 0.31519377
0001d0 db f4 2f 3f 21 41 62 3f 6f ba 22 bf 01 95 5f bf
       0.68732995 0.8838063 -0.63565725 -0.87336737
0001e0 dc c5 60 bf 94 db 42 bf 93 e5 2a 3e c4 0a d8 be
       -0.8780191 -0.761163 0.16689138 -0.42195714
0001f0 37 af d9 3e fd 7d 29 be fc 4f 63 3f 28 7d 54 be
       0.4251649 -0.16551967 0.8879392 -0.20750868
000200 d4 f7 c7 be 95 da 39 3f 3c 84 6a 3f e7 c8 61 3f
       -0.39056265 0.72599155 0.91608024 0.8819718
000210 88 92 b7 be de 43 33 bf e1 e8 3c bf c6 8f 05 3f
       -0.35853982 -0.7002543 -0.73792845 0.52172506
000220 5b a7 5b 3f 37 54 5b bf ba 32 b7 3e f3 4d bc 3e
       0.8580224 -0.85675377 0.3578089 0.3677822
000230 97 ef 3c 3f f4 d2 54 3f 83 06 5e 3f 30 02 88 3e
       0.73803085 0.8313439 0.86728686 0.2656417
000240 f9 bb 37 bf 4c 92 4e bf 6b 3c 08 bf a5 5f e5 3e
       -0.717712 -0.8069198 -0.5321719 0.44799533
000250 f0 db aa 3e aa 14 00 bf 7e a7 d0 3e 1b d6 35 3e
       0.33370924 -0.5003153 0.40752786 0.17757456
000260 1c c6 29 be 34 c8 36 bf 3c 41 68 3f 8c f9 3c bf
       -0.16579479 -0.71399236 0.9072454 -0.7381828
000270 d5 5d 5c be 45 bb b4 3e 0c cb 38 bf 86 e5 02 bf
       -0.21520169 0.35299125 -0.72184825 -0.51131475
000280 a7 a1 2d 3f 88 8e 65 3f b8 76 32 3f 2f b0 df bd
       0.67824787 0.8967061 0.697124 -0.10922276
000290 9e bb 37 bf 88 29 a7 be a3 8b c7 3e f7 b1 1e 3f
       -0.71770656 -0.32648873 0.38973722 0.619903
0002a0 66 76 38 bf 98 ad 79 be f1 25 14 3f 9e 0b 4d 3f
       -0.7205566 -0.24382627 0.57870394 0.8009585
0002b0 47 5b 3d bf 20 58 31 3f 54 11 e6 3e b0 96 da be
       -0.73967403 0.69275093 0.44935095 -0.4269309
0002c0 21 6b 47 bf 12 bd 92 be 00 de 60 bf 18 f8 60 3f
       -0.7789784 -0.28659874 -0.87838745 0.8787856
0002d0 ef b2 fc 3c 72 ff d1 be 3e 31 72 be 66 ef db be
       0.030847041 -0.41015202 -0.23651597 -0.42956084
0002e0 40 56 d4 3e 64 9b ee be 6d 57 43 3f 27 8f d9 3d
       0.41472054 -0.4660293 0.76305276 0.10623007
0002f0 69 c3 24 bf c7 e0 2e 3d 13 b6 32 be 47 5d d3 be
       -0.6436067 0.042694833 -0.17452268 -0.41282102
000300 e3 28 ad be 43 1a b8 3d 58 f6 06 3f f8 1a ae 3e
       -0.33820257 0.08989384 0.5271964 0.3400495
000310 76 bc 32 bf 9f 03 12 bf 32 9f 1b 3f a0 91 fa be
       -0.6981882 -0.57036775 0.6078979 -0.48939228
000320 83 ab 61 3e 47 51 4e 3f a9 a5 0a 3f 0a 80 59 bf
       0.22038083 0.8059277 0.5415903 -0.84961
000330 c8 cb 53 bf 89 8d 48 bf 0b 4b 12 bf e3 a7 cd 3e
       -0.8273282 -0.78340966 -0.57145756 0.4016715
000340 ab 16 62 bf fb 15 90 3d c1 c5 11 bf 82 de dd be
       -0.8831584 0.070354424 -0.56942374 -0.43333822
000350 9a f7 37 bf 3e 85 5e bf af 29 69 bf 7d 8b 6c 3f
       -0.71862185 -0.8692206 -0.9107923 0.9240034
000360 89 e8 2d 3f a0 23 2d bd 90 f3 27 3f 3c d2 fa bd
       0.67932945 -0.042270303 0.6560602 -0.1224713
000370 a0 2f 69 3e 4a 53 c9 3e f5 46 42 3f 17 b1 9f 3d
       0.22772074 0.39321357 0.7588952 0.07797449
000380 dc ba 39 3f 0a a7 2c 3f 34 82 b5 3e b7 9e 94 3d
       0.7255075 0.6744238 0.354509 0.07256835
000390 3e a6 0c 3e c8 dc 55 3f 93 ec 10 3e 38 57 1c 3f
       0.13735291 0.8354001 0.14152746 0.61070585
0003a0 b0 e5 06 3f 1f f0 60 3f e4 df 11 3e 54 a4 27 3e
       0.52694225 0.87866396 0.14245564 0.1637128
0003b0 5c 0e 8b be 33 b6 55 bf 7d 09 0e 3e e6 f2 d9 3e
       -0.27159393 -0.8348114 0.13870807 0.4256813
0003c0 9e ab 90 be e8 da 4a 3f a9 9e 4b 3f 0a 8b 23 3f
       -0.28255934 0.79240274 0.7953897 0.6388403
0003d0 7f b9 04 3f e3 7c 68 3f d0 de f3 be 7c 05 d7 3e
       0.51845545 0.9081556 -0.4763093 0.41996372
0003e0 9a 07 48 bf 1a b9 1a bf 7f 2e b4 bd e0 d0 31 3f
       -0.781366 -0.6043869 -0.08797931 0.6945934
0003f0 08 10 f9 3e 2c 5d 36 bf 5c f4 9a 3e 72 6b 82 be
       0.48645043 -0.7123592 0.30264556 -0.254726

var_embedding.1.bias f4 [64]
000000 ca a2 85 3e 63 13 cc 3d a3 a4 b2 be fb 0e 97 3e
       0.2610076 0.09964635 -0.34891233 0.29503617
000010 b4 ea bd 3e 26 61 a0 be 6e b0 3f 3e 3c 92 85 3d
       0.37093127 -0.31324118 0.18719646 0.065220326
000020 63 9d ac 3e 84 5c a7 bd 52 03 c9 bd 7c da 25 be
       0.33713827 -0.08171943 -0.098150864 -0.16196626
000030 4e f1 8c 3e 35 a6 08 be 8f 02 1e 3e 4f b2 9b be
       0.2752785 -0.13344653 0.15430664 -0.30409476
000040 7b 62 b5 be 8b 6d 8a be d5 86 21 3c 5b 71 72 3d
       -0.35426697 -0.270367 0.009858807 0.059190135
000050 da d2 6e 3d fd 6f 20 be 00 e2 c1 3e 7f 56 bf 3e
       0.058306552 -0.1566772 0.37867737 0.3737068
000060 50 6e d8 3d 94 fa 53 3e 43 37 a4 bc cc 64 ff bc
       0.105679154 0.20701057 -0.020045882 -0.031175993
000070 4c 40 9a 3e 8a 74 a4 3e 92 0f 85 3d e3 8e fe bd
       0.3012718 0.32120162 0.064971104 -0.12429597
000080 7f 35 93 be d0 11 18 3e 6b 78 a2 be 8c 34 cd bc
       -0.28751752 0.14850545 -0.31732497 -0.02504947
000090 18 04 d2 bd df fe 91 be 92 7f a3 3e 9d d0 38 3e
       -0.10254687 -0.28514764 0.31933266 0.1804833
0000a0 bf 4b 0c be 71 11 94 3d 26 ea 38 3e fd 51 d2 bd
       -0.1370077 0.07229889 0.1805807 -0.10269544
0000b0 85 fd 2b 3d 89 6a 0b 3e 4e 2e 6a be f4 c4 eb 3d
       0.041989822 0.13614859 -0.22869226 0.11512175
0000c0 6f d9 9c bd 41 cd de bd 75 33 a2 3d 19 aa af 3e
       -0.0765866 -0.10878993 0.07919971 0.34309462
0000d0 2e eb 03 3e b7 ca 9e 3e 0a 28 d2 bd 6c 5e aa 3e
       0.12882683 0.31014034 -0.10261543 0.33275163
0000e0 e9 e8 a4 3e 85 92 9f 3d be 4b 87 bd 8f 01 86 3e
       0.32208946 0.07791618 -0.066062436 0.26173064
0000f0 cc 63 83 3e ca b3 a5 3e 57 e4 aa ba 99 46 ed 3d
       0.25662076 0.3236373 -0.0013038021 0.11585731

var_embedding.3.weight f4 [64, 64]
000000 5e 63 0f bd fc 98 4d bd b7 2d 01 3e ae 00 82 3e
       -0.035006873 -0.050194725 0.12615095 0.25391144
000010 56 42 96 be e2 99 68 be 2c cf 5c 3c e1 89 90 3e
       -0.29347485 -0.22714952 0.013477128 0.28230193
000020 da 55 97 be 74 3f 86 bd 6b 7b c1 3c 05 ac 82 3e
       -0.29557687 -0.065550715 0.02361842 0.25521865
000030 2f 9b 6a bd 8d 0f bb 3d c1 ff 05 3d 2f 77 5a bd
       -0.0572769 0.091338255 0.03271461 -0.05333632
000040 95 2b 8b be b5 06 26 3e e5 72 11 bc cf a0 28 3e
       -0.27181688 0.16213496 -0.008877491 0.16467594
000050 84 08 3a be f5 bc ff bd 64 ca 53 be f1 f2 7f 3d
       -0.18167311 -0.124872126 -0.20682675 0.062487546
000060 43 61 2e 3d 07 77 84 bd d4 8b 98 be 6d 79 25 3e
       0.042573225 -0.06468015 -0.2979418 0.16159602
000070 20 71 73 3e e6 08 87 3e f0 44 f7 bd e5 2c 06 be
       0.23773623 0.26373976 -0.12073696 -0.13103063
000080 db 86 7e 3d 14 e1 71 bc 1f 75 4d 3e 77 03 89 3e
       0.062140327 -0.014763135 0.2006421 0.26760456
000090 59 08 0d 3d 4d 3e 05 bd aa 6c bb 3d a2 1a 6d 3d
       0.03443179 -0.032530118 0.091515854 0.057886727
0000a0 38 64 83 bd 29 50 07 3d 9a f5 a2 b8 d5 1c 84 3d
       -0.064155996 0.03303543 -7.770509e-05 0.06450812
0000b0 99 bd 99 be 71 99 fc 3c 02 18 90 be eb 81 05 be
       -0.30027464 0.030834885 -0.28143317 -0.13037841
0000c0 dc d5 d3 bd 55 fa d6 bd 7c 0b 05 bd 6e 25 68 3e
       -0.10343525 -0.10496966 -0.032481655 0.22670528
0000d0 4c 28 02 be 99 ad d6 3d f9 08 ad 3d b2 a9 41 3e
       -0.12710685 0.1048233 0.08448977 0.1891239
0000e0 cf fc db bd e3 1c a8 bd be f3 42 3e e7 99 bc bd
       -0.10741579 -0.08208635 0.19038293 -0.09209042
0000f0 09 4a d3 3d e3 13 1f 3e 70 f6 e0 bd 21 14 dc bd
       0.103168555 0.1553493 -0.10984504 -0.10746027
000100 ef 58 81 3e 06 66 c7 bd 7d 7e 88 3d 15 f0 bb 3c
       0.25263163 -0.09736256 0.06664751 0.022941628
000110 a0 db 84 bd d8 45 10 be 84 51 be bd eb 4a ac bc
       -0.06487203 -0.14089143 -0.092928916 -0.021031817
000120 05 53 d1 bd 7e d5 a6 bd 4a 3c bb 3d 1e bb 97 3e
       -0.10220913 -0.08146189 0.091423586 0.29634947
000130 11 9a c2 3d e7 55 29 be ec f1 19 be 9c 47 e2 bc
       0.09502042 -0.16536675 -0.15033692 -0.027622037
000140 28 14 8e 3e ca ba 38 3e cf 72 5c be 69 e1 18 3c
       0.27749753 0.18040004 -0.21528171 0.009331086
000150 57 be e9 3b a8 ec 92 bc 41 47 5d 3e 04 61 4e be
       0.007133286 -0.017935112 0.21609212 -0.20154196
000160 e2 b7 6e 3e 36 55 80 be ce 81 56 be a4 13 cc 3d
       0.23312333 -0.2506501 -0.20947954 0.09964684
000170 f9 c3 34 3d 93 dc 90 3e 00 c3 f4 bd 23 82 20 3e
       0.044132207 0.28293285 -0.11951256 0.15674643
000180 a9 2a b1 bc 55 ff 81 3e 43 46 f7 3d 6e 42 dd 3d
       -0.021626787 0.25390115 0.12073948 0.10803686
000190 de ea fb bd 90 c6 42 3e bf d3 9a be c5 fd c4 3c
       -0.12300657 0.19021058 -0.30239674 0.024046788
0001a0 28 dc a1 bd 09 0f 36 be 19 e5 63 be 01 2f f3 3b
       -0.079033196 -0.17779173 -0.22255363 0.007421375
0001b0 a4 7d 93 3d a5 e4 39 3e 73 6d 56 3d 7b 31 e0 3d
       0.072016984 0.18153627 0.052350473 0.10946938
0001c0 7a e5 d3 bb a0 65 32 be e4 87 46 bd 38 f3 90 be
       -0.0064665647 -0.1742158 -0.04846944 -0.2831056
0001d0 b8 70 8e 3e 52 eb ce bc c1 d5 5f bd 66 17 4a 3e
       0.27820373 -0.025258694 -0.05464721 0.19735488
0001e0 77 67 7b 3b 57 cd 25 bc 75 6b 31 be f0 58 fa 3d
       0.003836123 -0.010119758 -0.17326148 0.12223995
0001f0 6e 19 45 3e 61 68 44 bd 80 1e 22 be d5 5c 5a 3d
       0.19247982 -0.047951106 -0.15831947 0.053311188
000200 3e 3b 80 3e 49 11 53 be 56 5c 52 be fb 80 84 be
       0.25045198 -0.20612063 -0.20543036 -0.25879654
000210 1b 06 5b 3e 36 9a 9f 3d 40 ef 86 3e ca 4b 0f be
       0.21389048 0.07793085 0.26354408 -0.13993755
000220 69 3f 4b 3e 6f af 95 bd 54 eb 3b bd 6e eb 56 be
       0.19848408 -0.07308852 -0.045878723 -0.20988247
000230 1b 73 ee bd b5 6c 6b 3e ad bd 5f be 68 89 18 be
       -0.116430484 0.22990687 -0.218497 -0.14896166
000240 7c ee 82 3e 0b a8 a8 bd cc 37 1b be ac e0 1c 3d
       0.25572574 -0.08235177 -0.15158004 0.0383002
000250 b1 c6 df bc b6 66 73 be d0 94 f0 3d 62 46 15 be
       -0.027316423 -0.2376965 0.11747134 -0.1457763
000260 cc ea 92 3e 8d 6e a7 3d 34 1a 0f 3e 56 d6 31 3c
       0.2869476 0.08175383 0.1397484 0.010854324
000270 77 b6 8c be 65 01 04 be a7 55 c6 bd f4 d6 2e be
       -0.2748296 -0.12891157 -0.09684306 -0.17074186
000280 4b eb 53 be 00 b9 88 3e c4 d5 94 3d 0e b9 9d 3d
       -0.20695226 0.26703644 0.07267335 0.07701312
000290 a5 77 2e 3e 2a 66 93 be da 7c ca 3b 95 db 87 be
       0.17037828 -0.28788882 0.0061794342 -0.26534715
0002a0 28 27 f0 3d 65 64 e2 bd 12 45 e2 3d 8d 40 7b 3e
       0.117262185 -0.11054305 0.1104833 0.24536343
0002b0 29 38 0f bd 70 69 01 3d 8e b6 3c bc c4 83 c8 bd
       -0.034965668 0.031594694 -0.011518134 -0.09790757
0002c0 5a de 33 3e 00 83 98 be 31 79 03 be ff 7a af bc
       0.17565289 -0.29787445 -0.128392 -0.021420954
0002d0 27 0f 84 be 0d fa 9a be 67 ea 20 be a5 6d 72 be
       -0.2579281 -0.302689 -0.15714417 -0.23674639
0002e0 3b e9 9e 3e a6 cd 05 ba 11 ba ae bc 98 66 67 be
       0.31037316 -0.00051041914 -0.021328958 -0.2259773
0002f0 22 d8 8d bd 26 fb 8a be a7 16 e8 3d 05 76 03 3e
       -0.0692599 -0.27144736 0.113324456 0.1283799
000300 9e ea 91 be c9 88 6f 3e e3 b4 52 3e 41 ee 4c 3e
       -0.2849931 0.23392023 0.20576815 0.20012762
000310 62 15 8c be 76 43 4c bd af b0 18 3e 6c c8 f4 3d
       -0.27360064 -0.049869023 0.1491115 0.1195229
000320 9b 66 98 3e d7 d3 87 be 8a 48 18 be b3 32 3b be
       0.29765782 -0.26528808 -0.14871421 -0.18281059
000330 bc 9c 8e 3c c5 d2 de 3d 74 90 19 3e 9a 26 e1 bc
       0.017408721 0.10880045 0.1499651 -0.027484227
000340 48 00 1e bd 86 f2 be 3d 42 f6 ab bd 3d 2b f8 bd
       -0.038574487 0.093236014 -0.08396579 -0.12117622
000350 19 d2 94 3e 50 84 cd 3c 5e f3 fc bd d5 55 95 3e
       0.29066542 0.025087506 -0.12351106 0.29167047
000360 4b ea 2d 3e 0e b4 87 3e f4 e6 07 3e 1f b2 3c 3e
       0.16983907 0.26504558 0.13271695 0.18427323
000370 11 88 2c be 5a e2 36 3e 40 b2 27 3e ad 76 30 bd
       -0.1684878 0.17859784 0.1637659 -0.043081928
000380 a7 a1 99 be 72 d4 6b 3e 80 a9 80 3e 7e cc b0 bc
       -0.30006143 0.2303026 0.25129318 -0.021581884
000390 7d 25 93 be 5d da d1 bd 06 d4 2b 3e f1 f7 f4 3d
       -0.2873954 -0.102467276 0.167801 0.119613536
0003a0 0e 93 8a bd 36 9c 86 3e 70 55 93 3c f5 14 ab bc
       -0.0676633 0.26291054 0.017985076 -0.020884017
0003b0 d2 e2 21 3e 53 cd 41 be 9f a0 dd bd bc c4 19 be
       0.15809181 -0.18925981 -0.10821652 -0.15016454
0003c0 8c 64 50 3e fb 23 8e bd 5e b0 3b 3d c3 e7 1c 3e
       0.20350856 -0.069404565 0.045822494 0.15322785
0003d0 3c 3b 19 3e 2c 36 85 3e 3a 65 59 be 18 5e 19 3e
       0.14964002 0.26017892 -0.21230021 0.149773
0003e0 94 b9 30 3e d3 fb 0c 3e ff 23 c0 3d 87 49 ae bd
       0.17258292 0.13767938 0.09381866 -0.08510118
0003f0 16 60 5a be b9 6d 1c be 48 41 9b 3e f3 85 06 3e
       -0.21325716 -0.15276231 0.30323243 0.13137035

var_embedding.3.bias f4 [64]
000000 94 96 a7 3d 2d fa 76 bc b4 b1 9f 3d 4c d7 c3 bc
       0.081830174 -0.015074295 0.07797566 -0.023906372
000010 02 ea 1c 3c f5 59 8e bd 16 c6 6a 3d 1a 6f e4 3d
       0.009577276 -0.06950752 0.057317816 0.111540034
000020 b1 56 b6 bd c3 01 34 3d ea 50 42 bd 39 26 00 3e
       -0.08903254 0.043946993 -0.047440447 0.12514581
000030 6f 1b 0f 3b f3 a5 41 bd 7c 91 8a 3d 45 5c b9 3d
       0.002183642 -0.047277402 0.0676603 0.09050802
000040 70 c6 c8 3b 04 9b 2e bd 6c 19 ec 3d 4b 55 f0 bd
       0.006127171 -0.042628303 0.11528286 -0.11735018
000050 48 bf 9f bd 7f a6 fb bb f2 07 be bd e7 36 00 3d
       -0.07800156 -0.00767976 -0.09278859 0.03130236
000060 71 75 ac 3d 77 f6 c8 bc 48 84 a5 3d 31 d0 e5 bd
       0.08420838 -0.024531586 0.08081871 -0.1122135
000070 12 3e 80 bd c9 fa fe 3d c9 1a 20 3c 8a c8 5b 3c
       -0.06261839 0.12450177 0.009772011 0.013414511
000080 e9 d1 45 3d 27 28 c8 3c 22 0e 6b 3c 35 e7 da bc
       0.04829589 0.024433209 0.014346631 -0.026721576
000090 24 1d d2 3c 6b 5e 59 bc a7 97 5a bd 54 b9 ee bd
       0.025648661 -0.01326714 -0.053367283 -0.11656442
0000a0 07 3a 08 bd 4c 13 5c bd 60 af be 3c cc 01 db bd
       -0.033258464 -0.05372934 0.023276985 -0.10693702
0000b0 5b ae ef bd fc 56 06 3c 9c 13 42 bd 79 05 36 3d
       -0.117031775 0.00819945 -0.047381982 0.044438813
0000c0 23 d9 93 3d 98 cc b1 3d 5c 92 3f bc 38 58 84 3d
       0.0721915 0.08681601 -0.01169261 0.06462139
0000d0 e5 f3 a1 3d c7 98 62 bd a9 e7 4b bd bb 34 e2 3c
       0.07907847 -0.05532148 -0.049781475 0.027613034
0000e0 a5 38 01 bd 14 a1 eb bc c6 23 99 bd 31 4a e6 bd
       -0.03154816 -0.028763331 -0.07477526 -0.1124462
0000f0 ad b0 e0 3d 05 b4 8e bd 62 20 e4 3d 30 77 6c bc
       0.10971198 -0.0696793 0.11138989 -0.014432713

conv_v_to_c.feature_module_left.0.weight f4 [64, 64]
000000 e8 4c 2f be 50 1d 26 be 73 9c fb 3d e4 3c 1b 3e
       -0.17119181 -0.1622212 0.122857 0.15159947
000010 f7 fc 8a 3e 1e ed 62 bd af 40 7e 3e 3f aa 1a be
       0.27146122 -0.055401914 0.24829362 -0.15104006
000020 9c f4 65 bd eb 29 64 bd fa 43 63 3e 45 ee 82 3e
       -0.05614148 -0.05570404 0.221939 0.2557241
000030 81 34 9c be 81 0e 20 3e 56 38 06 3d 64 ab 5e be
       -0.30508807 0.15630533 0.03276857 -0.21745068
000040 b7 53 f9 3d 74 26 79 be 8f 4d e9 bc 2d f3 83 be
       0.121741705 -0.24331075 -0.028479366 -0.25771466
000050 ec 23 1e be eb da 6e be 66 bc 9a 3e d3 db c3 3d
       -0.1544339 -0.23325698 0.30221862 0.095634125
000060 b9 cb 00 3e 79 94 17 bd 92 a5 c1 3d 2e c8 71 be
       0.12577714 -0.03700683 0.09455408 -0.23611519
000070 87 1b 21 3e 4f dd 79 be b8 c0 bd bd 71 bc 69 3e
       0.15733157 -0.24400829 -0.09265274 0.22825791
000080 91 b9 52 be fe 92 5d 3c 28 14 e9 3d ad 34 99 3e
       -0.205786 0.013523815 0.113807976 0.29923
000090 01 84 23 be d8 ef 6a be 5f d7 65 3e a5 62 60 3e
       -0.15968324 -0.22943056 0.22445439 0.2191263
0000a0 8d ac 82 bd 8f 76 31 3d 3f b1 92 3e 36 51 25 be
       -0.06380568 0.043325957 0.28650853 -0.16144261
0000b0 ce 4c 6c be 93 84 0b 3d 7a 79 33 be 11 47 63 3e
       -0.23076174 0.03406198 -0.17526808 0.22195078
0000c0 94 d8 88 3e 68 69 8f 3e 4a 2d 90 3d 2b f9 a2 3d
       0.26727736 0.28010106 0.07039888 0.07957681
0000d0 9f d9 94 3e 50 07 46 3d 5a 7b 43 be 51 6a 8f 3e
       0.29072282 0.048346817 -0.19090024 0.280108
0000e0 bc b8 28 3e 69 e0 1e 3e c1 e3 5e be eb cf 89 be
       0.1647672 0.15515293 -0.21766569 -0.2691644
0000f0 b2 24 89 bd 2e 53 83 3e f0 9b 03 3d a0 b9 47 bd
       -0.06696452 0.256494 0.032131135 -0.04876101
000100 fe e5 1c 3e d5 77 8b 3e 96 80 8e 3d bc d3 9b be
       0.1532211 0.27239862 0.069581196 -0.30434978
000110 62 67 34 3e 81 5c 8c 3e e3 8e 8d be f4 8c 34 3e
       0.17617562 0.27414325 -0.27648076 0.17631894
000120 f2 16 83 3d ee 8f 94 3e 55 4f 17 3e 7f 97 80 3e
       0.06400861 0.2901606 0.14776357 0.25115582
000130 36 c0 16 be f2 0b 39 3e 20 f7 05 be c5 19 8d 3e
       -0.1472176 0.18070963 -0.13082552 0.27558723
000140 29 1a 7f 3d 17 6c a4 bd 8b dc 6c be a9 9f 4f bc
       0.062280808 -0.08028429 -0.23131005 -0.012672343
000150 61 30 29 3e b4 66 85 be 3d 27 07 3e 6c 6d 05 3e
       0.16522361 -0.2605492 0.13198562 0.13030022
000160 b5 a8 d4 3c 0e 50 63 3e 0e 45 08 3e 37 f4 da bc
       0.025959352 0.22198507 0.13307592 -0.026727779
000170 f4 1e 9c be e8 e5 86 3e 66 df 0a be e1 b1 00 3e
       -0.30492365 0.2634728 -0.13561782 0.12567855
000180 98 22 26 3e df 05 9c 3e b1 80 4e 3e 24 a2 f1 bd
       0.16224134 0.3047323 0.2016628 -0.11798504
000190 c8 8b 6c 3e b7 34 35 be ce cc ec bd 9c c3 23 be
       0.23100197 -0.1769589 -0.11562501 -0.15992588
0001a0 e7 63 cb bd d7 1e 6e 3e fe 44 0e be 1d 7d 67 3e
       -0.09931164 0.23253952 -0.13893506 0.2260632
0001b0 42 17 89 be 95 7e 1f 3d f4 52 6a be 1f da 39 3d
       -0.26775557 0.038939077 -0.22883207 0.045374032
0001c0 9e 1f 64 be 4f c4 07 3e 77 c9 3a be 3f 40 03 3e
       -0.22277686 0.1325848 -0.18240915 0.12817477
0001d0 96 a3 3b be 1c 72 93 be c9 d3 37 bd a7 66 e1 bd
       -0.18324122 -0.28797996 -0.04487971 -0.110059075
0001e0 6c f0 15 3d a1 c6 9b be da 5c 57 be ab 7e 8b 3e
       0.036606237 -0.3042498 -0.21031514 0.27245077
0001f0 94 53 45 be 15 73 4d bd f1 81 61 bd 53 35 5f bc
       -0.19270164 -0.05015858 -0.055055562 -0.013623553
000200 f1 78 85 bd 79 01 59 3e ba a0 9b be df b9 c4 3c
       -0.06517208 0.21191968 -0.30396062 0.024014411
000210 7b 84 b1 3d 0b e3 dd 3d 26 a6 84 3d 26 9f 4a be
       0.08667847 0.10834321 0.06477003 -0.19787273
000220 30 94 85 3e 27 fe 80 3e 00 e9 96 3d d8 6a 44 3e
       0.2608962 0.25193903 0.0736866 0.19181383
000230 64 dc 94 3e 34 a8 68 3e af 15 b4 3c aa 87 9b 3e
       0.29074395 0.22720414 0.021982996 0.3037694
000240 38 af 6a 3e 24 ad 4d be 9c 11 63 3e 63 93 15 be
       0.22918403 -0.20085579 0.22174686 -0.14607005
000250 44 43 86 be 7a 52 84 bd cc 89 59 3e f4 96 c7 bd
       -0.26223195 -0.06461044 0.21243972 -0.09745589
000260 92 1e 3d 3e 5c 4a 89 3e 8b 4e 91 3e 4c 94 54 3e
       0.18468693 0.26814544 0.28380236 0.20759696
000270 f6 56 51 be 08 0e 69 3e 81 d6 81 be 1e 6a df bd
       -0.20443329 0.22759259 -0.25358966 -0.10908912
000280 ee 68 67 3e bb de b0 3d d4 66 77 bd 44 da 8e be
       0.22598621 0.086362325 -0.0604008 -0.27900898
000290 f3 07 81 3e 38 8f 95 3e eb 05 19 be 52 27 29 be
       0.25201377 0.2921083 -0.14943664 -0.16518906
0002a0 a1 b8 ea bd 78 a5 7e 3e da e0 93 be 63 97 c3 3d
       -0.114609964 0.24867809 -0.28882486 0.09550359
0002b0 ee fb 80 be ab 19 c2 bd 13 92 9e bd fd be 86 be
       -0.25192207 -0.09477552 -0.07742705 -0.26317587
0002c0 fb f4 87 be 34 21 18 3e a9 6c e6 bd 97 3a 82 3d
       -0.26554093 0.14856416 -0.11251194 0.063588314
0002d0 ab 82 49 3e 12 75 1e 3e 39 c3 ae 3d fb 04 34 3e
       0.19678752 0.15474346 0.085333295 0.17580025
0002e0 3c b5 95 3e fb f7 93 3e 31 17 09 3e 1a 52 83 3e
       0.29239833 0.28900132 0.13387753 0.25648576
0002f0 0d 57 83 3e d3 13 37 3d 2c 9b 92 3d eb 3a 7d be
       0.25652352 0.04469664 0.07158503 -0.24729507
000300 ee 70 45 3e 06 87 8c be 54 5e 23 be 4f fe 3e 3d
       0.1928136 -0.27446765 -0.15953952 0.046629246
000310 ce 40 23 be 77 cd 74 be a5 3f 91 3e e9 ae aa bd
       -0.1594269 -0.23906504 0.2836887 -0.08334143
000320 2d a4 5d be a6 9a 44 3d 91 07 92 bd 43 bf a6 3b
       -0.2164466 0.047999047 -0.071303494 0.005088718
000330 e7 b0 8f 3e 75 1c 94 be e8 8c 89 be 6a 94 88 bd
       0.28064653 -0.2892796 -0.26865315 -0.06668933
000340 2a 28 b5 3b fe 4c 93 3c c9 70 24 be 81 26 45 3e
       0.0055284696 0.017981049 -0.16058649 0.1925297
000350 cb 7c ab 3c e4 67 98 3b e8 4e 06 be 48 14 42 be
       0.02093353 0.0046510566 -0.13116038 -0.18953049
000360 a5 05 8b 3c 08 84 06 3e 07 d1 33 bd 45 d0 e7 3d
       0.016970465 0.13136303 -0.043900516 0.11319021
000370 44 72 dd bd 8b 92 f2 bc b9 bc de bc 1b 6a e4 3c
       -0.1081281 -0.029610893 -0.0271896 0.027882626
000380 9e 6f b1 3d 7f 75 e3 bd 86 f8 31 3e 89 59 f6 bd
       0.086638674 -0.11106395 0.1737996 -0.12028796
000390 e5 ae d8 bd 88 4d 83 be 09 de 36 3e eb cd 3a 3e
       -0.105802335 -0.2564509 0.17858137 0.18242614
0003a0 e7 9e 93 be 08 ea e9 bd 92 46 43 3d cb e5 61 be
       -0.2883217 -0.11421591 0.047674723 -0.22060315
0003b0 85 c8 8d be cb 15 db bb f0 06 83 be 8b 2c 14 be
       -0.27692047 -0.0066859475 -0.2559123 -0.14470117
0003c0 7b ee d9 3d e8 45 76 3e c7 56 98 3e 81 32 49 3d
       0.1064119 0.24050105 0.29753706 0.04912043
0003d0 9a f0 73 be 3f 5c 9b 3c 76 68 08 be 64 eb 89 be
       -0.23822251 0.018964885 -0.13321099 -0.269374
0003e0 86 52 45 3d 4c 34 2f 3d 56 2d 54 be 71 66 08 3d
       0.048174404 0.042774484 -0.2072042 0.03330082
0003f0 92 98 02 3e 11 4d 4b 3e 7f 0b 22 be 92 e5 38 3e
       0.12753513 0.19853617 -0.15824698 0.18056324

conv_v_to_c.feature_module_left.0.bias f4 [64]
000000 ad 47 ac 3d 34 1d b6 3c 1a 2a 57 3d b2 5e db bd
       0.084121086 0.022230722 0.052530386 -0.10711421
000010 48 ad c2 ba cd bc f9 bb d6 b4 b8 3d 5e 68 10 bd
       -0.0014852667 -0.0076213838 0.09018867 -0.035255782
000020 c1 58 7e 3c 82 47 9b bd b6 7c ce bd 9d 6f ab bc
       0.01552409 -0.075819984 -0.100823805 -0.020927245
000030 b0 9a cc 3c ac 41 fa 3d ca f7 6e 3d fc 25 e4 bc
       0.024976104 0.12219557 0.05834178 -0.027850144
000040 d9 09 0e bd c6 cf ac bd 40 21 0c bd 73 5d d8 bc
       -0.03467736 -0.08438067 -0.034211397 -0.026411748
000050 e9 16 76 bd 1b 06 b0 3d e4 67 42 bd 93 0f 44 3d
       -0.060080443 0.085949145 -0.04746236 0.047866415
000060 b8 83 b3 3d 45 3d 85 bc d2 81 99 3d e1 7b d2 3d
       0.08765358 -0.016264567 0.074954644 0.10277534
000070 22 ed fd bc 72 e6 c3 3c 75 8a 96 bd ea 9d 20 bd
       -0.030996863 0.023913596 -0.07350627 -0.0392131
000080 52 9a a2 3d c5 a4 01 bd 86 34 e8 3d 63 23 ce 3c
       0.079395905 -0.031651277 0.11338143 0.025163358
000090 ff 8f 6e 3a 3c a9 bf bd 11 cd 5b bc c1 ad a0 3d
       0.00091004366 -0.09358451 -0.013415591 0.07845641
0000a0 1a eb 92 3d f7 52 80 3c f0 b9 ae bd 8a 36 dd bd
       0.07173748 0.01566456 -0.085315585 -0.10801418
0000b0 cd 37 ce bd 07 f3 fe bd 74 9f 66 3d 04 66 71 3d
       -0.10069237 -0.124486975 0.05630441 0.05893518
0000c0 b7 95 e5 3c e0 9a 5d 3b 51 72 a6 bd f7 34 ec 3d
       0.028025491 0.0033814237 -0.08127273 0.1153354
0000d0 c1 bf 22 3d 0b cf 8f 3d 46 71 ed 3c f2 fb e7 3d
       0.039733652 0.07021912 0.028984677 0.11327352
0000e0 94 88 8d bd c6 af f1 3d d1 03 f2 3d d5 5b ec bd
       -0.06910816 0.11801104 0.11817134 -0.11540953
0000f0 b3 33 c4 3d f1 09 d3 3d 69 be c8 bd f6 74 39 bc
       0.09580173 0.103046305 -0.09801943 -0.01131939

conv_v_to_c.feature_module_edge.0.weight f4 [64, 1]
000000 7a 11 b5 bf 37 7a 46 bf 7a 4b 85 3f 02 7f c2 bf
       -1.4145958 -0.77530235 1.0413659 -1.519501
000010 97 6b ae 3f da c9 8d 3d ec d8 a1 3e af aa ce bf
       1.3626584 0.06923266 0.3161081 -1.6145838
000020 39 07 57 be c6 7d f7 3f 8a b2 3b 3e 16 77 72 3e
       -0.20998849 1.9335258 0.18329826 0.2367824
000030 c5 0a 2a bf 84 29 ab bf 1d 02 e1 be c7 79 8c 3f
       -0.66422683 -1.3372045 -0.43946925 1.0974663
000040 b6 66 84 bf c2 22 57 bf c6 e3 51 3f 75 c5 cd 3e
       -1.0343845 -0.8403741 0.8198818 0.4018971
000050 b4 c8 e4 3e 6f db dd 3f 3c 2e cf 3f de 25 e9 be
       0.44684374 1.7332591 1.6185985 -0.45536703
000060 5e ab cd 3f cc 34 f8 be d6 9a 1d bf f9 ea 13 40
       1.6067922 -0.4847778 -0.61564386 2.3112166
000070 31 d8 9a 3e 01 1c 6c 3f c2 d2 4d bf 15 c6 a1 be
       0.30243066 0.9223023 -0.80399716 -0.31596437
000080 25 23 06 40 44 9e b5 bf ab b4 15 c0 39 1b ef bf
       2.095895 -1.4188924 -2.339152 -1.8680183
000090 d7 bd 80 bf 6d 01 a0 bf 63 35 2f be 8d 1e e6 bf
       -1.0057935 -1.2500435 -0.17110209 -1.7978073
0000a0 68 f1 5c 3c b0 46 81 bf 87 82 91 bf 46 30 90 be
       0.01348529 -1.0099697 -1.1367959 -0.2816183
0000b0 34 dd 81 bf 82 3a f3 3f 00 ed c5 be 62 b0 1c c0
       -1.0145631 1.900223 -0.3865738 -2.4482656
0000c0 74 4f 21 bf 9b 57 0d c0 90 8b f5 3e 23 d2 1a c0
       -0.6301186 -2.208472 0.4795804 -2.4190757
0000d0 f0 38 16 bf b7 9d e1 3f e5 91 23 bf 98 a2 01 c0
       -0.5868063 1.7626256 -0.6389449 -2.025549
0000e0 f0 cf 07 40 b9 64 ce 3f fa e5 0b c0 8c ac 0d 40
       2.1220665 1.6124488 -2.1859117 2.2136564
0000f0 c2 7b d8 bf 9f 14 aa 3d c5 63 0a c0 ad c9 23 bf
       -1.6912768 0.083047144 -2.1623394 -0.6397961
