rl_model/SCPPO_policy_179.pth (torch_old, 472694 bytes, 71 tensors)

cons_embedding.0.weight f4 [4]
000000 b3 ab 7f 3f e0 c9 7f 3f e0 3c 80 3f 58 b9 7f 3f
       0.9987137 0.9991741 1.0018578 0.9989219

cons_embedding.0.bias f4 [4]
000000 d7 78 aa 3a 77 d0 54 3a 4b 3f f2 3a 76 aa 8d ba
       0.0013005984 0.0008118222 0.0018481998 -0.0010808248

cons_embedding.1.weight f4 [64, 4]
000000 b8 0f 4f bf ea 0d 5d 3f fb a1 1a 3e bf 63 31 3f
       -0.8088336 0.86349356 0.15100853 0.69292825
000010 36 23 f0 bd 44 6d 88 bf d2 c2 4c 3f 22 5b 88 3d
       -0.11725466 -1.0658345 0.7998477 0.06658007
000020 65 ae a8 bd 02 9b aa 3d 82 b6 6a be 34 fc 05 bf
       -0.08236388 0.08330347 -0.22921184 -0.52337956
000030 2b b9 19 3f 2a 3f c4 3e 89 52 8c 3d a6 a1 36 3f
       0.6004817 0.3832944 0.0685168 0.71340406
000040 e6 40 d4 3e 36 ca ec 3e c9 64 f4 bc 96 05 43 bf
       0.41455764 0.46248025 -0.029833214 -0.761804
000050 68 ca 37 3f db 3f d3 bd 42 75 8f bf 4b a4 41 3f
       0.7179322 -0.10314914 -1.1207659 0.75641316
000060 8e 96 6d bc a8 fe 06 3e 15 f3 1a bf 84 ed ef 3e
       -0.014501227 0.13183081 -0.60527164 0.46860898
000070 b5 aa 7c bf f5 0e 92 bf 64 05 8a 3e 8f ed 2c 3f
       -0.9869798 -1.1410815 0.26957238 0.67549986
000080 4a b1 22 bf 8b 94 03 3f ae a2 27 bd ed 03 19 3f
       -0.6355177 0.51398534 -0.040926628 0.59771615
000090 18 e4 4f bf 2e 72 27 3f 65 44 58 3f ed 1d 69 3f
       -0.8120742 0.654086 0.8447936 0.9106129
0000a0 bd 33 41 3f ef 4a 7f bf 84 bb 8a 3f b2 3a 3f 3d
       0.7546957 -0.99723715 1.0838475 0.046686836
0000b0 28 cd 81 3f 5a 20 e0 3e d5 57 2f 3f f8 ac 21 3f
       1.0140734 0.43774682 0.68493396 0.63154554
0000c0 59 25 47 3e 7a 02 6a 3f 01 9d ad be f8 f4 14 bf
       0.19447841 0.9141003 -0.33908847 -0.5818629
0000d0 6a 44 af bc 1b 57 07 3e fe 26 82 3f 18 a8 fd 3e
       -0.021394927 0.13216822 1.016815 0.49542308
0000e0 58 6d 2c bf 2a 44 3d 3f e9 79 86 3f b8 b1 75 bf
       -0.67354345 0.73932135 1.0505954 -0.959743
0000f0 15 36 8d 3f 11 f6 d1 be 48 c6 86 3f ab 1c 67 bf
       1.103213 -0.41008046 1.0529261 -0.9027812
000100 58 3c 2b 3f 48 9c 82 3e 8d 5c 8e 3e 78 b7 b6 be
       0.6688895 0.25509858 0.27804986 -0.3568685
000110 6b 88 48 bf 12 1d 6a 3f 2e d0 95 3f 9b 17 32 bf
       -0.7833316 0.9145061 1.1704156 -0.6956727
000120 af 38 17 3f ae 7c ed be d7 66 99 3f 13 7a 99 bf
       0.5907087 -0.46384186 1.1984509 -1.1990379
000130 cc ab 52 3f 4d ba 72 bd 88 bb cb 3d 79 3f 33 bf
       0.8229339 -0.0592597 0.09947878 -0.70018727
000140 6b c2 c8 be 58 74 5b 3e 07 90 98 bf 35 f3 88 be
       -0.3921083 0.214311 -1.1918954 -0.26748052
000150 46 53 34 3e 88 85 84 be 26 08 85 bf b5 a8 65 3f
       0.17609891 -0.25883126 -1.0393112 0.8971055
000160 08 41 82 be d4 22 68 bf 32 35 52 3f d2 28 57 be
       -0.2544024 -0.90678144 0.8211242 -0.21011665
000170 7d 0d 99 3f 06 5e 46 3f 08 4b 10 3e b8 98 0a 3f
       1.1957241 0.7748722 0.14091122 0.5413928
000180 11 fa 4e 3e ad 7b 91 bf 8b ce 2f bf f2 7d 9c bf
       0.2021258 -1.1365868 -0.68674535 -1.2225935
000190 da ab 93 be 3d 8c 82 3f a6 c9 3f 3f d0 f3 7f 3f
       -0.2884205 1.0199047 0.74917066 0.99981403
0001a0 91 b7 30 bd a9 b4 84 3f 82 8b 3f 3f 64 53 39 bd
       -0.043143813 1.0367633 0.7482225 -0.045245543
0001b0 8a f4 86 bf 13 fe 25 3f 5b d2 4d bf d2 d1 14 3f
       -1.0543377 0.6484081 -0.803991 0.5813266
0001c0 83 46 89 be ad ae 21 3f e5 10 05 bf a5 8b 5b 3e
       -0.2681161 0.6315716 -0.51978904 0.21439989
0001d0 ce e9 84 3f 60 24 8f 3f a1 5e cc be 1a e5 91 bf
       1.0383852 1.1182976 -0.39915946 -1.1398041
0001e0 ba 8a b9 be 53 a2 67 3d 0e c6 70 3f e1 8e 1c bf
       -0.36238652 0.05655129 0.9405221 -0.61155516
0001f0 b8 9a 85 bf 30 cd 3e be df 6d f2 3d 54 5b a2 3e
       -1.0437841 -0.1863296 0.118373625 0.31710303
000200 e0 be c1 3d c9 15 8a bf 73 a4 80 bf 1d ce 26 3e
       0.09460235 -1.0787898 -1.0050186 0.16289563
000210 1e 89 c9 3e 69 7a 2b bf e3 f7 91 3c 49 d0 65 be
       0.39362425 -0.6698366 0.017818397 -0.22442736
000220 e6 77 37 3e 4d f3 5f 3e 99 32 54 bf a0 eb 8b bf
       0.17916831 0.21870156 -0.82889706 -1.0931282
000230 a3 e2 a6 be 44 77 02 bf af e2 49 3e 0f c0 8d bf
       -0.32594785 -0.50963235 0.19715379 -1.1074237
000240 67 ca 82 bf 9e 2b c0 bc 63 48 bb 3e 81 5f 8d bf
       -1.0218018 -0.023458298 0.36578664 -1.104477
000250 52 71 a8 3d 05 82 4e bf 6a 4c 5b be 63 51 2e bf
       0.08224739 -0.80667144 -0.21415868 -0.68092936
000260 43 91 53 bf ff 9e 4b 3f ea 4f 49 bf 50 66 c8 3e
       -0.82643527 0.79539484 -0.78637564 0.39140558
000270 be 74 95 bf 93 58 fe 3e 06 1e 94 3f 73 1e 03 3f
       -1.1676252 0.49676952 1.1571662 0.51218337
000280 0f 0a 93 3f b1 37 7c bf 6b 3f 75 3f 15 7b 25 bf
       1.1487445 -0.9852248 0.95799893 -0.64640933
000290 a4 c6 e4 bb 87 ff b3 be 80 20 e3 3e ff f0 03 3f
       -0.0069816876 -0.3515589 0.44360733 0.51539606
0002a0 fe 63 01 3f 61 6d 93 3f 26 e4 83 bf 99 ed 58 be
       0.505432 1.1517755 -1.0304 -0.21184386
0002b0 29 d0 98 bd 0b 16 81 bf 6e 17 60 3f e4 14 a3 bd
       -0.074615784 -1.0084852 0.8753575 -0.07962969
0002c0 d1 f5 9b be ff 56 0a bf 67 16 69 3f 6a 5e 29 3f
       -0.3046098 -0.54038996 0.9104981 0.6615969
0002d0 dd 56 ca 3e 25 63 29 bd 68 47 51 be 2c ec 1b bf
       0.39519396 -0.041354317 -0.20437396 -0.60907245
0002e0 8a 03 56 bf 85 86 96 3f a4 9d 88 3f 5f f6 8b 3e
       -0.8359915 1.1759802 1.0673108 0.27336404
0002f0 c1 d7 b8 be b2 85 21 bf 4d 1b a5 3e c6 00 d9 3e
       -0.36102107 -0.6309463 0.3224739 0.42383403
000300 b1 70 0e bc cd 58 03 3f f8 7f 90 3e 82 6b cd be
       -0.00869386 0.51307374 0.28222632 -0.40121084
000310 fd d2 59 3d ae 2b 23 3f 6d b0 70 be 65 8f 63 bf
       0.05317973 0.63738525 -0.23504801 -0.8889068
000320 69 79 bb be ad 35 9a bf 8f d5 1b 3f 62 b4 6b bf
       -0.36616066 -1.204763 0.6087274 -0.9207212
000330 9c a5 84 3f fc 19 fe bb ba 98 12 3e 92 93 94 3e
       1.036304 -0.0077545624 0.14316073 0.29018837
000340 48 07 21 bf 53 f9 d3 3e ea 9d 36 3f 90 a8 af be
       -0.62901735 0.41401157 0.7133471 -0.3430829
000350 00 03 81 bf ac d9 e8 3e 0a 06 99 3f 23 b6 2a be
       -1.007904 0.4547857 1.1954968 -0.16671042
000360 b5 76 4c bf 2a 01 05 be b5 47 5d bf be f9 84 3f
       -0.7986863 -0.12988725 -0.8643754 1.0388715
000370 ec 95 0b bf 74 cb 52 bf f5 da fd bd a7 16 22 bf
       -0.5452564 -0.82341695 -0.12395278 -0.63315815
000380 f8 ad b5 be 8d 4a 39 bf 64 fd 82 3f 5c dd 23 bf
       -0.3548429 -0.7237938 1.0233579 -0.6400964
000390 79 cd 40 3f 96 85 10 bf 57 18 6c 3f a2 5c 06 bf
       0.75313526 -0.56453836 0.9222464 -0.52485096
0003a0 e5 c6 0d 3f d8 51 82 be db 48 dc be 6c 57 ed 3e
       0.55381614 -0.25453067 -0.43024334 0.4635576
0003b0 71 a2 49 3d 49 cc f7 be 0a d7 05 bf 04 22 b7 3e
       0.04922718 -0.48398045 -0.5228125 0.3576814
0003c0 e2 7b b4 3e ab ef d6 3e 0b 10 88 be 85 8a a9 be
       0.35250765 0.41979727 -0.2657474 -0.33113495
0003d0 f4 9f 8c 3c fa e5 72 3f 41 4e c8 3d 01 93 4d 3f
       0.017166115 0.94882166 0.09780551 0.80302435
0003e0 72 00 10 3e 92 61 1f 3f 73 5d db bd 40 31 18 bf
       0.1406267 0.62258255 -0.107111834 -0.5945015
0003f0 e5 f1 79 bf a9 1a 30 3e ea 51 72 3f 65 a1 12 be
       -0.97634727 0.1719767 0.9465624 -0.1431938

cons_embedding.1.bias f4 [64]
000000 8e 10 96 3e 00 91 ee 3e 08 4a b5 3e 0f eb 82 bc
       0.29309505 0.46595 0.35408044 -0.015981225
000010 13 6d 81 be 61 87 68 3e 94 c3 9c be 71 0c 6a 3e
       -0.2527853 0.22707893 -0.30617964 0.22856309
000020 c4 5a b9 3d 27 ca ab 3e 09 b8 e6 bd 3a 3c 5b 3e
       0.09050515 0.33552667 -0.11265571 0.21409693
000030 b1 67 b4 3e 3b 5e dc 3e fa 11 6a 3d 60 b7 ed bd
       0.3523536 0.43040642 0.05714605 -0.11607242
000040 08 03 5c be 8c fb ee bd 66 4b 63 3e ea 69 82 be
       -0.21485531 -0.116690725 0.22196731 -0.2547143
000050 c6 92 47 3e d6 0d a3 3e 53 5a cb 3e 87 4e 39 be
       0.19489583 0.31846493 0.3971735 -0.18096362
000060 c8 cf 6e be d7 df 9b 3e 03 9c ce bd 70 b9 c3 3b
       -0.2332145 0.30444214 -0.100883506 0.0059730336
000070 ef 67 fe 3e a2 dc 97 be 6b d0 e5 be ef 31 04 3e
       0.4968867 -0.29660517 -0.44885573 0.12909673
000080 5f 16 29 bd 79 0e 9c be cc e0 0a be 53 46 aa bd
       -0.0412811 -0.30479792 -0.13562316 -0.083141945
000090 67 8c 30 3e 58 f5 3e 3d 42 04 aa 3e 38 53 a7 be
       0.17241059 0.046620697 0.33206373 -0.32680678
0000a0 b3 85 e9 3e cd 50 b0 be 05 34 8f 3d 24 79 d8 bd
       0.45609817 -0.34436646 0.06992344 -0.10569981
0000b0 9a c9 63 3e fb 70 e4 3d 61 e4 37 3e ed cf 19 bd
       0.22244874 0.11154362 0.17958213 -0.03755181
0000c0 a9 8a e4 3e f1 90 39 be 82 3a af be 7b 8d 85 be
       0.4463704 -0.18121697 -0.34224325 -0.26084504
0000d0 56 4f eb be 81 58 e4 3e f5 f7 87 3e 83 99 ba 3e
       -0.45958966 0.44598773 0.26556364 0.36445245
0000e0 64 19 90 be cd 4c 82 be 03 7b 5b 3e 8b d3 ec 3d
       -0.28144372 -0.2544922 0.21433644 0.11563786
0000f0 e7 58 be 3e 97 21 9a 3e 86 e1 d9 3d bd 81 88 be
       0.37177202 0.30103752 0.10638718 -0.26661482

cons_embedding.3.weight f4 [64, 64]
000000 fb 57 ed 3d e2 89 13 bd 74 5e 8d 3e c1 e2 a9 3c
       0.115890466 -0.036020167 0.27611125 0.020738008
000010 a8 5b d2 bc 75 7b f0 3d 36 a3 bb bd 96 f7 c9 bc
       -0.02567847 0.117422976 -0.091619894 -0.024654191
000020 75 23 8a 3e 48 7a 68 3e 30 6f 84 3e f8 dd 97 3e
       0.26980177 0.22702897 0.2586608 0.29661536
000030 d2 fb 05 bb 24 ec 12 bd bb 61 6e 3e a5 82 9b 3d
       -0.0020444286 -0.035869732 0.23279469 0.07593278
000040 1a a9 01 3e 3d 0c 83 3e 93 1e 1f 3e 36 ff 4d be
       0.12662163 0.25595275 0.15539007 -0.20116886
000050 c0 1d 9a 3c f1 d9 8f 3d 2f 5c 6b 3e 58 9a 3f 3e
       0.018813014 0.07023991 0.22984384 0.18711221
000060 40 49 ed bb 50 32 9b be 5d ad 43 be f8 34 77 be
       -0.007241398 -0.30311823 -0.19109102 -0.241413
000070 a3 ed c6 bd 23 ec 88 3e 17 a3 5c 3e 68 1e 30 be
       -0.09713294 0.26742658 0.21546589 -0.17199099
000080 7c 31 7e be 1e 6e 19 bd 75 f1 2b be 1f bf 72 3e
       -0.24823564 -0.03745853 -0.16791327 0.2370572
000090 74 b7 25 3e e2 ec 85 be 79 0a 79 bd 15 b8 4d 3e
       0.16183263 -0.2615729 -0.060801003 0.20089753
0000a0 67 e0 35 3e 53 46 67 3c 3d c3 93 3e f6 1a 23 3d
       0.17761384 0.014115888 0.28859892 0.039820634
0000b0 e7 8f 0b 3c f9 86 4d bc 2e a1 51 be 23 d2 75 be
       0.008518196 -0.012544387 -0.20471641 -0.24005942
0000c0 8c 94 42 3e 1f 15 86 3d e2 80 55 be 7d 05 30 bd
       0.19001979 0.06546997 -0.20849946 -0.042973984
0000d0 2c 00 99 bd db 17 6b 3e f7 95 35 3e 16 9f 0f 3e
       -0.07470736 0.22958319 0.17732988 0.1402553
0000e0 50 aa 26 be b2 c3 36 3e 20 c5 98 be 3c 84 95 be
       -0.16275907 0.1784809 -0.29837894 -0.2920245
0000f0 30 f5 98 3e 19 2c 97 3e 07 78 d4 bd 96 95 a4 3d
       0.29874563 0.2952583 -0.10374456 0.08036344
000100 ce a8 80 3e f8 2a be 3d e8 e6 8c bd 10 77 04 bc
       0.25128788 0.092855394 -0.06879979 -0.008085027
000110 59 b4 6a be bd f8 fc 3d 6b 66 8a be 2a 23 87 3d
       -0.2292036 0.123521306 -0.27031264 0.06598504
000120 00 fc 47 3e 58 ec 7f bd 2c 0e 7d bd 78 07 8d be
       0.19529724 -0.062481254 -0.061781093 -0.2754476
000130 e3 cb ce bd 88 68 26 be c9 9f 3d be 07 5f 8d 3e
       -0.10097482 -0.16250813 -0.18517984 0.27611563
000140 1c 61 59 3d f1 36 65 3e 86 67 76 be c0 57 ad bd
       0.053071126 0.2238424 -0.24062929 -0.084640026
000150 3d 7e 7e be b4 14 0d 3e 6e ad 95 3d ba 1b 7a 3e
       -0.24852844 0.13777429 0.0730847 0.2442464
000160 43 72 08 3e 32 da 97 3c 72 b8 e9 bc ba a5 71 be
       0.13324837 0.01853666 -0.028530333 -0.23598376
000170 5a cf df 3c 2a 6c 42 be cb 17 90 bd bb c3 95 3e
       0.027320553 -0.18986574 -0.07035788 0.29250893
000180 0d 58 8b 3e bf 39 3d be ea 73 c3 bc fe 19 93 3d
       0.27215615 -0.1847906 -0.023858983 0.07182692
000190 3c e2 35 3d 79 80 8f 3e 4a 09 29 bd 58 02 bb 3c
       0.044405207 0.28027704 -0.041268624 0.022828266
0001a0 f7 e0 7b be fa eb 53 3e 18 38 0e bd 42 8b 47 be
       -0.24597536 0.20695487 -0.034721464 -0.19486716
0001b0 f8 5a 65 be 06 d0 82 3d e4 a3 6c be 40 2b 56 be
       -0.22397983 0.063873336 -0.23109394 -0.20914936
0001c0 3b 68 8f be d6 ff 90 be fb 2c 99 be f9 91 28 bd
       -0.2800921 -0.28320187 -0.2991713 -0.041154835
0001d0 dc cd 47 be 94 a2 83 be 12 3f 7c 3e 4c c7 8b 3d
       -0.19512123 -0.25709975 0.24633434 0.06825122
0001e0 ee ca f1 bd cf 71 92 be b4 e6 28 bc 44 bd 3d 3d
       -0.11806284 -0.28602454 -0.01030891 0.046323076
0001f0 8e ba 81 3d 41 4f 94 3e dd a7 8e 3e 39 87 84 3d
       0.063344106 0.28966716 0.27862445 0.06471104
000200 88 41 82 3e 27 73 e0 ba 8a 78 6f be ee 12 10 be
       0.2544062 -0.0017124162 -0.23385826 -0.14069721
000210 aa 1f 45 3e ee 3f 9b bd 06 e4 14 3e 3b 32 02 be
       0.1925036 -0.07580553 0.14540109 -0.12714474
000220 24 2e 51 be 7e 05 d5 bc ec cd 8b 3e 0e 4f 85 be
       -0.20427758 -0.026003595 0.27305543 -0.26036876
000230 15 c7 b8 bc c4 19 55 bd b4 86 85 3e c5 11 30 be
       -0.022555867 -0.052026525 0.26079333 -0.17194279
000240 88 41 f1 3d 76 d8 ab 3d 1c 4c 63 3e f1 c3 16 be
       0.11780077 0.08390896 0.22197002 -0.14723183
000250 04 1e 56 3e 5c f1 6b 3e 00 f8 14 be f2 26 1e 3d
       0.20909888 0.2304129 -0.1454773 0.03861136
000260 90 a3 e6 3d bb fe d1 bc 12 74 89 be a6 1f 29 3e
       0.11261666 -0.02563416 -0.26846367 0.16515979
000270 47 5c 7b 3e b4 b0 96 be d0 8d cb 3d 4a 67 4a be
       0.2454692 -0.2943169 0.09939158 -0.19765964
000280 d9 61 1c be 50 73 65 3d a1 e5 58 be f2 3e b4 3d
       -0.15271701 0.056018174 -0.21181346 0.08801068
000290 c6 df ee bd ab c1 25 3c b3 80 0b 3e b4 91 14 3e
       -0.11663775 0.010116975 0.13623314 0.14508706
0002a0 0d 80 97 3e a0 f0 96 be 13 c9 6b bc b4 91 70 3e
       0.29589882 -0.29480457 -0.014391202 0.23493081
0002b0 55 4d 67 be fd 2e 26 bd a7 17 01 be 0c 73 bc bd
       -0.22588094 -0.040572155 -0.12606679 -0.09201631
0002c0 1f 94 79 bd be 09 38 3e c4 e8 92 be 02 28 5e 3d
       -0.060932275 0.17972466 -0.2869321 0.054237373
0002d0 10 45 15 3e 5e e7 8a bd 88 37 f4 bd 0a 1a e1 bd
       0.14577127 -0.06782411 -0.11924654 -0.10991295
0002e0 38 93 5d 3e 78 ca 8e bd e0 ec 05 3e d0 1e b3 bd
       0.21638191 -0.069722116 0.13078642 -0.087461114
0002f0 e3 73 a7 3c 21 ea 10 3e ff e8 58 bc 7f 01 48 3e
       0.020441001 0.14151813 -0.013239144 0.1953182
000300 a3 a5 8c 3d dd 15 35 bd b2 a5 0e be 65 4b 78 3d
       0.0686753 -0.044210304 -0.13930395 0.060618777
000310 10 60 58 3e 3c 4e 4d 3e 28 00 dc bd cd 51 2b 3d
       0.21130395 0.20049375 -0.10742217 0.04182606
000320 98 f0 8b 3d a7 e8 98 3d 65 3e b1 3d 82 a3 20 be
       0.06832999 0.0746625 0.08654479 -0.15687373
000330 66 7d f1 bd 05 07 83 3d b4 af 89 be 4c f7 61 be
       -0.11791496 0.06397823 -0.26891863 -0.22066993
000340 6c 7e 6e be 90 6e 5a bd 08 ed 90 3e 0d 1f 92 3e
       -0.23290414 -0.053328097 0.2830584 0.28539315
000350 38 35 54 be 9c e0 92 3d 25 5f 62 3e 6f 92 a2 3d
       -0.20723426 0.07171747 0.22106607 0.07938086
000360 3f ad 82 be 2c b0 ff 3d 45 c3 8f 3e 46 e9 9d bd
       -0.255228 0.12484774 0.28078666 -0.07710509
000370 59 11 70 3e e7 10 5b 3d 93 0a 23 be c5 8c 11 3d
       0.23444118 0.053482916 -0.15922002 0.03553464
000380 ee 6e 8e 3e a3 59 6c be 32 8b 90 3e 39 15 85 be
       0.27819008 -0.23081069 0.28231198 -0.25992754
000390 a8 bc 80 3e 2f a3 01 3e 17 89 ba 3b 24 f5 22 3e
       0.25143933 0.12659906 0.005692612 0.15913826
0003a0 12 80 50 be e1 29 17 3b 53 8f a7 3d 55 54 b5 bd
       -0.20361355 0.0023065733 0.08181634 -0.08853976
0003b0 9a f7 79 be 76 b3 04 bc 29 08 0f 3e 93 56 3b 3e
       -0.24410859 -0.008099427 0.13967957 0.18294744
0003c0 35 22 50 be 04 ef 05 3e 23 41 b1 3d a9 4c 79 be
       -0.20325549 0.13079458 0.08655002 -0.2434565
0003d0 cd 73 9a 3d b4 49 10 3d 77 b0 0b 3d 6d 77 8a 3e
       0.075416185 0.03522654 0.034103837 0.2704424
0003e0 e1 2d df bd 28 f9 ed bc 3d aa 2f bc 4e ed 67 3d
       -0.108974226 -0.029049471 -0.01072174 0.056622796
0003f0 de 6b 99 be 1b 59 4f bd f1 f3 9e 3d 23 b9 25 3e
       -0.2996511 -0.050622087 0.07761372 0.16183905

cons_embedding.3.bias f4 [64]
000000 03 11 cf bb d6 ca af 3d 0b 82 fe 3d 9e 2d bf bd
       -0.0063191666 0.0858361 0.124271475 -0.09334873
000010 b0 6e a0 3d 6a 7c 7f bd 52 e8 5b 3d 52 1f c6 3d
       0.07833612 -0.06237451 0.053688355 0.096739426
000020 c4 0c cf bc e5 61 06 3d 32 7a 52 3d 8b b7 4c bc
       -0.025274642 0.032808203 0.051386066 -0.012494932
000030 a2 0e 85 3d aa 32 21 bd 9b 8a a0 bd 65 e3 37 bb
       0.064969316 -0.039354958 -0.07838937 -0.0028059122
000040 6e 95 18 bc c6 dc d7 3d 16 72 36 3b de f6 b9 3d
       -0.009312971 0.10540156 0.0027838997 0.09080289
000050 57 ec 0d bc 33 b9 01 3e 29 6d 98 bd 6b 73 90 bd
       -0.008662305 0.12668304 -0.07442696 -0.07053264
000060 75 04 db 3d 82 6c a8 bd 7b 9f aa bd 0b 10 c9 bd
       0.106942095 -0.08223821 -0.083312 -0.09817513
000070 b8 d4 a8 bd 05 7e ea bd aa 80 11 3d 0f e1 2b 3c
       -0.08243698 -0.114498176 0.035523094 0.01049067
000080 2d fd b9 bd fd 77 c7 3d f3 ca ef 3d c9 e8 0c 3d
       -0.090814926 0.09739683 0.11708631 0.03440169
000090 0e 26 84 3d 8f cb ed 3d 63 63 ad bd 6b 4c b1 bd
       0.06452571 0.11611091 -0.08466222 -0.08657154
0000a0 eb bc 66 3a 11 ae f4 3c 02 f2 48 bd e7 40 9d 3d
       0.00088019547 0.029868158 -0.04905892 0.07678395
0000b0 2d 8d 1d 3c c5 16 1c 3d 06 e7 90 3c 66 e0 ea 3d
       0.009616178 0.038107652 0.017688286 0.11468582
0000c0 2d 14 e3 bd 59 94 8b bd 0d ec 9e bd c0 b6 75 bd
       -0.110878326 -0.068154044 -0.07759867 -0.059988737
0000d0 30 53 60 bc 61 e8 78 bd d6 96 9b bc bc 2e d2 3a
       -0.013691708 -0.06076849 -0.018992823 0.0016035656
0000e0 ad 19 fb 3d 1b 55 a5 bc ca d8 f8 3d be 9f ff bd
       0.12260757 -0.020182183 0.12150724 -0.1248164
0000f0 98 d3 81 bd c4 f3 c9 bd 6a a6 12 3d d0 9d d6 bc
       -0.063391864 -0.09860948 0.035803236 -0.026198298

var_embedding.0.weight f4 [7]
000000 fb 1c 80 3f 5d d8 7f 3f 12 04 80 3f 47 62 7f 3f
       1.0008844 0.9993952 1.0001242 0.99759334
000010 be b6 7f 3f 48 14 80 3f 1e 66 7f 3f
       0.9988822 1.0006189 0.99765193

var_embedding.0.bias f4 [7]
000000 4a 39 51 3a 18 09 44 b8 e1 f9 c8 b9 6c c2 08 3b
       0.0007981254 -4.673851e-05 -0.00038333147 0.0020867838
000010 ab f7 97 3a c5 6a 2d ba 5f e3 28 3a
       0.0011594197 -0.0006615336 0.00064425723

var_embedding.1.weight f4 [64, 7]
000000 f4 f5 43 3f 66 90 1b 3f f3 2a 84 bb 54 61 49 3f
       0.7654717 0.6076721 -0.0040334403 0.78664136
000010 0f e1 92 3e 89 ad 6b 3f 08 8d 97 be 22 ad 28 bf
       0.2868733 0.9206167 -0.29599786 -0.6588918
000020 02 3c b7 be 3b 54 56 3f 57 54 bf be 07 9f 0c be
       -0.3578797 0.83722275 -0.37369034 -0.13732539
000030 69 7c 29 3f 1e 75 7e 3c 96 c7 2c bf df fc e5 be
       0.6620546 0.015530853 -0.67492044 -0.44919488
000040 bf 29 1d bc 65 51 01 3f e7 98 46 be 46 fe a2 3d
       -0.009592473 0.50514823 -0.19394265 0.07958655
000050 d9 58 f6 be f0 48 27 bf ee f3 f7 3e a6 47 84 3d
       -0.4811466 -0.6534567 0.4842829 0.06458978
000060 b3 7d 9a 3e 8e a3 a7 bc 5b 5e f7 3e 31 c7 f8 bd
       0.30174026 -0.020463731 0.48314175 -0.12147368
000070 b4 97 96 be e9 de 28 3f 4c 7c 03 3f a1 12 f5 3e
       -0.29412615 0.65965134 0.51361537 0.47865775
000080 bf bc fa 3e 69 22 c5 3e e4 a2 74 be ab a3 1f bf
       0.48972127 0.38502815 -0.23890263 -0.6235911
000090 5f 65 23 3f d7 dd 0c bf 42 21 00 3f f6 34 53 3f
       0.63826555 -0.55026 0.5005075 0.82502687
0000a0 9c 56 02 3f 4e 0e 05 be 47 f0 66 3d 92 ef 56 bf
       0.50913405 -0.12993738 0.05638149 -0.83959305
0000b0 a9 b4 d9 be 95 01 ba 3e fe a7 0f bf ac ec 2f 3e
       -0.42520645 0.36329332 -0.5611571 0.17180127
0000c0 ae f3 45 bf 30 8c 67 3f e2 ea 33 3f 9c af 7a bd
       -0.7732495 0.90448284 0.7028028 -0.06120263
0000d0 50 c3 66 bf 15 ae 11 be 12 10 ac 3e 0b 48 c5 3d
       -0.90141773 -0.14226563 0.3360601 0.09632882
0000e0 95 88 19 3f fa 29 ce 3d 64 ab a4 3c 9e a0 11 bf
       0.5997403 0.100666 0.020101257 -0.5688571
0000f0 51 77 1e be 29 53 78 3d 88 ea 8e 3e 4e 66 51 bf
       -0.15475203 0.060626183 0.27913308 -0.8179673
000100 a5 cc 03 3f df 25 65 3f 93 69 43 3e 5f e0 51 bf
       0.5148414 0.8951091 0.19083242 -0.8198299
000110 48 0d 7a 3c 49 70 17 3f af 3c d6 be e3 63 14 bf
       0.015261956 0.5915571 -0.41843173 -0.57964915
000120 a5 7b 56 3f a1 07 75 3d a5 0c 5a be 76 f6 c3 3e
       0.83782417 0.05982173 -0.21293886 0.38273972
000130 04 ca 63 3f 40 53 3b bf 96 fc 65 be 70 3a a7 3d
       0.88980126 -0.73173904 -0.22459635 0.08165443
000140 cc a5 dc 3e 0c 43 2b be 25 48 29 3f 97 a4 13 3f
       0.43095243 -0.16724795 0.6612571 0.5767302
000150 78 e9 f1 be 08 0c bd 3d c4 0d 54 3f c6 34 c7 be
       -0.47248435 0.092308104 0.82833505 -0.3890745
000160 17 77 10 be c0 88 0c be d9 73 ca 3e 08 e7 ff be
       -0.14107929 -0.13724041 0.3954151 -0.4998095
000170 15 97 89 39 d4 42 1e be fd 88 fa 3e 41 3d 86 be
       0.0002624324 -0.1545518 0.4893264 -0.26218608
000180 02 bb 2d 3f 59 4c 51 3e be 03 39 3f 21 ea 65 3f
       0.67863476 0.2043928 0.72271335 0.8981038
000190 f3 03 cd 3d 63 f7 1a 3f 3d e3 69 3e 16 37 e3 be
       0.10010519 0.6053373 0.22840591 -0.44377965
0001a0 55 09 ae 3e 7b e7 1c 3f 70 6f c8 3e d2 ac 09 3f
       0.33991495 0.6129071 0.3914752 0.5377933
0001b0 d8 35 23 3f ea f3 41 bf 9e 4b 0b bf 71 fa 26 3f
       0.63754034 -0.7576281 -0.5441226 0.65225893
0001c0 57 91 52 3f 87 c9 86 3e 31 d8 6b 3f d2 5b a1 3e
       0.8225302 0.26325628 0.92126757 0.31515366
0001d0 13 f2 2f 3f 59 3e 62 3f a1 c7 22 bf a3 7f 5f bf
       0.6872875 0.88376385 -0.6358586 -0.87304133
0001e0 5f fd 60 bf 1b 13 43 bf 38 01 2c 3e 25 7d d7 be
       -0.87886614 -0.7620103 0.1679734 -0.42087665
0001f0 db 3c da 3e 22 78 2b be 48 59 63 3f a9 fe 53 be
       0.42624554 -0.16745046 0.8880811 -0.20702614
000200 83 b8 c7 be 81 c5 39 3f 2a 6f 6a 3f d8 b3 61 3f
       -0.3900796 0.7256699 0.9157587 0.88165045
000210 35 c0 b7 be 34 38 33 bf 26 bc 3c bf 85 bc 05 3f
       -0.3588883 -0.70007634 -0.7372459 0.5224078
000220 3e 7d 5b 3f 51 7e 5b bf fd de b6 3e 43 1a bd 3e
       0.8573798 -0.8573962 0.35717002 0.369341
000230 49 fd 3c 3f 56 8a 54 3f d1 bd 5d 3f 58 75 88 3e
       0.7382398 0.83023584 0.8661776 0.26652026
000240 45 82 37 bf 93 58 4e bf 88 7c 08 bf ab 9b e5 3e
       -0.7168315 -0.80603904 -0.5331502 0.44845328
000250 86 d5 aa 3e 08 18 00 bf 82 a7 d0 3e db d6 35 3e
       0.3336603 -0.5003667 0.40752798 0.17757742
000260 62 c5 29 be 5d fa 36 bf ee 26 68 3f 33 f4 3c bf
       -0.16579202 -0.71475774 0.906844 -0.7381012
000270 54 49 5c be 7c c4 b4 3e dc c6 38 bf 56 e1 02 bf
       -0.21512347 0.35306156 -0.72178435 -0.51125085
000280 9c a5 2d 3f 10 f6 65 3f cf d9 31 3f b2 96 e4 bd
       0.67830825 0.89828587 0.69472975 -0.11161555
000290 1a 5b 37 bf 4b 68 a6 be e6 4c c8 3e f7 c5 1f 3f
       -0.71623385 -0.32501444 0.3912117 0.62411445
0002a0 7e 66 38 bf a1 7e 79 be eb 31 14 3f 4e fa 4c 3f
       -0.7203139 -0.24364711 0.5788867 0.80069435
0002b0 96 6c 3d bf d7 46 31 3f b3 e7 e6 3e 78 95 db be
       -0.73993814 0.6924872 0.45098647 -0.42887473
0002c0 28 20 47 bf b3 26 92 be ab f7 60 bf 76 de 60 3f
       -0.7778344 -0.2854515 -0.8787791 0.8783945
0002d0 1a 80 f9 3c 71 59 d3 be af 3e 72 be a6 0c dc be
       0.030456591 -0.41279176 -0.23656724 -0.429784
0002e0 04 39 d4 3e 85 85 ee be 39 62 43 3f 0d e7 d9 3d
       0.4144975 -0.46586242 0.7632175 0.106397726
0002f0 3f b9 24 bf f6 90 32 3d e2 5f 33 be 1d b2 d3 be
       -0.64345163 0.043595277 -0.17517045 -0.41346827
000300 1c 04 ad be 32 ad b8 3d a7 08 07 3f 4c ed ac 3e
       -0.33792198 0.090174094 0.5274758 0.33774793
000310 51 6b 33 bf 74 0f 12 bf 69 93 1b 3f db 0d f9 be
       -0.70085627 -0.5705483 0.60771805 -0.48643383
000320 17 b3 64 3e 67 13 4f 3f 5e 5f 0a 3f 80 9e 59 bf
       0.22333942 0.8088898 0.5405177 -0.85007477
000330 70 c9 53 bf 31 8b 48 bf 7f 25 12 bf bf f2 cd 3e
       -0.82729244 -0.7833739 -0.57088464 0.40224263
000340 2c f1 61 bf 89 51 8e 3d 02 bd 11 bf ee 78 dd be
       -0.88258624 0.06949145 -0.5692903 -0.43256325
000350 e9 c4 37 bf 62 a9 5e bf cf 4d 69 bf 64 67 6c 3f
       -0.71784836 -0.8697721 -0.9113435 0.9234526
000360 10 df 2d 3f 15 85 2e bd 8d 00 28 3f e1 6a fa bd
       0.6791849 -0.042607386 0.6562584 -0.12227417
000370 c1 20 69 3e eb 4b c9 3e 2b 43 42 3f 88 a5 9f 3d
       0.22766401 0.39315733 0.7588374 0.077952445
000380 8b 96 39 3f 95 a3 2c 3f 6f 7b b5 3e 35 51 95 3d
       0.72495335 0.67437106 0.35445735 0.0729088
000390 6c ff 0c 3e 04 f3 55 3f 2f 8c 10 3e 4f bd 1c 3f
       0.1376931 0.8357394 0.14115976 0.6122636
0003a0 9d 42 07 3f 18 4d 61 3f 48 b5 10 3e c3 79 26 3e
       0.5283602 0.8800826 0.14131653 0.16257386
0003b0 5d a3 8b be b9 82 55 bf 24 76 0d 3e 72 b1 d8 3e
       -0.27273074 -0.8340259 0.13814598 0.4232288
0003c0 1a ed 91 be ba e5 4a 3f 75 a9 4b 3f cc 95 23 3f
       -0.28501207 0.79256785 0.79555446 0.63900447
0003d0 6c d1 04 3f b4 dc 68 3f 0f 7e f4 be 38 66 d6 3e
       0.5188205 0.90961766 -0.47752425 0.41874862
0003e0 f6 b9 47 bf 79 6b 1a bf 4e c3 b1 bd 6b 21 32 3f
       -0.7801813 -0.6032024 -0.086798295 0.6958224
0003f0 be c8 f8 3e 96 24 36 bf e2 64 9b 3e a6 b1 82 be
       0.48590654 -0.71149576 0.30350405 -0.2552616

var_embedding.1.bias f4 [64]
000000 7d 9c 85 3e f4 ea cc 3d e3 06 b2 be 2d 07 97 3e
       0.26095954 0.10005751 -0.3477088 0.29497662
000010 b3 bd bd 3e 9b 67 a0 be fc 7c 3f 3e 7e f3 84 3d
       0.37058792 -0.31329045 0.18700022 0.06491755
000020 a1 85 ac 3e a2 4f a7 bd c9 c0 c9 bd 60 5a 26 be
       0.336957 -0.08169486 -0.09851224 -0.16245413
000030 96 b4 8c 3e 16 ea 09 be 52 06 1e 3e 77 fb 9b be
       0.27481526 -0.13468203 0.15432099 -0.3046529
000040 03 43 b5 be 5f 04 8b be 71 dd 25 3c b4 b7 74 3d
       -0.35402688 -0.27151772 0.0101235965 0.059745505
000050 2d 22 6b 3d 07 60 20 be 5a d9 c1 3e fc 92 be 3e
       0.05740564 -0.15661632 0.3786114 0.37221515
000060 27 b3 d8 3d fe 13 54 3e 09 91 a5 bc c9 b9 fe bc
       0.105810456 0.20710751 -0.02021076 -0.031094449
000070 49 bb 98 3e 09 4a a4 3e 06 f7 85 3d fc 7b fe bd
       0.29830387 0.32087734 0.065412566 -0.12425992
000080 0f 5a 93 be 82 10 19 3e ae 5b a2 be 00 ed d6 bc
       -0.28779647 0.14947703 -0.3171057 -0.026236057
000090 30 91 d1 bd 42 51 92 be 82 a7 a3 3e ed 03 39 3e
       -0.102327704 -0.2857762 0.31963736 0.18067904
0000a0 7a 7b 0c be 2a d3 93 3d 8b 32 3a 3e 25 e1 d1 bd
       -0.13718978 0.07218011 0.18183343 -0.10248021
0000b0 00 46 31 3d e5 16 0b 3e 43 b5 66 be 70 51 ec 3d
       0.043279648 0.13582952 -0.22530083 0.115389705
0000c0 1d df 9b bd 86 3c dd bd a9 c3 a1 3d f6 c3 af 3e
       -0.07610915 -0.108025596 0.07898647 0.34329194
0000d0 76 05 04 3e 35 cc 9e 3e 35 53 d0 bd 24 81 aa 3e
       0.12892708 0.31015173 -0.101721205 0.3330165
0000e0 58 aa a4 3e 9c a8 9c 3d 78 12 84 bd e1 48 86 3e
       0.32161212 0.07649347 -0.06448835 0.26227477
0000f0 c5 6d 83 3e 35 96 a5 3e 73 79 be ba 4e b2 ef 3d
       0.25669685 0.3234116 -0.0014532044 0.11703931

var_embedding.3.weight f4 [64, 64]
000000 42 9d 00 bd 8b 28 51 bd 09 b0 01 3e bc aa 81 3e
       -0.031399973 -0.051064055 0.12664808 0.25325572
000010 d3 67 96 be 30 1a 68 be 92 0b 69 3c e7 4d 90 3e
       -0.29376087 -0.2266624 0.01422395 0.28184435
000020 5e 95 97 be fa c7 87 bd a0 93 be 3c 75 d4 82 3e
       -0.29606146 -0.066299394 0.023263752 0.25552717
000030 0a 49 6d bd bc e7 bb 3d c0 23 04 3d 2c 95 5c bd
       -0.057930984 0.09175059 0.032260656 -0.0538532
000040 20 e4 8a be 6b 84 26 3e 7d 0c 07 bc 64 c9 28 3e
       -0.2712717 0.16261451 -0.0082427235 0.16483074
000050 52 7a 3a be 27 2f fa bd 7b 79 53 be d8 f0 7d 3d
       -0.18210724 -0.12216025 -0.2065181 0.061997265
000060 01 df 2d 3d 90 66 83 bd 5d 38 97 be 53 d1 25 3e
       0.042449 -0.064160466 -0.2953519 0.16193132
000070 ec 3f 73 3e 72 1e 87 3e 7b 3d f7 bd 14 a1 05 be
       0.23754853 0.26390415 -0.12072273 -0.13049728
000080 83 ff 7e 3d e2 79 75 bc 47 f3 4d 3e 07 c4 88 3e
       0.062255394 -0.014982672 0.20112334 0.26712057
000090 38 75 0f 3d 88 81 04 bd ce 39 bd 3d 54 69 6f 3d
       0.035023898 -0.032350093 0.09239541 0.058450058
0000a0 73 d7 82 bd fd ba 16 3d f1 d3 3a ba 71 7e 84 3d
       -0.0638875 0.03679942 -0.00071269186 0.06469429
0000b0 7a 6e 99 be cf 49 fa 3c dd ca 8e be 2e 5b 07 be
       -0.299671 0.030552773 -0.27889147 -0.13218376
0000c0 65 c5 d3 bd d9 db d5 bd 13 fb 00 bd 10 30 68 3e
       -0.103403844 -0.10442323 -0.031489443 0.22674584
0000d0 91 9b 02 be 1c 23 d6 3d 62 01 ac 3d 67 1e 41 3e
       -0.12754656 0.10455915 0.08398701 0.18859254
0000e0 e6 7e dd bd 94 b2 a7 bd 10 c4 41 3e 2d be bb bd
       -0.108152196 -0.08188358 0.18922448 -0.091671325
0000f0 0a 73 d2 3d 34 e4 1e 3e 7e be df bd cc 6d dd bd
       0.10275848 0.1551674 -0.109250054 -0.10811958
000100 bd 04 81 3e c7 1d c6 bd 2b d0 88 3d 24 fb bf 3c
       0.25198928 -0.09673648 0.0668033 0.023435183
000110 84 f3 80 bd 7a 20 10 be be 16 bf bd e5 6b ad bc
       -0.06296447 -0.14074889 -0.093305096 -0.021169612
000120 7a aa d1 bd e9 d5 a1 bd 60 e0 bb 3d b4 cb 97 3e
       -0.10237594 -0.07902128 0.091736555 0.296476
000130 18 a6 c2 3d 35 30 29 be 0d 18 1a be cb 78 e3 bc
       0.09504336 -0.16522296 -0.15048237 -0.02776756
000140 e1 e1 8d 3e 9f dc 38 3e df 5e 5c be 07 d8 1b 3c
       0.27711394 0.1805291 -0.21520565 0.009511954
000150 cf e5 e5 3b 4b 64 98 bc 56 be 5c 3e 7e 87 4e be
       0.0070159207 -0.01860251 0.21556982 -0.20168874
000160 6f f8 6e 3e b1 43 80 be ad 56 56 be 54 67 cc 3d
       0.23336957 -0.25051644 -0.20931502 0.09980646
000170 c5 cb 35 3d c4 f4 90 3e b7 3f f4 bd c7 b2 20 3e
       0.044383783 0.2831174 -0.11926215 0.15693198
000180 62 60 b3 bc 0d ec 81 3e af 8b f7 3d c1 d7 dc 3d
       -0.021896545 0.25375405 0.120871894 0.10783339
000190 55 aa fc bd 65 fb 42 3e 8d c9 9a be a8 5f c6 3c
       -0.12337176 0.19041212 -0.30231896 0.024215534
0001a0 00 73 a2 bd 3b 78 36 be 29 f0 63 be 72 9d ad 3b
       -0.07932091 -0.17819302 -0.22259583 0.00529831
0001b0 97 61 8b 3d f4 ea 39 3e 91 86 54 3d 6b 0f e1 3d
       0.06805723 0.18156034 0.051886145 0.10989269
0001c0 7e 0f db bb 22 44 32 be 0f f0 47 bd ac 15 91 be
       -0.0066851964 -0.17408803 -0.048812922 -0.28336847
0001d0 9a 58 8e 3e 64 3a d0 bc 83 98 60 bd 86 0e 4c 3e
       0.27801973 -0.025418468 -0.054832947 0.19927415
0001e0 e3 22 d3 3b b8 da 43 bc c2 57 30 be 02 d7 f7 3d
       0.006443368 -0.011954002 -0.17220977 0.12101556
0001f0 15 e7 44 3e bf 2a 45 bd b0 7a 22 be 2b 60 59 3d
       0.19228776 -0.04813647 -0.15867114 0.05307023
000200 89 1e 7e 3e 5e 72 52 be 2b 44 52 be 73 5a 84 be
       0.24816336 -0.2055144 -0.20533817 -0.25850257
000210 2e 82 5a 3e 19 c9 9f 3d 4f b7 86 3e 5b 61 0f be
       0.21338722 0.07802028 0.26311728 -0.14001982
000220 27 25 4b 3e 14 1d 93 bd d4 05 39 bd 77 d6 56 be
       0.19838391 -0.071832806 -0.045171574 -0.2098025
000230 28 3e ee bd bd 84 6b 3e fe d5 5f be 6c 9e 18 be
       -0.11632949 0.22999854 -0.21858975 -0.14904183
000240 f1 56 82 3e bc 7e a8 bd 9c 36 1b be 8f b2 1d 3d
       0.25456956 -0.08227298 -0.1515755 0.038500365
000250 fc 2b e0 bc ae a0 75 be ef 19 f0 3d 2b 5e 15 be
       -0.027364723 -0.23987076 0.117236964 -0.14586703
000260 e7 0f 93 3e 80 92 a7 3d df df 0e 3e b6 3d 35 3c
       0.2872307 0.081822395 0.13952588 0.011062076
000270 d5 83 8c be d8 b3 03 be 99 11 c5 bd 35 bf 2e be
       -0.2744433 -0.12861574 -0.09622497 -0.17065127
000280 00 61 54 be 97 a1 88 3e 5a 01 95 3d ec 79 9d 3d
       -0.20740128 0.26685783 0.072756484 0.076892704
000290 a9 1c 2e 3e ab 33 93 be ed 8c c6 3b d4 d1 87 be
       0.1700312 -0.28750357 0.00605928 -0.26527274
0002a0 1d 67 ef 3d 7d 7e e3 bd 0f 55 e2 3d 87 ba 7b 3e
       0.11689589 -0.1110811 0.1105138 0.24582873
0002b0 5c eb 18 bd a3 6d fb 3c 61 b2 47 bc 3a 80 c6 bd
       -0.03733383 0.030691927 -0.012188525 -0.09692426
0002c0 e4 8e 33 3e 4c 7a 98 be 9d e8 03 be 58 ec b4 bc
       0.17534977 -0.29780805 -0.12881704 -0.022085354
0002d0 2b 1e 84 be 02 3f 9b be 49 06 21 be 5d dc 71 be
       -0.25804266 -0.3032151 -0.15725054 -0.23619218
0002e0 ce ea a0 3e 56 2a d7 b8 bb 7c 8d bc 7b db 67 be
       0.31429142 -0.000102598846 -0.01727139 -0.22642319
0002f0 9e 1e 8e bd 1e 23 8b be 9e 67 e6 3d 77 57 03 3e
       -0.069394335 -0.2717523 0.11250232 0.12826334
000300 f2 6b 91 be 19 81 6e 3e 27 f3 50 3e dd 7c 4b 3e
       -0.28402668 0.23291434 0.20405255 0.1987185
000310 19 6f 8c be 01 2c 52 bd a2 da 18 3e 84 8f f7 3d
       -0.2742851 -0.051311497 0.14927152 0.1208792
000320 78 57 99 3e 52 fe 87 be 46 60 18 be 9d 2f 3c be
       0.29949546 -0.26561219 -0.14880475 -0.18377538
000330 4d cb 8d 3c 1a 29 dc 3d 85 ed 1a 3e 97 b9 d5 bc
       0.017308855 0.10750027 0.15129669 -0.026089473
000340 8d 2a 1f bd df 74 bc 3d 16 c4 ab bd 8f 03 fa bd
       -0.03885894 0.09201979 -0.0838701 -0.1220771
000350 a3 66 95 3e 9f 55 d6 3c 76 92 f9 bd cf 1d 96 3e
       0.29179868 0.026163874 -0.12186138 0.29319617
000360 ef 81 2c 3e 86 4a 87 3e 6f ed 05 3e be a0 3c 3e
       0.1684644 0.26424044 0.13078855 0.18420693
000370 11 3e 2d be 74 a1 36 3e a4 c0 27 3e 09 a0 39 bd
       -0.16918208 0.17835027 0.1638208 -0.045318637
000380 8d 69 99 be b9 44 6c 3e d1 14 80 3e 99 48 a0 bc
       -0.2996334 0.2307309 0.25015882 -0.019565867
000390 4b f9 92 be 45 e6 d1 bd 32 a2 29 3e 02 c9 f0 3d
       -0.2870582 -0.102489986 0.16565779 0.11757089
0003a0 dc 71 87 bd 77 d1 87 3e 01 75 92 3c 3b 98 a4 bc
       -0.06613514 0.26526996 0.017878057 -0.02009212
0003b0 08 67 22 3e 9a 5e 42 be 12 75 e3 bd 0c ea 19 be
       0.15859616 -0.189814 -0.11106314 -0.15030688
0003c0 e2 31 51 3e c9 c1 8f bd 1e c5 44 3d 6e d9 1c 3e
       0.20429185 -0.070193835 0.048039548 0.15317318
0003d0 38 35 1b 3e 95 03 85 3e 1e 5d 57 be 38 b4 18 3e
       0.1515702 0.25979295 -0.21031615 0.14912498
0003e0 3d 3c 30 3e 80 c9 0d 3e ae 0d bf 3d 07 c8 ac bd
       0.17210479 0.13846397 0.09328781 -0.0843659
0003f0 56 5a 58 be 02 32 1c be 7a 4c 9b 3e ab 40 09 3e
       -0.2112821 -0.15253451 0.30331784 0.13403575

var_embedding.3.bias f4 [64]
000000 f6 90 a6 3d 6a 1f 79 bc f5 85 9f 3d d6 49 b9 bc
       0.08133118 -0.015205244 0.07789222 -0.022618216
000010 ed 4c 1a 3c fa 45 8e bd 1d da 6a 3d 8c b5 e4 3d
       0.009417755 -0.06946941 0.057336915 0.1116744
000020 32 e6 b6 bd 55 8e 32 3d 6d 6c 42 bd 8b a7 fd 3d
       -0.08930625 0.04359277 -0.047466684 0.12385472
000030 ef 47 2d 3b a6 ca 3f bd f4 9f 8a 3d 66 14 b9 3d
       0.002644058 -0.04682412 0.0676879 0.09037094
000040 ca fd c5 3b 80 0a 30 bd a0 8f ec 3d ae bf f0 bd
       0.006042217 -0.042978764 0.11550832 -0.1175531
000050 c9 54 9a bd ed e6 30 bc 4c 45 bd bd 5c cc 00 3d
       -0.07535703 -0.0107972445 -0.09241733 0.031444892
000060 10 0c ac 3d 2c cb c5 bc 88 18 a0 3d 0d 4f e5 bd
       0.08400738 -0.024144731 0.07817179 -0.11196718
000070 a4 ab 7f bd 53 93 fe 3d 3e d0 27 3c f9 07 61 3c
       -0.06241955 0.124304436 0.01024252 0.013734811
000080 2e 53 45 3d b7 28 c8 3c b2 52 64 3c 9b 31 dc bc
       0.04817503 0.024433477 0.013935732 -0.026879122
000090 3f bb d0 3c 8f ea 5e bc c7 6c 52 bd c7 ed ee bd
       0.02547991 -0.013605728 -0.05137327 -0.11666446
0000a0 d4 15 06 bd 4a 1d 5d bd 23 58 bd 3c 2b fd d7 bd
       -0.03273566 -0.05398301 0.023113316 -0.10546335
0000b0 f8 c0 ee bd 87 25 0b 3c 6f 18 41 bd 97 d9 35 3d
       -0.116578996 0.008492834 -0.047142442 0.044396963
0000c0 f4 e5 93 3d 0a 92 b1 3d a2 51 43 bc 40 68 84 3d
       0.072215945 0.08670433 -0.011921318 0.064651966
0000d0 e2 4a a1 3d 6a 77 63 bd b4 4f 4b bd 21 66 dd 3c
       0.07875611 -0.055533804 -0.049636558 0.027026238
0000e0 f5 49 02 bd 53 a2 ec bc 5e 34 99 bd e7 4c e7 bd
       -0.031808812 -0.028885996 -0.074806914 -0.11293965
0000f0 dc 89 e0 3d 3f bc 8c bd 49 24 e6 3d 4a 67 6f bc
       0.109637946 -0.068718426 0.112373896 -0.014612028

conv_v_to_c.feature_module_left.0.weight f4 [64, 64]
000000 d4 5b 2f be e4 1f 26 be 54 98 fb 3d 70 3b 1b 3e
       -0.17124873 -0.16223103 0.12284914 0.15159392
000010 bb fb 8a 3e ae ea 62 bd 00 42 7e 3e 6b a7 1a be
       0.2714518 -0.05539959 0.24829865 -0.15102927
000020 aa f9 65 bd 2e 2f 64 bd 0c 42 63 3e 8c ed 82 3e
       -0.0561463 -0.055709057 0.22193164 0.2557186
000030 a4 33 9c be 9d 0d 20 3e ea 3e 06 3d 78 aa 5e be
       -0.3050815 0.15630193 0.032774843 -0.21744716
000040 f6 50 f9 3d 83 26 79 be b8 58 e9 bc bd f2 83 be
       0.12173645 -0.24331097 -0.028484687 -0.25771132
000050 5c 25 1e be 7e d9 6e be 0c bd 9a 3e 8e ec c3 3d
       -0.15443939 -0.23325154 0.30222356 0.095666036
000060 38 ca 00 3e 94 9b 17 bd 55 7c c1 3d cb c6 71 be
       0.1257714 -0.037013605 0.094475426 -0.2361099
000070 a2 1c 21 3e a1 db 79 be 0e be bd bd d2 bd 69 3e
       0.15733579 -0.24400188 -0.09264766 0.22826317
000080 89 b7 52 be 16 79 5d 3c 8d 11 e9 3d 70 35 99 3e
       -0.20577826 0.013517639 0.11380301 0.29923582
000090 66 85 23 be 2e f1 6a be dd d5 65 3e ce 63 60 3e
       -0.15968856 -0.22943565 0.22444864 0.21913072
0000a0 bd ae 82 bd 40 70 31 3d 12 b2 92 3e 97 52 25 be
       -0.06380985 0.04331994 0.28651482 -0.16144787
0000b0 9a 4d 6c be 39 7f 0b 3d 9a 7b 33 be 2a 48 63 3e
       -0.23076478 0.034056876 -0.17527619 0.22195497
0000c0 de d7 88 3e 66 68 8f 3e 32 2f 90 3d 9a f7 a2 3d
       0.26727194 0.28009337 0.07040252 0.079573825
0000d0 4d da 94 3e e0 0d 46 3d f3 77 43 be 71 69 8f 3e
       0.290728 0.048353076 -0.19088726 0.28010133
0000e0 a1 b7 28 3e 73 de 1e 3e e8 e4 5e be 09 cf 89 be
       0.16476299 0.15514545 -0.21767008 -0.26915768
0000f0 c9 21 89 bd 5b 31 83 3e 69 a0 03 3d ba b6 47 bd
       -0.06695897 0.25623593 0.0321354 -0.048758246
000100 fe b4 1c 3e a7 5c 8b 3e 1c ef 8e 3d 35 ef 9b be
       0.15303418 0.27219126 0.069792 -0.30455938
000110 54 31 34 3e 33 78 8c 3e 39 73 8d be 9e 53 34 3e
       0.17596942 0.27435455 -0.2762697 0.17610022
000120 b8 a8 82 3d 60 74 94 3e 10 19 17 3e e7 7b 80 3e
       0.06379837 0.28995037 0.14755654 0.2509453
000130 91 89 16 be c0 d4 38 3e 87 c0 05 be 52 35 8d 3e
       -0.14700915 0.18049908 -0.13061725 0.27579743
000140 2d 3f 7e 3d 44 fc a3 bd 46 13 6d be 13 2f 4c bc
       0.062071968 -0.080071 -0.23151883 -0.012462395
000150 96 f9 28 3e 2b 4b 85 be f2 5d 07 3e 6c 9e 05 3e
       0.1650146 -0.2603391 0.13219431 0.13048714
000160 c6 f1 d2 3c 4a 19 63 3e e0 89 08 3e 7d 3d d9 bc
       0.025750052 0.22177616 0.13333845 -0.026518578
000170 5a 03 9c be 50 01 87 3e 70 a8 0a be a7 e8 00 3e
       -0.30471307 0.2636819 -0.13540816 0.1258875
000180 10 59 26 3e 7e ea 9b 3e a8 49 4e 3e a7 34 f1 bd
       0.16244912 0.3045234 0.20145285 -0.11777621
000190 fb 54 6c 3e a8 6b 35 be 89 3a ed bd a7 8c 23 be
       0.23079292 -0.17716849 -0.1158343 -0.15971623
0001a0 23 d2 cb bd 34 e8 6d 3e 0f 0e 0e be 45 46 67 3e
       -0.0995219 0.2323311 -0.1387255 0.225854
0001b0 f3 32 89 be 50 a3 1e 3d 7a 89 6a be 7e b6 3a 3d
       -0.26796684 0.038729966 -0.22904006 0.045584194
0001c0 8a 56 64 be 89 fd 07 3e 88 92 3a be ff 08 03 3e
       -0.22298637 0.1328031 -0.1821996 0.127964
0001d0 d4 6c 3b be 9c 56 93 be 93 fe 36 bd d0 d3 e1 bd
       -0.18303233 -0.28777015 -0.044676375 -0.11026728
0001e0 c0 13 15 3d ed e1 9b be e1 93 57 be 00 9a 8b 3e
       0.03639579 -0.30445805 -0.21052505 0.2726593
0001f0 f5 1c 45 be ff d8 4c bd 01 a6 60 bd 83 bb 5b bc
       -0.19249327 -0.05001163 -0.054845814 -0.0134114055
000200 29 cf 85 bd c4 d9 58 3e e9 8b 9b be fa 75 c3 3c
       -0.06533653 0.21176821 -0.3038018 0.023859967
000210 24 35 b1 3d 19 36 de 3d 4c f7 84 3d 28 c7 4a be
       0.08652714 0.10850162 0.06492481 -0.19802535
000220 e8 7f 85 3e ef e9 80 3e 02 99 96 3d 65 42 44 3e
       0.26074147 0.25178477 0.07353403 0.19165953
000230 63 f0 94 3e 42 7f 68 3e 37 59 b5 3c f0 9b 9b 3e
       0.2908965 0.22704795 0.022137268 0.30392408
000240 ad 86 6a 3e 5a 83 4d be 05 e9 62 3e 22 6b 15 be
       0.22902937 -0.20069638 0.22159202 -0.14591649
000250 77 57 86 be 54 01 84 bd 5f b2 59 3e ac 53 c7 bd
       -0.26238605 -0.06445566 0.2125945 -0.09732756
000260 f1 f5 3c 3e 43 36 89 3e 0d 6a 91 3e ea bc 54 3e
       0.18453194 0.2679921 0.28401223 0.2077519
000270 3a 2e 51 be a8 36 69 3e 5b c2 81 be d4 18 df bd
       -0.2042779 0.22774756 -0.25343594 -0.108934075
000280 ec 90 67 3e f8 8d b0 3d 10 0a 78 bd 1f c6 8e be
       0.22613877 0.086208284 -0.06055647 -0.2788553
000290 b7 f3 80 3e 02 7b 95 3e 64 2e 19 be 74 fe 28 be
       0.2518594 0.2919541 -0.14959103 -0.16503316
0002a0 1b 0a eb bd 0a 7d 7e 3e a4 cc 93 be 24 46 c3 3d
       -0.11476537 0.24852386 -0.28867066 0.09534863
0002b0 52 10 81 be aa 6a c2 bd 2d e2 9e bd d5 aa 86 be
       -0.25207764 -0.09493001 -0.07757983 -0.2630221
0002c0 25 09 88 be 92 4b 18 3e d5 1b e6 bd 7d e8 81 3d
       -0.26569477 0.14872578 -0.11235777 0.06343172
0002d0 47 ab 49 3e 1b 9e 1e 3e ae 11 af 3d 96 dc 33 3e
       0.19694243 0.1549 0.08548294 0.17564616
0002e0 ec a0 95 3e fe e3 93 3e 71 ee 08 3e 2b 66 83 3e
       0.29224336 0.28884882 0.13372208 0.25663885
0002f0 41 6b 83 3e 3d 25 37 3d b3 ec 92 3d 30 11 7d be
       0.25667766 0.044713248 0.07174053 -0.24713588
000300 41 34 47 3e 37 99 8b be f6 3b 25 be 09 8d 46 3d
       0.19453527 -0.2726533 -0.16136155 0.048474345
000310 85 64 21 be 49 ba 76 be 01 50 90 3e 14 51 a7 bd
       -0.15761001 -0.240945 0.28186038 -0.08169761
000320 41 bd 5b be 1e 2c 4c 3d 4c 44 8e bd 03 24 e3 3b
       -0.21458913 0.04984676 -0.0694662 0.006931783
000330 26 be 8e 3e 98 2a 93 be cc 7f 8a be 95 64 8c bd
       0.27879447 -0.28743434 -0.27050626 -0.06855122
000340 83 bd f1 3b 36 26 84 3c df 8c 22 be b9 44 43 3e
       0.007377328 0.016131502 -0.1587405 0.19069184
000350 bd 9f ba 3c 4d 4e 38 3b 5f 31 08 be cb e5 43 be
       0.022781247 0.0028122843 -0.13300084 -0.19130628
000360 5d fe 99 3c 78 67 08 3e 8d 1a 3b bd 8f 0a e4 3d
       0.018798048 0.1332072 -0.045679618 0.111348264
000370 a0 3a e1 bd 1b e0 00 bd da cf ed bc c0 46 d5 3c
       -0.1099751 -0.031463724 -0.029029775 0.026034713
000380 86 b4 ad 3d 2a af df bd 73 dd 33 3e 22 24 fa bd
       0.08481698 -0.10922082 0.17564945 -0.12213923
000390 1f e6 d4 bd 66 5e 82 be 3f c1 38 3e 21 ed 38 3e
       -0.103954546 -0.25462645 0.18042468 0.18059207
0003a0 99 ac 92 be 49 20 e6 bd 58 c9 3b 3d 85 02 60 be
       -0.28647307 -0.11236627 0.045846313 -0.21875961
0003b0 e1 d5 8c be 19 8c 9e bb f2 14 82 be 7a 11 16 be
       -0.27506927 -0.0048384783 -0.25406605 -0.14655104
0003c0 b5 b2 dd 3d 24 5d 74 3e 0a 68 97 3e 2a c5 50 3d
       0.10825101 0.23863655 0.29571563 0.05096928
0003d0 80 d4 75 be 0c 32 8c 3c 3e 4a 0a be 4e f8 88 be
       -0.24006844 0.017113708 -0.13504884 -0.2675194
0003e0 8b c6 4c 3d fc ce 36 3d d7 4b 52 be d6 d3 00 3d
       0.049994033 0.04463099 -0.20536743 0.031452022
0003f0 f4 b2 00 3e f8 f3 4e 3e bc ef 23 be 0f 0b 37 3e
       0.12568265 0.20210254 -0.1600942 0.17875312

conv_v_to_c.feature_module_left.0.bias f4 [64]
000000 fb 44 ac 3d 2a 65 b4 3c 8e 87 56 3d 2e a5 d7 bd
       0.084115945 0.022020895 0.05237537 -0.105295524
000010 c5 30 06 bb 9c ac de bb 9c c6 b8 3d 58 5c 10 bd
       -0.0020475846 -0.006795479 0.09022257 -0.035244316
000020 aa f6 81 3c 17 46 9b bd 57 61 ce bd c4 21 aa bc
       0.015864689 -0.07581728 -0.1007716 -0.020768054
000030 df 7b cc 3c 79 e3 fa 3d ae a2 6d 3d 86 4c e2 bc
       0.02496141 0.12250418 0.05801647 -0.02762438
000040 c5 e4 0b bd 52 89 ac bd bb 1f 00 bd 55 20 d8 bc
       -0.03415372 -0.08424629 -0.03128026 -0.026382605
000050 8d de 76 bd eb ac af 3d 29 b2 3b bd 35 ea 46 3d
       -0.060270835 0.08577903 -0.045824204 0.0485632
000060 d5 ac b5 3d 7d d5 7a bc f7 2f 9a 3d 79 1b d3 3d
       0.08870856 -0.015309689 0.0752868 0.10307974
000070 43 eb 01 bd 84 2c ba 3c 25 dd 96 bd e6 52 20 bd
       -0.031718504 0.022726305 -0.07366399 -0.039141558
000080 9f 45 a2 3d 7c ac 01 bd ce 57 e8 3d a6 6b cf 3c
       0.079234354 -0.031658635 0.113448724 0.025319885
000090 69 e3 f7 39 a4 56 be bd 02 2d 51 bc ab 7e a0 3d
       0.00047280945 -0.09293869 -0.012767078 0.0783666
0000a0 10 d1 94 3d 2e 92 78 3c 0b 24 b0 bd e7 50 dd bd
       0.07266438 0.015171571 -0.08600625 -0.108064465
0000b0 6b 38 cc bd 13 22 ff bd 8f 2f 66 3d 63 d1 72 3d
       -0.099716984 -0.12457671 0.0561977 0.059281718
0000c0 56 bd e7 3c 81 2a 4a 3b 21 83 a6 bd 94 eb ec 3d
       0.028288525 0.0030848088 -0.081304796 0.115683705
0000d0 89 6d 23 3d fd f7 8f 3d ea ec f3 3c 34 a2 e8 3d
       0.039899383 0.07029722 0.029776055 0.11359063
0000e0 cb ca 8d bd 9e ad f2 3d e6 ec f0 3d 31 b5 ec bd
       -0.06923445 0.11849521 0.11763935 -0.11557997
0000f0 3b 33 c4 3d be b8 d2 3d 87 90 c7 bd e2 c1 3f bc
       0.09580084 0.10289143 -0.09744363 -0.01170394

conv_v_to_c.feature_module_edge.0.weight f4 [64, 1]
000000 18 11 b5 bf 39 6c 46 bf 9a 50 85 3f 6b bc c2 bf
       -1.4145842 -0.77508885 1.0415223 -1.5213751
000010 71 7e ae 3f 0d 10 8c 3d 52 d5 a1 3e 4f ab ce bf
       1.3632337 0.06838999 0.31608063 -1.6146029
000020 63 64 57 be 7e 7d f7 3f a0 a5 3b 3e d6 4d 72 3e
       -0.21034388 1.9335172 0.183249 0.23662505
000030 62 09 2a bf 9f 33 ab bf 06 d6 e0 be 32 72 8c 3f
       -0.6642057 -1.3375129 -0.43913287 1.097235
000040 ea 77 84 bf 58 2c 57 bf 3a 1f 51 3f 88 c2 cd 3e
       -1.0349095 -0.8405204 0.8168827 0.40187478
000050 99 e1 e4 3e 39 e1 dd 3f 39 f7 ce 3f 7c 84 e9 be
       0.44703367 1.7334358 1.6169196 -0.4560889
000060 a1 87 cd 3f 64 b4 f8 be c5 b1 1d bf 1c e6 13 40
       1.6057016 -0.48575127 -0.6159938 2.3109198
000070 1b 3b 9b 3e ba 6b 6c 3f d5 c8 4d bf 96 ce a1 be
       0.3031853 0.9235188 -0.8038457 -0.31602925
000080 f6 25 06 40 c0 9d b5 bf 9f b5 15 c0 67 20 ef bf
       2.096067 -1.4188766 -2.3392103 -1.8681763
000090 eb ae 80 bf 4f 17 a0 bf da e2 2f be 56 1b e6 bf
       -1.0053381 -1.2507113 -0.17176381 -1.7977092
0000a0 1f 75 4d 3c 89 35 81 bf 23 6b 91 bf a1 28 90 be
       0.012540131 -1.0094463 -1.136082 -0.28155997
0000b0 ca fe 81 bf 95 3d f3 3f d0 de c5 be 01 b6 1c c0
       -1.015588 1.9003168 -0.38646555 -2.4486086
0000c0 ed 60 21 bf 9e 52 0d c0 e5 90 f5 3e e1 d7 1a c0
       -0.6303852 -2.2081676 0.47962108 -2.4194262
0000d0 9f 43 16 bf 21 9b e1 3f cd c6 23 bf b7 a7 01 c0
       -0.5869693 1.7625467 -0.6397522 -2.0258615
0000e0 ef d1 07 40 2d 54 ce 3f 24 dd 0b c0 6d af 0d 40
       2.1221883 1.6119438 -2.1853724 2.2138321
0000f0 7a 7b d8 bf 42 64 aa 3d c2 6d 0a c0 51 af 23 bf
       -1.6912682 0.08319904 -2.162949 -0.63939387
