rl_model/SCPPO_policy_89.pth (torch_old, 472694 bytes, 71 tensors)

cons_embedding.0.weight f4 [4]
000000 19 00 80 3f bd cc 7f 3f cc 32 80 3f 56 be 7f 3f
       1.000003 0.9992178 1.0015502 0.99899805

cons_embedding.0.bias f4 [4]
000000 ae 4f b6 36 81 73 49 3a db 54 ca 3a da 87 83 ba
       5.4332986e-06 0.0007684753 0.0015436666 -0.0010034994

cons_embedding.1.weight f4 [64, 4]
000000 82 16 4f bf 5b 07 5d 3f 66 bc 1a 3e 77 6a 31 3f
       -0.8089372 0.8633935 0.15110931 0.6930308
000010 b2 28 f0 bd a5 6d 88 bf 7f c3 4c 3f 9c 60 88 3d
       -0.11726512 -1.0658461 0.79985803 0.06659052
000020 36 85 a8 bd 56 c4 aa 3d 27 cb 6a be 80 01 06 bf
       -0.08228533 0.08338229 -0.22929059 -0.5234604
000030 84 b8 19 3f 4b 3e c4 3e 7a 57 8c 3d 54 a2 36 3f
       0.60047174 0.38328776 0.06852622 0.71341443
000040 7d 3d d4 3e 7b c6 ec 3e 68 28 f4 bc 94 03 43 bf
       0.41453162 0.4624518 -0.029804423 -0.76177335
000050 39 b9 37 3f c3 c5 d3 bd eb 6c 8f bf 47 b5 41 3f
       0.71767 -0.103404544 -1.1205114 0.7566723
000060 f3 1a 70 bc e9 d5 06 3e f4 e8 1a bf e5 01 f0 3e
       -0.014654863 0.13167538 -0.6051171 0.46876445
000070 ed c2 7c bf 5a 1b 92 bf d3 35 8a 3e bc 05 2d 3f
       -0.98734933 -1.1414597 0.2699419 0.67586875
000080 84 b3 22 bf 11 92 03 3f 75 7c 27 bd 42 06 19 3f
       -0.6355517 0.51394755 -0.040890176 0.59775174
000090 a5 dc 4f bf a5 79 27 3f f8 3c 58 3f 7e 16 69 3f
       -0.8119605 0.6541999 0.8446803 0.91049945
0000a0 80 38 41 3f 23 46 7f bf 13 b9 8a 3f 64 ed 3e 3d
       0.7547684 -0.99716395 1.083773 0.046613112
0000b0 ec cf 81 3f 3e 2b e0 3e 4e 52 2f 3f 71 a7 21 3f
       1.0141578 0.4378299 0.6848496 0.6314612
0000c0 ee 1c 47 3e 2f 00 6a 3f 8e 98 ad be da f2 14 bf
       0.1944463 0.9140653 -0.33905452 -0.5818306
0000d0 e0 21 ae bc 7f 7b 07 3e 72 22 82 3f bf 95 fd 3e
       -0.021256387 0.13230704 1.0166762 0.4952831
0000e0 7e 69 2c bf fd 47 3d 3f 42 78 86 3f 9e b5 75 bf
       -0.6734847 0.7393797 1.050545 -0.9598025
0000f0 8c 3b 8d 3f 67 e0 d1 be cf c0 86 3f cb 27 67 bf
       1.1033797 -0.40991518 1.052759 -0.90295094
000100 66 40 2b 3f 04 a5 82 3e db 53 8e 3e 2a c0 b6 be
       0.6689514 0.25516522 0.27798352 -0.35693485
000110 fd 8b 48 bf ae 19 6a 3f 23 d2 95 3f 26 14 32 bf
       -0.78338605 0.91445434 1.1704754 -0.69561994
000120 4b 45 17 3f 62 63 ed be 7b 60 99 3f 6e 80 99 bf
       0.5909011 -0.46364886 1.1982569 -1.1992319
000130 3a b0 52 3f b2 70 72 bd 0c 97 cb 3d 03 44 33 bf
       0.8230015 -0.059189506 0.09940919 -0.7002565
000140 7e b7 c8 be 6f 89 5b 3e a7 92 98 bf e0 fd 88 be
       -0.39202493 0.21439146 -1.1919755 -0.2675619
000150 b8 62 34 3e b4 7d 84 be 27 0a 85 bf e2 a4 65 3f
       0.17615783 -0.25877154 -1.0393723 0.89704716
000160 63 81 82 be ca 42 68 bf 60 55 52 3f ea a8 56 be
       -0.2548934 -0.9072691 0.8216152 -0.20962873
000170 a8 11 99 3f a3 66 46 3f 2e 29 10 3e 18 90 0a 3f
       1.1958513 0.7750036 0.14078209 0.5412612
000180 97 5b 4f 3e cb 6f 91 bf 00 e7 2f bf f6 89 9c bf
       0.20249783 -1.1362242 -0.68711853 -1.2229602
000190 6d aa 93 be b2 8c 82 3f b8 c8 3f 3f e2 f2 7f 3f
       -0.28840962 1.0199187 0.7491565 0.99979985
0001a0 3e fa 34 bd c7 92 84 3f 9d cf 3f 3f e2 12 35 bd
       -0.044183962 1.0357293 0.7492617 -0.04420746
0001b0 25 f9 86 bf 03 f5 25 3f 5d c9 4d bf ce da 14 3f
       -1.0544783 0.64826983 -0.8038538 0.5814637
0001c0 6d 4d 89 be 83 ab 21 3f a2 0d 05 bf 94 99 5b 3e
       -0.26816884 0.6315233 -0.5197393 0.21445304
0001d0 67 eb 84 3f e8 25 8f 3f f7 64 cc be a0 e6 91 bf
       1.0384339 1.1183443 -0.3992078 -1.1398506
0001e0 34 fb b8 be 02 1c 6c 3d 5f 7e 70 3f 8c d6 1c bf
       -0.36129153 0.057643898 0.93942827 -0.6126487
0001f0 78 be 85 bf 87 e9 3f be df a6 f4 3d 82 e9 a2 3e
       -1.0448751 -0.18741427 0.11945891 0.31818777
000200 d0 7d c1 3d cf 19 8a bf 72 a0 80 bf 8f ee 26 3e
       0.09447825 -1.0789126 -1.0048964 0.1630194
000210 7d 9f c9 3e 55 6f 2b bf eb 93 90 3c e8 fc 65 be
       0.39379492 -0.66966754 0.017648658 -0.22459757
000220 f0 7e 37 3e 57 fa 5f 3e 57 34 54 bf 7f ec 8b bf
       0.17919517 0.21872841 -0.82892364 -1.0931548
000230 30 c5 a6 be 7d 68 02 bf 9c a7 49 3e 64 c7 8d bf
       -0.32572317 -0.50940686 0.19692844 -1.1076474
000240 eb c7 82 bf 8f 85 bf bc fa 3d bb 3e 1a 62 8d bf
       -1.021726 -0.023379115 0.36570722 -1.1045563
000250 7b 2f aa 3d 2e 4b 4e bf f0 29 5c be b1 88 2e bf
       0.083098374 -0.80583465 -0.21500373 -0.68177325
000260 17 5b 53 bf bd d4 4b 3f d7 85 49 bf 5c fa c7 3e
       -0.8256087 0.7962149 -0.7871985 0.39058197
000270 3f 6e 95 bf 1a 72 fe 3e 7e 17 94 3f c4 11 03 3f
       -1.167427 0.49696428 1.1569669 0.51198983
000280 8f 08 93 3f 2c 3b 7c bf e1 42 75 3f a0 77 25 bf
       1.1486987 -0.9852779 0.95805174 -0.6463566
000290 04 71 da bb f7 d6 b3 be 83 f7 e2 3e 7f dc 03 3f
       -0.0066663045 -0.35124943 0.4432946 0.51508325
0002a0 e7 5d 01 3f 3b 6a 93 3f ee e0 83 bf 6e d5 58 be
       0.5053391 1.1516794 -1.0303018 -0.21175167
0002b0 6f d5 98 bd 7d 16 81 bf b4 17 60 3f 3a 10 a3 bd
       -0.07462584 -1.0084988 0.8753617 -0.07962079
0002c0 01 0c 9c be 28 62 0a bf 8c 21 69 3f 8f 69 29 3f
       -0.30477908 -0.54056025 0.91066813 0.66176695
0002d0 87 76 ca 3e df 65 28 bd b1 86 51 be 1a fc 1b bf
       0.39543554 -0.041112777 -0.20461537 -0.6093155
0002e0 f2 fa 55 bf eb 8a 96 3f 3b 99 88 3f d1 e4 8b 3e
       -0.8358604 1.1761144 1.0671762 0.2732301
0002f0 eb e9 b8 be 06 8f 21 bf 77 2d a5 3e ef 12 d9 3e
       -0.36115965 -0.6310886 0.3226125 0.42397258
000300 57 1a 0f bc 5b 56 03 3f 07 85 90 3e 70 66 cd be
       -0.008734307 0.51303643 0.28226492 -0.40117216
000310 6e 4d 5b 3d 53 43 23 3f 07 0f 71 be 0c a7 63 bf
       0.05354064 0.63774604 -0.23540889 -0.8892677
000320 a1 07 bc be 51 59 9a bf eb 1c 1c 3f 07 6d 6b bf
       -0.3672457 -1.2058507 0.60981625 -0.9196324
000330 a5 a6 84 3f ce 1b fd bb 64 90 12 3e 81 8f 94 3e
       1.0363356 -0.007724262 0.14312893 0.29015735
000340 09 e8 20 bf 09 38 d4 3e a0 7e 36 3f 1c e7 af be
       -0.6285406 0.41449 0.71286964 -0.3435601
000350 c8 df 80 bf 62 65 e9 3e da e2 98 3f 53 ce 2b be
       -1.0068293 0.4558516 1.194423 -0.16777925
000360 88 71 4c bf 3a eb 04 be 05 4d 5d bf 0a f7 84 3f
       -0.79860735 -0.12980357 -0.8644565 1.038789
000370 8c b3 0b bf b2 e8 52 bf 4c f0 fc bd 2d f9 21 bf
       -0.5457084 -0.82386315 -0.123505205 -0.6327084
000380 7f bc b5 be 14 52 39 bf 31 01 83 3f db d5 23 bf
       -0.35495374 -0.72390866 1.0234739 -0.6399819
000390 ba d2 40 3f 59 80 10 bf 17 13 6c 3f e2 61 06 bf
       0.75321543 -0.56445843 0.9221663 -0.5249311
0003a0 d3 ba 0d 3f 7f 69 82 be 1b 31 dc be 2b 6f ed 3e
       0.55363196 -0.25471112 -0.43006214 0.46373877
0003b0 28 f2 48 3d 5d e2 f7 be 0d cc 05 bf 06 38 b7 3e
       0.049059063 -0.4841489 -0.5226448 0.3578493
0003c0 72 4e b4 3e 80 c2 d6 3e bf e2 87 be 39 5d a9 be
       0.352161 0.41945267 -0.2654018 -0.33078936
0003d0 01 71 8d 3c cd ec 72 3f 84 19 c8 3d 52 8c 4d 3f
       0.017265799 0.9489258 0.09770492 0.80292237
0003e0 08 f1 0f 3e ca 5d 1f 3f 94 3e db bd 91 2d 18 bf
       0.1405679 0.62252486 -0.10705295 -0.5944453
0003f0 b3 f1 79 bf df 1b 30 3e c9 51 72 3f d6 a2 12 be
       -0.9763443 0.17198132 0.94656044 -0.1431993

cons_embedding.1.bias f4 [64]
000000 9c 1d 96 3e 09 92 ee 3e 9d 3f b5 3e a1 d3 82 bc
       0.29319465 0.4659579 0.35400096 -0.015970053
000010 bf 69 81 be c2 ca 68 3e c9 af 9c be 2a 6e 6a 3e
       -0.2527599 0.22733596 -0.30602863 0.22893587
000020 84 6e b9 3d 8d bb ab 3e 5c de e6 bd 47 26 5b 3e
       0.09054282 0.33541527 -0.112728804 0.2140132
000030 23 6c b4 3e c8 4b dc 3e 6d d7 69 3d 54 10 ee bd
       0.35238752 0.43026567 0.05709021 -0.11624208
000040 58 14 5c be dc de ee bd 16 19 63 3e 77 71 82 be
       -0.21492136 -0.11663601 0.22177538 -0.25477192
000050 ed 7d 47 3e 5b 06 a3 3e 8e a1 cb 3e a7 70 39 be
       0.1948163 0.31840786 0.39771694 -0.1810938
000060 f1 2d 6f be 6a de 9b 3e 4d 7a cc bd 88 20 c8 3b
       -0.23357369 0.30443126 -0.099842645 0.0061073937
000070 e9 6e fe 3e ad e2 97 be 99 60 e6 be d6 4d 05 3e
       0.49693993 -0.29665127 -0.44995573 0.13017973
000080 6d 94 28 bd 0d 24 9c be 7b e7 0a be ab b9 aa bd
       -0.041157175 -0.30496255 -0.13564865 -0.083361946
000090 82 77 30 3e b3 82 3b 3d fe 97 a9 3e 90 6c a7 be
       0.17233089 0.04577894 0.33123773 -0.32700014
0000a0 e9 8c e9 3e b8 79 b0 be 1e 62 8f 3d 48 74 d8 bd
       0.45615318 -0.34467864 0.07001136 -0.10569054
0000b0 08 f7 63 3e a2 f3 e3 3d 2b c0 37 3e f9 3c 19 bd
       0.22262204 0.11130454 0.179444 -0.037411664
0000c0 90 8f e4 3e 11 f1 39 be 71 ac ae be fb 91 85 be
       0.4464078 -0.18158366 -0.34115937 -0.26087937
0000d0 4f 8d eb be 2b bc e3 3e b8 ed 87 3e 89 d2 ba 3e
       -0.46006247 0.44479498 0.26548553 0.3648875
0000e0 d2 0a 90 be 96 57 82 be 93 aa 5b 3e 66 2b ed 3d
       -0.28133255 -0.25457448 0.21451788 0.11580543
0000f0 30 86 be 3e 5a 14 9a 3e fa ff d9 3d 6d 82 88 be
       0.37211752 0.30093652 0.10644527 -0.26662007

cons_embedding.3.weight f4 [64, 64]
000000 06 ab ec 3d df e3 14 bd d2 89 8d 3e 4d 96 ac 3c
       0.11556058 -0.036350127 0.2764421 0.021067763
000010 1c a7 cf bc 57 28 f1 3d 1a f6 ba bd 29 ac cc bc
       -0.025348239 0.11775272 -0.091289714 -0.024984436
000020 14 f8 89 3e c7 23 68 3e df 43 84 3e 67 b2 97 3e
       0.2694708 0.22669898 0.25833032 0.29628298
000030 22 b0 e0 ba 34 46 14 bd 90 0b 6e 3e 9c 2f 9c 3d
       -0.0017142335 -0.036199763 0.23246598 0.07626268
000040 9c ff 01 3e dc e0 82 3e 9b c7 1e 3e ae a8 4d be
       0.12695163 0.2556218 0.15505831 -0.20083877
000050 64 d2 9c 3c a9 2c 8f 3d a8 05 6b 3e d8 f0 3f 3e
       0.01914329 0.0699094 0.22951376 0.18744218
000060 88 77 e2 bb a1 5d 9b be 9a 56 43 be 25 8b 77 be
       -0.006911222 -0.3034487 -0.19076005 -0.24174173
000070 28 40 c6 bd 78 17 89 3e 32 4c 5c 3e e6 74 30 be
       -0.096802056 0.26775718 0.21513441 -0.17232093
000080 b2 87 7e be 31 14 18 bd f3 9a 2b be 96 15 73 3e
       -0.24856451 -0.03712863 -0.16758327 0.23738703
000090 04 61 25 3e 7a c1 85 be 16 35 7a bd 96 61 4d 3e
       0.1615029 -0.26124173 -0.061085783 0.20056757
0000a0 ba 89 35 3e 2a dd 61 3c 92 ee 93 3e d4 c0 21 3d
       0.1772832 0.01378564 0.28892952 0.039490536
0000b0 1f 27 06 3c 15 1e 48 bc a6 f7 51 be aa 28 76 be
       0.008188038 -0.012214203 -0.20504627 -0.2403895
0000c0 1c eb 42 3e 2c c2 86 3d 78 d7 55 be 5a ab 2e bd
       0.19035 0.06580004 -0.20882976 -0.042643882
0000d0 35 ad 99 bd 57 c1 6a 3e 6e 3f 35 3e 8a 48 0f 3e
       -0.0750374 0.22925316 0.17699978 0.13992515
0000e0 d5 00 27 be cd 19 37 3e 29 9a 98 be 70 af 95 be
       -0.16308911 0.17880936 -0.29805115 -0.2923541
0000f0 89 20 99 3e c2 00 97 3e f3 ca d3 bd 9e e8 a3 3d
       0.29907635 0.29492766 -0.10341444 0.080033526
000100 18 a8 80 3e 81 28 be 3d 75 e4 8c bd 4c 64 04 bc
       0.25128245 0.09285069 -0.06879512 -0.008080553
000110 ff b2 6a be c6 fa fc 3d ce 65 8a be b4 20 87 3d
       -0.22919844 0.12352519 -0.27030796 0.065980345
000120 2e fb 47 3e 62 f1 7f bd c2 13 7d bd 48 09 8d be
       0.19529411 -0.06248606 -0.06178642 -0.27546144
000130 5c c9 ce bd e7 69 26 be ef 9e 3d be 99 5f 8d 3e
       -0.10097 -0.16251336 -0.1851766 0.27611998
000140 20 66 59 3d f7 36 65 3e b0 6c 76 be 61 55 ad bd
       0.05307591 0.22384249 -0.24064898 -0.0846355
000150 e0 7c 7e be ae 12 0d 3e f9 aa 95 3d 10 1d 7a 3e
       -0.24852324 0.13776657 0.07308001 0.24425149
000160 53 73 08 3e 54 d0 97 3c 9b a8 e9 bc 57 a5 71 be
       0.13325243 0.018531956 -0.02852278 -0.23598228
000170 7d e2 df 3c cc 6a 42 be 2d 19 90 bd 1c c3 95 3e
       0.027329678 -0.18986052 -0.07036052 0.2925042
000180 50 55 8b 3e 41 39 3d be 64 69 c3 bc 0d 1c 93 3d
       0.27213526 -0.18478872 -0.023853965 0.07183085
000190 1d de 35 3d 34 80 8f 3e 8d d8 28 bd 2f f8 ba 3c
       0.044401277 0.280275 -0.041222144 0.022823421
0001a0 25 e3 7b be 95 ea 53 3e ff 32 0e bd a6 8c 47 be
       -0.24598368 0.20694955 -0.034716602 -0.19487247
0001b0 54 5c 65 be 4c d2 82 3d e5 a4 6c be 9e 2c 56 be
       -0.22398502 0.06387767 -0.23109777 -0.20915458
0001c0 37 67 8f be 44 ff 90 be 8a 2d 99 be 51 8d 28 bd
       -0.28008434 -0.28319752 -0.29917556 -0.041150395
0001d0 7d cd 47 be 39 a3 83 be ca 3d 7c 3e a0 c4 8b 3d
       -0.19511981 -0.25710467 0.24632946 0.068246126
0001e0 80 cd f1 bd bf 72 92 be 41 f8 28 bc e0 b6 3d 3d
       -0.11806774 -0.2860317 -0.010313095 0.04631698
0001f0 f7 bc 81 3d fa 4e 94 3e 6e a8 8e 3e ea 84 84 3d
       0.0633487 0.28966504 0.27862877 0.06470664
000200 18 a6 81 3e e4 0b 3e bb ea 3f 6e be cb db 0e be
       0.25322032 -0.0028998787 -0.23266569 -0.13951032
000210 e1 56 46 3e 8c d0 98 bd 1d 1a 16 3e 7f 69 03 be
       0.19369079 -0.07461652 0.14658399 -0.12833212
000220 55 65 52 be f7 bf de bc 48 32 8b 3e d1 e6 85 be
       -0.20546468 -0.027191145 0.271868 -0.2615266
000230 a5 0b af bc 41 f6 59 bd 40 eb 84 3e d2 da 2e be
       -0.021367857 -0.05321336 0.25960732 -0.17075661
000240 ca af f3 3d 79 67 a9 3d d2 1d 62 3e cb 8c 15 be
       0.118987635 0.08271689 0.22081688 -0.1460449
000250 6c 55 57 3e 7f bd 6a 3e 29 2f 16 be e4 03 23 3d
       0.2102868 0.2292385 -0.14666428 0.039798632
000260 bc 11 e9 3d 2c b7 db bc a7 d8 88 be 63 e8 27 3e
       0.11380336 -0.026820742 -0.26727793 0.16397242
000270 7f 98 7c 3e 10 15 96 be d3 14 c9 3d 88 9e 4b be
       0.24667548 -0.29312944 0.09818425 -0.19884694
000280 38 96 1d be 98 46 6a 3d 5b ae 57 be 1a ab b6 3d
       -0.15389335 0.05719623 -0.21062605 0.08919354
000290 23 4d f1 bd b0 32 39 3c 10 7b 0a 3e 5c 5a 13 3e
       -0.11782291 0.011303589 0.13523507 0.14389938
0002a0 a2 e5 96 3e 63 8c 97 be 29 53 58 bc 68 5a 6f 3e
       0.2947207 -0.29599294 -0.013203421 0.23374331
0002b0 9c 84 68 be 3c 51 21 bd e8 4e 02 be dc e1 be bd
       -0.22706836 -0.03938411 -0.12725413 -0.09320423
0002c0 1c a6 74 bd 06 41 39 3e 70 84 93 be c7 02 63 3d
       -0.059728727 0.1809121 -0.2881198 0.05542257
0002d0 dd 07 14 3e d3 55 8d bd c5 a5 f6 bd ed 86 e3 bd
       0.14456125 -0.06901135 -0.12043337 -0.111097194
0002e0 cb 5b 5c 3e 11 6a 8c bd 9b 2a 07 3e b9 8b b5 bd
       0.21519391 -0.06856168 0.13199846 -0.088645406
0002f0 da 30 b1 3c c6 b4 0f 3e d7 72 45 bc 08 ca 46 3e
       0.02162974 0.14033803 -0.012051306 0.19413006
000300 fb 94 8c 3d c9 37 35 bd ab 9c 0e be be 6c 78 3d
       0.06864353 -0.044242654 -0.13926952 0.06065058
000310 9b 68 58 3e a7 56 4d 3e cd ef db bd dc 2f 2b 3d
       0.21133654 0.20052586 -0.10739098 0.04179369
000320 d0 df 8b 3d ed d7 98 3d 4e 2d b1 3d 7e ab 20 be
       0.06829798 0.074630596 0.08651219 -0.15690419
000330 7a 6c f1 bd 54 f6 82 3d 6b b3 89 be 58 ef 61 be
       -0.117882684 0.063946396 -0.26894698 -0.22063959
000340 fa 75 6e be 92 8d 5a bd 9a e8 90 3e 3c 23 92 3e
       -0.23287192 -0.05335767 0.2830246 0.28542507
000350 93 2c 54 be ce d0 92 3d 98 56 62 3e 2a a3 a2 3d
       -0.20720129 0.071687326 0.22103345 0.07941277
000360 29 a9 82 be 79 9f ff 3d c0 c7 8f 3e 07 f8 9d bd
       -0.25519684 0.12481589 0.28082085 -0.07713323
000370 f4 1b 70 3e d7 32 5b 3d 80 13 23 be d5 6a 11 3d
       0.23448163 0.05351528 -0.15925407 0.035502274
000380 27 69 8e 3e 0b 52 6c be 6a 8f 90 3e 54 11 85 be
       0.278146 -0.23078172 0.28234416 -0.25989783
000390 bb b8 80 3e 1a ab 01 3e 8c 79 bb 3b a5 ec 22 3e
       0.25140938 0.12662926 0.0057212766 0.15910585
0003a0 8b 88 50 be a3 05 15 3b 28 a0 a7 3d 3c 65 b5 bd
       -0.20364587 0.0022738955 0.08184844 -0.088571995
0003b0 24 00 7a be 16 2c 04 bc d9 ff 0e 3e 00 4e 3b 3e
       -0.24414116 -0.0080671515 0.13964786 0.18291473
0003c0 1e 18 50 be 94 f7 05 3e 02 30 b1 3d 70 44 79 be
       -0.203217 0.13082725 0.08651735 -0.24342513
0003d0 71 62 9a 3d c4 27 10 3d a5 8e 0b 3d 4a 73 8a 3e
       0.075383075 0.035194173 0.034071583 0.27041084
0003e0 e0 3e df bd d3 d3 ed bc b7 23 2f bc 37 cb 67 3d
       -0.10900664 -0.02903167 -0.010689667 0.056590285
0003f0 a1 67 99 be c9 76 4f bd e1 04 9f 3d b4 b0 25 3e
       -0.29961875 -0.05065039 0.077646025 0.16180688

cons_embedding.3.bias f4 [64]
000000 fc e1 d9 bb 0d c8 af 3d 0c 18 fc 3d 6d 3d bf bd
       -0.006649254 0.085830785 0.12309274 -0.09337888
000010 b9 5f a0 3d ef 07 7f bd 6d df 5b 3d 00 79 c6 3d
       0.07830758 -0.062263425 0.053679872 0.09691048
000020 cf 13 d5 bc d9 b6 08 3d 55 33 53 3d 15 40 48 bc
       -0.026010422 0.033377502 0.051562626 -0.01222231
000030 ce 39 85 3d 98 38 21 bd 0e 35 a1 bd 88 74 33 bb
       0.06505166 -0.039360613 -0.078714475 -0.002738269
000040 03 78 0e bc a3 c2 d7 3d 9a ef 3e 3b c2 f9 b9 3d
       -0.008695605 0.10535171 0.0029134513 0.09080841
000050 c4 27 0d bc 34 85 01 3e df 6b 99 bd a3 b6 90 bd
       -0.008615438 0.12648469 -0.07491278 -0.07066085
000060 18 2d db 3d 21 dc a6 bd 1a c7 aa bd 92 d7 cc bd
       0.1070196 -0.08147455 -0.08338757 -0.10002054
000070 2a 7f a9 bd 8c 80 ea bd 9d bb 11 3d 4f 03 28 3c
       -0.08276208 -0.114502996 0.035579313 0.010254695
000080 35 e0 b9 bd c4 8d c7 3d f1 9d eb 3d 63 2e 0c 3d
       -0.09075967 0.097438365 0.11504734 0.034223925
000090 66 eb 83 3d c0 74 ee 3d d7 86 ad bd 48 f0 b1 bd
       0.06441383 0.11643362 -0.08472984 -0.08688408
0000a0 f1 22 75 3a f8 94 f4 3c d5 69 48 bd 84 d2 9d 3d
       0.0009351215 0.02985619 -0.048929054 0.07706168
0000b0 9c e0 1c 3c 2e 05 20 3d 2c 6c 91 3c 06 44 eb 3d
       0.009575035 0.03906744 0.017751776 0.11487584
0000c0 40 2a e3 bd fd 54 8b bd 7e 8f a0 bd a3 af 75 bd
       -0.11092043 -0.068033196 -0.07839869 -0.059981953
0000d0 c0 5a 64 bc 72 b1 78 bd b5 2b 9c bc 79 ce c7 3a
       -0.013937652 -0.0607161 -0.01906381 0.0015244029
0000e0 de 3f fb 3d 81 11 a5 bc 67 c9 f8 3d 07 70 ff bd
       0.12268041 -0.020149948 0.121477894 -0.124725394
0000f0 f6 2e 83 bd 9f 05 ca bd 5f b6 11 3d 26 e3 d8 bc
       -0.064054415 -0.098643534 0.035574313 -0.0264755

var_embedding.0.weight f4 [7]
000000 ac 14 80 3f 25 00 80 3f af 04 80 3f 57 56 7f 3f
       1.0006309 1.0000044 1.0001429 0.9974112
000010 0f c4 7f 3f fb 0f 80 3f 85 6d 7f 3f
       0.99908537 1.0004877 0.9977649

var_embedding.0.bias f4 [7]
000000 ad d5 0e 3a 3e 39 de 39 4e 26 9a b9 a8 e8 18 3b
       0.000544871 0.00042385788 -0.00029401708 0.0023332033
000010 cd 7c 75 3a de 3c 02 ba 06 b1 d9 3a
       0.0009364605 -0.00049681764 0.0016608543

var_embedding.1.weight f4 [64, 7]
000000 20 ec 43 3f 87 93 1b 3f b0 9d 82 bb 53 62 49 3f
       0.76532173 0.60771984 -0.003986083 0.78665656
000010 1e e3 92 3e 88 ae 6b 3f 0d 8b 97 be a9 ea 28 bf
       0.28688902 0.9206319 -0.29598275 -0.65983063
000020 be 6b b7 be 57 3c 56 3f 76 c0 be be d6 77 0b be
       -0.35824388 0.8368582 -0.3725621 -0.13619933
000030 23 c6 29 3f 7a 7c 7e 3c 78 d8 2c bf e2 fa e5 be
       0.6631796 0.015532607 -0.67517805 -0.4491797
000040 2f e6 1c bc 7a 9b 01 3f 3a 71 45 be 1a 4e a5 3d
       -0.009576364 0.50627863 -0.19281474 0.08071537
000050 e2 92 f7 be 76 38 27 bf 01 f8 f7 3e d8 57 84 3d
       -0.4835425 -0.6532053 0.484314 0.06462067
000060 3d 6e 9a 3e 55 97 a8 bc e4 4e f7 3e af e6 f8 bd
       0.3016223 -0.020579973 0.48302376 -0.121533744
000070 bb 63 96 be e8 ee 28 3f 4c 8c 03 3f be ee f4 3e
       -0.29372963 0.6598954 0.5138595 0.47838396
000080 de 98 fa 3e 88 fe c4 3e 93 19 75 be 53 f5 1f bf
       0.48944753 0.38475442 -0.23935537 -0.6248371
000090 a5 30 23 3f 98 12 0d bf b5 23 00 3f 67 37 53 3f
       0.637461 -0.55106497 0.50054485 0.8250641
0000a0 0d 59 02 3f dd a8 fe bd de fa 67 3d d6 e3 56 bf
       0.5091713 -0.12434552 0.05663573 -0.839414
0000b0 55 9d d9 be 14 e8 b9 3e b1 b4 0f bf 44 ba 2f 3e
       -0.42502847 0.36309874 -0.5613509 0.17160898
0000c0 af 07 46 bf ef 7e 67 3f 4d 11 34 3f 91 48 78 bd
       -0.77355474 0.9042806 0.703389 -0.06061608
0000d0 c5 d0 66 bf 08 e4 11 be ff f4 ab 3e 97 de c3 3d
       -0.9016231 -0.14247143 0.33585355 0.0956394
0000e0 61 f0 19 3f ce 8f ce 3d 12 42 a6 3c 9d ad 11 bf
       0.60132414 0.10086022 0.020295177 -0.5690554
0000f0 47 ab 1e be 8c 83 77 3d 02 82 8e 3e 6f 2d 51 bf
       -0.15495025 0.060428187 0.27833563 -0.8170995
000100 ff e7 03 3f 3a 41 65 3f c2 03 43 3e 86 f9 51 bf
       0.5152587 0.8955265 0.19044402 -0.8202137
000110 53 ae 73 3c d9 36 17 3f ad 38 d6 be 74 56 14 bf
       0.014873105 0.59068066 -0.41840115 -0.57944417
000120 14 89 56 3f da 02 74 3d dc 4d 5a be f1 d5 c3 3e
       0.83802915 0.059573032 -0.21318763 0.38249162
000130 c7 eb 63 3f e4 3f 3b bf c5 80 65 be ce 31 a8 3d
       0.8903164 -0.73144364 -0.22412403 0.082126245
000140 98 69 dc 3e c1 bb 2b be f7 29 29 3f 11 c1 13 3f
       0.43049312 -0.16770841 0.6607966 0.5771647
000150 d0 b4 f1 be f3 b9 bd 3d 81 23 54 3f 53 60 c7 be
       -0.4720826 0.092639826 0.82866675 -0.38940677
000160 89 ce 10 be 37 e0 0c be c2 2d ca 3e ed 9d 00 bf
       -0.14141287 -0.13757406 0.39488035 -0.50240976
000170 f3 1c de 3a 91 cb 1c be 66 1a fa 3e dd ab 86 be
       0.0016945883 -0.1531203 0.48848265 -0.26302996
000180 d5 83 2d 3f 78 2a 52 3e eb f3 38 3f ef ee 65 3f
       0.67779285 0.20524013 0.7224719 0.8981771
000190 8e 2a cd 3d 4a f6 1a 3f 72 df 69 3e ef 38 e3 be
       0.10017882 0.6053206 0.22839144 -0.44379374
0001a0 8e 44 ae 3e 7f 1a 1d 3f 63 06 c8 3e 6c 78 09 3f
       0.34036678 0.61368555 0.39067373 0.53699374
0001b0 fb 2b 23 3f ca fd 41 bf 85 55 0b bf 4f c9 26 3f
       0.63738984 -0.75777876 -0.5442737 0.6515092
0001c0 4a d2 52 3f 00 6d 86 3e 24 aa 6b 3f 4b 5b a1 3e
       0.82352126 0.26255035 0.9205649 0.31514964
0001d0 32 f2 2f 3f 78 3e 62 3f 74 c0 22 bf df 8d 5f bf
       0.68728936 0.8837657 -0.6357491 -0.87325853
0001e0 05 ce 60 bf be e3 42 bf db 22 2b 3e 20 ec d7 be
       -0.8781436 -0.76128757 0.16712515 -0.42172337
0001f0 dc cd d9 3e 0c e8 29 be 3b 58 63 3f 23 54 54 be
       0.4253987 -0.16592425 0.88806504 -0.2073522
000200 42 e3 c7 be 88 d1 39 3f 2e 7b 6a 3f d9 bf 61 3f
       -0.3904057 0.72585344 0.9159421 0.8818336
000210 70 a5 b7 be f4 35 33 bf 9f d9 3c bf 09 9f 05 3f
       -0.35868406 -0.700042 -0.73769563 0.52195793
000220 79 98 5b 3f 19 63 5b bf 0a 15 b7 3e 12 66 bc 3e
       0.8577953 -0.85698086 0.3575824 0.36796623
000230 b9 f5 3c 3f 09 c4 54 3f 9a f7 5d 3f 5b 1e 88 3e
       0.73812443 0.83111626 0.86705935 0.2658566
000240 de ad 37 bf 2f 84 4e bf 22 4d 08 bf 1c 66 e5 3e
       -0.71749675 -0.80670446 -0.53242695 0.44804466
000250 05 cc aa 3e a3 1c 00 bf fc b4 d0 3e 2a f1 35 3e
       0.3335878 -0.50043696 0.4076308 0.17767778
000260 10 ab 29 be 2f d1 36 bf 28 3f 68 3f 59 f2 3c bf
       -0.16569161 -0.7141294 0.9072137 -0.73807293
000270 33 41 5c be 43 b3 b4 3e 22 cf 38 bf 9c e9 02 bf
       -0.21509247 0.35293016 -0.7219106 -0.5113771
000280 57 9c 2d 3f 73 b1 65 3f 41 55 32 3f 86 bb e0 bd
       0.6781668 0.8972389 0.6966134 -0.10973267
000290 fc a5 37 bf 4a fe a6 be e2 b6 c7 3e 7e 09 1f 3f
       -0.7173765 -0.32615882 0.39006716 0.6212386
0002a0 29 69 38 bf 80 92 79 be af 2c 14 3f 47 01 4d 3f
       -0.7203546 -0.24372292 0.5788068 0.80080074
0002b0 9c 65 3d bf cd 4d 31 3f a0 44 e6 3e 07 c3 da be
       -0.7398317 0.6925934 0.44974232 -0.4272692
0002c0 43 40 47 bf 59 67 92 be da f6 60 bf 43 df 60 3f
       -0.7783243 -0.28594473 -0.87876666 0.8784067
0002d0 b9 97 f9 3c a1 b5 d2 be 6a 38 72 be a1 f8 db be
       0.030467855 -0.41154197 -0.23654333 -0.42963126
0002e0 05 4d d4 3e d6 93 ee be 20 5b 43 3f 7c ad d9 3d
       0.4146501 -0.46597165 0.7631092 0.10628793
0002f0 f2 bf 24 bf b0 17 30 3d ae 38 33 be 9d 9e d3 be
       -0.64355385 0.04299134 -0.1750209 -0.4133195
000300 01 04 ad be ba ad b8 3d ba 08 07 3f f1 7d ad 3e
       -0.33792117 0.09017511 0.5274769 0.33885148
000310 f9 13 33 bf c9 f1 11 bf 0b b1 1b 3f a4 0b fa be
       -0.6995235 -0.5700956 0.6081702 -0.48837006
000320 58 b7 62 3e 52 94 4e 3f 2d 88 0a 3f cf 86 59 bf
       0.22140253 0.8069507 0.5411404 -0.84971327
000330 97 ca 53 bf 57 8c 48 bf 32 42 12 bf a3 b9 cd 3e
       -0.82731 -0.7833914 -0.57132256 0.40180692
000340 d5 0d 62 bf d6 66 8f 3d 4e cb 11 bf 36 ce dd be
       -0.88302356 0.07002036 -0.56950843 -0.4332139
000350 67 ef 37 bf 19 86 5e bf 8a 2a 69 bf a2 8a 6c 3f
       -0.71849674 -0.86923367 -0.91080534 0.92399037
000360 0c e4 2d 3f 2b 46 2d bd aa f9 27 3f 7a a0 fa bd
       0.67926097 -0.042303246 0.6561533 -0.1223764
000370 ba 1f 69 3e 5e 4b c9 3e e9 42 42 3f ea 91 9f 3d
       0.22766009 0.39315313 0.75883347 0.07791503
000380 a5 b4 39 3f a0 a5 2c 3f 4e 7f b5 3e c1 d5 94 3d
       0.72541267 0.67440224 0.35448688 0.07267333
000390 c6 c1 0c 3e b4 e3 55 3f 84 bc 10 3e a6 80 1c 3f
       0.13745794 0.8355057 0.14134413 0.611338
0003a0 b4 05 07 3f 26 10 61 3f df 6d 11 3e 53 32 27 3e
       0.5274308 0.87915266 0.14202069 0.16327791
0003b0 60 47 8b be 8b a1 55 bf 99 1a 0e 3e 9f fe d8 3e
       -0.27202892 -0.8344962 0.13877334 0.4238176
0003c0 f3 9f 91 be 3d eb 4a 3f fa ae 4b 3f 56 9b 23 3f
       -0.28442344 0.79265195 0.7956387 0.639089
0003d0 51 bd 04 3f ab 8e 68 3f d0 ff f3 be 7a e4 d6 3e
       0.51851374 0.90842694 -0.47656107 0.4197119
0003e0 74 f7 47 bf f5 a8 1a bf ce ad b3 bd 92 e1 31 3f
       -0.7811196 -0.6041406 -0.08773385 0.6948482
0003f0 c3 ed f8 3e 36 55 36 bf ef 03 9b 3e 9c 69 82 be
       0.48618898 -0.7122377 0.3027644 -0.254712

var_embedding.1.bias f4 [64]
000000 b2 9d 85 3e 12 1b cb 3d 0d ce b2 be 5e 17 97 3e
       0.26096874 0.099172726 -0.3492283 0.29510015
000010 ad e3 bd 3e f0 67 a0 be 68 ad 3f 3e 92 58 85 3d
       0.37087765 -0.31329298 0.18718493 0.06511034
000020 1d 9b ac 3e 88 71 a6 bd 3a 53 c9 bd d1 ee 25 be
       0.33712092 -0.08127123 -0.09830327 -0.16204382
000030 13 e3 8c 3e 1b d9 08 be ad 00 1e 3e 5e d4 9b be
       0.27516994 -0.13364069 0.15429945 -0.3043546
000040 4c 51 b5 be f6 8d 8a be 5d af 23 3c c1 3c 73 3d
       -0.35413587 -0.27061433 0.00999054 0.05938411
000050 f7 dd 6d 3d a4 83 20 be 00 ea c1 3e 44 2b bf 3e
       0.05807301 -0.15675217 0.3787384 0.37337697
000060 41 a3 d8 3d 56 3a 54 3e 7e b0 a4 bc 18 47 00 bd
       0.10578013 0.20725378 -0.02010369 -0.0313178
000070 be e8 99 3e 6d 6a a4 3e d4 0f 85 3d bd 75 fe bd
       0.3006038 0.32112446 0.064971596 -0.124248005
000080 3a 41 93 be bb 74 18 3e c6 80 a2 be fb 36 cf bc
       -0.287607 0.14888279 -0.3173887 -0.025294771
000090 76 28 d2 bd bf 3e 92 be 81 88 a3 3e 27 d7 38 3e
       -0.102616236 -0.28563496 0.31940082 0.18050824
0000a0 de 60 0c be 6a d5 93 3d 2b 33 39 3e 10 49 d2 bd
       -0.13708827 0.0721844 0.18085925 -0.10267842
0000b0 a4 17 2d 3d 3f 58 0b 3e 17 a6 69 be 8c 01 ec 3d
       0.042258874 0.13607882 -0.22817264 0.115237325
0000c0 2f 8e 9c bd e5 4e de bd 3b ec a1 3d 21 b0 af 3e
       -0.07644307 -0.10854892 0.079063855 0.34314063
0000d0 c5 f0 03 3e 21 c1 9e 3e aa d4 d1 bd 63 66 aa 3e
       0.12884815 0.3100672 -0.102456406 0.3328124
0000e0 ac de a4 3e 54 c4 9e 3d da 64 85 bd 40 1b 86 3e
       0.32201135 0.0775229 -0.065133765 0.26192665
0000f0 2e 70 83 3e 9d ab a5 3e 52 3a ef ba a5 8d ee 3d
       0.25671524 0.32357493 -0.0018251634 0.1164811

var_embedding.3.weight f4 [64, 64]
000000 9e 1b 0a bd 90 10 4e bd 17 5f 01 3e 70 01 82 3e
       -0.033717744 -0.050308764 0.1263393 0.25391722
000010 72 45 96 be 17 6c 68 be 7f bd 60 3c 40 74 90 3e
       -0.29349858 -0.22697483 0.013717054 0.28213692
000020 50 6f 97 be 17 b9 86 bd d9 89 c0 3c b7 ba 82 3e
       -0.29577112 -0.06578272 0.02350323 0.25533077
000030 ae 79 6b bd b3 5e bb 3d 25 55 05 3d 76 3b 5b bd
       -0.05748909 0.09148922 0.032551903 -0.053523503
000040 38 11 8b be 1e 31 26 3e 77 f9 0d bc 6d b4 28 3e
       -0.27161574 0.16229674 -0.008665434 0.16475077
000050 95 2e 3a be a4 ed fd bd 17 d9 53 be 31 37 7f 3d
       -0.18181832 -0.12398842 -0.20688282 0.062308494
000060 c3 a0 2e 3d c3 19 84 bd 4a 17 98 be b4 8e 25 3e
       0.042633783 -0.06450226 -0.29705268 0.16167718
000070 1c 6d 73 3e 1f 0d 87 3e d1 54 f7 bd 19 ef 05 be
       0.2377209 0.26377198 -0.12076724 -0.1307949
000080 3e a4 7e 3d ee a3 72 bc 7d 9f 4d 3e d1 e2 88 3e
       0.062168352 -0.014809592 0.20080371 0.26735547
000090 97 a2 0d 3d 6f 25 05 bd fd 29 bc 3d cc 0c 6e 3d
       0.034578886 -0.032506403 0.09187696 0.058117673
0000a0 85 5f 83 bd d6 fe 09 3d 90 86 93 b9 f3 15 84 3d
       -0.06414703 0.033690296 -0.00028138282 0.06449499
0000b0 bd ac 99 be 79 4d fc 3c 04 72 8f be d6 07 06 be
       -0.300146 0.03079866 -0.28016675 -0.13088927
0000c0 51 e6 d3 bd c6 98 d6 bd b6 6c 04 bd 6c 31 68 3e
       -0.10346664 -0.10478358 -0.032330237 0.22675103
0000d0 7b 5b 02 be 94 9a d6 3d 80 93 ac 3d f1 95 41 3e
       -0.1273021 0.10478702 0.08426571 0.18904854
0000e0 07 5a dc bd b8 24 a8 bd c7 9e 42 3e 97 7e bc bd
       -0.10759359 -0.082101285 0.19005881 -0.092038326
0000f0 bf eb d2 3d b9 0c 1f 3e 5a 93 e0 bd 45 e4 dc bd
       0.10298871 0.15532197 -0.10965605 -0.107857265
000100 de 3d 81 3e fc 04 c7 bd 36 84 88 3d 89 f6 bc 3c
       0.25242513 -0.097177476 0.06665842 0.023066776
000110 55 7b 83 bd ef 43 10 be 22 be be bd a7 56 ac bc
       -0.06420008 -0.14088415 -0.09313609 -0.021037413
000120 1d 5a d1 bd 94 2a a5 bd c1 60 bb 3d 71 bb 97 3e
       -0.10222266 -0.08064762 0.09149314 0.29635194
000130 29 c3 c2 3d ef 53 29 be 0d f4 19 be af 56 e2 bc
       0.0950988 -0.16535924 -0.15034504 -0.027629225
000140 4d 07 8e 3e e0 bb 38 3e 9e 7d 5c be c9 2f 19 3c
       0.27739945 0.18040419 -0.21532294 0.009349772
000150 d5 c0 e9 3b 41 a1 94 bc 79 24 5d 3e 2e 63 4e be
       0.007133583 -0.018143298 0.21595944 -0.20155022
000160 52 c1 6e 3e 04 55 80 be 36 7f 56 be b8 18 cc 3d
       0.23315933 -0.25064862 -0.20946965 0.09965652
000170 7e ef 34 3d ad df 90 3e 4f a8 f4 bd 49 87 20 3e
       0.04417371 0.2829565 -0.11946165 0.15676607
000180 cf 95 b1 bc c6 fd 81 3e c6 48 f7 3d 8d 37 dd 3d
       -0.02167788 0.25388926 0.12074427 0.10801611
000190 78 56 fc bd 9d ce 42 3e 4e d7 9a be c9 19 c5 3c
       -0.1232118 0.19024129 -0.3024239 0.024060147
0001a0 77 f9 a1 bd ce 28 36 be 44 d6 63 be 38 0b d8 3b
       -0.0790891 -0.17789003 -0.22249705 0.0065931343
0001b0 b2 e2 90 3d 9b fc 39 3e 0a a8 55 3d fa 69 e0 3d
       0.07074489 0.18162768 0.052162208 0.109577134
0001c0 7d e3 d4 bb ba 65 32 be b2 d8 46 bd 8f fa 90 be
       -0.0064968453 -0.17421618 -0.0485465 -0.2831616
0001d0 4d 6e 8e 3e 8a ef ce bc 43 e8 5f bd f6 c4 4a 3e
       0.27818528 -0.025260706 -0.05466486 0.19801697
0001e0 b2 74 a2 3b 44 24 31 bc 6f 07 31 be 3f 68 f9 3d
       0.004957759 -0.010811869 -0.17287992 0.121780865
0001f0 5e 13 45 3e be 83 44 bd ae 34 22 be cb 37 5a 3d
       0.19245669 -0.0479772 -0.15840408 0.053275865
000200 fb ca 7f 3e 8b ec 52 be 2a 64 52 be 17 7b 84 be
       0.24979775 -0.20598046 -0.20546022 -0.2587516
000210 b6 0f 5b 3e 91 89 9f 3d 5e ce 86 3e df 41 0f be
       0.21392712 0.077899106 0.2632932 -0.13989972
000220 bd 46 4b 3e 14 61 94 bd 78 54 3b bd 11 f9 56 be
       0.19851203 -0.07245079 -0.045734853 -0.20993449
000230 00 30 ee bd c6 62 6b 3e cd b4 5f be 61 80 18 be
       -0.11630249 0.22986898 -0.21846314 -0.14892723
000240 96 c8 82 3e 6b bb a8 bd 8e 4e 1b be 0f cd 1c 3d
       0.2554366 -0.08238872 -0.15166685 0.038281497
000250 6c 5c df bc 4a 06 74 be 22 7c f0 3d 56 3e 15 be
       -0.02726575 -0.23830524 0.117424265 -0.1457456
000260 31 eb 92 3e de 57 a7 3d eb ff 0e 3e 84 b2 31 3c
       0.28695062 0.08171056 0.13964812 0.010845784
000270 ef b1 8c be a0 fd 03 be c1 16 c6 bd 70 de 2e be
       -0.27479503 -0.12889719 -0.09672309 -0.1707704
000280 4a fb 53 be bf bb 88 3e 30 c3 94 3d 19 c4 9d 3d
       -0.20701328 0.2670574 0.072637916 0.07703418
000290 9e 36 2e 3e aa 5f 93 be 8c 48 c7 3b df df 87 be
       0.17013022 -0.28783923 0.0060816463 -0.26537988
0002a0 4e 12 f0 3d e3 98 e2 bd 66 7b e2 3d 0c 4e 7b 3e
       0.11722241 -0.11064317 0.11058693 0.24541491
0002b0 c3 6d 13 bd e8 2b 01 3d 0d ad 40 bc c1 09 c8 bd
       -0.03599335 0.031536013 -0.0117600085 -0.097674854
0002c0 4d dc 33 3e 7b 88 98 be fe 89 03 be 27 96 b0 bc
       0.17564507 -0.29791626 -0.12845609 -0.021555973
0002d0 95 0b 84 be 07 03 9b be 06 e4 20 be 57 41 72 be
       -0.25790086 -0.30275747 -0.15711984 -0.23657738
0002e0 c4 97 9f 3e dd 7f f3 b9 ed 13 a6 bc fd 91 67 be
       0.31170475 -0.00046443837 -0.020273173 -0.22614284
0002f0 fe cd 8d bd 7e fe 8a be 19 b7 e7 3d fb 79 03 3e
       -0.069240555 -0.27147287 0.1131422 0.128395
000300 ad fb 91 be 7d 57 6f 3e 3e ed 51 3e 4a b1 4c 3e
       -0.28512326 0.23373218 0.20500657 0.19989505
000310 cb 30 8c be dd e0 4e bd a7 c2 18 3e 22 03 f6 3d
       -0.27380976 -0.050507415 0.14918004 0.12012316
000320 c3 cc 98 3e 4b e1 87 be 19 2c 18 be f7 9e 3b be
       0.2984372 -0.26539072 -0.14860572 -0.18322359
000330 59 fc 8d 3c be a6 dd 3d de 29 1a 3e d8 1a dc bc
       0.017332243 0.10822819 0.15055034 -0.026868269
000340 0b 03 1f bd 7f dd bd 3d 5e c7 ab bd 69 e3 f8 bd
       -0.03882126 0.09270763 -0.08387636 -0.1215275
000350 dd 12 95 3e 14 7b cc 3c 92 74 fc bd 8e ae 95 3e
       0.29115954 0.024961032 -0.123269215 0.29234737
000360 c0 7a 2d 3e e1 8c 87 3e d9 8b 07 3e dc bb 3c 3e
       0.16941357 0.2647467 0.13236941 0.18431038
000370 f9 b8 2c be 20 d8 36 3e ca cb 27 3e c1 59 33 bd
       -0.16867436 0.17855883 0.16386333 -0.043786768
000380 ac 98 99 be ed f6 6b 3e 70 6a 80 3e 7b df ab bc
       -0.29999292 0.23043413 0.25081205 -0.020980587
000390 41 14 93 be 9a bb d1 bd 46 cc 2a 3e 2e 55 f3 3d
       -0.2872639 -0.1024086 0.16679487 0.11881481
0003a0 be c6 89 bd 79 b8 86 3e 85 9b 92 3c 2a 3c a9 bc
       -0.0672736 0.26312616 0.017896423 -0.020658571
0003b0 cc 0b 22 3e 89 02 42 be 95 c4 de bd b4 86 19 be
       0.15824813 -0.1894628 -0.10877339 -0.14992791
0003c0 07 a9 50 3e dd bd 8e bd bf d6 3c 3d b2 cc 1c 3e
       0.20376979 -0.06969807 0.046103235 0.1531246
0003d0 1a fd 19 3e ee 1e 85 3e c1 ab 58 be 01 30 19 3e
       0.15037957 0.2600016 -0.21159269 0.14959718
0003e0 24 96 30 3e b6 36 0d 3e 7b f5 bf 3d 48 e2 ad bd
       0.17244774 0.13790402 0.093729936 -0.08490425
0003f0 19 a0 59 be 52 66 1c be f1 2e 9b 3e 62 f9 06 3e
       -0.21252479 -0.15273407 0.3030925 0.1318107

var_embedding.3.bias f4 [64]
000000 fe 3d a7 3d 9a 0f 77 bc a5 c2 9f 3d 26 36 bf bc
       0.08166121 -0.015079403 0.078007974 -0.02334125
000010 2b 4e 1c 3c e8 43 8e bd 4f 8e 6a 3d c2 64 e4 3d
       0.009540121 -0.06946546 0.057264622 0.111520305
000020 0b 73 b6 bd 59 72 33 3d 4c 72 42 bd 3d 35 ff 3d
       -0.089086615 0.043810222 -0.047472283 0.12461326
000030 92 76 16 3b 02 05 41 bd ea 97 8a 3d fb 5f b9 3d
       0.0022958857 -0.047123916 0.067672566 0.0905151
000040 19 01 c7 3b 19 91 2f bd 63 5b ec 3d ae 60 f0 bd
       0.006073129 -0.042862985 0.11540868 -0.1173719
000050 2b 6d 9e bd ab 60 06 bc 76 fa bd bd 99 22 00 3d
       -0.07735666 -0.008201758 -0.09276287 0.031282995
000060 9f 5e ac 3d 4a ec c7 bc 76 4a a2 3d af 8d e5 bd
       0.08416485 -0.024404664 0.079243585 -0.112086646
000070 07 fd 7f bd 59 ed fe 3d 3d 81 23 3c 3d ae 5c 3c
       -0.062497165 0.12447614 0.009979543 0.013469276
000080 c5 b7 45 3d 99 bd c8 3c f1 b7 68 3c 84 6a db bc
       0.04827096 0.02450447 0.014204011 -0.026784189
000090 fa 49 d2 3c e1 ef 59 bc 60 31 58 bd c0 ec ee bd
       0.02567004 -0.0133018205 -0.052781463 -0.1166625
0000a0 3e 37 07 bd 6f 2e 5c bd 02 2a be 3c c0 78 da bd
       -0.033011667 -0.05375522 0.02321339 -0.106675625
0000b0 26 5b ef bd cb 9d 07 3c c1 af 41 bd c7 06 36 3d
       -0.11687307 0.008277367 -0.047286753 0.044440057
0000c0 1e dc 93 3d 87 c6 b1 3d 2e dc 3f bc d8 47 84 3d
       0.072197184 0.08680444 -0.01171021 0.064590156
0000d0 68 c9 a1 3d 79 26 63 bd 24 cc 4b bd 88 d8 e3 3c
       0.07899743 -0.055456612 -0.04975523 0.027813211
0000e0 fa 21 02 bd b0 65 ec bc 0b 0b 99 bd 4f af e6 bd
       -0.031770684 -0.028857082 -0.074728094 -0.11263906
0000f0 7f be e0 3d f0 ee 8d bd 8c ef e4 3d da 65 6c bc
       0.10973834 -0.06930339 0.111785024 -0.01442858

conv_v_to_c.feature_module_left.0.weight f4 [64, 64]
000000 56 66 2f be 89 28 26 be e9 ad fb 3d 0d 32 1b 3e
       -0.17128882 -0.162264 0.1228903 0.15155812
000010 39 f7 8a 3e bf c2 62 bd 6a 4b 7e 3e 8f b3 1a be
       0.2714174 -0.055361506 0.24833456 -0.15107559
000020 80 1f 66 bd fe 54 64 bd f7 38 63 3e 00 e9 82 3e
       -0.056182384 -0.055745117 0.22189699 0.2556839
000030 03 2f 9c be 14 04 20 3e 81 64 06 3d 08 a1 5e be
       -0.30504617 0.15626556 0.03281069 -0.21741116
000040 ff 3d f9 3d 88 1c 79 be 33 a4 e9 bc 2a ee 83 be
       0.12170028 -0.2432729 -0.02852068 -0.25767642
000050 d1 2e 1e be 12 d0 6e be b9 c1 9a 3e fd f8 c3 3d
       -0.15447547 -0.2332156 0.30225924 0.09568975
000060 be c0 00 3e a7 c0 17 bd 15 ac c1 3d 5c bd 71 be
       0.12573525 -0.037048962 0.0945665 -0.23607391
000070 2a 26 21 3e 40 d2 79 be 46 ab bd bd 43 c7 69 3e
       0.15737215 -0.2439661 -0.092611834 0.22829919
000080 82 ae 52 be 90 e3 5c 3c 86 fe e8 3d 0c 3a 99 3e
       -0.20574382 0.0134819895 0.113766715 0.299271
000090 d4 8e 23 be a5 fa 6a be 78 cc 65 3e 48 6d 60 3e
       -0.15972453 -0.22947176 0.2244128 0.21916687
0000a0 e2 c1 82 bd d4 4a 31 3d a6 b6 92 3e 07 5c 25 be
       -0.063846365 0.043284252 0.28654975 -0.16148387
0000b0 38 57 6c be 83 59 0b 3d a2 84 33 be ab 51 63 3e
       -0.23080146 0.034020912 -0.17531064 0.22199123
0000c0 45 d3 88 3e 6e 6d 8f 3e 54 42 90 3d 51 e4 a2 3d
       0.26723686 0.28013176 0.07043901 0.07953704
0000d0 e3 de 94 3e 6a 33 46 3d 6c 6f 43 be e2 64 8f 3e
       0.290763 0.048388876 -0.19085473 0.28006655
0000e0 40 ae 28 3e 4f d5 1e 3e 5d ee 5e be 75 ca 89 be
       0.16472721 0.15511058 -0.21770616 -0.26912275
0000f0 dd 0e 89 bd 85 47 83 3e 82 c6 03 3d db 8f 47 bd
       -0.06692288 0.25640503 0.032171734 -0.048721176
000100 ff ee 1c 3e 12 77 8b 3e b7 86 8e 3d 8e d4 9b be
       0.15325545 0.2723928 0.069592886 -0.30435604
000110 49 66 34 3e 5e 5d 8c 3e 03 8e 8d be 88 8a 34 3e
       0.17617144 0.27414984 -0.2764741 0.1763097
000120 68 13 83 3d 18 8f 94 3e f4 4d 17 3e 98 96 80 3e
       0.06400186 0.29015422 0.1477583 0.25114894
000130 cf be 16 be de 09 39 3e b5 f5 05 be c9 1a 8d 3e
       -0.14721225 0.1807017 -0.13082011 0.27559498
000140 d4 13 7f 3d 33 67 a4 bd 26 de 6c be 5c 7c 4f bc
       0.06227477 -0.08027496 -0.23131618 -0.012663927
000150 cc 2e 29 3e da 65 85 be c8 28 07 3e 66 6b 05 3e
       0.16521758 -0.2605427 0.1319915 0.1302925
000160 fc 9b d4 3c 94 4e 63 3e 01 4d 08 3e b6 e6 da bc
       0.025953285 0.22197944 0.13310625 -0.02672134
000170 1b 1e 9c be b3 e6 86 3e a9 dd 0a be 7a b3 00 3e
       -0.3049172 0.26347885 -0.13561119 0.12568465
000180 0c 24 26 3e 0e 05 9c 3e 0c 7f 4e 3e f4 9e f1 bd
       0.16224688 0.30472606 0.20165652 -0.11797896
000190 29 8a 6c 3e 6a 36 35 be 25 d0 ec bd cd c1 23 be
       0.23099579 -0.17696539 -0.11563138 -0.15991898
0001a0 86 67 cb bd 61 1d 6e 3e 5d 43 0e be 78 7b 67 3e
       -0.09931855 0.23253395 -0.13892885 0.22605693
0001b0 45 18 89 be ee 77 1f 3d 52 54 6a be 66 e1 39 3d
       -0.2677633 0.038932733 -0.22883728 0.045380972
0001c0 7f 21 64 be 64 c8 07 3e 7f c7 3a be 33 3e 03 3e
       -0.22278403 0.13260037 -0.18240164 0.12816696
0001d0 fc a1 3b be 4e 71 93 be 46 d1 37 bd ad 69 e1 bd
       -0.18323511 -0.28797382 -0.044877313 -0.11006484
0001e0 5b e8 15 3d 69 c7 9b be c3 5e 57 be 76 7f 8b 3e
       0.036598545 -0.30425575 -0.21032242 0.27245682
0001f0 0a 52 45 be b4 2c 4d bd d2 7a 61 bd 82 12 5f bc
       -0.19269577 -0.05009146 -0.05504877 -0.013615252
000200 8f bb 85 bd ad df 58 3e c4 8f 9b be 13 a9 c3 3c
       -0.065299146 0.21179076 -0.30383122 0.023884332
000210 40 41 b1 3d 1b 28 de 3d 7c ea 84 3d 68 be 4a be
       0.086550236 0.10847493 0.06490037 -0.19799197
000220 18 83 85 3e 29 ed 80 3e 71 a5 96 3d ce 48 44 3e
       0.2607658 0.2518094 0.07355774 0.19168398
000230 50 ed 94 3e bb 85 68 3e ab 25 b5 3c c5 98 9b 3e
       0.29087305 0.22707264 0.022112688 0.3038999
000240 1f 8d 6a 3e 4d 8a 4d be 79 ef 62 3e 63 71 15 be
       0.22905396 -0.20072289 0.22161664 -0.14594035
000250 43 54 86 be 43 0e 84 bd d0 ab 59 3e 2f 5b c7 bd
       -0.26236162 -0.06448033 0.21256948 -0.09734189
000260 82 fc 3c 3e 6b 39 89 3e 77 61 91 3e 64 b6 54 3e
       0.18455699 0.2680162 0.28394672 0.20772702
000270 c0 34 51 be 2f 30 69 3e 85 c5 81 be c5 25 df bd
       -0.20430279 0.22772287 -0.25346008 -0.10895876
000280 c4 8a 67 3e bd 9a b0 3d df ef 77 bd 4c c9 8e be
       0.22611529 0.08623264 -0.060531493 -0.27887952
000290 f5 f6 80 3e 39 7e 95 3e 05 28 19 be 21 05 29 be
       0.25188413 0.29197863 -0.14956672 -0.16505863
0002a0 11 fd ea bd 68 83 7e 3e d3 cf 93 be 10 53 c3 3d
       -0.1147405 0.24854815 -0.28869495 0.09537327
0002b0 11 0d 81 be c7 5d c2 bd a2 d5 9e bd 08 ae 86 be
       -0.2520528 -0.09490543 -0.07755591 -0.2630465
0002c0 f9 05 88 be 12 45 18 3e 9c 28 e6 bd b9 f5 81 3d
       -0.26567057 0.14870098 -0.112382144 0.06345696
0002d0 cd a4 49 3e 87 97 1e 3e f8 05 af 3d ed e2 33 3e
       0.19691773 0.1548749 0.0854606 0.17567034
0002e0 2a a4 95 3e 0c e7 93 3e d2 f4 08 3e 0c 63 83 3e
       0.2922681 0.28887212 0.13374642 0.25661504
0002f0 0a 68 83 3e 7b bd 36 3d 9b df 92 3d 1e 18 7d be
       0.25665313 0.044614296 0.071715556 -0.24716231
000300 f5 44 46 3e df 1b 8c be 82 34 24 be ff 64 42 3d
       0.19362243 -0.27365014 -0.16035655 0.0474596
000310 e3 69 22 be f3 aa 75 be b4 d3 90 3e 22 26 a9 bd
       -0.15860705 -0.23990993 0.28286517 -0.082592264
000320 12 c9 5c be 73 02 48 3d 34 56 90 bd bb e3 c1 3b
       -0.21561077 0.04883046 -0.07047692 0.00591704
000330 c9 43 8f 3e 9f af 93 be 1c fa 89 be 48 4a 8a bd
       0.27981403 -0.28844926 -0.2694863 -0.06752449
000340 3b 69 d0 3b 6d 7b 8c 3c f4 96 23 be 06 4f 44 3e
       0.0063602007 0.017148698 -0.15975553 0.1917077
000350 97 4c b2 3c 48 84 7a 3b 3c 28 07 be f1 e4 42 be
       0.021765037 0.0038225818 -0.13198942 -0.19032647
000360 7c c6 91 3c 02 5e 07 3e fb 29 37 bd 4c 1d e6 3d
       0.01779484 0.13219455 -0.04471777 0.11236057
000370 19 26 df bd 93 66 f9 bc 86 85 e5 bc 27 9a dd 3c
       -0.108959384 -0.030444419 -0.02801777 0.027051045
000380 26 c1 af 3d 6b c2 e1 bd e8 d2 32 3e 21 0e f8 bd
       0.08581762 -0.110234104 0.17463267 -0.1211207
000390 f3 fa d6 bd b3 e1 82 be 9d b7 37 3e 3e f5 39 3e
       -0.104970835 -0.2556282 0.17941137 0.18159959
0003a0 e9 31 93 be d9 35 e8 bd 3e e5 3f 3d 38 0c 61 be
       -0.28749016 -0.113383956 0.04684948 -0.21977317
0003b0 55 5b 8d be 32 dc bf bb 25 9a 82 be 76 06 15 be
       -0.27608743 -0.0058551067 -0.25508228 -0.14553246
0003c0 72 a0 db 3d f6 6a 75 3e 5c eb 97 3e 31 9b 4c 3d
       0.10723962 0.23966584 0.29671752 0.04995269
0003d0 6f ca 74 be 98 82 94 3c a1 41 09 be 27 7e 89 be
       -0.23905347 0.018128678 -0.13403942 -0.2685406
0003e0 c3 af 48 3d fb 9e 32 3d 3c 54 53 be 1f fe 04 3d
       0.048995744 0.043608647 -0.20637602 0.03246891
0003f0 fc bd 01 3e d9 8a 4c 3e 69 e5 22 be 3c 0e 38 3e
       0.1267013 0.19974841 -0.15907826 0.1797418

conv_v_to_c.feature_module_left.0.bias f4 [64]
000000 10 32 ac 3d 3e 0f b6 3c 6a a1 56 3d d9 af d9 bd
       0.08407986 0.022224065 0.05240003 -0.106292434
000010 f5 c0 da ba b0 ef ed bb 8b ae b8 3d 36 45 10 bd
       -0.0016689586 -0.007261239 0.090176664 -0.035222255
000020 a5 73 7f 3c 8e 29 9b bd 55 70 ce bd ff 53 ab bc
       0.015591537 -0.07576285 -0.100800194 -0.020914076
000030 f4 5c cc 3c b9 7b fa 3d b6 86 6f 3d 1d a7 e3 bc
       0.024946667 0.122306295 0.05847808 -0.027789647
000040 10 1a 0d bd 90 9c ac bd 5a c7 06 bd 39 37 d7 bc
       -0.034448683 -0.084282994 -0.03290496 -0.02627145
000050 6b 35 76 bd 18 f5 af 3d 59 7e 40 bd aa a7 45 3d
       -0.060109537 0.0859167 -0.046995495 0.0482556
000060 ed a5 b4 3d d4 db 82 bc 6e ad 99 3d 11 ad d2 3d
       0.0882071 -0.015973963 0.07503782 0.10286916
000070 46 6c 00 bd 95 2d c3 3c e8 8b 96 bd c9 ef 20 bd
       -0.031353258 0.023825446 -0.07350904 -0.039291177
000080 2e 91 a2 3d 9a c5 01 bd d9 51 e8 3d 3b b3 ce 3c
       0.07937847 -0.03168259 0.11343736 0.025231948
000090 a2 c4 43 3a 00 60 bf bd 3b 36 58 bc 25 8d a0 3d
       0.000746796 -0.093444824 -0.013196523 0.07839421
0000a0 e2 9d 93 3d d2 ae 7c 3c 12 0e af bd c8 47 dd bd
       0.07207848 0.01542254 -0.085476056 -0.10804707
0000b0 24 49 cd bd c9 2d ff bd 37 cd 66 3d 8b c4 71 3d
       -0.10023716 -0.12459905 0.056348052 0.05902533
0000c0 2e 3e e6 3c 60 9b 57 3b 41 a1 a6 bd 6d 5e ec 3d
       0.028105821 0.0032899007 -0.081362255 0.11541448
0000d0 e7 f3 22 3d a7 ca 8f 3d 1d 34 ee 3c 19 33 e8 3d
       0.039783385 0.07021075 0.029077584 0.11337871
0000e0 dd 70 8d bd 1b 0e f2 3d bb 51 f1 3d 4b 7b ec bd
       -0.069062926 0.11819097 0.11783167 -0.11546954
0000f0 02 1a c4 3d fe 0b d3 3d 42 46 c8 bd 0f d6 3d bc
       0.09575273 0.10305022 -0.097790256 -0.01158668

conv_v_to_c.feature_module_edge.0.weight f4 [64, 1]
000000 17 10 b5 bf d3 79 46 bf fe 4f 85 3f f7 9a c2 bf
       -1.4145535 -0.7752964 1.0415037 -1.5203542
000010 e6 71 ae 3f eb 06 8d 3d d8 da a1 3e d8 ab ce bf
       1.3628509 0.06886085 0.31612277 -1.6146193
000020 fb 19 57 be b0 7b f7 3f 7a ac 3b 3e dd 73 72 3e
       -0.21006005 1.9334621 0.18327513 0.23677011
000030 b9 08 2a bf 4c 2d ab bf 24 15 e1 be b1 77 8c 3f
       -0.6641956 -1.3373199 -0.43961442 1.0974027
000040 74 6e 84 bf 82 29 57 bf b4 8b 51 3f a4 b2 cd 3e
       -1.0346208 -0.8404771 0.81853795 0.40175354
000050 7e cc e4 3e 94 dc dd 3f 5c 1e cf 3f d4 5a e9 be
       0.44687265 1.733294 1.618114 -0.4557711
000060 89 98 cd 3f ff 5b f8 be bb a0 1d bf 52 e9 13 40
       1.6062175 -0.48507687 -0.6157338 2.3111157
000070 bd 09 9b 3e fa 21 6c 3f b4 d2 4d bf 2d bb a1 be
       0.30280867 0.92239344 -0.8039963 -0.31588116
000080 8c 23 06 40 20 9d b5 bf b6 b5 15 c0 88 1d ef bf
       2.0959196 -1.4188576 -2.3392158 -1.8680887
000090 2d b8 80 bf 2a 06 a0 bf c2 70 2f be 77 1c e6 bf
       -1.0056206 -1.2501881 -0.17132857 -1.7977437
0000a0 93 31 57 3c 5d 3e 81 bf 00 7d 91 bf b7 2b 90 be
       0.013134378 -1.0097157 -1.1366272 -0.28158352
0000b0 8e ed 81 bf 6e 3e f3 3f 66 f3 c5 be f0 b1 1c c0
       -1.0150621 1.9003427 -0.3866226 -2.4483604
0000c0 ec 54 21 bf 06 56 0d c0 10 98 f5 3e 92 d3 1a c0
       -0.63020205 -2.2083755 0.47967577 -2.4191632
0000d0 38 3c 16 bf 09 9e e1 3f 1a 98 23 bf 6e a4 01 c0
       -0.58685637 1.7626354 -0.63903964 -2.025661
0000e0 36 cf 07 40 8f 5e ce 3f 28 e0 0b c0 7b ad 0d 40
       2.1220222 1.6122607 -2.1855564 2.2137134
0000f0 fe 79 d8 bf a2 11 aa 3d c7 67 0a c0 74 b7 23 bf
       -1.6912229 0.083041444 -2.162584 -0.639518
