rl_model/SCPPO_policy_269.pth (torch_old, 472694 bytes, 71 tensors)

cons_embedding.0.weight f4 [4]
1.000305 0.9989265 0.9999226 1.0010339
00000000: ff09 803f a6b9 7f3f edfa 7f3f e121 803f

cons_embedding.0.bias f4 [4]
-0.00030938518 0.0010705414 -8.062629e-05 0.0010312238
00000000: fa34 a2b9 6951 8c3a e915 a9b8 212a 873a

cons_embedding.1.weight f4 [64, 4]
0.23872912 0.8247476 0.29762825 0.56494135 0.0039245854 -0.41628173 -1.2231979 0.8693696
-1.154919 0.090922944 -0.6026485 -0.73366606 -1.1570684 -0.90773284 -0.31376857 0.7137029
0.57133263 -0.55033654 -1.1000128 -0.9493077 0.657572 0.8424467 -0.19140574 0.81599087
0.50992596 0.60066277 -0.17893896 -0.544654 -0.13290584 -0.44140103 -0.3523226 -0.46260202
0.5551562 -0.93039405 0.92862886 1.1574476 0.00067566254 1.19197 1.2076448 0.68658626
-1.1639472 0.34577575 0.6313869 -0.7735746 -0.9736648 -0.68651307 -0.16320837 0.723207
-0.13838668 -0.32947 0.7481595 -0.5436324 -0.18540601 -0.20707208 0.53818375 1.0534596
0.49160382 0.92653984 -1.1320632 -0.6253252 -0.8010741 -1.0543188 -0.33908018 0.18680148
-0.04885637 0.15964232 -0.22408435 0.071153656 -0.83254683 -1.05008 -0.38129675 -0.54577523
1.1662543 0.67279273 1.1722764 0.21757044 -0.022430528 -0.09756223 -0.12135643 0.53596205
-0.66639185 0.9007148 0.11604384 -0.39824867 0.011162447 0.8287588 -0.4133829 0.16163953
0.21896018 -0.092351645 0.96844023 0.54438585 0.99826956 -0.13009463 0.72247344 -1.1401839
0.3611226 0.32700244 -0.85909957 1.1858525 -0.72717655 0.21261528 -0.32998013 -0.6980829
0.16397713 -0.64614177 -0.88000774 0.9178052 0.38294172 -1.0986509 0.20977774 -0.08452147
1.0477477 0.26567644 0.13699166 -0.19390777 -0.59816474 1.0103687 -1.065829 -0.817078
1.0468737 -0.7853859 0.70278424 -0.14009157 0.19139421 -1.1053176 0.57985866 0.04609894
-1.1066401 -0.105908915 -0.9453143 1.0123909 0.21399868 0.15888637 -0.7645866 0.9813455
0.21380627 0.2742689 -0.7624131 -0.2673918 0.5078854 -0.41526577 -0.15742011 -0.3758705
-0.72465646 1.0292863 0.4673385 -1.0797129 0.94433683 -1.2171937 -0.7170463 -0.67976004
0.5772077 0.44684717 -0.947206 0.17790875 -0.6505053 0.81407785 0.15909715 -0.5777719
-0.7107573 -0.1846232 0.5684237 0.40791437 -0.035055973 -0.84680027 -0.9707546 0.57649016
-0.25380856 1.0154854 -0.84800476 1.1199384 -0.5287014 -0.9021554 -0.64646226 0.99767566
-0.6225319 -0.590304 0.5386378 0.39685515 -0.30177942 -0.965563 -1.0037667 -0.40802148
-0.12053269 -0.1898018 -0.28153485 0.1642258 -0.10014292 -0.7488818 -0.28527787 -0.7983723
0.27090564 0.105008654 -0.5538261 -0.21731527 0.7399119 0.47133774 -0.8159151 0.88276464
0.71353346 -0.31115165 -1.0194796 -0.9432145 0.48011857 0.67718 0.21205108 1.1147592
-0.37497732 0.6157286 0.2567473 0.24573202 -0.6730326 -0.5653262 -1.1404649 -0.3763889
-0.19044773 -0.3266297 0.9558282 0.52847236 -0.8164224 -1.1140143 1.1606363 0.742225
-0.6012898 -0.21143353 0.12634243 0.88705105 -0.31336567 -0.3592416 -0.53568137 -1.1909709
-0.13189386 -0.28528935 0.9574695 0.044892088 -0.38804308 -0.37979165 -1.1376659 -0.9331965
-0.18758881 0.5112282 -0.6496958 -1.0741448 0.78019786 -1.1647605 -0.00050878205 -0.51546884
0.76893306 1.1612248 -0.74387556 1.0118054 -0.87814087 -0.5169753 0.10350977 -0.90031594
00000000: 6875 743e a922 533f bb62 983e ff9f 103f
00000010: cf99 803b e122 d5be c091 9cbf 028f 5e3f
00000020: 63d4 93bf cf35 ba3d 2c47 1abf 8ad1 3bbf
00000030: d11a 94bf 2e61 68bf 46a6 a0be 3cb5 363f
00000040: db42 123f dbe2 0cbf 38cd 8cbf d405 73bf
00000050: a356 283f 96aa 573f deff 43be c7e4 503f
00000060: 828a 023f 09c5 193f c63b 37be 726e 0bbf
00000070: 7818 08be 51ff e1be a163 b4be 2cda ecbe
00000080: b71e 0e3f 4e2e 6ebf 9fba 6d3f 3e27 943f
00000090: f21e 313a 7992 983f 1b94 9a3f 1ec4 2f3f
000000a0: 39fc 94bf 8509 b13e 92a2 213f fc08 46bf
000000b0: 1942 79bf 52bf 2fbf 1820 27be 1824 393f
000000c0: 3db5 0dbe 4bb0 a8be 6287 3f3f 7e2b 0bbf
000000d0: 13db 3dbe b40a 54be 69c6 093f c4d7 863f
000000e0: 7fb3 fb3e b731 6d3f 72e7 90bf 5015 20bf
000000f0: 3113 4dbf ebf3 86bf eb9b adbe e348 3f3e
00000100: 9e1d 48bd 4779 233e 5e76 65be 02b9 913d
00000110: ca21 55bf 0569 86bf 5439 c3be edb7 0bbf
00000120: d247 953f 253c 2c3f 270d 963f c9ca 5e3e
00000130: 3ac0 b7bc b5ce c7bd b889 f8bd cf34 093f
00000140: a898 2abf 3f95 663f 65a8 ed3d 40e7 cbbe
00000150: b2e2 363c 8929 543f eca6 d3be d584 253e
00000160: 1937 603e dc22 bdbd b3eb 773f df5c 0b3f
00000170: 988e 7f3f 8737 05be 05f4 383f 8cf1 91bf
00000180: 10e5 b83e dd6c a73e f3ed 5bbf 04ca 973f
00000190: 3e28 3abf d2b7 593e 28f3 a8be 90b5 32bf
000001a0: 9fe9 273e 8c69 25bf 3048 61bf 48f5 6a3f
000001b0: f010 c43e 98a0 8cbf facf 563e 9819 adbd
000001c0: 991c 863f be06 883e 8b47 0c3e c28f 46be
000001d0: 5321 19bf c353 813f 166d 88bf 062c 51bf
000001e0: f5ff 853f 0d0f 49bf abe9 333f 2a74 0fbe
000001f0: d8fc 433e 0c7b 8dbf 9e71 143f 3ed2 3c3d
00000200: 62a6 8dbf c6e6 d8bd 1e00 72bf 0696 813f
00000210: 7822 5b3e 1cb3 223e f3bb 43bf 7539 7b3f
00000220: 08f0 5a3e f96c 8c3e 812d 43bf 94e7 88be
00000230: c704 023f b79d d4be bd32 21be 1972 c0be
00000240: 1683 39bf a7bf 833f fe46 ef3e 0834 8abf
00000250: 0fc0 713f 01cd 9bbf 5990 37bf c104 2ebf
00000260: e2c3 133f 27c9 e43e 187c 72bf b62d 363e
00000270: 8487 26bf 6867 503f 5dea 223e dce8 13bf
00000280: 31f4 35bf dd0d 3dbe 3784 113f 27da d03e
00000290: da96 0fbd e7c7 58bf 6083 78bf dc94 133f
000002a0: 32f3 81be 6dfb 813f d716 59bf 245a 8f3f
000002b0: fa58 07bf a8f3 66bf 8d7e 25bf ac67 7f3f
000002c0: 405e 1fbf 2a1e 17bf 2be4 093f 9930 cb3e
000002d0: d582 9abe 232f 77bf 6d7b 80bf 31e8 d0be
000002e0: d8d9 f6bd 675b 42be 5625 90be cf2a 283e
000002f0: bb17 cdbd b8b6 3fbf f10f 92be 2162 4cbf
00000300: 25b4 8a3e c70e d73d 8cc7 0dbf e587 5ebe
00000310: de6a 3d3f 2e53 f13e d0df 50bf ddfc 613f
00000320: 21aa 363f 454f 9fbe 4f7e 82bf 8176 71bf
00000330: 1ad2 f53e ab5b 2d3f eb23 593e 6eb0 8e3f
00000340: 07fd bfbe 64a0 1d3f 6274 833e 2da1 7b3e
00000350: dd4b 2cbf 38b9 10bf c1fa 91bf 0cb6 c0be
00000360: bb04 43be 023c a7be 28b1 743f f749 073f
00000370: 0f01 51bf 0598 8ebf bb8f 943f 7502 3e3f
00000380: 21ee 19bf 0882 58be e95f 013e c715 633f
00000390: 7771 a0be 84ee b7be 6a22 09bf bc71 98bf
000003a0: 2f0f 07be 7211 92be b91c 753f c4e0 373d
000003b0: 95ad c6be 0d74 c2be 099f 91bf f7e5 6ebf
000003c0: 4817 40be dadf 023f 7752 26bf 947d 89bf
000003d0: 0cbb 473f df16 95bf c95f 05ba c4f5 03bf
000003e0: ccd8 443f 04a3 943f a16e 3ebf d782 813f
000003f0: d7cd 60bf 7e58 04bf eefc d33d 1b7b 66bf

cons_embedding.1.bias f4 [64]
-0.45866227 0.3289064 0.33155438 0.49992603 0.3475213 0.19070855 -0.38188305 0.18560779
-0.04876992 -0.016026093 -0.30040702 -0.40141928 -0.45102376 -0.41762888 -0.019760175 -0.23841886
0.23246662 -0.16057676 -0.11744758 -0.19499402 0.25282568 -0.2996425 -0.39869538 0.061295383
-0.43333158 0.053658314 0.38736764 0.25472915 0.043705344 0.23735482 0.1299448 -0.39653525
0.49450013 0.36591506 -0.24544522 -0.312742 -0.05482736 0.38822678 -0.31005347 0.09553149
0.3145179 -0.4626283 -0.4765875 -0.35859478 0.21277273 -0.2865865 -0.44955596 0.16934663
-0.2562309 0.46854326 0.4725662 -0.12879576 -0.23627016 0.05020841 -0.32213598 0.2849371
-0.35582644 0.18001999 0.43196288 -0.29333746 0.26776543 0.45338985 -0.30244964 -0.13936774
00000000: c8d5 eabe 6b66 a83e 7fc1 a93e 4ef6 ff3e
00000010: 50ee b13e 1a49 433e 2d86 c3be f80f 3e3e
00000020: f8c2 47bd 2749 83bc f3ce 99be d486 cdbe
00000030: 96ec e6be 74d3 d5be 17e0 a1bc 1324 74be
00000040: bb0b 6e3e 3c6e 24be 5b88 f0bd 83ac 47be
00000050: 5e72 813e be6a 99be cd21 ccbe de10 7b3d
00000060: a3dd ddbe d2c8 5b3d 0d55 c63e dc6b 823e
00000070: 6004 333d 240d 733e 4010 053e ab06 cbbe
00000080: 1f2f fd3e 3859 bb3e fe55 7bbe b81f a0be
00000090: a792 60bd a9c5 c63e 54bf 9ebe 04a6 c33d
000000a0: 7d08 a13e 9edd ecbe 4703 f4be bc99 b7be
000000b0: 18e1 593e 77bb 92be 332c e6be 3469 2d3e
000000c0: b230 83be e7e4 ef3e 32f4 f13e 09e3 03be
000000d0: cef0 71be 55a7 4d3d 02ef a4be 47e3 913e
000000e0: e22e b6be 2957 383e 3d2a dd3e 5430 96be
000000f0: 8d18 893e b722 e83e aeda 9abe 6bb6 0ebe

cons_embedding.3.weight f4 [64, 64]
0.09962054 0.2322706 -0.08891609 -0.17875774 0.08919854 -0.19926178 0.19383249 -0.2588625
-0.11852079 0.06814984 -0.29479888 -0.17195672 -0.2928958 0.038624246 -0.043769825 -0.14762522
0.1223597 -0.2934484 -0.08917775 0.24372737 -0.22142485 0.24356939 0.28794444 0.05256571
-0.2760902 -0.2776145 0.2942692 -0.228581 -0.03542478 0.065663256 0.026473451 0.29831377
-0.14417481 -0.26754534 0.26932475 -0.06177994 0.25293183 -0.25630206 -0.12691589 0.031340707
0.12557082 0.031943116 0.10907322 0.18526879 -0.09786828 0.098966785 0.03174784 -0.14821495
0.020209348 -0.12568018 -0.24573675 0.13618575 -0.22944915 0.08621165 -0.2731262 0.05816799
0.0012078177 -0.08426576 -0.018607764 0.09672968 -0.008962373 0.22407597 0.2081459 0.13229766
0.02679819 0.1299624 -0.23669164 0.24761136 -0.1520642 0.13366918 0.050035253 -0.17541523
0.042162392 -0.13446125 0.00042849884 -0.22422947 0.2448303 -0.14766352 -0.006642711 0.24151626
-0.22216924 0.26294154 -0.022814848 -0.16179831 0.29604012 -0.029950358 -0.128294 0.0735719
0.1313673 -0.23599695 0.12953727 0.18522672 -0.2721888 0.00010965181 0.20208147 -0.06428802
0.22748253 0.094962716 0.1658261 0.27504146 0.28945 0.16159287 -0.15832166 0.27970222
-0.17122342 -0.2965998 -0.011632929 0.2632221 0.2944404 -0.28217384 0.25505382 -0.048504412
0.12004374 0.13719697 0.29570767 0.27223316 0.05885283 -0.18040855 0.015932385 -0.0010164952
0.009947195 -0.110207655 0.30134585 0.2929104 -0.22786398 0.13579479 -0.21506704 -0.26426932
-0.10172551 0.17179123 -0.085811846 -0.15398572 -0.027252072 -0.06697472 -0.0012414649 0.19824138
0.28558692 0.011534007 0.3044502 0.20271653 0.13789873 -0.11583579 0.22501028 0.046655666
-0.015222596 0.06750394 -0.034343805 0.27209967 0.027298214 0.22852315 -0.18384206 -0.060363546
0.21240774 -0.13000943 -0.078774475 0.16002554 -0.10905622 -0.06360807 -0.09011258 -0.01842762
-0.27172107 -0.1865375 0.059564445 -0.2870526 -0.3022905 0.12900852 -0.04109495 -0.20259419
0.28837803 -0.01939384 -0.13631342 -0.091021135 0.011385218 0.009746646 0.051279917 -0.05767894
-0.014253418 -0.0013122599 0.28225636 -0.1520978 -0.007341838 -0.2817733 -0.30329388 0.29956225
0.034111444 -0.25715575 -0.28595477 -0.2352328 0.014288071 0.023304218 0.18372768 -0.2019322
-0.12914087 -0.09615789 -0.053358328 -0.007832967 0.19356503 -0.01670669 -0.15611286 0.18377796
0.300061 -0.11688309 -0.2250708 0.26373354 -0.18691747 0.26480028 -0.15581316 0.022894703
0.21518806 -0.15872201 0.08861693 0.20672266 0.08540302 0.10127741 0.036119238 0.14984137
-0.26909325 -0.18660982 -0.20988019 -0.103157744 0.07286815 0.06456498 -0.002189021 0.28547764
0.1485635 0.100731425 -0.051750664 0.19379628 0.10581274 -0.28908592 0.08658876 0.08847899
0.07333234 -0.05743431 0.29190275 0.14705755 -0.20025823 0.016759895 0.09158315 -0.2739413
0.055692006 -0.11954876 0.20875469 0.17472415 0.14910719 0.24586356 0.2459421 -0.20357786
0.2553632 0.08544573 -0.27613622 -0.06424991 0.1267848 -0.09352406 -0.26630086 -0.014339279
00000000: db05 cc3d 58d8 6d3e a419 b6bd 450c 37be
00000010: b9ad b63d 480b 4cbe 067c 463e a089 84be
00000020: 07bb f2bd 2592 8b3d e1ef 96be 6c15 30be
00000030: 70f6 95be 7534 1e3d fd47 33bd 112b 17be
00000040: b997 fa3d de3e 96be d3a2 b6bd ab93 793e
00000050: 32bd 62be 416a 793e 746d 933e 244f 573d
00000060: b25b 8dbe 7d23 8ebe 74aa 963e 2311 6abe
00000070: 9319 11bd 757a 863d dade d83c 95bc 983e
00000080: 90a2 13be b4fb 88be efe4 893e f60c 7dbd
00000090: 4880 813e 063a 83be 3df6 01be 1d5f 003d
000000a0: a395 003e c9d6 023d c861 df3d 1ab7 3d3e
000000b0: 2a6f c8bd 19af ca3d 060a 023d a9c5 17be
000000c0: 138e a53c 4eb2 00be 6aa2 7bbe 4774 0b3e
000000d0: b8f4 6abe bc8f b03d 33d7 8bbe 8f41 6e3d
000000e0: a34f 9e3a 8793 acbd 4f6f 98bc 361a c63d
000000f0: ebd6 12bc 2c74 653e 3324 553e 0a79 073e
00000100: e187 db3c dd14 053e 4b5f 72be d58d 7d3e
00000110: b8b6 1bbe 93e0 083e c4f1 4c3d 0da0 33be
00000120: 79b2 2c3d 36b0 09be 24a8 e039 699c 65be
00000130: cbb4 7a3e 1b35 17be 19ab d9bb 0a50 773e
00000140: 5580 63be 46a0 863e 34e6 babc 75ae 25be
00000150: 9292 973e 745a f5bc 815f 03be ddac 963d
00000160: 2685 063e 2fa9 71be 6ba5 043e 13ac 3d3e
00000170: 555c 8bbe def4 e538 72ee 4e3e 70a9 83bd
00000180: 2ef1 683e d07b c23d 51ce 293e 3cd2 8c3e
00000190: ca32 943e 9a78 253e 131f 22be 2135 8f3e
000001a0: 3155 2fbe eedb 97be 0a98 3ebc 0cc5 863e
000001b0: e4c0 963e 1779 90be 6a96 823e 90ac 46bd
000001c0: 7ed9 f53d 5d7d 0c3e ff66 973e 2562 8b3e
000001d0: aa0f 713d 05bd 38be a284 823c eb3b 85ba
000001e0: 8ff9 223c 8db4 e1bd 014a 9a3e 5af8 953e
000001f0: 2d55 69be ca0d 0b3e 893a 5cbe 4f4e 87be
00000200: 7755 d0bd 0aea 2f3e 1fbe afbd 6fae 1dbe
00000210: bd3f dfbc 0b2a 89bd a6b8 a2ba caff 4a3e
00000220: 7338 923e 22f9 3c3c e6e0 9b3e ec94 4f3e
00000230: 5335 0d3e 513b edbd 1869 663e 031a 3f3d
00000240: 3268 79bc 813f 8a3d 17ac 0cbd a650 8b3e
00000250: 81a0 df3c f901 6a3e 1841 3cbe c43f 77bd
00000260: 6a81 593e 3121 05be 8354 a1bd bcdd 233e
00000270: de58 dfbd f344 82bd f28c b8bd 85f5 96bc
00000280: 061f 8bbe b003 3fbe d9f9 733d 8ff8 92be
00000290: d2c5 9abe cf1a 043e 2e53 28bd da74 4fbe
000002a0: 49a6 933e d5df 9ebc bf95 0bbe 4a69 babd
000002b0: 1189 3a3c 65b0 1f3c e40a 523d c140 6cbd
000002c0: 2b87 69bc 2300 acba e883 903e 87bf 1bbe
000002d0: cd93 f0bb 9744 90be 5649 9bbe 3960 993e
000002e0: 71b8 0b3d eba9 83be aa68 92be dee0 70be
000002f0: 8318 6a3c 7de8 be3c 1c23 3c3e 51c7 4ebe
00000300: 813d 04be 6eee c4bd 438e 5abd d855 00bc
00000310: e935 463e 78dc 88bc 0ddc 1fbe 4a30 3c3e
00000320: 98a1 993e 6760 efbd f678 66be 1508 873e
00000330: 4b67 3fbe e793 873e 7c8d 1fbe ac8d bb3c
00000340: 425a 5c3e 0688 22be cb7c b53d 1baf 533e
00000350: c7e7 ae3d 886a cf3d c4f1 133d 0470 193e
00000360: 97c6 89be a516 3fbe d5ea 56be 5e44 d3bd
00000370: e63b 953d a53a 843d ae75 0fbb 202a 923e
00000380: 0821 183e 474c ce3d 81f8 53bd 8872 463e
00000390: 5ab4 d83d 1203 94be 7355 b13d 7934 b53d
000003a0: 442f 963d 3d40 6bbd 4774 953e 4196 163e
000003b0: 7e10 4dbe 0c4c 893c f28f bb3d 0942 8cbe
000003c0: 4d1d 643d fbd5 f4bd cac3 553e e3ea 323e
000003d0: 8eaf 183e a8c3 7b3e 3fd8 7b3e b776 50be
000003e0: f7be 823e 2cfe ae3d ba61 8dbe 7595 83bd
000003f0: e0d3 013e 8b89 bfbd 9658 88be 4cef 6abc

cons_embedding.3.bias f4 [64]
-0.013978184 -0.056004684 0.06571883 0.08036061 0.1240916 -0.106120825 -0.12100228 0.06326468
0.030992014 0.07911563 0.11119177 -0.10142414 -0.08981926 0.10591258 0.12260713 0.051020574
0.08209759 0.12589765 0.04243413 0.053478606 -0.10738263 -0.050139416 0.010343763 -0.007652007
-0.076161765 0.056633513 -0.09318882 0.10557139 0.0762875 -0.059943687 0.10387034 -0.026523245
0.10350275 0.079191394 -0.0453299 0.023351327 0.014479679 -0.08803231 0.07261663 -0.09282263
0.122448415 -0.07129212 -0.063989535 -0.039193287 0.048578147 0.10767354 -0.026555149 -0.05903587
0.12123512 0.07714024 0.07148298 -0.029360529 -0.01533465 -0.094284505 -0.028536635 0.06389815
-0.09629524 -0.06654353 -0.05417654 -0.016727045 0.06575948 0.038168967 0.095368534 -0.04656375
00000000: c104 65bc 2b65 65bd 9897 863d 1a94 a43d
00000010: bd23 fe3d e055 d9bd 0bd0 f7bd ea90 813d
00000020: f7e2 fd3c 6007 a23d 83b8 e33d 76b7 cfbd
00000030: 29f3 b7bd b2e8 d83d 7219 fb3d f3fa 503d
00000040: c822 a83d 50eb 003e 69cf 2d3d 620c 5b3d
00000050: 6deb dbbd fd5e 4dbd e378 293c b0bd fabb
00000060: b3fa 9bbd 8bf8 673d c8d9 bebd d035 d83d
00000070: 9f3c 9c3d 8387 75bd f9b9 d43d 4747 d9bc
00000080: 40f9 d33d 192f a23d d8ab 39bd 484b bf3c
00000090: 2d3c 6d3c 494a b4bd 07b8 943d cb19 bebd
000000a0: 3cc6 fa3d 9a01 92bd f20c 83bd 2489 20bd
000000b0: e1f9 463d f283 dc3d 2f8a d9bc 99cf 71bd
000000c0: 1e4a f83d b4fb 9d3d ab65 923d 7e85 f0bc
000000d0: 2f3e 7bbc 3c18 c1bd a9c5 e9bc 09dd 823d
000000e0: 7036 c5bd f947 88bd 38e8 5dbd 2807 89bc
000000f0: e8ac 863d 1057 1c3d 9450 c33d a1b9 3ebd

var_embedding.0.weight f4 [7]
1.000286 1.0032166 1.0004871 0.9993359 0.99894994 0.99799997 1.0001669
00000000: 5f09 803f 6769 803f f60f 803f 7ad4 7f3f
00000010: 2fbb 7f3f ed7c 7f3f 7805 803f

var_embedding.0.bias f4 [7]
9.019346e-05 0.0020354148 5.7768844e-05 0.00080474705 0.0010015622 0.0015365044 0.0016056219
00000000: 3f26 bd38 9864 053b d34c 7238 a9f5 523a
00000010: da46 833a 8864 c93a bb73 d23a

var_embedding.1.weight f4 [64, 7]
0.23529947 -0.5268354 0.23323616 -0.069551624 0.67197245 -0.1416045 -0.88769585 -0.11556027
-0.622519 -0.5199935 -0.5312911 -0.6743964 -0.7998524 0.40354717 -0.11773765 -0.8741167
0.12600482 0.33900794 0.11058972 0.5780647 -0.0066867415 -0.36513874 0.4758659 -0.030798472
0.37528676 0.8853705 0.49008453 -0.09946314 0.60389 -0.016516551 -0.181814 -0.3663341
0.14297731 0.52540314 -0.38226464 0.5983529 0.58823264 0.8619015 -0.3450546 0.23002627
0.6117838 0.6379767 -0.5694296 -0.18393876 -0.30488518 -0.32559124 0.50362986 -0.670638
-0.57663137 0.22587103 0.15579349 0.6267289 -0.16544832 0.31673452 0.035102647 0.714524
0.07830372 0.35536134 -0.27554828 -0.15964097 -0.10726872 0.32973307 0.6214568 0.59023654
0.86846393 0.07772068 -0.5334467 0.108361214 -0.53943515 0.6453692 0.884583 0.8616776
-0.09420224 0.042834684 0.6329274 0.47636446 -0.016885974 -0.7355375 -0.71938086 -0.8894653
0.36587596 0.09846334 0.55330694 0.87491494 0.6003569 -0.16841474 0.20187801 -0.64368975
-0.6459495 -0.86477935 0.053884376 0.019591812 0.4711183 -0.7946586 0.0099379 0.73558944
0.9090044 -0.009507992 0.29994705 -0.5951038 -0.5503143 -0.24476483 0.6006732 -0.24676706
-0.5467173 0.90261304 -0.036907785 -0.2952952 -0.043875504 0.6228536 -0.77777994 -0.92396927
0.68151754 0.10860801 0.39347178 0.90457803 -0.14779627 -0.33353692 0.25746197 0.07030175
-0.8962474 -0.18887073 0.7791039 -0.13947351 0.6803948 -0.89357185 -0.47327355 0.7323299
0.69601107 0.6496672 -0.0659931 -0.50589246 0.07172049 0.72362274 0.3254917 0.12703237
-0.45791358 -0.65962887 -0.7896747 -0.07571049 0.7347825 -0.55256754 0.62169653 0.8554992
0.91471666 -0.6913183 -0.62930524 0.034424033 0.76178473 -0.6223039 0.6392423 0.271034
-0.1343451 0.044039853 -0.063984096 0.71859324 -0.5788623 0.35101777 -0.87523514 -0.91055083
-0.7444135 0.48937505 -0.58070934 0.10138134 -0.62349826 0.56510377 0.39346272 -0.290991
0.60021424 0.38426852 0.8652664 0.59840196 -0.71789193 0.31855989 -0.8116559 0.036986627
0.016914416 -0.5820977 -0.21800777 0.38006118 -0.7119874 0.076584026 -0.15616699 0.7027531
0.5039675 0.84898096 -0.40266445 0.41669816 0.293518 0.88502353 -0.014054246 -0.1041057
-0.4138698 0.2572786 -0.72579604 -0.21921623 0.6220265 -0.5663229 0.046304177 0.68271947
-0.43331033 -0.7946924 -0.43727663 -0.41469437 0.843841 -0.23112428 -0.22207145 0.48578674
0.7341141 -0.28186283 0.7043669 0.47154257 -0.06329897 0.27539244 0.34099883 -0.8894998
-0.1668875 -0.444306 0.59009373 0.91126037 0.6132101 0.8376821 0.5926296 0.22308214
-0.052922174 -0.15219975 0.7948143 0.7226267 -0.037694536 -0.026951795 0.38546693 0.8999267
0.65606904 -0.11547683 -0.01772964 -0.7458611 -0.6487544 -0.5327444 -0.022814577 -0.2022058
-0.86108017 -0.50911987 -0.16327806 0.79450804 -0.4872415 -0.56780434 0.43766204 0.4659526
0.27840245 0.55525464 -0.050338916 0.70398784 -0.6466633 -0.47102425 -0.057302084 0.64508337
00000000: 58f2 703e afde 06bf 76d5 6e3e 1571 8ebd
00000010: 6306 2c3f c500 11be 0940 63bf ddaa ecbd
00000020: 685d 1fbf 4b1e 05bf b202 08bf 3ea5 2cbf
00000030: 20c3 4cbf bc9d ce3e 7020 f1bd 1dc6 5fbf
00000040: 6807 013e 7392 ad3e dd7c e23d 0cfc 133f
00000050: 741c dbbb 77f3 babe b2a4 f33e 144d fcbc
00000060: 9625 c03e a4a7 623f 5cec fa3e 55b3 cbbd
00000070: 8998 1a3f b84d 87bc 732d 3abe 2590 bbbe
00000080: a568 123e d280 063f 31b8 c3be a82d 193f
00000090: 6a96 163f 94a5 5c3f ffaa b0be 028c 6b3e
000000a0: dd9d 1c3f 7152 233f 23c6 11bf 715a 3cbe
000000b0: e919 9cbe e5b3 a6be e3ed 003f efae 2bbf
000000c0: 1d9e 13bf bc4a 673e 5488 1f3e 4e71 203f
000000d0: 496b 29be 072b a23e cbc7 0f3d 0beb 363f
000000e0: b35d a03d ecf1 b53e aa14 8dbe ec78 23be
000000f0: b4af dbbd c6d2 a83e cb17 1f3f be19 173f
00000100: a753 5e3f 052c 9f3d f78f 08bf 7cec dd3d
00000110: 6c18 0abf ea36 253f 0874 623f e796 5c3f
00000120: 1bed c0bd 6c73 2f3d 8807 223f 0be6 f33e
00000130: 7454 8abc 304c 3cbf 5829 38bf ffb3 63bf
00000140: 1854 bb3e 26a7 c93d 86a5 0d3f 6dfa 5f3f
00000150: fdb0 193f ea74 2cbe 1cb9 4e3e dac8 24bf
00000160: f25c 25bf 2e62 5dbf ddb5 5c3d 027f a03c
00000170: 6b36 f13e bf6e 4bbf 93d2 223c 974f 3c3f
00000180: 83b4 683f 69c7 1bbc a992 993e b958 18bf
00000190: 66e1 0cbf a2a3 7abe b8c5 193f 81b0 7cbe
000001a0: aaf5 0bbf a611 673f 9e2c 17bd ef30 97be
000001b0: cdb6 33bd 5573 1f3f 961c 47bf 4089 6cbf
000001c0: ef77 2e3f e06d de3d 2275 c93e 6d92 673f
000001d0: e857 17be 5ac5 aabe 0ed2 833e 5dfa 8f3d
000001e0: 7870 65bf 5467 41be 5a73 473f 25d2 0ebe
000001f0: 5b2e 2e3f 20c1 64bf e950 f2be f979 3b3f
00000200: c82d 323f 9750 263f 6427 87bd 2b82 01bf
00000210: 31e2 923d 573f 393f d9a6 a63e c614 023e
00000220: a673 eabe 70dd 28bf 1f28 4abf 1a0e 9bbd
00000230: b51a 3c3f 1175 0dbf 8127 1f3f ff01 5b3f
00000240: df2a 6a3f 3cfa 30bf 261a 21bf 3700 0d3d
00000250: 5304 433f 4f4f 1fbf 62a5 233f f8c4 8a3e
00000260: c391 09be 2263 343d 180a 83bd baf5 373f
00000270: 5230 14bf 9ab8 b33e 690f 60bf dc19 69bf
00000280: e291 3ebf 5e8f fa3e 5ea9 14bf 05a1 cf3d
00000290: 959d 1fbf a4aa 103f f273 c93e c6fc 94be
000002a0: a4a7 193f d8be c43e 1982 5d3f df30 193f
000002b0: c4c7 37bf 481a a33e aec8 4fbf 4a7f 173d
000002c0: 1a90 8a3c 5b04 15bf 6e3d 5fbe 6197 c23e
000002d0: ce44 36bf 16d8 9c3d 3dea 1fbe a1e7 333f
000002e0: 0404 013f d156 593f 092a cebe 7659 d53e
000002f0: fe47 963e e790 623f c843 66bc 5f35 d5bd
00000300: bee6 d3be 05ba 833e c5cd 39bf 387a 60be
00000310: 213d 1f3f 8afa 10bf 73a9 3d3d b4c6 2e3f
00000320: dada ddbe f670 4bbf b9e2 dfbe d252 d4be
00000330: f705 583f d8ab 6cbe b366 63be 0ab9 f83e
00000340: e7ee 3b3f 5350 90be 6451 343f 076e f13e
00000350: e4a2 81bd 3d00 8d3e 6697 ae3e 42b6 63bf
00000360: 8fe4 2abe 137c e3be 6210 173f 5c48 693f
00000370: 56fb 1c3f 5672 563f 93b6 173f a56f 643e
00000380: ecc4 58bd 40da 1bbe f378 4b3f 10fe 383f
00000390: 9665 1abd 03ca dcbc ec5b c53e 9961 663f
000003a0: 24f4 273f 1e7f ecbd c03d 91bc c1f0 3ebf
000003b0: c514 26bf f061 08bf a3e5 babc 0a0f 4fbe
000003c0: c06f 5cbf ae55 02bf 5d32 27be e164 4b3f
000003d0: b877 f9be a05b 11bf 3d15 e03e 5791 ee3e
000003e0: c48a 8e3e 2b25 0e3f 2e30 4ebd 8c38 343f
000003f0: ba8b 25bf 172a f1be 97b5 6abd 2f24 253f

var_embedding.1.bias f4 [64]
0.069119416 -0.19224258 0.24086061 0.2964066 0.15323946 0.3504016 0.33101213 0.3602035
0.27499017 0.23251662 0.3491576 -0.077046916 0.26821458 0.2615108 0.3426831 -0.3315411
-0.22911114 0.19472414 0.2076356 0.22099328 -0.1225168 -0.3310654 -0.2440763 -0.34091458
-0.37337282 0.15183245 -0.2822042 -0.08139669 0.35979664 -0.32532465 -0.32621324 -0.3206623
-0.1574676 -0.033051558 0.073957704 0.14971648 -0.10065133 -0.16254199 0.21249841 0.013359796
0.36652693 0.3175073 0.26655555 0.16912135 -0.2649776 0.33394647 0.20102495 -0.2572431
0.2865043 0.043802477 0.26207396 0.009987094 0.32134476 0.36329913 -0.35333148 0.1440814
0.3612851 -0.23577708 -0.29876474 -0.26721287 0.30919555 -0.175378 0.3761772 -0.035751224
00000000: 7b8e 8d3d 3ddb 44be 2aa4 763e 9bc2 973e
00000010: ceea 1c3e d767 b33e 6c7a a93e 986c b83e
00000020: 83cb 8c3e d618 6e3e c9c4 b23e c6ca 9dbd
00000030: 6c53 893e bee4 853e 2974 af3e c1bf a9be
00000040: 1c9c 6abe c465 473e 6d9e 543e 104c 623e
00000050: 17ea fabd 6781 a9be 23ef 79be 5b8c aebe
00000060: b92a bfbe f779 1b3e 127d 90be 4fb3 a6bd
00000070: 4437 b83e f490 a6be 6c05 a7be d92d a4be
00000080: 303f 21be 1261 07bd 2377 973d 474f 193e
00000090: 4922 cebd 6871 26be 2f99 593e 0ce3 5a3c
000000a0: 6ba9 bb3e 5190 a23e f879 883e 262e 2d3e
000000b0: 25ab 87be 08fb aa3e 7cd9 4d3e 5eb5 83be
000000c0: b1b0 923e 3a6a 333d 8f2e 863e e9a0 233c
000000d0: 4d87 a43e 5802 ba3e dde7 b4be 138a 133e
000000e0: 5cfa b83e 8c6f 71be b1f7 98be 20d0 88be
000000f0: e14e 9e3e 4a96 33be 4c9a c03e e06f 12bd

var_embedding.3.weight f4 [64, 64]
-0.11124106 0.09772052 0.18061684 0.2942576 -0.04788039 -0.16456394 -0.26774117 0.08796678
0.086844146 0.015332427 -0.015528935 -0.085926265 0.26132578 0.10549875 -0.23556969 -0.28808242
0.15570402 -0.196056 0.23720635 -0.070649944 -0.16730084 -0.3050212 0.014718574 -0.026820729
-0.014888763 0.17621702 0.2508386 0.07190783 0.08732426 0.18848453 0.24271463 0.12026315
-0.29133293 0.07381613 -0.25487342 0.18621314 0.10682745 0.15454127 -0.0044148006 -0.2750859
0.2641336 0.29046473 -0.08323303 -0.16918619 0.03819275 0.28749138 0.074782774 0.26614302
-0.10835595 0.2186137 0.021547329 -0.24580781 0.30558994 -0.121086545 -0.16365695 0.23795995
0.074008524 0.0584642 -0.19772144 -0.06965606 0.11096914 0.18925105 0.071793884 0.11685747
0.1876631 -0.094234586 -0.055345517 0.2766659 0.18066323 -0.1192808 0.04695028 0.20774758
0.23591065 -0.0055183554 0.06272976 -0.06420985 -0.06800565 -0.22194916 0.12897937 -0.004699798
0.24951856 -0.23716286 0.18831065 0.10739943 -0.19536275 -0.08974059 0.16038793 -0.25883433
-0.23611455 0.050007783 -0.22979364 0.038637556 0.0136500215 0.28001633 -0.104517624 -0.30186513
-0.14225206 -0.04929975 0.2837189 0.062039275 -0.14967409 0.1960254 -0.0082455315 -0.034486987
0.11395523 -0.16187847 -0.22270249 0.30061552 -0.007999795 -0.07976219 -0.05137798 0.15107574
-0.2798617 0.12973714 -0.14595729 0.021456147 -0.021237979 -0.19603334 -0.07220659 0.12792802
-0.15480644 -0.2590397 -0.09931441 -0.027460063 -0.19346173 -0.08663639 -0.068293355 -0.26642668
0.0838535 0.17603952 0.29155773 0.29943904 -0.27268693 -0.28410673 -0.17990014 0.035707198
-0.2514221 0.22986549 -0.2645454 0.090177126 -0.23902884 0.24487188 -0.075089395 0.13786292
0.16816776 0.022647563 0.0037583462 0.16265 0.3022205 -0.22103249 0.22709495 0.21993488
0.21070348 0.27134296 -0.21662018 0.1299418 0.2578469 -0.14605723 -0.040936198 -0.10450908
0.24587391 -0.24428663 -0.22998528 -0.11748021 -0.24855362 -0.16304655 0.14873943 -0.12745368
0.13182837 0.15493493 -0.14525616 -0.1601821 0.005723759 -0.025532097 -0.2154513 -0.15596467
-0.19291784 -0.25689206 0.2589952 0.16479962 0.06065452 0.2775469 0.11794792 -0.16692714
0.14482655 0.22989647 -0.060806796 0.040239524 0.28456983 0.10246246 0.16333745 0.12415926
-0.09871759 -0.30591404 -0.23063077 -0.14946187 -0.25410822 0.04732381 0.10006079 0.2087966
0.2160203 0.0045645125 0.23001258 -0.12827589 -0.285576 0.17713107 -0.1958045 0.15301341
0.24618722 -0.065196805 -0.19648966 -0.18628769 0.11393222 0.2893768 0.12585391 0.2112481
-0.2598242 0.029258922 -0.16759971 -0.27433097 -0.17005785 -0.16505319 0.12528555 0.11382862
-0.18687621 -0.15414737 -0.15848525 -0.18035349 -0.2643099 -0.0970251 -0.031980153 0.045902677
0.1377053 -0.16138512 -0.19141537 -0.26671383 0.3023609 -0.2724883 -0.019058347 0.0049937745
-0.072519846 -0.095476694 0.19917046 0.02968089 -0.017551435 0.045959834 -0.20443562 -0.30137262
0.20896569 -0.09196053 -0.26553062 0.2488702 0.01796934 0.25954646 0.25512514 0.21528663
00000000: 5ad2 e3bd b221 c83d 9ff3 383e efa8 963e
00000010: 3a1e 44bd 7383 28be 5f15 89be ed27 b43d
00000020: 58db b13d dc34 7b3c 136d 7ebc 1cfa afbd
00000030: 7ecc 853e bb0f d83d 2e39 71be 8a7f 93be
00000040: e070 1f3e e7c2 48be 39e6 723e ebb0 90bd
00000050: e950 2bbe bd2b 9cbe 2c26 713c 25b7 dbbc
00000060: 00f0 73bc 3c72 343e eb6d 803e 6a44 933d
00000070: 10d7 b23d 1702 413e 2f8a 783e 874c f63d
00000080: 9729 95be e92c 973d c57e 82be a8ae 3e3e
00000090: 5ac8 da3d 1140 1e3e 08aa 90bb 0fd8 8cbe
000000a0: 853c 873e cbb7 943e 1476 aabd 253f 2dbe
000000b0: 0070 1c3d 1232 933e b627 993d e643 883e
000000c0: b9e9 ddbd 45dc 5f3e 0684 b03c 0bb5 7bbe
000000d0: 4976 9c3e 39fc f7bd b095 27be c6ab 733e
000000e0: c891 973d 2878 6f3d 7d77 4abe d6a7 8ebd
000000f0: ca43 e33d 07cb 413e ac08 933d f852 ef3d
00000100: c12a 403e 10fe c0bd fbb1 62bd 27a7 8d3e
00000110: c8ff 383e 7e49 f4bd f04e 403d c8bb 543e
00000120: 9092 713e 52d3 b4bb 7678 803d 7480 83bd
00000130: 8c46 8bbd a446 63be 2b13 043e c300 9abb
00000140: cb81 7f3e d2da 72be 82d4 403e 3bf4 db3d
00000150: 2c0d 48be eac9 b7bd bc3c 243e ef85 84be
00000160: 03c8 71be f6d4 4c3d 064f 6bbe 6a42 1e3d
00000170: 57a4 5f3c 4d5e 8f3e 560d d6bd 118e 9abe
00000180: 86aa 11be 89ee 49bd 9b43 913e e51c 7e3d
00000190: 2a44 19be e2ba 483e 4418 07bc 3a42 0dbd
000001a0: 5c61 e93d 78c3 25be 1f0c 64be 47ea 993e
000001b0: 9211 03bc 5c5a a3bd b771 52bd 99b3 1a3e
000001c0: 084a 8fbe d0d9 043e d475 15be cdc4 af3c
000001d0: 45fb adbc f7bc 48be 0ce1 93bd 90ff 023e
000001e0: 9485 1ebe daa0 84be 5a65 cbbd edf3 e0bc
000001f0: d51a 46be 6b6e b1bd 63dd 8bbd 1469 88be
00000200: 62bb ab3d b443 343e 0e47 953e 1350 993e
00000210: 9f9d 8bbe 7076 91be be37 38be b641 123d
00000220: 66ba 80be dc61 6b3e 7f72 87be c9ae b83d
00000230: fac3 74be b2bf 7a3e 78c8 99bd f02b 0d3e
00000240: 2b34 2c3e 6287 b93c 964e 763b b98d 263e
00000250: a5bc 9a3e 5756 62be 948b 683e 9c36 613e
00000260: a7c2 573e 77ed 8a3e aed1 5dbe 770f 053e
00000270: 8204 843e 0790 15be b7ac 27bd db08 d6bd
00000280: 5fc6 7b3e 4626 7abe 4381 6bbe 7799 f0bd
00000290: d784 7ebe adf5 26be 264f 183e 3883 02be
000002a0: 04fe 063e 43a7 1e3e 08be 14be c706 24be
000002b0: 5f8e bb3b b028 d1bc 449f 5cbe 34b5 1fbe
000002c0: 418c 45be 5b87 83be 059b 843e 3bc1 283e
000002d0: e070 783d a11a 8e3e ae8e f13d f3ee 2abe
000002e0: 694d 143e fb69 6b3e 8c10 79bd 33d2 243d
000002f0: 23b3 913e d7d7 d13d ef41 273e 3647 fe3d
00000300: 732c cabd c4a0 9cbe 792a 6cbe 880c 19be
00000310: 791a 82be 9dd6 413d acec cc3d c7ce 553e
00000320: 6d34 5d3e e891 953b 6b88 6b3e c15a 03be
00000330: 0437 92be d961 353e fa80 48be 8caf 1c3e
00000340: 8118 7c3e e785 85bd 9634 49be 33c2 3ebe
00000350: 4c55 e93d 3229 943e d9df 003e 6c51 583e
00000360: ad07 85be 68b0 ef3c 429f 2bbe 1c75 8cbe
00000370: a523 2ebe b403 29be db4a 003e fb1e e93d
00000380: 7a5c 3fbe cfd8 1dbe f549 22be 96ae 38be
00000390: a153 87be 18b5 c6bd 9ffd 02bd 7204 3c3d
000003a0: 9e02 0d3e 2442 25be 6402 44be b78e 88be
000003b0: 0ccf 9a3e 9683 8bbe 4020 9cbc d1a2 a33b
000003c0: 4985 94bd 4989 c3bd 57f3 4b3e 5625 f33c
000003d0: 07c8 8fbc 6140 3c3d 9257 51be 834d 9abe
000003e0: 1afb 553e cd55 bcbd a1f3 87be d4d7 7e3e
000003f0: 7034 933c 46e3 843e c39f 823e 1974 5c3e

var_embedding.3.bias f4 [64]
0.09258617 0.024759658 0.12352319 -0.08308351 -0.011381487 -0.02719598 0.06758097 0.008302623
-0.046352316 -0.06619453 0.02167753 0.097076856 -0.05378513 0.071760006 -0.02335631 -0.10169348
-0.11964001 -0.03882219 -0.08227568 -0.050284836 0.030386414 0.11501534 0.029687714 -0.05269751
0.04232036 -4.4715616e-05 0.08975261 0.075391926 -0.1226641 -0.042474866 0.07813253 0.10456307
-0.107053615 -0.0042472747 -0.0145926885 -0.115037054 -0.0978243 -0.018229188 -0.12027896 0.11187208
0.05197766 -0.009159765 0.07434465 0.015939007 0.09689927 0.089582816 0.0127348965 0.10883902
0.08120786 -0.048806965 -0.07753876 0.0037434115 0.08456715 -0.0050305617 0.047174532 0.047216702
-0.11965337 0.053406086 -0.026506217 -0.09466404 0.07800985 -0.085000806 0.018548008 -0.10689643
00000000: d19d bd3d c4d4 ca3c baf9 fc3d b027 aabd
00000010: 6b79 3abc 1bca debc e467 8a3d ba07 083c
00000020: eddb 3dbd ff90 87bd 1395 b13c 3bd0 c63d
00000030: cc4d 5cbd e9f6 923d bb55 bfbc ac44 d0bd
00000040: d205 f5bd 0404 1fbd 2780 a8bd 79f7 4dbd
00000050: eeec f83c 2a8d eb3d a633 f33c 58d9 57bd
00000060: 1d58 2d3d 078d 3bb8 37d0 b73d 1567 9a3d
00000070: 5137 fbbd 20fa 2dbd f303 a03d 2a25 d63d
00000080: ed3e dbbd b92c 8bbb 2c16 6fbc 8c98 ebbd
00000090: 1b58 c8bd 6155 95bc d154 f6bd 301d e53d
000000a0: 87e6 543d d712 16bc 0242 983d 8592 823c
000000b0: 2073 c63d 3277 b73d 07a6 503c fee6 de3d
000000c0: 4e50 a63d d0e9 47bd a4cc 9ebd 0654 753b
000000d0: 8b31 ad3d 69d7 a4bb 153a 413d 4d66 413d
000000e0: d30c f5bd 57c0 5a3d 9123 d9bc 38df c1bd
000000f0: a1c3 9f3d e714 aebd fef1 973c 84ec dabd

conv_v_to_c.feature_module_left.0.weight f4 [64, 64]
-0.103821054 -0.27593967 -0.23631212 0.10526549 -0.2785049 -0.24173754 -0.26463848 -0.079650275
0.14012586 -0.10304238 -0.0058049695 0.18047671 0.119878136 -0.08481498 -0.13173997 0.13076155
-0.22304584 0.20035739 0.2721448 -0.07327016 0.02707729 -0.028993739 0.23236276 0.02542308
0.12579907 -0.21183942 -0.025239278 0.18805808 -0.25709388 0.26086178 -0.29977965 0.0069300267
-0.18471473 0.13438588 0.1926815 0.033258222 0.271835 -0.2217409 0.15101014 -0.08984307
0.17861894 0.20357767 0.07268351 0.3033468 0.2222994 0.08012511 -0.039618947 -0.007826709
0.27475873 -0.102484606 0.22526754 -0.14100681 -0.29343757 0.08634246 0.101651736 0.04442423
-0.16637938 0.2673473 0.00827589 0.04611999 -0.09556085 -0.20153774 0.0034254633 -0.2510684
-0.14181632 -0.09227422 0.2529706 -0.0650706 0.10342987 -0.13640767 -0.27284825 -0.1395213
0.15023392 -0.25658786 -0.21245894 0.2507671 0.028496802 0.12637678 -0.03161274 0.0077183763
0.26482186 -0.17133026 -0.10376541 -0.14635012 -0.05166349 -0.25453272 -0.2955233 0.06403079
0.15325506 0.20254509 -0.11580655 0.19174494 0.065379076 -0.24306618 -0.19618241 0.10062883
-0.06472343 -0.021740565 -0.19138499 0.27703372 0.023560034 0.061976135 0.2107668 0.15787481
0.24571073 0.042742837 0.13485332 0.019359114 -0.15327804 0.00088476855 -0.10423572 -0.028783768
-0.024472928 -0.14384326 -0.21284956 0.28582957 -0.20841585 -0.20957865 -0.114526816 0.018345011
-0.12380353 0.21836232 0.047132958 -0.14130104 -0.15911011 0.029110888 -0.105578296 0.16563696
-0.16067268 -0.06291777 0.14110172 0.18774976 0.13860188 0.22079073 0.06392443 0.2690908
-0.21521442 -0.004169096 0.18164079 0.2821272 0.07998778 0.134736 -0.17633277 -0.10317414
0.055718202 0.16290538 -0.046396904 -0.04463714 -0.1330136 0.13644618 0.27334273 -0.16132918
-0.12533358 0.18185818 0.10984858 0.1087484 -0.26243946 0.05190614 0.13697441 -0.27568528
-0.0979139 -0.0035655792 0.16692023 -0.29280168 0.29873985 0.08166062 -0.29315364 0.12264148
0.07309866 -0.19749416 0.122932784 -0.24267319 -0.00066650525 -0.2371139 -0.08943988 -0.27658224
-0.11303558 -0.29025564 -0.2982565 -0.24921563 0.17501351 -0.019201256 -0.12757142 0.14808032
-0.10313193 0.17130542 0.13469635 -0.22295836 0.16091634 -0.16917267 -0.15807974 0.20649824
0.22732672 0.2764625 -0.22643515 -0.0767086 0.104505785 0.25150403 -0.13396186 -0.15190957
0.012947108 -0.09468989 0.2346766 0.06931132 -0.056497365 0.06976892 -0.07630775 -0.24495544
0.13596681 -0.117315136 -0.16805498 -0.10649544 -0.21858144 -0.22861764 0.07832357 -0.053531922
0.15945676 0.2273964 -0.02901034 -0.049731027 0.13736664 0.036544774 0.17704338 -0.10916897
-0.10735419 -0.18613398 0.00907635 -0.25396493 0.29673526 -0.2668311 0.020860245 -0.22836064
0.072250016 0.07049226 0.20652276 0.25167704 0.146111 -0.2655334 -0.29079726 -0.16867697
-0.1061234 0.08930642 0.015872682 0.29357684 -0.055960298 -0.15168168 -0.022288727 -0.19202276
0.2590173 -0.18332092 -0.29349086 -0.110691644 -0.22076626 -0.23311432 -0.17440112 0.26845983
00000000: 22a0 d4bd f747 8dbe cefb 71be 6f95 d73d
00000010: 3298 8ebe 0c8a 77be b27e 87be af1f a3bd
00000020: 277d 0f3e e207 d3bd 9d37 bebb e3ce 383e
00000030: ab82 f53d 7ab3 adbd d8e6 06be 5be6 053e
00000040: 2166 64be 7d2a 4d3e 9056 8b3e aa0e 96bd
00000050: 31d1 dd3c 4784 edbc 81f0 6d3e 1044 d03c
00000060: 79d1 003e 6fec 58be 9ac2 cebc 4c92 403e
00000070: cfa1 83be ad8f 853e b87c 99be 4715 e33b
00000080: dc25 3dbe 749c 093e 4d4e 453e c639 083d
00000090: f52d 8b3e 0c10 63be 67a2 1a3e a5ff b7bd
000000a0: e2e7 363e aa76 503e 18db 943d 4650 9b3e
000000b0: 74a2 633e a218 a43d 7a47 22bd 993b 00bc
000000c0: 2dad 8c3e 73e3 d1bd 89ac 663e 1764 10be
000000d0: 733d 96be 51d4 b03d c92e d03d 2ef6 353d
000000e0: 5b5f 2abe bfe1 883e 9997 073c 51e8 3c3d
000000f0: 68b5 c3bd e95f 4ebe bd7d 603b 0a8c 80be
00000100: 4c38 11be 44fa bcbd 5d85 813e bc43 85bd
00000110: 0ad3 d33d 74ae 0bbe c4b2 8bbe acde 0ebe
00000120: ecd6 193e 7c5f 83be d68e 59be 8c64 803e
00000130: 2072 e93c ea68 013e 5c7c 01bd 6fea fc3b
00000140: bb96 873e 3371 2fbe f682 d4bd cedc 15be
00000150: 189d 53bd 1d52 82be d44e 97be 9322 833d
00000160: e5ee 1c3e fb67 4f3e fc2b edbd c958 443e
00000170: 77e5 853d 57e6 78be 0be4 48be 7d16 ce3d
00000180: b88d 84bd 4519 b2bc 6dfa 43be 5dd7 8d3e
00000190: f900 c13c b0da 7d3d 41d3 573e efa9 213e
000001a0: 989b 7b3e 1d13 2f3d fd16 0a3e 0197 9e3c
000001b0: ebf4 1cbe d0ef 673a 8a79 d5bd f0cb ebbc
000001c0: 737b c8bc a64b 13be 3cf5 59be 4158 923e
000001d0: f76a 55be c99b 56be 098d eabd 4748 963c
000001e0: b58c fdbd 5f9a 5f3e 7d0e 413d 38b1 10be
000001f0: c3ed 22be f579 ee3c 6f39 d8bd bc9c 293e
00000200: 6187 24be 08db 80bd f87c 103e 7941 403e
00000210: a7ed 0d3e f716 623e d0ea 823d 45c6 893e
00000220: 2b61 5cbe e99c 88bb 0b00 3a3e fa72 903e
00000230: a2d0 a33d 3cf8 093e 9490 34be f74c d3bd
00000240: c538 643d abd0 263e ae0a 3ebd 6fd5 36bd
00000250: b834 08be 8cb8 0b3e 94f3 8b3e 7a33 25be
00000260: 7257 00be 0839 3a3e 4bf8 e03d 7bb7 de3d
00000270: 775e 86be 889b 543d 0543 0c3e 9f26 8dbe
00000280: 1587 c8bd 7eac 69bb 23ed 2a3e 1aea 95be
00000290: 6ef4 983e af3d a73d 3c18 96be 752b fb3d
000002a0: c0b4 953d e93b 4abe 2fc4 fb3d 527f 78be
000002b0: 69b8 2eba fccd 72be 412c b7bd 309c 8dbe
000002c0: 337f e7bd 639c 94be 13b5 98be 6232 7fbe
000002d0: be36 333e f44b 9dbc 15a2 02be 5ea2 173e
000002e0: d536 d3bd b06a 2f3e d7ed 093e 324f 64be
000002f0: 41c7 243e 9a3b 2dbe a8df 21be 4674 533e
00000300: 56c8 683e 7e8c 8d3e 9ede 67be 6619 9dbd
00000310: 2107 d63d 23c5 803e 4c2d 09be 2f8e 1bbe
00000320: 1b20 543c c6ec c1bd 104f 703e 18f3 8d3d
00000330: c869 67bd 02e3 8e3d 3d47 9cbd 99d5 7abe
00000340: e23a 0b3e eb42 f0bd 9b16 2cbe 481a dabd
00000350: d0d3 5fbe be1a 6abe 1c68 a03d 4a44 5bbd
00000360: a248 233e 9ada 683e 18a7 edbc c3b2 4bbd
00000370: d7a9 0c3e f9af 153d dc4a 353e fb93 dfbd
00000380: 83dc dbbd e899 3ebe f9b4 143c b107 82be
00000390: afed 973e 169e 88be 1be3 aa3c 5fd7 69be
000003a0: d1f7 933d 3f5e 903d b47a 533e d0db 803e
000003b0: 1f9e 153e fef3 87be 61e3 94be a8b9 2cbe
000003c0: 3a57 d9bd 49e6 b63d 6d07 823c b44f 963e
000003d0: a036 65bd 7152 1bbe d996 b6bc 9da1 44be
000003e0: ea9d 843e 7bb8 3bbe 6f44 96be 4db2 e2bd
000003f0: 8d10 62be 85b5 6ebe 3596 32be 9173 893e

conv_v_to_c.feature_module_left.0.bias f4 [64]
0.058969963 -0.077625975 -0.075240724 -0.084067255 -0.006331294 -0.0718685 -0.026674177 -0.087428644
0.08572352 0.0724225 0.014270789 -0.0147369085 -0.07103786 -0.08146845 -0.09270873 -0.03243897
0.018490912 0.070494935 -0.06859524 0.10681791 0.017102191 -0.10569247 -0.12101121 -0.110137954
0.011549898 -0.07963693 -0.011693563 0.039019924 0.11146977 0.0051812376 0.0061868387 -0.08609177
-0.014279395 -0.054353673 -0.060221154 0.10958312 0.083653994 -0.048315126 -0.023655662 -0.02257112
0.07717837 -0.040798612 -0.08706701 -0.08440927 0.05767195 0.07846579 0.01724837 -0.048953474
0.056552973 -0.060371205 -0.11263871 -0.1118662 0.04333268 0.114615925 0.115248814 0.038636826
-0.08464674 -0.080559894 0.015558936 -0.046636403 0.024871806 0.030823667 0.01699329 0.11800587
00000000: 7d8a 713d 5efa 9ebd cf17 9abd 742b acbd
00000010: be76 cfbb cb2f 93bd ce83 dabc ca0d b3bd
00000020: d08f af3d 3f52 943d 07d0 693c 1373 71bc
00000030: 4c7c 91bd eed8 a6bd 13de bdbd bade 04bd
00000040: 417a 973c a65f 903d a97b 8cbd 59c3 da3d
00000050: e519 8c3c 4b75 d8bd bad4 f7bd 0290 e1bd
00000060: c93b 3d3c b018 a3bd 5c96 3fbc 5bd3 1f3d
00000070: 434a e43d 5fc7 a93b f7ba ca3b e250 b0bd
00000080: 20f4 69bc f5a1 5ebd 75aa 76bd 1d6d e03d
00000090: c952 ab3d 15e6 45bd 85c9 c1bc 12e7 b8bc
000000a0: b10f 9e3d 721c 27bd 3050 b2bd c4de acbd
000000b0: 6c39 6c3d acb2 a03d 744c 8d3c 7083 48bd
000000c0: 17a4 673d cc47 77bd 20af e6bd 1b1a e5bd
000000d0: 9c7d 313d c1bb ea3d 9207 ec3d a641 1e3d
000000e0: 455b adbd 96fc a4bd e8ea 7e3c d005 3fbd
000000f0: f5bf cb3c ea81 fc3c 8335 8b3c 10ad f13d

conv_v_to_c.feature_module_edge.0.weight f4 [64, 1]
-1.3985622 -2.4383097 -2.1562402 -1.1862512 -0.4593953 -0.4685067 0.15733807 -0.22602321
0.14220533 -1.2757051 0.6437226 -1.1679474 -0.50080866 0.8957287 1.3185977 1.5759426
2.0127735 1.4005288 -1.100786 -0.05074748 -0.00060649816 -0.114720605 1.3135157 0.43605554
-0.27522627 -2.3261788 -1.1554307 -0.67076343 0.87332016 -1.9991808 0.57488954 0.57137567
-1.8478371 -0.67397517 -0.3590957 -1.3907236 0.99207675 -1.1118377 2.1631527 0.42378
-1.9181796 0.37020457 -0.31163105 1.8782552 1.2202935 1.7412683 0.7165608 -0.0866611
-0.2806372 0.42592928 -2.3051293 -2.0945866 -0.7344484 1.225482 1.4705493 -0.8004023
-2.0213556 2.2764025 -0.94725436 -2.1601653 1.0174109 -1.1477154 2.369071 -0.78218293
00000000: 1604 b3bf 440d 1cc0 d7ff 09c0 14d7 97bf
00000010: dc35 ebbe 1ce0 efbe 3b1d 213e a172 67be
00000020: 469e 113e 4e4a a3bf 01cb 243f 4d7f 95bf
00000030: ff34 00bf 7a4e 653f cfc7 a83f 7db8 c93f
00000040: 48d1 0040 8744 b33f 8ee6 8cbf 97dc 4fbd
00000050: 67fd 1eba a3f2 eabd 4821 a83f ac42 df3e
00000060: 75ea 8cbe 1de0 14c0 27e5 93bf 27b7 2bbf
00000070: e991 5f3f 28e5 ffbf f62b 133f ad45 123f
00000080: ed85 ecbf a389 2cbf 64db b7be 3b03 b2bf
00000090: bef8 7d3f b350 8ebf 1871 0a40 b1f9 d83e
000000a0: e986 f5bf 748b bd3e 1b8e 9fbe ab6a f03f
000000b0: 9432 9c3f e1e1 de3f 8770 373f 607b b1bd
000000c0: aeaf 8fbe 6713 da3e 3d87 13c0 b50d 06c0
000000d0: cf04 3cbf 98dc 9c3f f63a bc3f 2ae7 4cbf
000000e0: e45d 01c0 94b0 1140 437f 72bf 2640 0ac0
000000f0: 853a 823f 57e8 92bf dc9e 1740 243d 48bf

conv_v_to_c.feature_module_right.0.weight f4 [64, 64]
0.25251 -0.06612774 0.2826167 -0.13163349 0.12995607 0.29437393 -0.23088174 -0.12423332
0.10257262 0.22818369 0.11696372 0.16001199 0.21280095 0.14020489 0.29895166 -0.09865555
0.27322453 -0.008705683 -0.22407362 -0.14381105 -0.21563286 0.15210113 0.06882739 -0.14104329
0.095786974 0.2737271 0.22642484 -0.06594752 0.22865856 0.24031474 -0.18779354 -0.103434145
0.11064138 -0.23204845 -0.09932427 0.27693722 -0.00853213 -0.18097703 -0.064278856 0.13957696
-0.029292768 -0.2636764 0.12155916 0.012090642 -0.025748283 -0.011229483 -0.2518137 -0.27154452
0.06542289 -0.22203702 -0.11505943 -0.28259712 -0.22649905 0.1865989 0.2827087 -0.24216835
0.16595674 0.09957273 -0.027647821 -0.25804555 0.18631561 -0.21126613 -0.043287497 0.016985409
-0.025301285 0.09837205 -0.25141144 -0.23636869 0.1661431 0.13678554 -0.10357221 0.13000321
0.2632498 -0.15964884 0.20552942 -0.29356813 0.1740163 0.0969379 -0.032998156 0.21132848
-0.290702 0.2083833 0.1647497 0.07233452 0.13821727 -0.034281157 -0.2958858 -0.24307235
-0.16505355 -0.12351854 0.15240495 0.0062592966 -0.011065854 0.005539341 0.14190955 0.22915742
-0.18534315 -0.0025648056 -0.24092712 -0.19576438 0.2672224 0.043203093 -0.19278742 0.10717837
0.22947343 0.21836323 -0.04487155 -0.28819582 0.14606869 -0.09421281 -0.24916947 0.2613986
0.11421145 -0.1604231 0.07447435 -0.27784458 0.055626772 0.20762272 0.048896447 -0.03927944
0.0012873337 -0.22536124 0.19069332 -0.03426489 -0.09387798 0.13222186 -0.06279428 -0.04500174
-0.29046613 -0.15144233 -0.06086435 -0.12615432 0.17548169 0.21353605 -0.111845694 -0.2349523
-0.20728579 0.2903481 0.053858865 -0.14250395 -0.20093271 0.26206607 -0.114945255 -0.23685284
0.026199793 -0.04532717 -0.13794416 -0.29637772 -0.028973114 0.06491432 0.004660708 0.06757556
0.1302395 -0.08282151 0.16173631 0.20453756 0.22420782 -0.2918782 -0.11649978 0.09751536
-0.023775391 0.1097663 0.07184542 -0.2847683 0.094863385 0.09836184 -0.13240615 -0.12888345
-0.09761625 0.1789275 -0.00510175 0.1123598 -0.25441858 0.03928926 -0.26988596 0.1341121
-0.16644785 -0.049624868 -0.1707268 0.22515993 -0.066354826 -0.03360148 0.25091082 -0.21388946
0.048162896 -0.16045767 0.25013527 -0.23360841 -0.293717 -0.2882498 0.16232151 0.19722034
0.2684176 -0.28758484 -0.12692742 0.119784094 -0.23475493 0.25686148 0.22604899 -0.040263653
0.04999782 -0.20985274 -0.23360032 0.2169407 -0.20544699 0.22430904 -0.10921183 -0.14313856
0.26054895 0.11435506 -0.23593803 0.16061372 0.2930178 0.22186612 0.23538177 -0.105951376
-0.05194618 -0.14055632 0.25975156 0.035517517 0.1913113 0.29277816 0.27597874 0.24699742
0.16307281 0.027115392 -0.0018706077 -0.12734023 0.11668316 -0.25088647 -0.10180458 -0.103811525
0.13149136 0.260559 -0.14831279 -0.27526048 -0.23018248 -0.0028353003 -0.019278478 0.22556867
0.27579325 -0.2447994 -0.17051265 0.1006363 -0.00078456674 -0.25921738 -0.23534955 0.046970017
0.04984691 -0.29909906 -0.30343896 -0.287034 0.2530857 0.14836456 -0.13504452 -0.028894281
00000000: fe48 813e fb6d 87bd 23b3 903e eeca 06be
00000010: 3413 053e 2eb8 963e 436c 6cbe 0a6e febd
00000020: 9811 d23d fca8 693e ad8a ef3d 2fda 233e
00000030: 7ee8 593e df91 0f3e 3110 993e ec0b cabd
00000040: 16e4 8b3e 48a2 0ebc 8e73 65be 3443 13be
00000050: dcce 5cbe 66c0 1b3e 60f5 8c3d a76d 10be
00000060: f62b c43d f525 8c3e eadb 673e 7e0f 87bd
00000070: 7825 6a3e 1115 763e f34c 40be 48d5 d3bd
00000080: f397 e23d 1c9e 6dbe 866a cbbd b7ca 8d3e
00000090: 59ca 0bbc 0b52 39be a2a4 83bd 43ed 0e3e
000000a0: 63f7 efbc 9800 87be 02f4 f83d d417 463c
000000b0: 10ee d2bc defb 37bc baed 80be e207 8bbe
000000c0: 70fc 853d ac5d 63be 47a4 ebbd 92b0 90be
000000d0: 5eef 67be c813 3f3e 32bf 903e fbfa 77be
000000e0: 90f0 293e caec cb3d af7d e2bc 8c1e 84be
000000f0: 85c9 3e3e 2656 58be 3b4e 31bd fc24 8b3c
00000100: a444 cfbc 4977 c93d 00b9 80be a20a 72be
00000110: 6b21 2a3e 8211 0c3e ab1d d4bd 901f 053e
00000120: aec8 863e fc7a 23be 4e76 523e 904e 96be
00000130: 5431 323e 6187 c63d 1329 07bd 7e66 583e
00000140: e4d6 94be 6f62 553e 25b4 283e 1f24 943d
00000150: d488 0d3e 666a 0cbd 587e 97be f5e7 78be
00000160: cc03 29be 4af7 fcbd 0b10 1c3e c91a cd3b
00000170: 8e4d 35bc 5c83 b53b bd50 113e 3ea8 6a3e
00000180: 98ca 3dbe 4c16 28bb 99b5 76be 7576 48be
00000190: 60d1 883e baf5 303d 116a 45be 5580 db3d
000001a0: 15fb 6a3e 9c9a 5f3e 3bcb 37bd 678e 93be
000001b0: 0893 153e a5f2 c0bd 4826 7fbe 0ad6 853e
000001c0: b1e7 e93d f445 24be 0286 983d a541 8ebe
000001d0: e6d8 633d 0d9b 543e a447 483d 7ae3 20bd
000001e0: c0bb a83a 19c5 66be 1c45 433e 5759 0cbd
000001f0: 1943 c0bd 2b65 073e 4a9a 80bd bf53 38bd
00000200: fab7 94be b313 1bbe e64c 79bd 992e 01be
00000210: 79b1 333e 32a9 5a3e 5b0f e5bd 5697 70be
00000220: ba42 54be 82a8 943e 1d9b 5c3d 8eec 11be
00000230: 4ec1 4dbe 862d 863e 6b68 ebbd 8d89 72be
00000240: f3a0 d63c fca8 39bd 3c41 0dbe d2be 97be
00000250: 0659 edbc cdf1 843d dab8 983b 0e65 8a3d
00000260: 815d 053e 539e a9bd 349e 253e 4b72 513e
00000270: bc96 653e 0f71 95be 7097 eebd 22b6 c73d
00000280: 9cc4 c2bc 27cd e03d b123 933d 27cd 91be
00000290: bc47 c23d ef71 c93d 7a95 07be 06fa 03be
000002a0: 07eb c7bd c538 373e 952c a7bb e51c e63d
000002b0: 2743 82be c6ed 203d 7e2e 8abe af54 093e
000002c0: 4e71 2abe 7243 4bbd 02d3 2ebe 5390 663e
000002d0: 0ae5 87bd b5a1 09bd 6277 803e d705 5bbe
000002e0: 7546 453d 044f 24be bb11 803e 0b37 6fbe
000002f0: 1362 96be 7a95 93be 9c37 263e 21f4 493e
00000300: 086e 893e 523e 93be 43f9 01be 5d51 f53d
00000310: 9963 70be 5983 833e 6379 673e 80eb 24bd
00000320: 84ca 4c3d a3e3 56be ec34 6fbe b425 5e3e
00000330: b260 52be 45b1 653e 74aa dfbd ea92 12be
00000340: ac66 853e fc32 ea3d bd99 71be ec77 243e
00000350: 6e06 963e df30 633e eb07 713e 09fd d8bd
00000360: 85c5 54bd ffed 0fbe 28fe 843e d17a 113d
00000370: 1ce7 433e 05e7 953e 164d 8d3e e4ec 7c3e
00000380: 8ffc 263e 1921 de3c 2e2f f5ba 7a65 02be
00000390: 95f7 ee3d 3174 80be eb7e d0bd 239b d4bd
000003a0: aca5 063e fd67 853e 4fdf 17be f1ee 8cbe
000003b0: f5b4 6bbe 72d0 39bb e6ed 9dbc 79fb 663e
000003c0: c634 8d3e b2ac 7abe de9a 2ebe 681a ce3d
000003d0: 62ab 4dba 24b8 84be 79ff 70be a263 403d
000003e0: 462c 4c3d 8323 99be 5a5c 9bbe 1ff6 92be
000003f0: 7394 813e e1ec 173e 1c49 0abe b3b3 ecbc

conv_v_to_c.feature_module_final.0.weight f4 [64]
1.0006075 1.0004122 1.0007011 1.0002618 0.9985555 1.0013924 0.99958974 0.9941828
1.0012622 1.0001363 1.000874 0.9977295 1.0028031 1.0010442 0.99947476 0.9986137
0.998273 1.0003985 0.9981092 0.9995774 1.0005533 0.99895436 0.9920769 0.9996987
0.99946487 0.9978967 1.0001932 0.99742275 0.9993106 1.0007807 1.0007354 0.99811107
1.003046 1.0010211 0.9988483 1.0008872 0.997771 0.99745834 1.0005664 0.9987501
1.0028839 1.0020832 0.9993849 1.0009229 1.003644 0.99876493 0.9996928 1.0057111
1.0022744 0.9994286 0.9998849 1.0015504 0.9977648 0.9979769 1.0001376 0.9999681
1.0006269 1.0008779 0.993914 0.9983905 1.0000747 1.0025452 0.9987295 1.0006799
00000000: e813 803f 820d 803f f916 803f 9408 803f
00000010: 55a1 7f3f a02d 803f 1de5 7f3f c482 7e3f
00000020: 5c29 803f 7704 803f a41c 803f 336b 7f3f
00000030: da5b 803f 3722 803f 94dd 7f3f 26a5 7f3f
00000040: d28e 7f3f 0f0d 803f 1684 7f3f 4ee4 7f3f
00000050: 2112 803f 79bb 7f3f c0f8 7d3f 41ec 7f3f
00000060: eedc 7f3f 2876 7f3f 5506 803f 1957 7f3f
00000070: d2d2 7f3f 9519 803f 1918 803f 3584 7f3f
00000080: d063 803f 7621 803f 86b4 7f3f 121d 803f
00000090: ec6d 7f3f 6e59 7f3f 8f12 803f 16ae 7f3f
000000a0: 805e 803f 4344 803f b0d7 7f3f 3e1e 803f
000000b0: 6877 803f 0faf 7f3f deeb 7f3f 24bb 803f
000000c0: 874a 803f 8dda 7f3f 75f8 7f3f ce32 803f
000000d0: 846d 7f3f 6a7b 7f3f 8204 803f e9fd 7f3f
000000e0: 8b14 803f c41c 803f 2671 7e3f 8596 7f3f
000000f0: 7302 803f 6753 803f bdac 7f3f 4716 803f

conv_v_to_c.feature_module_final.0.bias f4 [64]
0.00051350694 -5.6812696e-06 -0.0002618079 -0.00027530926 -0.0017981636 0.00037561226 -0.000840553 -0.0061134254
0.0013702519 -0.0003206751 0.0008018518 -0.0034007344 0.0020393403 -0.00011679568 -0.0004533123 1.0197242e-05
-0.0011845375 0.0005549551 -0.0019785056 -0.00036223873 7.565512e-05 -0.0013643958 -0.008052681 -0.00046080127
0.000835258 -0.0022506893 -0.00022443397 -0.002631866 -0.00036104923 0.002044095 0.0007616047 -0.002533073
0.0008978858 0.0025081688 -0.00063684455 0.00066500413 -0.0018601104 -0.004240526 3.6382942e-05 -0.0018067184
0.00398219 0.0018696403 -6.110315e-05 0.0008080186 0.002979436 0.00075720943 -0.00071221206 0.003278412
0.0025593867 -0.00010638178 -0.00011820028 0.0011402214 -0.0022515578 -0.0020247144 -0.0002390012 -8.320368e-06
7.896118e-06 0.00087375136 -0.0053158747 -0.0022880118 0.001304779 0.002196005 -0.0011637105 -0.00015810804
00000000: de9c 063a bca1 beb6 4343 89b9 6257 90b9
00000010: 5cb0 ebba d3ed c439 8f58 5cba 2153 c8bb
00000020: 069a b33a 4920 a8b9 5d33 523a dbde 5ebb
00000030: 74a6 053b 34f0 f4b8 8caa edb9 d214 2b37
00000040: 7c42 9bba 687a 113a d1a9 01bb dcea bdb9
00000050: 09a9 9e38 87d5 b2ba 64ef 03bc b397 f1b9
00000060: 37f5 5a3a 4d80 13bb 0956 6bb9 627b 2cbb
00000070: 354b bdb9 39f6 053b 6da6 473a ea01 26bb
00000080: 1960 6b3a 1760 243b eaf1 26ba ac53 2e3a
00000090: f3ce f3ba 1cf4 8abb e399 1838 69cf ecba
000000a0: 087d 823b b80e f53a 8124 80b8 36d1 533a
000000b0: a442 433b 777f 463a beb3 3aba a0da 563b
000000c0: 62bb 273b 4919 dfb8 4be2 f7b8 7b73 953a
000000d0: df8e 13bb 12b1 04bb 659c 7ab9 b597 0bb7
000000e0: 9279 0437 760c 653a ca30 aebb 78f2 15bb
000000f0: 1e05 ab3a daea 0f3b a587 98ba cec9 25b9
