rl_model/SCPPO_value_209.pth (torch_old, 472694 bytes, 71 tensors)

cons_embedding.0.weight f4 [4]
000000 d7 e9 7f 3f 40 dc 7f 3f 17 e0 7f 3f 6a 04 80 3f
       0.99966186 0.9994545 0.9995131 1.0001347

cons_embedding.0.bias f4 [4]
000000 7a 16 b2 39 71 7b 14 3a bc 52 00 ba d2 09 07 39
       0.00033967552 0.0005664146 -0.0004895141 0.00012878262

cons_embedding.1.weight f4 [64, 4]
000000 ae 39 f0 3d a8 46 6f 3e 30 44 93 3e 76 08 26 bf
       0.117297515 0.23366797 0.2876296 -0.6485666
000010 d2 ce 70 bf 7d 86 9f be 36 93 89 3f b6 3a 3d bd
       -0.9406558 -0.31157294 1.074805 -0.04619857
000020 fd 11 23 3f d5 cf 8f 3f 41 76 8e bf d3 7e 93 3f
       0.6369932 1.12353 -1.1129838 1.1523079
000030 4c 26 5c bf 06 9f 06 bf 57 62 8d 3f 24 b7 9a 3f
       -0.85995936 -0.525864 1.1045636 1.208714
000040 a0 35 87 be 67 38 27 3f 3c 66 ab be 64 6c 03 bf
       -0.264081 0.6532044 -0.33476436 -0.51337266
000050 56 af 43 3e ac fa fd 3d 39 c7 7e be b1 bf 42 be
       0.19109854 0.124013275 -0.24880685 -0.19018437
000060 1b 70 0e bf b2 3f f4 be 75 54 94 bf 0f 2f 3d bf
       -0.5563981 -0.47704846 -1.1588274 -0.7389993
000070 6d 49 12 3f 9f 7e 18 3f 3e 5c 7f bf 2f d7 5f bf
       0.5714329 0.5956821 -0.99750125 -0.8743772
000080 ee 0d 48 3f 50 12 6a 3f 4b bb 5a 3f 95 e3 80 bf
       0.78146255 0.9143419 0.85442036 -1.0069453
000090 e4 61 cc bd 38 d4 3d bf d6 e7 2d 3f af ef 14 bf
       -0.09979609 -0.74151945 0.6793188 -0.5817823
0000a0 45 60 48 be 55 46 6a bf e0 d7 13 3e 82 de 71 3f
       -0.19567974 -0.9151357 0.14437819 0.94480145
0000b0 24 97 32 be d9 ea 3a 3f fb e7 59 bf f5 e0 14 bf
       -0.17440468 0.730146 -0.851196 -0.5815576
0000c0 9e ac 26 3f 60 5e 76 3f 7a 8a 11 be 73 a7 83 3e
       0.6510714 0.96237755 -0.14212981 0.2571369
0000d0 30 41 67 3f 01 51 85 3f 59 cb 66 3f 78 17 b8 be
       0.90333843 1.0415345 0.90154034 -0.35955405
0000e0 d5 e5 25 3f db 22 cd 3e ba d5 93 bd 94 f6 5b 3f
       0.6480382 0.40065655 -0.072184995 0.85923123
0000f0 d8 95 61 3f e3 f0 16 3e 85 c7 5d 3f ac bf 30 bf
       0.8811927 0.14740328 0.8663257 -0.6904247
000100 24 0d 32 bf 8f c7 72 3f 41 99 92 3f ec ff 8f 3f
       -0.695513 0.9483575 1.1453019 1.1249976
000110 aa db 97 3e 09 d9 8c bf 1f ea 9a 3f 63 cd 73 3f
       0.29659778 -1.1003734 1.2102698 0.9523527
000120 d1 f3 ef 3e 69 94 1b bf 53 4c 59 bf 35 ec 05 bc
       0.46865705 -0.6077333 -0.84882087 -0.008173992
000130 1a 01 9d 3d 5f 9f 97 3f 2c 49 a1 3e 3f 02 01 3f
       0.07666226 1.1845511 0.31501138 0.5039405
000140 07 5c 94 3c 0e 7d bf 3e 87 73 f8 bd ac 94 a2 bd
       0.018110288 0.37400097 -0.1213141 -0.07938513
000150 6d 82 d7 be 6c d1 0d bf e2 72 4f bf db 8c 39 3f
       -0.42091694 -0.5539768 -0.8103467 0.72480553
000160 cc e2 1a bf fa fa 56 3f c2 5a 7a bf c0 0b 01 bf
       -0.60502315 0.8397671 -0.97794735 -0.50408554
000170 c4 9c 47 be 92 3d b5 3e a1 9b 45 3e b8 95 59 3f
       -0.19493395 0.35398537 0.19297649 0.8499408
000180 2a d9 1c bd 26 fa b9 be 5b 97 66 3d 39 4b 65 3f
       -0.03829304 -0.3632366 0.056296688 0.89567906
000190 1b 3e 89 bf df 20 9d 3e 0a 31 5b bf 49 71 98 3f
       -1.0722078 0.3068914 -0.856217 1.1909572
0001a0 6d 1c 44 bf 1b ba 94 3e a8 2e 23 be db e5 2e 3f
       -0.76605874 0.29048237 -0.15935767 0.6831948
0001b0 37 a1 11 bf 4a 13 0f 3f 25 43 57 bf c6 7a 86 3e
       -0.5688662 0.5588881 -0.8408683 0.26265544
0001c0 80 f1 21 3f e9 22 0e bf 61 5f 11 bf 7e 0d 27 3f
       0.63259125 -0.5552202 -0.5678616 0.6525496
0001d0 47 d3 c6 3d c2 eb 39 bf a7 f4 7e 3e af 79 ec be
       0.09708267 -0.7262536 0.24898015 -0.46186587
0001e0 0e 5a 3c be 1c 3e a4 be 7b a8 29 3f 22 25 85 3f
       -0.18393728 -0.32078636 0.66272706 1.0401957
0001f0 d2 c7 ba 3e 16 dd 05 bf 77 73 3d 3f ee fb 38 3c
       0.36480576 -0.52290475 0.7400431 0.0112905335
000200 b3 e8 ba 3b 7e 35 8b 3e 59 06 e9 be 73 15 01 3f
       0.0057040094 0.2718925 -0.45512655 0.50423354
000210 a2 8e 0a be 7c e2 4e bf da e6 04 3f 0a 80 51 bf
       -0.13530973 -0.8081434 0.5191475 -0.81836
000220 8c 92 87 bf 46 30 20 3f fd 14 87 3f 15 ad 67 bf
       -1.0591598 0.6257366 1.055328 -0.9049848
000230 66 be 7a be b0 14 81 3f 76 9e 6b 3f 25 43 ff 3e
       -0.24486694 1.0084438 0.9203867 0.49855915
000240 8f 98 25 bd c9 b7 09 3f d1 ea 2a 3f 0a 5e 66 bf
       -0.040428694 0.5379606 0.6676455 -0.8998724
000250 1c 86 0e bf 88 cc 23 bf 04 5f 89 bf c8 d5 69 bf
       -0.55673385 -0.63983965 -1.0732121 -0.9134183
000260 9f 79 4d 3f 29 24 e2 bd 2c ac d8 3d d1 55 b3 be
       0.80263704 -0.11042053 0.10579714 -0.3502641
000270 f7 93 a8 3b 65 61 93 bf de aa 69 3f 5f 2f 78 3f
       0.005144592 -1.1514097 0.9127635 0.9694728
000280 d6 e8 7e 3e 38 d0 9a 3f b6 2e d5 be a3 59 48 bf
       0.24893507 1.2094793 -0.416372 -0.78261775
000290 9d db 1a 3e de d6 97 3f b0 d0 49 3f d5 21 6d be
       0.15122838 1.1862447 0.78834057 -0.23157437
0002a0 3c 0a 26 bc 65 e8 34 bf 44 14 e4 3d 28 79 23 bf
       -0.010134276 -0.70667106 0.11136678 -0.63856745
0002b0 6c cc 6e 3f 7a 0c 97 bf cc b6 94 3f f7 49 0f 3f
       0.93280673 -1.1800683 1.1618285 0.55972236
0002c0 08 7d b4 3e f9 d9 83 3f 87 97 9c 3f e7 a2 fb 3e
       0.3525164 1.0300895 1.2233742 0.49147722
0002d0 0e 17 8a bf 39 64 27 3e 62 30 88 3f 8f cf b4 be
       -1.0788286 0.16346826 1.0639765 -0.35314605
0002e0 f9 10 1a be a2 44 76 bf 09 d5 25 3f de a2 60 3f
       -0.15045537 -0.96198475 0.6477819 0.87748516
0002f0 b5 bc 0a bf 08 36 9b 3f c8 57 d5 3b e5 60 e8 3e
       -0.54194194 1.2125864 0.0065107085 0.45386425
000300 45 c1 78 3e 2b 76 91 3f 65 83 6d be 48 c8 84 3e
       0.24292476 1.1364187 -0.23194654 0.25934052
000310 17 ca 01 be 0e b1 1a bf e4 a8 52 3f c1 26 79 3e
       -0.12674747 -0.60426414 0.82288957 0.2433119
000320 5e a6 5f 3f 61 5e 1f 3f 92 f3 6b bf 21 d8 0e be
       0.8736323 0.62253386 -0.92168534 -0.13949634
000330 c0 9d 0d 3f d8 0f 8b bf 8e b4 ec 3e 03 08 59 3f
       0.5531883 -1.086421 0.46231502 0.8477785
000340 c9 8d 8c 3e ee 91 21 3f ab 13 44 bf 56 a8 69 be
       0.27451923 0.63113296 -0.7659251 -0.22818121
000350 40 e0 3c bf 58 1f 19 be 46 f9 9b 3f fa ce 5f be
       -0.7377968 -0.14953363 1.2185447 -0.21856299
000360 71 37 93 bf 03 c3 2e be e8 14 a0 bc 06 1f 6a bf
       -1.1501294 -0.17066579 -0.019541219 -0.9145359
000370 62 fd 9d be a4 15 9a be 1a 96 a8 be 2d 0e 22 3f
       -0.30857378 -0.30094635 -0.32927018 0.6330288
000380 62 81 8f 3f 14 28 2c bf e7 c7 84 bf 40 c8 1a 3f
       1.121136 -0.67248654 -1.0373505 0.6046181
000390 52 66 27 3d 31 5c 9c 3d 27 d7 dc 3e f7 0b 83 bd
       0.040869065 0.076347716 0.43132898 -0.063987665
0003a0 e7 49 5a 3e dc 1c 47 3f af c8 2f bf f5 f5 b1 3e
       0.21317254 0.7777841 -0.68665594 0.34757963
0003b0 c8 21 f1 3d cf ed 1b 3f 06 ed 39 3f f6 5e a4 3e
       0.117740214 0.6090974 0.72627294 0.321037
0003c0 38 cd 1c bf 22 70 99 bf dd 47 34 3f c5 8e 43 3f
       -0.6125064 -1.1987345 0.70422155 0.76389724
0003d0 e8 1b 09 be b3 9b 83 3e a1 dd 06 3f 37 dd 45 be
       -0.13389552 0.25704727 0.5268193 -0.19322668
0003e0 59 36 61 3f 14 44 17 bf a2 e4 1f 3f ec e1 05 bf
       0.8797355 -0.59088254 0.6245824 -0.52297854
0003f0 75 c6 8d bf f1 87 30 bf 1b 7b 15 bf 72 ba a5 bd
       -1.1076189 -0.6895743 -0.5839097 -0.08092202

cons_embedding.1.bias f4 [64]
000000 84 73 fe 3e 7d ba 36 bd 38 da bf 3e 37 67 97 3e
       0.49697506 -0.044611443 0.37471175 0.29570934
000010 2e 14 ab bc a7 88 f1 3d f5 73 07 3e b2 11 ee 3e
       -0.020883646 0.117936425 0.13227828 0.46497875
000020 2b a8 0b 3e 1a 5a a0 3e 2a de c4 be 02 f4 03 bd
       0.1363837 0.31318742 -0.38450748 -0.032215126
000030 b0 23 f0 3e ca 26 db 3e 98 c0 f4 be 90 68 a7 be
       0.46902227 0.4280303 -0.47803187 -0.32696962
000040 42 2b df 3e cf bd c6 3e 72 8e fe 3d 17 28 d2 3e
       0.4358769 0.38816687 0.12429513 0.4104621
000050 14 ee e2 3e 89 3c e9 bd 43 5e ff 3e f9 2a fe 3d
       0.44322264 -0.11388499 0.49876603 0.1241054
000060 11 b4 d4 3e 3f 85 49 be f8 ce dc be eb 59 40 3d
       0.4154363 -0.19679736 -0.43126655 0.046960752
000070 65 c1 79 bc 79 2c b5 be 3c 6b 22 3e 49 8b 69 3e
       -0.015243863 -0.35385492 0.15861219 0.2280704
000080 6b 22 3e 3d 3f b2 91 be 4c 64 86 bb f4 47 12 bd
       0.046419542 -0.28456303 -0.004101312 -0.03571315
000090 06 d3 80 be 5b 15 ad 3e 53 ae d9 bd 04 8c e2 be
       -0.25160998 0.33805355 -0.10628953 -0.44247448
0000a0 7d ad 77 be 86 aa 9d be 6d 99 e8 3e 1e 10 ab bd
       -0.24187274 -0.30794162 0.45429555 -0.083526835
0000b0 e9 5c 7e be 06 17 57 bd d3 a7 34 3d 74 d5 aa 3d
       -0.2484013 -0.05251219 0.044105362 0.08341494
0000c0 62 2d 4e be b0 91 7c be e8 be e3 3e bd 50 c6 3e
       -0.201345 -0.2466495 0.44481587 0.38733473
0000d0 3e 6b fa 3e 69 3b 27 3e 8e 83 99 3e 8d f7 47 bd
       0.48909944 0.16331257 0.2998318 -0.048820067
0000e0 2b 1c d6 3e 9e 48 fb be 12 c6 eb bd ee 9d 64 3e
       0.41818365 -0.4907884 -0.11512388 0.2232587
0000f0 5c 02 e6 3e 74 b2 36 be d4 11 ee be 32 29 f9 be
       0.44923675 -0.17841512 -0.46497977 -0.48664242

cons_embedding.3.weight f4 [64, 64]
000000 58 f4 77 3e b0 60 58 bd 07 42 94 3e 7d cd 05 be
       0.24214303 -0.052826583 0.28956625 -0.13066669
000010 a6 30 6e bd ae b5 8b 3e e3 72 b6 3d 48 61 6a be
       -0.058151864 0.27287048 0.08908632 -0.22888672
000020 86 e6 d0 39 8d ba 25 bd 24 81 3a be b6 e0 21 3e
       0.00039844605 -0.04046111 -0.18213326 0.15808377
000030 b2 8c 92 3e ae ac 47 3d 4b 20 97 3e e5 95 89 be
       0.28622967 0.048748665 0.29516825 -0.26872173
000040 53 b0 61 be d7 14 e2 3d 77 36 62 be c8 5c 85 be
       -0.22039919 0.11039131 -0.22091089 -0.2604735
000050 b0 d4 71 be 4e 4d c7 3d 70 de ae 3d 35 bf 4c 3e
       -0.2361629 0.097315416 0.0853852 0.19994815
000060 45 de b2 3d 35 bb 80 3d 0f 67 d6 bd 7e 47 88 3e
       0.08733801 0.06285707 -0.104688756 0.26617044
000070 6f 34 69 3e 42 c9 ea 3d cb 5f 9b be d8 c9 16 bd
       0.22773908 0.11464168 -0.30346522 -0.036813587
000080 ff 9e 67 be 08 b3 ba 3c 69 33 f8 bc ca 50 88 bd
       -0.22619246 0.022790447 -0.030297952 -0.06656034
000090 9b 73 88 3d 4b 98 88 3e a8 63 63 be 0d e7 96 bd
       0.06662675 0.2667869 -0.22205985 -0.07368288
0000a0 f7 d7 16 3e 76 33 6e be 59 35 85 3e 37 c0 49 bd
       0.14730822 -0.23261818 0.26017264 -0.049255576
0000b0 55 b5 0e be dd 1a a0 bb 79 70 8a 3e 38 be 7b 3e
       -0.1393636 -0.004886015 0.27038935 0.24584281
0000c0 99 20 15 3e 47 7f 24 bd 03 1e 10 be 36 96 34 3e
       0.14563216 -0.040160444 -0.14073949 0.17635426
0000d0 72 c4 98 3e aa 17 04 be 70 bd 85 3e 0d 5a ca bd
       0.29837376 -0.12899652 0.26121092 -0.09880457
0000e0 b2 d2 61 3e 4e ed 2b be 6a 9e e7 3c 9b 73 e9 3c
       0.2205303 -0.16789743 0.02827378 0.028497508
0000f0 72 b3 bc bd c6 fe 61 be 3d bc 60 be b4 ce 18 be
       -0.09213914 -0.22069845 -0.21946807 -0.14922601
000100 6e 32 d3 bc c8 db 18 be 36 64 83 3e 25 da 17 3e
       -0.025780883 -0.1492759 0.25662392 0.1482931
000110 0b 1f 1c be d7 47 c3 bd 95 d8 c3 3d 43 33 47 3e
       -0.15246217 -0.09535187 0.09562794 0.19453149
000120 9b 9e 22 be 80 df 44 be 6b 88 8e be 7f 2c 83 3e
       -0.15880816 -0.19225883 -0.27838454 0.25619885
000130 ee 23 99 be 9c 5c 3d be fa d3 cb 3d 91 57 68 3d
       -0.29910225 -0.18492359 0.09952541 0.056724135
000140 77 ea fa bd 72 5b 2b be 9b 5c a9 bc e0 bc 29 be
       -0.12251752 -0.16734102 -0.02067404 -0.16575956
000150 8c 9a 00 be 36 74 48 be 7a 37 99 3e b3 66 f4 bd
       -0.12558955 -0.19575581 0.29925138 -0.11933651
000160 6d 62 8a bc 45 f1 e3 bd 4c e5 2e be eb b6 7b 3e
       -0.016892636 -0.11130003 -0.17079657 0.24581496
000170 04 a0 9a bd 44 4f 6e 3e ab 0e 07 bd fe 56 84 3e
       -0.07550052 0.23272425 -0.032972973 0.2584762
000180 80 3e 3a 3e 3e 09 0e be b6 23 75 be 29 6a 61 bd
       0.18187904 -0.13870713 -0.23939404 -0.055032883
000190 2d c2 82 3d f7 ae ee bd bb 48 75 3e 1a 8c bd 3d
       0.06384692 -0.11654466 0.23953526 0.09255238
0001a0 9e 61 07 bd de d2 8a ba b2 db 3e bc e7 10 96 3e
       -0.03305208 -0.0010591408 -0.011649059 0.2930977
0001b0 a9 e1 97 3e 4e da e6 3c a9 6f 2e be c2 9b 8c be
       0.29664353 0.028180268 -0.17034782 -0.27462584
0001c0 be b8 94 3e cd fd 19 3e cf 88 50 3e ce 4e 1d 3e
       0.29047197 0.15038224 0.20364688 0.15362093
0001d0 3e e1 89 3d aa 26 f5 3c f1 77 d8 3d 6f 89 85 3e
       0.06732415 0.029925663 0.10569752 0.26081416
0001e0 ab 63 3f 3e ca 72 8a 3d 86 45 99 3e 69 36 1c be
       0.18690364 0.067601755 0.29935855 -0.15255131
0001f0 d8 e8 36 bc 61 84 4b 3e ef 58 6d bd da a8 69 be
       -0.011163913 0.19874717 -0.05794614 -0.22818318
000200 ad 36 fb bd 54 5d 18 3e 47 9d 7a 3e 95 7e f9 3d
       -0.12266288 0.14879352 0.24474059 0.12182347
000210 f2 e3 23 be 36 6f c3 bd a8 b1 69 be 2c 9b 59 be
       -0.16004923 -0.09542696 -0.22821677 -0.212506
000220 81 23 82 3d e2 e9 7e be 29 87 0d 3e c2 53 cc 3c
       0.06354428 -0.24893907 0.13821091 0.024942283
000230 c4 90 12 bd d0 3f 5f 3e c0 48 92 bd ce ed 02 3e
       -0.03578259 0.21801686 -0.07142782 0.12786028
000240 df 36 a8 3d d0 48 98 3e 68 02 a8 bc 2a 59 69 3e
       0.08213591 0.29743052 -0.02050896 0.2278792
000250 c3 eb 9c 3d dd bf 8d be ff 08 5b bd 25 57 8d 3d
       0.076621555 -0.27685443 -0.053475376 0.06901387
000260 a1 0c 5f 3e 25 36 94 bc c9 3e 23 be 54 33 12 3e
       0.21782161 -0.018092224 -0.1594192 0.14277393
000270 a2 b3 f5 bd fb 13 7d be 5f f5 a3 bc 98 dc 6b be
       -0.11997153 -0.24714653 -0.020014463 -0.23033369
000280 95 82 5f 3e 15 e5 7c bd b7 a0 23 be 92 d2 d8 3d
       0.21827157 -0.061741907 -0.15979277 0.10587038
000290 20 4a 19 3d b3 7b 26 3e 8b 95 1c be 36 5a 3c be
       0.037424207 0.16258125 -0.15291421 -0.18393788
0002a0 97 9f 0c be 03 4e 49 3e 39 bd 52 be 69 97 ba bd
       -0.13732754 0.19658665 -0.20579995 -0.091109104
0002b0 c0 0f d8 bc 2c 87 7f be b0 f9 93 3d 43 70 4b 3e
       -0.026374698 -0.24953908 0.072253585 0.19867043
0002c0 60 8b 99 3e d2 93 7c 3d 9b 0f 16 bc e2 3b 91 bd
       0.29989147 0.06166441 -0.009158994 -0.070915
0002d0 47 51 45 be 9d 09 3b be 3f a3 6f be 49 bb 22 3e
       -0.19269286 -0.18265386 -0.23402117 0.15891756
0002e0 15 c8 46 be 60 a9 7a be db d2 95 be c1 3f 99 3d
       -0.19412263 -0.24478674 -0.29262432 0.07482863
0002f0 12 d9 10 3d 96 4f 59 be 16 13 68 3d 9e 92 69 be
       0.035363264 -0.21221766 0.056658827 -0.22809836
000300 5c 8c a0 bd 3d af 58 3e f8 9c 8c 3e 85 24 42 be
       -0.078392714 0.21160598 0.27463508 -0.18959244
000310 1a 89 bb 3a 79 9b 95 bc f9 1c a2 bb c2 6f 53 be
       0.0014307827 -0.018262612 -0.0049473015 -0.20648101
000320 da ac ac 3d f6 92 db 3d 48 37 87 be f9 37 53 3e
       0.08431406 0.1072139 -0.26409364 0.2062682
000330 cd 18 0e be 25 4b 5b bd 51 5c 7a bc 8e 3d 4a be
       -0.13876648 -0.05353846 -0.015280799 -0.19750044
000340 d2 b2 12 3e 81 48 e5 3d f5 ef 59 3c b8 f8 0a 3e
       0.14326027 0.1119547 0.013301839 0.13571441
000350 e0 52 86 3e b0 a0 c9 bd 9c 77 81 be 9a 61 4e be
       0.26235104 -0.09845102 -0.25286567 -0.2015442
000360 33 97 9a be 74 e8 51 be 79 7b 88 3e 90 e4 ce 3d
       -0.3019348 -0.2049883 0.26656702 0.101021886
000370 65 00 9f bc b2 1d a4 3d 37 a8 29 be ec c0 71 be
       -0.019409368 0.080134764 -0.16568075 -0.2360875
000380 af 27 9d 3d 98 b3 50 bd 54 47 5b be 81 f2 83 3e
       0.07673585 -0.050952524 -0.21413928 0.25770953
000390 21 64 0b 3e 1b 05 95 be a0 23 77 be 83 4f 7e be
       0.13612415 -0.29105458 -0.24134684 -0.24835019
0003a0 dc 46 b6 bd 5e bd 29 be 17 9e e5 ba 41 92 11 3e
       -0.08900234 -0.16576144 -0.0017518428 0.14215948
0003b0 0b a3 08 3d 94 7b c6 3d ed cb eb bc 87 e0 43 bb
       0.033358615 0.096915394 -0.028783763 -0.0029888467
0003c0 4a 48 99 3e 1c 0b 3f 3e 37 53 70 3d 74 91 7a 3d
       0.29937965 0.18656582 0.05867311 0.06117387
0003d0 ad bb 3a 3e f4 f0 89 be 0d 68 d2 3d 45 35 8b 3d
       0.18235655 -0.26941645 0.10273752 0.0679727
0003e0 dd d2 89 3e a6 d2 72 3e e8 13 99 be 47 b3 83 3e
       0.26918688 0.23713169 -0.29898 0.25722715
0003f0 14 f1 d2 3d f2 12 4c 3e a9 61 f3 bc 3f 35 19 3e
       0.10299888 0.19929102 -0.029709654 0.14961718

cons_embedding.3.bias f4 [64]
000000 f8 12 ba 3d 61 36 0d 3d 42 4e 39 bc 1a fe ef 3a
       0.09085649 0.034475688 -0.011310162 0.0018309981
000010 fd 36 4c 3d b8 04 fd 3d 44 ef 03 3d 29 0a f9 bd
       0.04985713 0.12354416 0.032210603 -0.12160141
000020 c2 bf a4 3d 77 55 f8 ba 44 13 f4 bc 6b 80 99 3d
       0.080443874 -0.0018946369 -0.029794343 0.07495197
000030 98 2a 0c bd 4e 16 8f bd e9 bc fd 3d 2a 7e bc bc
       -0.034220308 -0.06986676 0.123895474 -0.023009378
000040 cd 81 71 bc 7d fb a0 bc ba 1a 88 3d 1d 71 e5 bd
       -0.01474042 -0.019651169 0.06645723 -0.11203215
000050 e6 24 64 bc e4 52 9d 3d f0 2b 9d 3d b5 f5 6c 3d
       -0.013924813 0.07681826 0.07674396 0.057851512
000060 5d bb cc 3d bd 3e fc bd 51 d3 5a bb fa 07 2c 3d
       0.09996674 -0.12316654 -0.0033390115 0.041999795
000070 24 33 78 3d c2 8d 36 3d ef 31 41 3c bf 77 68 3d
       0.060595647 0.044568785 0.01179169 0.056754824
000080 35 27 3b bd e3 3c c6 3d ac 74 91 bd 06 46 e4 bd
       -0.045691688 0.09679582 -0.071023315 -0.111461684
000090 d1 63 bd bc 03 a0 1d bd 98 a7 cf bd fc 04 63 bb
       -0.023118885 -0.038482677 -0.10139388 -0.0034640422
0000a0 16 12 f5 3c 39 ac 67 bd 8d 31 8f ba a4 5f 75 bd
       0.02991585 -0.05656073 -0.0010924801 -0.059905663
0000b0 60 be bc 3d 13 f3 d4 3d 16 6e e6 3d ce 19 ca bd
       0.09215999 0.10397925 0.11251466 -0.09868203
0000c0 c8 32 fe 3d 0b b8 99 3d 19 38 a8 3c fc 97 2e bd
       0.124120295 0.075058065 0.020534562 -0.042625412
0000d0 6a f2 43 bd 89 21 e2 3d 67 ba 14 bc 92 87 e2 3d
       -0.047838606 0.110415526 -0.009077645 0.11061014
0000e0 33 d2 83 3c 7b 70 00 bd 76 98 d8 3d e9 97 ab bd
       0.016091442 -0.03135727 0.105759546 -0.08378584
0000f0 75 68 05 bd cd 0c f5 bb 67 d3 a3 3d 27 a0 5b 3d
       -0.03257032 -0.0074783326 0.07999306 0.05361953

var_embedding.0.weight f4 [7]
000000 0c 12 80 3f c0 0d 80 3f 7f ec 7f 3f ad dc 7f 3f
       1.0005507 1.0004196 0.9997024 0.999461
000010 a7 d6 7f 3f ea a8 7f 3f bc 20 80 3f
       0.9993691 0.9986712 1.000999

var_embedding.0.bias f4 [7]
000000 3f ce 50 3a 46 62 bc 39 09 82 b0 b9 1d 4b e1 39
       0.00079653034 0.00035931374 -0.0003366622 0.00042971308
000010 bf b1 1b 3a 4a 8b a8 3a 41 c4 b8 39
       0.0005939267 0.0012858894 0.00035241435

var_embedding.1.weight f4 [64, 7]
000000 05 67 bb 3e aa d4 f4 be 1b 56 6a 3f 39 ec 69 bf
       0.36602035 -0.478185 0.91537637 -0.9137607
000010 98 a0 2e bd 18 de cf be c7 f9 43 3e 7e 0f c7 bd
       -0.042633623 -0.40599132 0.19138251 -0.09719752
000020 cc 03 3c be a2 5d 7a be 37 8a 7d be fd a6 26 3f
       -0.18360823 -0.2444978 -0.24759756 0.65098554
000030 b6 aa 5c bf c2 5e e6 3e 42 82 d4 be 93 30 51 bf
       -0.86197984 0.4499417 -0.4150563 -0.81714743
000040 ea 94 16 3f ac b3 e0 3e ee eb 5a 3f 50 b9 ed be
       0.58820975 0.4388708 0.8551625 -0.46430445
000050 87 c3 37 3f 38 e5 3a 3e 88 68 e3 be da 36 18 bf
       0.71782726 0.18251503 -0.4441569 -0.59458697
000060 82 7b 94 3e fa 76 a1 3e 65 d5 24 3f 0e b1 2d 3f
       0.2900048 0.31536084 0.64388114 0.6784829
000070 d9 54 07 3f 5b 20 84 3e 1b c4 96 bc 86 19 5b bf
       0.5286384 0.25805935 -0.018404057 -0.8558582
000080 b6 af 63 be 33 45 b3 bd cf 75 56 bf 65 9d 2f be
       -0.22234997 -0.08753433 -0.8377351 -0.17149885
000090 d9 90 00 3e 4b 1e d9 bd 6a 5a 10 bf b1 c2 88 bd
       0.12555255 -0.10601481 -0.5638796 -0.066777594
0000a0 e1 b2 8e be de c4 3c 3e ed ba 4a 3e 69 37 e2 be
       -0.2787085 0.18434474 0.19797869 -0.441829
0000b0 db 65 04 3c 76 24 15 3f a9 dd cb be 86 80 07 bf
       0.008080925 0.5825876 -0.3981755 -0.52930486
0000c0 ab d6 8c 3e 20 b5 52 bf 5a 0e f9 be ed bf ca be
       0.2750753 -0.82307625 -0.48643762 -0.39599553
0000d0 c3 23 0a 3f 0f d8 3a bf 5d 74 82 be 8e 78 00 bf
       0.5396082 -0.7298593 -0.25479403 -0.5018395
0000e0 47 a0 45 3f 81 f2 76 bd bb 96 5a bf 1e 59 25 be
       0.7719769 -0.060289863 -0.85386246 -0.16147277
0000f0 02 1d c9 bc 8c 13 d6 bd 4e 9c 29 bf a6 8b fb 3d
       -0.024549965 -0.10452947 -0.6625413 0.12282495
000100 9a bc 0b bf e8 36 14 3e 34 31 53 3f e4 45 39 bf
       -0.5458466 0.1447407 0.82496953 -0.7237227
000110 b4 a2 4e bf a4 ce 24 3e 8a b2 44 bd 02 48 fa be
       -0.80717015 0.16094452 -0.04802183 -0.48883063
000120 43 ea 6b 3f 08 d7 1c bf fd fa 5a be ab 04 ea be
       0.9215433 -0.6126561 -0.21384807 -0.45706686
000130 d4 20 43 3f 1a 52 b6 be ed ef 22 3e aa 59 ce 3e
       0.76221967 -0.35609514 0.15911837 0.40302783
000140 83 93 3f 3f fe 1e 10 bf d1 fa 9c 3c c5 53 03 bf
       0.7483446 -0.5629729 0.019162567 -0.512997
000150 bf 4d 30 3f 90 85 10 3e a4 37 03 bf 61 d9 51 be
       0.6886863 0.1411345 -0.51256776 -0.2049308
000160 0b 83 42 bf 78 f2 22 bf ca 50 4c 3e a1 07 fc be
       -0.75981206 -0.6365123 0.19952694 -0.4922457
000170 84 ac 68 3f ce 43 56 3f 6a d9 f9 3e c5 bf 2e bf
       0.9088824 0.8369721 0.48798686 -0.6826137
000180 6e b9 d2 3e d7 af 4b bf a7 25 0a bf a5 7a 39 bf
       0.41157097 -0.79565185 -0.539637 -0.72452766
000190 4f d4 f1 3e 22 8b 2f be d2 25 23 3f b1 8a c3 be
       0.4723229 -0.17142919 0.63729584 -0.3819175
0001a0 45 97 a1 be 82 9d 5f bf fd 53 15 3e df 32 ae be
       -0.31560722 -0.8734971 0.1458282 -0.34023187
0001b0 6b 5b 06 3f aa 43 6c bf 54 12 6c 3f 8c f9 0a bf
       0.5248324 -0.9229075 0.92215466 -0.5428703
0001c0 e9 18 e6 be 8a ff 05 3f 80 07 32 be a9 7e 05 3f
       -0.4494088 0.52343047 -0.17385674 0.52146393
0001d0 bb b1 b9 3e 09 f0 bf 3e 68 c2 14 3e d7 eb a2 3e
       0.3626841 0.3748782 0.14527285 0.31820557
0001e0 89 c0 66 bf ee 8e bb bd 59 ca 27 bf bf 53 ed 3e
       -0.90137535 -0.09158121 -0.65543133 0.46352956
0001f0 8c 53 61 bf 89 f3 ef 3e a7 4f f2 3c 51 76 c9 3e
       -0.8801811 0.4686549 0.029578997 0.3934808
000200 2c d2 09 3f ca cc 3a 3f 34 3f 6b bf 80 46 1e 3f
       0.5383632 0.72968733 -0.91893315 0.61826324
000210 78 50 02 3f 29 9d ad 3e cf 77 2e bf bc 35 e8 3d
       0.50904036 0.33908966 -0.68151563 0.11338374
000220 73 c9 e4 be 13 af 5c bf 9c 36 34 bf 36 f6 6b 3f
       -0.44684944 -0.8620464 -0.7039583 0.92172563
000230 a7 95 ef 3e 7d a8 0a 3f 82 64 67 3f 06 03 54 be
       0.46793863 0.5416334 0.9038774 -0.20704278
000240 e8 cd 45 3e fe f8 ad 3e e9 e5 52 bf fa d3 10 3f
       0.19316828 0.33979028 -0.82382065 0.5657345
000250 30 86 40 bf 98 5a 90 be a4 29 64 bf c1 02 10 bf
       -0.75204754 -0.28194118 -0.8912604 -0.562542
000260 ea 90 5a bf 1c 4c a7 bc b3 1c f0 bc b7 db 98 3e
       -0.8537737 -0.020422034 -0.02931056 0.2985513
000270 ec fd 07 3f a4 ae 87 3e 95 74 4f 3f 09 ed 64 3f
       0.5312183 0.26500428 0.81037265 0.89424187
000280 9f 7b 1e bf ea 13 02 3f ab eb 54 3f aa 88 3d 3d
       -0.6190738 0.50811636 0.831721 0.04627291
000290 48 24 d0 3e 86 71 43 bf 9e 8a 1c bf c3 64 e7 3e
       0.4065268 -0.763451 -0.61149013 0.45194063
0002a0 6d 27 55 3f 2a 42 eb 3e a3 1b 03 be 32 a4 e9 3e
       0.83263284 0.45948917 -0.12803511 0.45633084
0002b0 3f 1c a6 3e db d7 8d bd 68 3c 6a 3f 18 4b ee 3e
       0.32443425 -0.06925937 0.9149842 0.46541667
0002c0 8c d5 c7 3e 19 69 b3 bd 88 ec 4f bf 06 47 41 bf
       0.3903011 -0.0876028 -0.81220293 -0.75499
0002d0 01 d4 35 3f b8 e6 5c 3f 62 26 5f bf b7 a8 25 3f
       0.7102662 0.8628955 -0.8716794 0.64710563
0002e0 07 47 31 3f a1 de cd 3e d0 b5 ab 3e 51 7a dc bd
       0.69249004 0.40208915 0.3353715 -0.107655175
0002f0 d5 70 53 3f ed 0f 33 be 57 58 11 bf e4 45 0f 3f
       0.82594043 -0.17486544 -0.5677542 0.5596602
000300 2c bb 41 bf e5 90 29 3f 80 29 b1 3e 25 07 e3 be
       -0.75676227 0.66236717 0.34601974 -0.44341388
000310 65 05 e4 3e 5d d0 5e bf 67 64 21 3f 7f c5 a9 3e
       0.44535366 -0.8703669 0.63043827 0.3315849
000320 9c 92 11 bf 1c 19 ce bd ad 54 30 3f 42 f6 ff 3b
       -0.56864333 -0.10063383 0.68879205 0.0078113386
000330 32 50 fb bc ff c2 aa 3d 68 34 38 3f 32 aa 3b 3f
       -0.030677889 0.08337974 0.71954966 0.7330657
000340 f9 93 3e bf fb 17 fc be fb 36 ee 3d fd ab 1d bf
       -0.7444454 -0.49237046 0.116315804 -0.6159056
000350 4f 69 03 3f ff 1d 4b bf 37 ac 8d be 31 82 7b 3e
       0.51332563 -0.79342645 -0.27670452 0.24561383
000360 84 a6 df bd 49 3e e1 3e f7 63 82 be 90 a9 66 3f
       -0.10920432 0.43992832 -0.25466892 0.9010248
000370 e3 ab 66 3e 6e c3 e6 bd 06 0e b2 3e 8e e9 05 3e
       0.22526507 -0.11267744 0.34776324 0.13077375
000380 6f fe 18 3f 8d 87 3c bf ad 7f 9b be ba 7a 91 bd
       0.59763235 -0.73644334 -0.30370846 -0.07103486
000390 e9 0a 65 3f 3c b6 68 bf 19 2c fb be f6 02 3c bf
       0.8946977 -0.9090307 -0.4905708 -0.7344202
0003a0 0e 74 b1 3e 89 f3 38 3e 46 80 b5 3c b0 16 30 bf
       0.34658855 0.18061651 0.022155892 -0.6878462
0003b0 28 e6 6b 3f 87 73 f7 3e 44 39 17 3f 68 63 49 3f
       0.92148066 0.48330328 0.59071755 0.78667307
0003c0 47 6c c4 bd 48 b1 36 3f 43 2b 4a 3e 1e fc e2 bd
       -0.09590965 0.7136426 0.19743066 -0.11083244
0003d0 f8 9d 25 be 04 7c 27 bf ce 14 a8 3c c8 2f 70 3c
       -0.16173542 -0.6542361 0.020517733 0.014659829
0003e0 93 38 45 bf 9f f8 b8 be ec 80 2f 3e 54 e8 96 3d
       -0.7703945 -0.36127183 0.17139024 0.07368532
0003f0 97 6c 8b bd c0 00 6d bf 37 c9 93 3c 40 ca 1b be
       -0.06807821 -0.9257927 0.018040283 -0.15213871

var_embedding.1.bias f4 [64]
000000 1b 80 86 3e 0a fb ab 3e e2 4c c0 be 1e cd b5 be
       0.26269612 0.33589965 -0.37558657 -0.35508054
000010 18 9a aa be 59 cf 6b 3e f3 37 7c be 03 7e 52 3d
       -0.3332069 0.23028316 -0.24630718 0.051389705
000020 e1 f2 ad be eb 04 85 be f2 44 67 bd 03 3f b7 3e
       -0.33974364 -0.25980315 -0.056462236 0.35790262
000030 6e f6 a1 3e 5d d2 7d 3e a7 81 87 3d b0 8c 6c be
       0.31633323 0.24787278 0.06616526 -0.23100543
000040 ca cb aa be f4 ff ad be 69 25 05 3d 53 3b 87 bd
       -0.33358604 -0.3398434 0.03250638 -0.06603112
000050 fb 64 ad 3e c2 ff 23 3d b9 ee 23 3e de f1 78 3d
       0.33866104 0.04003883 0.16009034 0.060777538
000060 1d 7b a8 bd 0b f7 6a 3e f6 45 19 3b 7b 23 bf be
       -0.08226607 0.22945802 0.0023387647 -0.37331757
000070 55 81 17 3e 34 16 74 3c 2f 0e b9 be a7 ba 86 3e
       0.1479543 0.014897872 -0.36143634 0.2631428
000080 6a a8 37 3e 57 3b 9a bd 3d a6 56 3e 6c fd 4d be
       0.17935339 -0.075308494 0.20961852 -0.20116204
000090 d5 4d a0 3b c3 e5 89 3c be c0 1b 3d c0 41 a7 3d
       0.004892091 0.016833192 0.03802561 0.08166838
0000a0 a9 6a 2a be cc 7f 9d be 0f 59 96 3e 65 67 84 be
       -0.1664225 -0.30761564 0.2936482 -0.25860134
0000b0 74 8b b5 3d 1c 3f b2 be 74 bf a9 be 3a d9 d9 3d
       0.08864489 -0.34813774 -0.3315388 0.10637136
0000c0 da 91 a4 be 7f e6 b2 3e ed c8 30 3d 5f f4 e1 3b
       -0.32142526 0.3494148 0.043160368 0.0068955864
0000d0 f6 13 19 3e 45 d2 fc bc a1 19 04 3e a0 83 06 be
       0.1494902 -0.030861983 0.12900402 -0.13136148
0000e0 25 e3 9c 3d 6c 03 3b be a9 36 f0 bd 2d 47 76 3e
       0.07660512 -0.18263024 -0.117291756 0.24050589
0000f0 26 fc 4b 3e 48 83 82 3e e8 3e 04 3e a1 b5 b6 be
       0.19920406 0.25490785 0.12914622 -0.35685447

var_embedding.3.weight f4 [64, 64]
000000 8c 86 41 bd 67 42 ce bb 66 98 6a 3d 06 f1 90 3e
       -0.047247455 -0.006294537 0.057274245 0.28308886
000010 b5 f8 9b bd ac fb 3e be d4 f9 6e 3e 72 75 37 be
       -0.076157965 -0.18650693 0.2333749 -0.17915896
000020 8e e3 c3 bd 20 f5 67 3e ce 86 62 bd b0 85 03 3c
       -0.09564887 0.22652102 -0.05530434 0.008027479
000030 14 13 07 be 4c 2e 91 be 04 88 84 3e fb 8a a9 3d
       -0.13190871 -0.28355634 0.25885022 0.082784615
000040 9c 89 31 3e 87 71 01 bd 7b 69 85 3e aa 04 66 3e
       0.1733765 -0.03160241 0.26057038 0.22462717
000050 bb 0c 23 3e 36 87 ed bd 02 e1 2d be 35 2e 92 be
       0.15922825 -0.11598055 -0.16980365 -0.28550878
000060 37 85 6b 3d 15 96 99 3e 0c 5c 8d 3e 0b a9 fa bc
       0.05750009 0.29997316 0.2760929 -0.030598184
000070 42 54 42 be d3 bb a1 3d f9 7c 40 3e ab 69 82 3e
       -0.18977454 0.07897153 0.18797673 0.25471243
000080 09 83 3e 3e c4 05 9c 3e a5 5c e6 3b 97 7e 6f bd
       0.18604673 0.3047315 0.007030087 -0.058470335
000090 ff 3e 69 3e a7 4e d7 3c 5c 7c 85 be af 3d 5e be
       0.22777937 0.026282622 -0.2607144 -0.21703218
0000a0 db 6d 6e 3e 9c 3f 84 bc 42 57 ad 3d ed d2 bf 3d
       0.23284094 -0.016143613 0.08463909 0.09366403
0000b0 fc bd 8c 3e b9 0e f6 bd 33 bd 51 3b cc 80 9a be
       0.27488697 -0.12014527 0.003200364 -0.3017639
0000c0 9b c2 60 3d 48 b7 83 3e 18 ca 2a be c8 01 8e 3d
       0.05487309 0.2572577 -0.16678655 0.069339335
0000d0 40 65 77 bd 4c 0d 31 be d7 c1 44 be 51 be 2f 3e
       -0.060399294 -0.17290229 -0.19214569 0.17162444
0000e0 be 59 30 be 2d 62 17 3d 1e e9 09 3d 60 c7 f8 3d
       -0.17221734 0.036958862 0.033669583 0.12147403
0000f0 71 27 8e 3e bc f6 42 3e 1e b4 80 be 7e f2 ca 3d
       0.27764466 0.19039434 -0.25137419 0.09909533
000100 db 9f 61 be 7f a6 8f be 1b f9 61 be f9 19 00 be
       -0.22033636 -0.28056714 -0.22067682 -0.12509908
000110 40 8c 44 be 4a 71 07 3e b7 ce 9b 3d b0 1d 0b bd
       -0.19194126 0.1322681 0.07607787 -0.03396386
000120 35 bd 03 3e fd 26 da bc fe d8 09 bd ef 0b 94 be
       0.12865146 -0.02662992 -0.033654206 -0.28915355
000130 0d 5c 06 bd 31 fa 4e be ac 44 98 3e 2d fc ee 3d
       -0.03280263 -0.20212628 0.29739892 0.116691925
000140 56 67 03 be aa c3 a6 bd 61 e0 18 3e e3 1c 52 3e
       -0.12832388 -0.08142789 0.14929344 0.20518832
000150 4b 54 c4 3d 38 11 46 be e1 6e ce bd 67 43 0d 3e
       0.0958639 -0.19342506 -0.10079742 0.13795243
000160 da ff cf bd 1c f8 bd 3d 4e f6 03 be fc ca 3e 3e
       -0.10156222 0.09275839 -0.12886927 0.1863212
000170 aa ef 1f bd 02 ff d0 bd 10 81 70 be df 02 ca 3d
       -0.03904692 -0.10204889 -0.23486733 0.09863829
000180 19 ee 06 3d 24 63 32 be 73 4b 94 be c9 c5 69 be
       0.03294191 -0.17420632 -0.28963813 -0.22829355
000190 54 ee 55 3e 43 98 72 3e d4 a3 61 3e d9 fe 91 be
       0.20891696 0.23690896 0.22035152 -0.28514746
0001a0 8c e2 0b 3e a7 bd 8c 3e f4 72 08 3e 77 18 5c 3d
       0.1366064 0.27488443 0.13325101 0.05373427
0001b0 46 14 da 3d 99 f3 7b be f2 3d f8 bc ed 34 81 be
       0.10648398 -0.24604644 -0.030302975 -0.25235692
0001c0 a9 9a 0e 3e a8 ad 9d bd 19 fc 51 be 52 c8 52 be
       0.13926186 -0.07699138 -0.20506324 -0.20584229
0001d0 6c 7e 79 3e bc 90 32 be ee 39 1d 3e 09 eb 21 3c
       0.24364632 -0.17438024 0.1535413 0.009882697
0001e0 d5 fb 88 bc 50 73 7c be 7c 9e cd 3d cb 77 1e 3e
       -0.016721645 -0.24653363 0.10039994 0.15475385
0001f0 ae c4 39 3e 31 c7 23 be 29 39 42 3e 0f 6c 8a be
       0.18141434 -0.15993954 0.18967117 -0.27035567
000200 cb ae 89 3e d1 d4 e3 bd 03 72 4f 3d 77 3d 81 3e
       0.2689117 -0.11124576 0.05064584 0.25242206
000210 d4 20 17 3e a3 69 db bd fe cb 6c 3e 9e 68 1d be
       0.14758617 -0.10713508 0.23124692 -0.1537194
000220 6d 11 99 3e 74 d6 61 bc 3b 21 8c 3e 8e e7 8c be
       0.29896107 -0.01378404 0.27369103 -0.27520412
000230 94 c3 bf bd 9e 28 28 3e b6 64 50 be 4d 6f ea bd
       -0.093634754 0.16421744 -0.20350918 -0.1144701
000240 5e de 10 bd 79 8b f5 bc 17 92 7b bc 0a ad d9 3d
       -0.035368316 -0.029973732 -0.015354655 0.10628708
000250 b5 6a 86 3e fe 05 86 be b3 c2 49 be 59 17 4f be
       0.26253286 -0.26176447 -0.19703178 -0.2022375
000260 18 83 6e 3e 13 f2 de bd e9 b7 a1 bc 8b 10 f6 3d
       0.23292196 -0.10886016 -0.019741016 0.12014874
000270 31 3f 35 3e 90 07 1c bd 3c 27 dc 3d c6 96 8e be
       0.17699887 -0.03809315 0.10749671 -0.27849406
000280 7f da 94 be b9 ee 23 be c9 6d 83 be d6 9d 93 be
       -0.2907295 -0.16009034 -0.25669697 -0.28831357
000290 e6 dd 95 3e b7 f4 11 3e f3 7d 08 3e db 27 98 3e
       0.29270858 0.14253508 0.13329296 0.29717907
0002a0 3f be d4 3d 08 3e 94 be fb ad 42 3e 0e 09 a4 bc
       0.10387849 -0.28953576 0.19011681 -0.020023849
0002b0 f3 63 9a be fc d7 10 3e 6d d2 17 be 4e 96 4e ba
       -0.3015438 0.14144892 -0.14826365 -0.00078806735
0002c0 77 41 98 3e b0 0d aa 3d b3 4b 7d 3e 5f ee 6c be
       0.29737446 0.08303392 0.24735908 -0.23137806
0002d0 da 7a 2f be 10 f1 d6 3c b9 87 b5 bd b2 06 96 be
       -0.17136708 0.026237994 -0.08863778 -0.29301983
0002e0 29 c6 9a ba 56 2a 93 be 46 eb 19 be 9e 21 45 be
       -0.0011808324 -0.28743237 -0.15031156 -0.19251105
0002f0 e8 12 31 3e c7 c1 7b bd 48 c9 09 be c6 87 ac bd
       0.17292368 -0.061464097 -0.13455689 -0.08424334
000300 9a bb 01 3c a0 3d c1 3d 9d c1 29 be ef 92 10 3e
       0.007918263 0.09435582 -0.16577764 0.1411855
000310 37 ca 7c 3e 66 43 93 be 08 ed 12 be 95 77 dd bc
       0.24686514 -0.28762358 -0.14348233 -0.02703456
000320 34 dc 9b 3e 14 c8 86 be 6f 9b 91 be a4 57 04 be
       0.3044144 -0.26324522 -0.284389 -0.12924057
000330 63 00 87 be ae 9e 94 3d ee e5 38 3e 57 81 8e be
       -0.26367483 0.07256828 0.18056461 -0.27833053
000340 d3 f3 65 3c 8a 9c 90 3e ad 05 bd bc fe a8 99 3e
       0.014035183 0.2824443 -0.023073995 0.30011743
000350 86 9d 88 be 7b 7e 28 bd 80 5a a6 3d 6c 5c 48 3e
       -0.2668268 -0.041136246 0.0812273 0.19566506
000360 71 a0 16 3e fc 6a be bd d4 9d 72 be 7a c9 4e be
       0.14709641 -0.092977494 -0.23693019 -0.20194045
000370 d0 e1 c5 3d d2 95 6b bd 41 c3 8a be 44 75 9b be
       0.09662211 -0.057515927 -0.27102092 -0.30362904
000380 67 9f 68 be 75 65 0e be 3c 75 57 be 8e 8e 26 be
       -0.22717057 -0.1390589 -0.21040815 -0.16265318
000390 5d 05 1c 3e 9c 8d 82 be cc 7a 98 3e 51 4f 81 3e
       0.15236421 -0.25498664 0.29781187 0.25255826
0003a0 fc a5 92 be 16 46 44 3e cd df 8a 3e b8 97 30 bd
       -0.2864226 0.1916736 0.2712387 -0.04311344
0003b0 02 f8 8e be a1 82 67 be 25 59 84 be 59 53 69 be
       -0.2792359 -0.22608425 -0.25849262 -0.22785701
0003c0 31 6d 13 3e de af 1e bc b8 64 00 be bb b0 3f be
       0.14397122 -0.009685485 -0.12538421 -0.18719761
0003d0 a3 1b 90 be c0 11 6a be f1 e5 5f bb c5 94 3b bd
       -0.28146085 -0.22858334 -0.0034164155 -0.045796175
0003e0 6d 80 84 3d 15 51 bd bc 72 f6 87 3e 85 1a 81 3e
       0.06469808 -0.023109952 0.2655521 0.25215545
0003f0 51 30 88 be 6b 05 45 3e 7a 08 dd bd da b1 72 bd
       -0.26599362 0.19240348 -0.107926324 -0.059251644

var_embedding.3.bias f4 [64]
000000 ae 77 b6 3d 24 37 d3 3b cf 7b de 3d f7 cb bf bd
       0.08909546 0.0064457823 0.10863458 -0.09365075
000010 54 d0 c0 3d 6e 3c eb 3c f1 ad c8 bd 6b 45 8e 3d
       0.094147354 0.028715339 -0.09798802 0.06946834
000020 10 cf e6 3d ce 8a 5b bc 94 ef cf bc 42 8f dc bd
       0.11269963 -0.013399793 -0.025382794 -0.10769512
000030 20 f7 fb 3c 9a 26 cf bd 99 62 eb bd b9 e1 07 3d
       0.030757487 -0.101147845 -0.114934154 0.03317425
000040 da 6b 86 3c 38 63 be 3c 76 ca 1f bb 39 e6 bc 3d
       0.01640885 0.02324067 -0.002438215 0.09223599
000050 30 8c f3 bd f7 65 f4 3d e2 ee dc 3d e8 37 28 bd
       -0.11891973 0.11933511 0.10787751 -0.04106894
000060 06 61 11 3d 5c 44 33 3c 8f 5e a9 3c cc 75 80 3d
       0.03549292 0.010941591 0.020674972 0.06272468
000070 a8 58 14 bd 3d 08 6a bd 7d d6 cb bb 13 ba f4 3d
       -0.03621736 -0.057136763 -0.0062206374 0.11949553
000080 ce cb d4 3d 19 60 d0 3d b3 b0 c7 3d 5e 27 ab 3c
       0.10390435 0.10174579 0.097504996 0.020892795
000090 dc d9 11 3d b2 19 d5 bd 1f 8c 9b 3d 8c be 8e 3d
       0.035608158 -0.104052916 0.07595085 0.06969938
0000a0 75 aa be 3c 9d 97 8c 3d 5a bc 96 3d 09 ad 8f bd
       0.02327464 0.068648554 0.07360144 -0.07015426
0000b0 09 fd bf bc d6 21 bd 3c 89 d9 2e bd 0e 54 8c bd
       -0.023436086 0.023087423 -0.042687926 -0.0685197
0000c0 10 5d 24 bd 35 70 48 bd 56 3b 29 bd 72 bf 9c 3d
       -0.040127814 -0.048935134 -0.041316353 0.07653703
0000d0 96 da e6 bd 79 66 92 3c 70 96 ad 3d 3f 2d de 3c
       -0.11272161 0.017871128 0.08475959 0.027121184
0000e0 86 33 b0 3c 18 7e da bd 5b 3b 7c 3d 62 fe 8e 3d
       0.021508943 -0.10668582 0.061580043 0.069821134
0000f0 55 bf 42 bd e9 3a 70 3c 7c f8 84 3b 23 e7 51 3d
       -0.04754575 0.014662483 0.004057942 0.05124582

conv_v_to_c.feature_module_left.0.weight f4 [64, 64]
000000 bb cf 0b be 7d a1 d8 bd 13 97 cf 3d ab 26 77 3e
       -0.13653462 -0.105776764 0.10136237 0.24135844
000010 82 0a ab bd 87 dc 8a be c0 d7 20 3e c3 5a fd 3d
       -0.083516136 -0.27121374 0.15707302 0.12370827
000020 5a 9f 97 3e 7e 71 47 3e 9d 9f c8 bd ca c7 1c be
       0.29613763 0.19476888 -0.09796069 -0.15310588
000030 05 cd 66 3d e4 8d 0e bc 17 23 83 be 42 67 3d 3d
       0.056347866 -0.008700822 -0.2561271 0.046241052
000040 6c a0 91 3e 27 e4 ca 3d a6 c9 17 3d ab 31 8f 3e
       0.28442705 0.09906798 0.03705754 0.2796758
000050 c6 04 14 3d 34 62 5f 3e f0 0b 94 3d 82 6f f2 bd
       0.036137365 0.21814805 0.072288394 -0.11837675
000060 89 31 b7 3c f2 a3 04 3e dd f8 81 be e3 59 cf bd
       0.022362487 0.12953165 -0.2538518 -0.101245664
000070 f1 bb ae 3d c9 02 58 3d d1 3e 08 be e3 ec 78 3d
       0.08531941 0.05273703 -0.13305213 0.060772788
000080 13 5b 4c be df 1a 05 be 06 d4 9b bd df 65 1a 3e
       -0.19956617 -0.12998532 -0.076088 0.15077923
000090 d9 04 c4 bc cf 00 17 3e ef 03 e8 3d 51 45 c3 bd
       -0.023928093 0.14746402 0.11328875 -0.095347054
0000a0 8c 99 b1 bd c4 5e 56 3e 75 6e 97 3c c2 dc 7f be
       -0.08671865 0.20934588 0.018485287 -0.24986556
0000b0 8d ae 94 3e 41 39 b9 bc 1c 6f 7f be 91 5d 0a be
       0.29039422 -0.022610309 -0.24944729 -0.13512255
0000c0 dc eb 40 3e 8e bd 4d be df 55 6d be 8a d4 34 3e
       0.18839973 -0.2009184 -0.23177288 0.17659202
0000d0 59 5f 17 3e 24 51 8b 3e d2 ef 3f be 53 81 a6 bd
       0.14782466 0.27210343 -0.18743828 -0.081301354
0000e0 51 53 58 be 15 47 4c bd d5 5a 90 be 13 9e 60 3e
       -0.21125533 -0.049872477 -0.281943 0.219353
0000f0 8d 83 2d 3d 8f 9c 84 3e 75 7f a2 bd a2 67 c1 3c
       0.042361785 0.25900695 -0.07934467 0.023608986
000100 fd 60 b1 3c 26 32 19 3e ee 7f f1 bd c4 3e 01 3e
       0.021652693 0.14960536 -0.11791979 0.126216
000110 6a 7d 16 be 3f be 8a 3a b0 9d 26 be 2f f4 a2 3c
       -0.14696279 0.0010585262 -0.1627109 0.019891826
000120 7a b9 27 be e6 fd 32 be 2e a9 7a bd 7f c0 e3 3d
       -0.16379347 -0.17479667 -0.0611965 0.111207
000130 b6 fa ce 3d e6 27 26 3c 39 56 88 3d 13 63 4c 3e
       0.10106413 0.0101413485 0.06657071 0.19959669
000140 aa 58 ba 3d 9d 5b 8d be 68 ee 38 3c 4a 00 16 3e
       0.090989426 -0.27608958 0.011287309 0.14648548
000150 cd e5 59 3c 1e 7a 1b be 17 1c d6 bd 2f 24 0c 3e
       0.013299418 -0.15183303 -0.104545765 0.13685678
000160 41 94 4d 3d c0 b9 23 3e 32 69 00 3e c1 fd 41 bd
       0.050190214 0.15988827 0.12540129 -0.04736114
000170 4b de 1f be 01 f0 87 3e fe 4e ef bd 4c b8 28 3e
       -0.15612142 0.26550296 -0.116849884 0.16476554
000180 58 26 87 3e 8f 1d 1a 3e 74 fd 07 3d 23 c9 22 3d
       0.2639644 0.15050338 0.033200696 0.0397426
000190 8e 90 8d be 71 29 56 3e 83 33 86 3e f9 21 13 3d
       -0.2764935 0.20914246 0.26211175 0.03592107
0001a0 a7 17 4c 3d ab 85 fe bd be 5e 1a 3e d4 b2 88 be
       0.049827244 -0.12427839 0.15075204 -0.26698935
0001b0 57 2c 6b 3e b3 00 f3 bd ed a2 ab 3d eb 4b d7 3d
       0.22966133 -0.11865368 0.08380685 0.10512527
0001c0 fc 01 33 be 9a f5 e9 bd 1e d1 19 bd 36 49 9a 3e
       -0.17481226 -0.11423798 -0.037552945 0.3013398
0001d0 85 7a 3b 3d f3 77 84 be 29 a6 9b be 6f 56 5a be
       0.04577114 -0.25872764 -0.30400208 -0.21322034
0001e0 9b 31 91 3e ec 5c 88 be 80 39 4c 3e 36 ca 02 be
       0.28358158 -0.26633394 0.1994381 -0.1277245
0001f0 bc 71 a3 bd 53 a6 0b be 20 63 8b be 8b dc 13 be
       -0.079806775 -0.13637666 -0.27224064 -0.14439599
000200 bc c7 96 be 74 ae 41 be 1e 03 33 be 98 12 e3 bc
       -0.2944926 -0.18914205 -0.17481658 -0.027718827
000210 d4 43 96 3e d8 56 90 be 8a 31 7b be 31 14 65 3d
       0.29348624 -0.28191257 -0.24530616 0.05592746
000220 4b d5 b4 bd 5c 87 b6 bd 63 7c 15 3e 68 38 05 3d
       -0.08829745 -0.089125365 0.14598231 0.032524496
000230 52 bb 00 be bb 2c 8d be 24 db 3d be 7a 5b 7c be
       -0.12571457 -0.2757319 -0.18540627 -0.2464427
000240 cf 48 16 3d d2 24 d2 3c e8 cb 1d bd e5 bf 83 3e
       0.03669053 0.025652323 -0.03852454 0.2573234
000250 ec 4d 60 be b3 de 4d bd 56 f7 8c be e1 7d a3 3d
       -0.21904725 -0.05026121 -0.27532452 0.07982994
000260 9c 5d 90 be 51 8c 07 be b2 3d 92 be 9a 32 20 3e
       -0.28196418 -0.1323712 -0.28562695 0.15644303
000270 59 73 13 be b2 ad 19 bd 56 6c 09 be 21 d1 19 be
       -0.1439947 -0.037519164 -0.13420233 -0.15021183
000280 1f de 4e 3e 18 cc 6f 3d 6a e7 81 bd 8a 83 96 3e
       0.2020192 0.05854425 -0.06342967 0.2939723
000290 c0 2b d3 bd 6e 08 f4 3c f0 45 9c 3e ab e3 da 3d
       -0.10311079 0.029789176 0.30522108 0.106879555
0002a0 be 3e 25 be 90 87 54 3d b4 e1 ac 3c d4 2d 68 3e
       -0.16137215 0.051887095 0.021103717 0.22673732
0002b0 11 e6 eb 3d f8 89 b1 bd c1 92 03 3e c9 a3 99 3e
       0.11518491 -0.086688936 0.12848951 0.3000777
0002c0 26 9a 7a be 20 e0 5b be 45 5b 9c be 8b bf 5a be
       -0.24472865 -0.21472216 -0.30538383 -0.2136213
0002d0 b9 0b 49 3e 27 49 06 3e 9d dc 1a 3d cb 04 98 3e
       0.19633378 0.13113843 0.03780805 0.29691157
0002e0 62 f4 9a 3e da d3 d1 bc dd 74 7a be b2 b4 95 3e
       0.30264574 -0.025613714 -0.24458642 0.29239422
0002f0 29 1f 3d 3e e9 01 d9 3d 68 c4 84 be 87 92 2e 3e
       0.18468918 0.105960675 -0.25931096 0.17048083
000300 10 3d a2 bd ce 3b 09 3e 18 2a 5d bd 31 14 07 3e
       -0.07921803 0.1340172 -0.05399522 0.13191296
000310 58 9d 75 bd 82 27 05 3e b6 ba 07 3e 5b b3 4a be
       -0.059964508 0.13003352 0.13254818 -0.19794981
000320 8e fb 4c bb 8c dc 78 bd d8 b7 7d 3e 70 5a e2 bc
       -0.0031277868 -0.060757205 0.24777162 -0.027631015
000330 af 74 95 3e 63 16 8d 3c 5e 73 8f bd be 9e 88 3e
       0.29190585 0.017222589 -0.070044264 0.2668361
000340 65 bf 44 be 7f d8 97 be 55 40 89 3e e7 fe ac bc
       -0.19213636 -0.2965736 0.26806894 -0.02111764
000350 8a dd 23 3e ff 09 8a 3e f0 81 9c 3c 47 4c de bd
       0.16002479 0.2696075 0.019104928 -0.108543925
000360 11 4d 8e be 74 42 6c 3e 00 15 76 3e f7 3c 56 3e
       -0.27793172 0.23072225 0.24031448 0.20921694
000370 b1 05 4e be 05 a8 7b be a9 c7 7a be 1b 5c 96 be
       -0.20119359 -0.24575813 -0.24490227 -0.29367146
000380 91 3f 5b be 9e 02 84 be 7a 7b 76 bd d5 c4 78 be
       -0.21410967 -0.25783247 -0.06017635 -0.24293835
000390 f6 5b 96 be 87 0e 4e be 53 74 06 be 3a 66 0b 3e
       -0.29367036 -0.20122729 -0.13130312 0.13613215
0003a0 b7 9b 2c 3e a7 52 91 be ef a9 8e be b0 1f ea bd
       0.16856275 -0.2838337 -0.27864024 -0.11431825
0003b0 12 51 2e be 7e 26 74 3e ff 0b 98 3e 46 d4 dc 3d
       -0.17023113 0.23842809 0.29696652 0.107826754
0003c0 cd 93 3c be 4b e4 29 3e ee 48 ff bc 40 b7 8d 3e
       -0.18415757 0.16590993 -0.031162705 0.2767887
0003d0 cd 92 56 3e 91 f0 39 3d b3 82 99 be 33 96 38 3d
       0.20954438 0.045395438 -0.29982528 0.045065116
0003e0 51 f1 44 3e ca f9 18 be af ae 33 be 08 8e 9c 3e
       0.1923268 -0.14939037 -0.17547105 0.3057711
0003f0 f6 8c c4 bc 39 ae 83 be 16 f5 80 bd 1b 64 47 3d
       -0.023992997 -0.2571886 -0.062967464 0.048679452

conv_v_to_c.feature_module_left.0.bias f4 [64]
000000 45 29 b4 bc 76 34 70 3d 38 cc 66 3d 13 10 ac bd
       -0.021992335 0.05864378 0.056347102 -0.084015034
000010 8b 2b 5d bb 69 e7 53 3d 3b d6 e6 bc 21 fd 4d bc
       -0.0033747877 0.05173436 -0.028178325 -0.012572558
000020 fe 2b 4b 3d 17 6c 4c bd 3f 73 ea bb cb 98 27 3d
       0.0496025 -0.04990777 -0.0071548517 0.0409172
000030 61 1f b8 bd 4b ef 8e bd dd 9d f8 3d 6c b3 ad 3d
       -0.0899036 -0.06979235 0.12139485 0.08481488
000040 5f eb c1 3d 5b f0 91 3d 5c 27 f2 39 a8 67 7d 3d
       0.094687216 0.07125922 0.00046187162 0.061866432
000050 7c 9e 2b 3d 45 a7 a0 bd 4a e5 8c 3d 23 84 86 bd
       0.04189919 -0.07844404 0.06879671 -0.06568172
000060 5f bc 4a 3d 22 0c 67 bd 5d 2a fe bd f1 7b d6 bc
       0.04949605 -0.056408055 -0.12410424 -0.026182147
000070 69 7d c6 3d c0 21 9f 3d 4b 01 a4 bd d3 90 6e bd
       0.09691889 0.07770109 -0.08008059 -0.058243584
000080 a6 c4 24 3d af 27 8e 3d 8e 64 7b ba 0a a5 d0 bc
       0.0402266 0.06941163 -0.0009589874 -0.025469322
000090 b1 75 e8 bd 3f 97 d1 bd f8 0f c3 bd 6e 79 ef 3c
       -0.11350573 -0.10233926 -0.0952453 0.029232707
0000a0 2a 2d 29 3d 09 b9 6d bc 0a 44 8b bd 7f e2 09 bc
       0.041302837 -0.014509448 -0.06800087 -0.008415817
0000b0 03 5f 76 3b 34 b5 e5 bd 4d bd 32 3d cd 97 5e 3c
       0.0037593252 -0.112162024 0.043637563 0.013585997
0000c0 b7 6f ff 3d a4 2d 87 3d 7c 8a 95 bd 2a c0 7d bd
       0.1247248 0.06600502 -0.073018044 -0.06195084
0000d0 8d 02 b3 bd 73 d5 08 bd 3c 4b 95 3d a1 87 5e bd
       -0.08740721 -0.033406686 0.072897404 -0.054328565
0000e0 52 de e5 bd 3c d6 a3 3d 61 8f 11 3d 29 bd 2c 3d
       -0.11224045 0.07999846 0.035537127 0.042172585
0000f0 8b 52 07 3d 37 6c 6b bc a0 fa eb 3d c9 6c f9 3d
       0.033037703 -0.014369062 0.11522412 0.12178952

conv_v_to_c.feature_module_edge.0.weight f4 [64, 1]
000000 da 82 41 bf 26 14 c2 bf a7 db 07 c0 07 2d 10 40
       -0.7559029 -1.5162399 -2.1227815 2.2527483
000010 19 e5 9a bf 76 65 7d 3e 66 40 15 c0 66 b6 04 c0
       -1.2101165 0.24745736 -2.3320556 -2.0736327
000020 4c 09 c8 bf 12 5b fd bf 6d dd 25 3f 6d 01 11 c0
       -1.5627837 -1.9793417 0.64790994 -2.265712
000030 ef 4a c6 3f 11 d2 5b bf a2 19 39 bf d4 05 00 3d
       1.5491618 -0.8586741 -0.7230474 0.031255558
000040 55 1e 0e c0 ca e1 26 3f ea bd d7 3f fc 52 19 40
       -2.2206013 0.65188277 1.6854832 2.39569
000050 83 f6 c9 3f b1 ef ef 3e b0 82 17 40 cd 3f 13 c0
       1.5778354 0.46862558 2.3673515 -2.300769
000060 23 1c 15 40 42 01 78 bf a3 4c ed 3f 12 a3 fb 3e
       2.3298423 -0.9687692 1.8539013 0.4914785
000070 d5 35 ca bb 99 f1 7b 3e 9e a7 16 3f da 06 ad bf
       -0.006170968 0.24603881 0.58849514 -1.3517716
000080 12 55 a8 3f 15 3b 84 bf 08 45 8b 3f c4 e4 f9 be
       1.3150961 -1.033053 1.0880442 -0.48807347
000090 49 3d 1a 40 88 e3 b2 bf c1 78 be bf 4b 9e e1 3e
       2.4099905 -1.3975687 -1.4880601 0.4406608
0000a0 9f 58 12 3f 50 a7 b9 bf 4d 4f 9a be 37 38 71 bf
       0.57166475 -1.4504185 -0.30138627 -0.942264
0000b0 e4 69 91 bf 32 e6 df 3f 7a 13 01 be d5 a2 b1 3f
       -1.136044 1.7492125 -0.12605086 1.3877817
0000c0 ce 54 70 bf 11 d3 f7 3f 96 e5 f6 bf 30 17 53 3f
       -0.938794 1.9361287 -1.9288814 0.82457256
0000d0 39 cb 18 3f 82 6d 0a c0 81 1e 4d be d2 e7 c5 bf
       0.59685093 -2.1629338 -0.20031168 -1.5461371
0000e0 92 7a 30 3f e6 44 eb bf e9 0c 91 bd 65 a7 e3 3d
       0.6893703 -1.8380401 -0.070825405 0.11115912
0000f0 8a 6d 5a 3f a6 83 c9 bf f5 93 dc 3f 04 a0 c4 bf
       0.85323393 -1.5743301 1.7232653 -1.5361333
