rl_model/SCPPO_policy_29.pth (torch_old, 472694 bytes, 71 tensors)

cons_embedding.0.weight f4 [4]
000000 19 ef 7f 3f 9d cc 7f 3f 47 1b 80 3f 75 dc 7f 3f
       0.9997421 0.9992159 1.0008324 0.99945766

cons_embedding.0.bias f4 [4]
000000 17 a9 8b 39 6e 0f 4b 3a e0 89 59 3a fc 8f 0e ba
       0.00026638128 0.00077461347 0.0008298438 -0.00054383255

cons_embedding.1.weight f4 [64, 4]
000000 7c 0b 4f bf c5 12 5d 3f 20 8f 1a 3e 3d 5f 31 3f
       -0.808769 0.86356765 0.1509366 0.6928595
000010 41 13 f0 bd a1 6c 88 bf 05 c1 4c 3f 12 4d 88 3d
       -0.117224224 -1.0658151 0.79982024 0.06655325
000020 6a 14 a9 bd 8d 32 aa 3d f2 82 6a be 73 ef 05 bf
       -0.08255847 0.08310423 -0.22901514 -0.52318496
000030 b4 92 19 3f 41 f3 c3 3e af 85 8d 3d f9 c7 36 3f
       0.59989476 0.38271526 0.06910264 0.71398884
000040 70 44 d4 3e 57 cc ec 3e 50 8f f4 bc e8 06 43 bf
       0.41458464 0.4624965 -0.029853493 -0.76182413
000050 a7 98 37 3f e5 c4 d4 bd b9 5c 8f bf 73 d5 41 3f
       0.71717304 -0.10389117 -1.1200172 0.7571632
000060 fd d6 70 bc f5 c7 06 3e cb e5 1a bf 44 08 f0 3e
       -0.014699695 0.13162215 -0.60506886 0.46881306
000070 1d a6 7c bf 1e 0d 92 bf b0 fc 89 3e 2f e9 2c 3f
       -0.9869097 -1.1410253 0.26950598 0.6754331
000080 f5 c8 22 bf dc 7c 03 3f 63 26 26 bd 93 1b 19 3f
       -0.63587886 0.51362395 -0.040563952 0.598077
000090 14 d6 4f bf 90 80 27 3f 21 36 58 3f a4 0f 69 3f
       -0.8118603 0.65430546 0.84457594 0.9103949
0000a0 af 3e 41 3f 86 3f 7f bf d5 b5 8a 3f 66 86 3e 3d
       0.7548627 -0.99706304 1.0836741 0.04651489
0000b0 8b c0 81 3f 12 ef df 3e 84 70 2f 3f a2 c5 21 3f
       1.0136884 0.43737084 0.6853106 0.6319219
0000c0 dc 1f 47 3e 76 00 6a 3f 9a 99 ad be 55 f3 14 bf
       0.19445747 0.91406953 -0.3390625 -0.58183795
0000d0 97 35 ac bc ec ba 07 3e 99 1a 82 3f 59 76 fd 3e
       -0.021021647 0.13254899 1.0164367 0.49504355
0000e0 85 5b 2c bf 93 55 3d 3f 7b 71 86 3f 69 c3 75 bf
       -0.6732715 0.739587 1.0503381 -0.960013
0000f0 9a 53 8d 3f 52 81 d1 be e2 a8 86 3f c0 57 67 bf
       1.1041138 -0.40918976 1.0520289 -0.9036827
000100 cc 4f 2b 3f 15 c5 82 3e 57 34 8e 3e af df b6 be
       0.66918635 0.25540987 0.27774307 -0.35717532
000110 19 76 48 bf 29 30 6a 3f 0d c7 95 3f 46 2a 32 bf
       -0.783052 0.91479737 1.170137 -0.69595754
000120 f5 63 17 3f d2 25 ed be 47 51 99 3f a4 8f 99 bf
       0.591369 -0.46317917 1.1977929 -1.1996961
000130 37 6a 52 3f 97 ca 76 bd 9e c5 cd 3d 33 fe 32 bf
       0.8219332 -0.0602518 0.10047458 -0.6991913
000140 8a e7 c8 be 01 2b 5b 3e ae 86 98 bf 29 ce 88 be
       -0.3923915 0.21403123 -1.1916101 -0.26719788
000150 88 4d 34 3e 2c 87 84 be 91 07 85 bf e1 a9 65 3f
       0.17607701 -0.25884378 -1.0392934 0.8971234
000160 15 e8 82 be a1 75 68 bf 75 88 52 3f 7d dc 55 be
       -0.2556769 -0.9080449 0.82239467 -0.20884891
000170 3d 10 99 3f 1d 64 46 3f 5a 34 10 3e e3 92 0a 3f
       1.195808 0.7749651 0.1408247 0.5413038
000180 21 d6 4f 3e c3 60 91 bf 28 05 30 bf 30 99 9c bf
       0.20296527 -1.1357654 -0.6875787 -1.2234249
000190 a3 bc 93 be a2 88 82 3f c0 d1 3f 3f ec fb 7f 3f
       -0.28854856 1.0197947 0.7492943 0.9999378
0001a0 ff 9d 43 bd f7 1d 84 3f b4 b9 40 3f 24 72 26 bd
       -0.0477581 1.0321645 0.7528336 -0.040636197
0001b0 e2 07 87 bf 5a d7 25 3f e8 ab 4d bf 3e f8 14 3f
       -1.0549281 0.64781725 -0.80340433 0.5819129
0001c0 d0 66 89 be 55 9f 21 3f 2e 01 05 bf 61 cb 5b 3e
       -0.26836252 0.63133746 -0.51954925 0.21464302
0001d0 13 f1 84 3f 45 2b 8f 3f 03 7c cc be 27 ec 91 bf
       1.038607 1.118508 -0.39938363 -1.1400193
0001e0 b2 ba b7 be af 1f 76 3d 1d de 6f 3f c0 76 1d bf
       -0.35884625 0.06008881 0.9369829 -0.61509323
0001f0 c5 c5 85 bf 90 23 40 be 20 1c f5 3d a6 06 a3 3e
       -1.045098 -0.18763566 0.11968255 0.3184101
000200 19 16 c1 3d fc 1f 8a bf 25 9a 80 bf df 21 27 3e
       0.09428043 -1.0791011 -1.0047041 0.16321515
000210 5d d8 c9 3e 80 53 2b bf 45 0d 8d 3c ca 6d 66 be
       0.39422885 -0.66924286 0.017218241 -0.22502819
000220 c9 87 37 3e 94 04 60 3e c5 36 54 bf a6 ed 8b bf
       0.17922892 0.21876746 -0.8289607 -1.09319
000230 60 bf a6 be 03 65 02 bf d3 9a 49 3e 0e c9 8d bf
       -0.32567883 -0.5093538 0.19687967 -1.1076982
000240 7e b9 82 bf 93 dd bb bc 03 04 bb 3e a1 70 8d bf
       -1.0212858 -0.022932803 0.36526498 -1.1049997
000250 2f 3e a9 3d 35 69 4e bf 75 b1 5b be 9b 6a 2e bf
       0.08263814 -0.80629283 -0.21454413 -0.6813142
000260 ac 53 53 bf 72 dc 4b 3f 66 8d 49 bf 23 eb c7 3e
       -0.8254955 0.7963325 -0.7873138 0.39046583
000270 8f 61 95 bf 40 a6 fe 3e 8e 0a 94 3f 01 f8 02 3f
       -1.1670398 0.49736214 1.1565721 0.51159674
000280 89 ea 92 3f 1a 77 7c bf c5 7e 75 3f c0 3b 25 bf
       1.1477824 -0.98619235 0.9589656 -0.64544296
000290 76 88 b8 bb 16 50 b3 be 3f 70 e2 3e fe 98 03 3f
       -0.005631502 -0.35022038 0.44226262 0.5140532
0002a0 1c 76 01 3f 85 76 93 3f 23 ed 83 bf d8 36 59 be
       0.50570846 1.1520544 -1.0306743 -0.21212327
0002b0 58 85 96 bd 2a f1 80 bf 8a cd 5f 3f 94 61 a5 bd
       -0.07349652 -1.0073597 0.87423 -0.08075252
0002c0 dc 39 9c be 8f 79 0a bf a9 38 69 3f a9 80 29 3f
       -0.30512893 -0.54091734 0.9110208 0.66211945
0002d0 fb bb ca 3e de 3e 26 bd 1a 11 52 be b3 1e 1c bf
       0.39596543 -0.0405873 -0.20514336 -0.60984343
0002e0 6e 11 56 bf b2 7f 96 3f 84 a4 88 3f f6 11 8c 3e
       -0.83620346 1.175772 1.0675206 0.27357453
0002f0 8f 1b b9 be 4a a8 21 bf a1 5f a5 3e 16 45 d9 3e
       -0.36153838 -0.63147414 0.32299522 0.4243552
000300 b1 34 07 bc 40 76 03 3f 3e 45 90 3e 33 a6 cd be
       -0.008252309 0.5135231 0.28177828 -0.40165862
000310 33 5c 5e 3d be 74 23 3f 8e d3 71 be 34 d8 63 bf
       0.054287147 0.6385001 -0.23615858 -0.89001775
000320 8b 95 bc be 04 7d 9a bf 69 64 1c 3f 8a 25 6b bf
       -0.36832842 -1.2069402 0.61090714 -0.91854155
000330 46 a4 84 3f 84 ac ff bb e2 a3 12 3e 6b 99 94 3e
       1.0362632 -0.007802548 0.14320329 0.290233
000340 40 b6 20 bf 83 9b d4 3e e0 4c 36 3f b1 4a b0 be
       -0.6277809 0.41524896 0.7121105 -0.34431985
000350 c8 b9 80 bf 91 fc e9 3e dd bc 98 3f 7f fd 2c be
       -1.0056696 0.45700505 1.1932636 -0.16893576
000360 ec 65 4c bf 1b bb 04 be e2 58 5d bf 21 f1 84 3f
       -0.7984302 -0.12962 -0.8646375 1.0386087
000370 2e ff 0b bf 53 33 53 bf 4e 96 fa bd 0a ae 21 bf
       -0.5468625 -0.8250019 -0.122356996 -0.6315619
000380 96 c4 b5 be c9 56 39 bf 48 03 83 3f 46 d1 23 bf
       -0.35501546 -0.7239805 1.0235376 -0.639912
000390 b1 e1 40 3f e7 71 10 bf 58 04 6c 3f 9c 70 06 bf
       0.7534438 -0.564238 0.9219413 -0.5251558
0003a0 e1 77 0d 3f 1d ee 82 be cd ab db be 6f f4 ed 3e
       0.55261046 -0.2557229 -0.4290451 0.4647555
0003b0 70 35 49 3d ef da f7 be f9 cf 05 bf 42 30 b7 3e
       0.049123228 -0.4840922 -0.52270466 0.35779005
0003c0 6e 51 b4 3e 91 c4 d6 3e 57 e5 87 be d0 5f a9 be
       0.35218376 0.41946843 -0.2654216 -0.33080912
0003d0 12 57 8e 3c 83 f4 72 3f eb dd c7 3d da 84 4d 3f
       0.017375503 0.94904345 0.09759124 0.8028084
0003e0 7c 85 0f 3e 41 43 1f 3f fc 68 da bd d7 12 18 bf
       0.14015764 0.62211996 -0.106645554 -0.5940375
0003f0 04 f1 79 bf 9f 1c 30 3e 5b 51 72 3f 6c a4 12 be
       -0.97633386 0.17198418 0.9465539 -0.14320534

cons_embedding.1.bias f4 [64]
000000 e6 06 96 3e dd 8c ee 3e 5a 63 b5 3e dd 29 7c bc
       0.29302138 0.46591845 0.35427362 -0.01539084
000010 93 70 81 be df 4b 69 3e 4e a9 9c be fb f8 69 3e
       -0.252812 0.22782849 -0.3059792 0.22848885
000020 5b 18 ba 3d 04 ae ab 3e 66 11 e7 bd 78 9e 5b 3e
       0.09086677 0.335312 -0.11282615 0.2144717
000030 11 6b b4 3e 84 2b dc 3e 71 fb 68 3d 14 91 ef bd
       0.35237935 0.4300195 0.05688042 -0.11697593
000040 dd 52 5c be fd 8f ef bd d2 9e 62 3e d4 e3 81 be
       -0.21515985 -0.116973855 0.22130898 -0.25369132
000050 ae dd 47 3e 63 10 a3 3e c1 0c cc 3e 40 65 39 be
       0.19518158 0.3184844 0.3985348 -0.1810503
000060 6e a3 6f be 7f f0 9b 3e 4a 27 c5 bd d5 d7 d6 3b
       -0.23402187 0.3045692 -0.096266344 0.006556491
000070 dc 87 fe 3e 8d f9 97 be 88 a2 e7 be 02 86 05 3e
       0.49713027 -0.2968258 -0.4524119 0.13039401
000080 4f ca 27 bd 9f 5a 9c be b9 f0 0a be 71 cb aa bd
       -0.04096442 -0.30537888 -0.13568391 -0.083395846
000090 d1 02 30 3e f3 46 3d 3d 95 88 a9 3e 4f 9f a7 be
       0.17188574 0.04621024 0.33112016 -0.3273873
0000a0 5f 04 ea 3e 43 01 b1 be b9 9f 8e 3d c7 c4 da bd
       0.4570646 -0.34571275 0.069640584 -0.106820635
0000b0 e5 53 64 3e 92 df e2 3d 85 19 38 3e ca ab 17 bd
       0.22297628 0.11077799 0.17978485 -0.037029065
0000c0 a6 4f e4 3e d6 b7 3a be 2b 1e ae be 48 88 85 be
       0.44592017 -0.1823419 -0.3400739 -0.26080537
0000d0 00 f0 eb be 02 27 e3 3e 0a d6 87 3e 35 68 bb 3e
       -0.46081543 0.44365698 0.26530486 0.3660294
0000e0 49 02 90 be d8 74 82 be af b4 5c 3e 72 0b ed 3d
       -0.28126743 -0.2547977 0.215533 0.11574449
0000f0 88 83 be 3e 6e 05 9a 3e 92 d3 da 3d 3b 83 88 be
       0.37209725 0.30082268 0.10684885 -0.2666262

cons_embedding.3.weight f4 [64, 64]
000000 f6 5f ea 3d 01 78 19 bd ac 1c 8e 3e 66 c7 b5 3c
       0.11444084 -0.03746796 0.2775625 0.022189807
000010 c7 7e c6 bc 1f 74 f3 3d e8 ac b8 bd bb d4 d5 bc
       -0.024230374 0.11887383 -0.09017354 -0.026102414
000020 21 65 89 3e c1 fe 66 3e 6c b1 83 3e fd 24 97 3e
       0.26834968 0.22558118 0.257213 0.29520407
000030 c9 58 1c ba 42 da 18 bd 41 df 6c 3e 8b 7b 9e 3d
       -0.0005964158 -0.037317522 0.2313204 0.07738408
000040 89 24 03 3e fc 4b 82 3e 77 b0 1d 3e b1 83 4c be
       0.12806906 0.25448596 0.15399347 -0.19972111
000050 28 fa a5 3c 86 e7 8c 3d ba e0 69 3e d2 15 41 3e
       0.020260885 0.06880097 0.22839633 0.1885598
000060 b5 ce bd bb 5d f0 9b be d9 32 42 be 47 b4 78 be
       -0.0057924637 -0.3045682 -0.1896471 -0.2428752
000070 5a fb c3 bd 21 aa 89 3e 81 22 5b 3e e4 99 31 be
       -0.09569426 0.2688761 0.21399881 -0.17343861
000080 11 9d 7f be de 79 13 bd f2 75 2a be bf 3a 74 3e
       -0.2496226 -0.036004893 -0.16646555 0.23850535
000090 d5 3a 24 3e c4 2c 85 be bf 18 7f bd 90 3c 4c 3e
       0.16038068 -0.26010716 -0.06227946 0.19944978
0000a0 bc 67 34 3e 2d 8b 4f 3c 38 81 94 3e b5 2c 1d 3d
       0.17617697 0.012667459 0.29004836 0.038372714
0000b0 d6 ab e7 3b 53 ca 35 bc ef 1c 53 be a5 4d 77 be
       0.007070045 -0.011095601 -0.20616506 -0.24150713
0000c0 cf 0e 44 3e 42 0c 89 3d 06 fc 56 be bb 15 2a bd
       0.19146274 0.06691791 -0.20994577 -0.04152463
0000d0 ed 04 9c bd 5b 9c 69 3e 7f 1a 34 3e fc 23 0e 3e
       -0.07618127 0.22813551 0.17588232 0.13880914
0000e0 cd 25 28 be b9 45 38 3e d2 01 98 be 7f 41 96 be
       -0.1642067 0.17995347 -0.2968889 -0.29346845
0000f0 3a b3 99 3e 85 6d 96 3e e6 80 d1 bd c4 9d a1 3d
       0.30019552 0.29380432 -0.102296636 0.078914195
000100 90 b1 80 3e 3f 4c be 3d 63 07 8d bd 6e 91 05 bc
       0.2513547 0.092918865 -0.068861745 -0.008152349
000110 d4 c4 6a be b2 d5 fc 3d bb 6e 8a be 79 44 87 3d
       -0.22926646 0.12345447 -0.27037606 0.06604857
000120 dc 0d 48 3e e2 a9 7f bd d9 ce 7c bd 3d 05 8d be
       0.19536537 -0.062417872 -0.061720703 -0.2754306
000130 e7 ec ce bd 06 58 26 be a1 82 3d be b0 55 8d 3e
       -0.10103779 -0.16244516 -0.18506862 0.27604437
000140 4d 1e 59 3d 8e 4e 65 3e 35 6c 76 be 67 79 ad bd
       0.053007413 0.22393247 -0.24064715 -0.08470421
000150 74 8e 7e be c5 22 0d 3e ac ce 95 3d 21 0b 7a 3e
       -0.24859029 0.13782795 0.0731481 0.24418308
000160 0b 61 08 3e db 61 98 3c 5f 20 ea bc ac 8c 71 be
       0.13318269 0.018601349 -0.028579889 -0.23588818
000170 75 86 df 3c a5 7c 42 be ef f0 8f bd 34 cc 95 3e
       0.027285794 -0.1899286 -0.07028376 0.29257357
000180 34 54 8b 3e a4 4e 3d be 60 f8 c3 bc 61 f6 92 3d
       0.2721268 -0.1848703 -0.023922145 0.07175899
000190 42 2c 36 3d b7 74 8f 3e c3 3f 27 bd fe 87 bb 3c
       0.0444758 0.28018734 -0.040832292 0.022891995
0001a0 7f d4 7b be 38 fc 53 3e 45 7a 0e bd f0 7a 47 be
       -0.2459278 0.20701683 -0.034784574 -0.1948049
0001b0 7d 4a 65 be 24 ae 82 3d 70 92 6c be d6 1a 56 be
       -0.22391696 0.06380871 -0.23102736 -0.20908675
0001c0 81 6e 8f be 55 08 91 be cc 24 99 be b7 d7 28 bd
       -0.28013995 -0.2832667 -0.29910886 -0.041221347
0001d0 d9 b4 47 be 20 9a 83 be c3 4f 7c 3e 0c e8 8b 3d
       -0.19502582 -0.25703526 0.24639802 0.06831369
0001e0 10 aa f1 bd 16 83 92 be ad bf 2a bc 0a f9 3d 3d
       -0.11800015 -0.28615636 -0.010421676 0.04638008
0001f0 40 99 81 3d 90 59 94 3e 6f 9f 8e 3e 3b a9 84 3d
       0.06328058 0.2897458 0.27856013 0.06477591
000200 47 e4 80 3e 94 92 8f bb 5c ba 6c be 51 57 0d be
       0.25174162 -0.004381487 -0.23117965 -0.1380284
000210 69 db 47 3e 0c c8 95 bd 44 9e 17 3e 0c ee 04 be
       0.19517292 -0.073135465 0.14806467 -0.12981433
000220 ec e8 53 be 91 e2 ea bc e2 6f 8a 3e ec a8 86 be
       -0.20694321 -0.028672488 0.27038485 -0.26300752
000230 b0 e7 a2 bc 3d 07 60 bd 84 2c 84 3e e8 57 2d be
       -0.019885868 -0.054694403 0.25815213 -0.16928065
000240 1e b8 f6 3d 85 64 a6 3d be 8f 60 3e 68 08 14 be
       0.12046836 0.08124641 0.21929833 -0.14456332
000250 5b da 58 3e dc 39 69 3e b5 b3 17 be ef 14 29 3d
       0.21177046 0.22775978 -0.14814647 0.04127973
000260 96 19 ec 3d 31 d7 e7 bc 82 14 88 be 6e 69 26 3e
       0.11528318 -0.028300853 -0.26578146 0.16251156
000270 52 24 7e 3e ed 52 95 be fa 04 c6 3d eb 22 4d be
       0.24818543 -0.2916483 0.09668918 -0.20032851
000280 7c 25 1f be a3 46 70 3d cd 29 56 be e6 af b9 3d
       -0.15541643 0.058661114 -0.20914383 0.09066753
000290 a7 53 f4 bd 66 4d 51 3c 19 74 09 3e f1 d5 11 3e
       -0.11930018 0.012774801 0.13423194 0.14241768
0002a0 e2 22 96 3e c7 4e 98 be 5d 0c 40 bc b1 d5 6d 3e
       0.29323488 -0.29747602 -0.011721698 0.23226048
0002b0 29 09 6a be 3e 40 1b bd d9 d2 03 be c9 ea c1 bd
       -0.22855057 -0.037903063 -0.12873401 -0.0946861
0002c0 19 86 6e bd 9a c5 3a 3e d3 46 94 be 63 11 69 3d
       -0.058233354 0.18239442 -0.28960285 0.056901347
0002d0 07 84 12 3e 5f 5e 90 bd 1b ae f9 bd cb 8e e6 bd
       0.14308177 -0.0704925 -0.12191411 -0.11257704
0002e0 0d d7 5a 3e cf 80 89 bd ee ad 08 3e 8d 95 b8 bd
       0.21371098 -0.067140214 0.13347599 -0.090128995
0002f0 69 55 bd 3c 27 34 0e 3e da 29 2d bc a6 45 45 3e
       0.023112016 0.13887082 -0.01056906 0.1926485
000300 d0 af 8c 3d 5f 04 35 bd 93 a9 0e be 11 36 78 3d
       0.06869471 -0.04419362 -0.13931875 0.060598437
000310 c9 5b 58 3e 2b 49 4d 3e 96 08 dc bd 58 63 2b 3d
       0.21128763 0.20047443 -0.10743825 0.04184279
000320 2e fb 8b 3d a9 f1 98 3d e6 45 b1 3d 9f a8 20 be
       0.06835018 0.07467968 0.0865591 -0.15689324
000330 e9 85 f1 bd e7 0f 83 3d 66 a8 89 be 7a fd 61 be
       -0.117931195 0.063995175 -0.2688629 -0.2206935
000340 e5 82 6e be 07 45 5a bd 7f e6 90 3e a0 1c 92 3e
       -0.2329212 -0.053288486 0.28300855 0.28537464
000350 3e 39 54 be 2c e6 92 3d 59 63 62 3e 71 89 a2 3d
       -0.20724961 0.07172808 0.2210821 0.07936371
000360 f7 af 82 be 9a b9 ff 3d b3 c2 8f 3e 59 d2 9d bd
       -0.25524876 0.124865726 0.2807823 -0.07706136
000370 ee 13 70 3e 58 ff 5a 3d e8 03 23 be 9a 9e 11 3d
       0.23445103 0.05346617 -0.15919459 0.035551645
000380 ba 66 8e 3e b1 61 6c be d4 88 90 3e 2e 18 85 be
       0.2781275 -0.23084141 0.28229392 -0.2599501
000390 f8 bf 80 3e 08 99 01 3e a2 1f c5 3b 9b f9 22 3e
       0.2514646 0.12656033 0.006015734 0.1591553
0003a0 cf 7e 50 be 35 34 18 3b 84 86 a7 3d d6 4b b5 bd
       -0.20360874 0.0023224477 0.08179954 -0.08852355
0003b0 4c f3 79 be f1 fc 04 bc 30 0d 0f 3e ca 5a 3b 3e
       -0.24409217 -0.008116947 0.13969874 0.18296352
0003c0 e7 22 50 be cb ea 05 3e b8 48 b1 3d b7 51 79 be
       -0.20325814 0.13077848 0.08656448 -0.24347578
0003d0 3a 8a 9a 3d 68 5b 10 3d 87 c2 0b 3d b8 79 8a 3e
       0.07545896 0.03524342 0.034121063 0.2704599
0003e0 79 25 df bd 62 9a ee bc da 9d 30 bc 4c f9 67 3d
       -0.10895819 -0.02912635 -0.010779822 0.056634232
0003f0 3e 6e 99 be 09 39 4f bd 7f eb 9e 3d c7 bd 25 3e
       -0.2996692 -0.050591502 0.07759761 0.16185676

cons_embedding.3.bias f4 [64]
000000 17 6d fe bb b4 eb af 3d 9f 11 f9 3d b5 24 bf bd
       -0.0077644694 0.08589879 0.12161564 -0.09333173
000010 8f 84 a0 3d 6f b6 7d bd 37 3e 57 3d fb 1f c7 3d
       0.078377835 -0.06194156 0.052549567 0.09722897
000020 24 2f e2 bc b4 98 0a 3d 67 4a 55 3d 95 e1 30 bc
       -0.027610369 0.033837035 0.05207291 -0.01079597
000030 27 1e 85 3d 91 ee 20 bd 0f 0a a1 bd f7 11 20 bb
       0.06499892 -0.039290015 -0.07863247 -0.002442477
000040 c3 ab ee bb 77 e5 d7 3d 58 8c 3c 3b 14 be b7 3d
       -0.007283659 0.10541814 0.0028770175 0.089718014
000050 b2 6c 0c bc 7c 38 01 3e 5b 89 9a bd 39 69 92 bd
       -0.008570837 0.12619203 -0.0754573 -0.07148976
000060 69 cf db 3d b5 fc a6 bd 9d 66 ab bd 1c b2 cf bd
       0.1073292 -0.08153669 -0.08369181 -0.101413935
000070 62 04 ab bd 76 93 ea bd ee a1 0f 3d 46 86 2c 3c
       -0.08350445 -0.11453907 0.035066538 0.01053006
000080 dc 98 b9 bd e4 f9 c7 3d 18 a9 e6 3d d9 77 0b 3d
       -0.09062359 0.0976446 0.11262721 0.034049843
000090 56 4b 85 3d 1a 44 ef 3d 3d 51 ae bd a4 3f b3 bd
       0.0650851 0.11682911 -0.08511589 -0.08752373
0000a0 cf fb a5 3a 61 5c f9 3c c3 62 46 bd bd 01 9f 3d
       0.0012663546 0.030439558 -0.04843403 0.077640034
0000b0 1f 77 12 3c 1f a7 2a 3d 43 60 94 3c c0 7e e8 3d
       0.0089395335 0.041663285 0.018112307 0.11352301
0000c0 2f 0e e3 bd 26 33 8b bd 40 46 a5 bd 4c ac 75 bd
       -0.1108669 -0.06796865 -0.0807004 -0.05997877
0000d0 0d 7a 67 bc cf 49 70 bd 68 cb 9e bc 26 0d a4 3a
       -0.01412822 -0.05866414 -0.019384101 0.0012516126
0000e0 88 2f fc 3d a5 08 a5 bc 08 9d f8 3d e5 1f ff bd
       0.12313753 -0.020145724 0.12139326 -0.12457255
0000f0 24 4e 81 bd f8 5e cb bd 78 c4 11 3d 86 8d d2 bc
       -0.06313732 -0.09930223 0.035587758 -0.02570225

var_embedding.0.weight f4 [7]
000000 6a 0f 80 3f ca 10 80 3f a9 fd 7f 3f 30 83 7f 3f
       1.0004704 1.0005124 0.9999643 0.9980955
000010 e4 c0 7f 3f 12 15 80 3f f9 a8 7f 3f
       0.999037 1.000643 0.99867207

var_embedding.0.bias f4 [7]
000000 0e c4 df 39 ec cf 47 3a cf 13 7e b9 36 5f df 3a
       0.00042679947 0.00076222303 -0.00024230707 0.0017041925
000010 e3 b0 7d 3a 60 08 20 ba 34 3c b5 3a
       0.0009677542 -0.00061047636 0.0013827146

var_embedding.1.weight f4 [64, 7]
000000 46 04 44 3f 71 94 1b 3f 4f 27 82 bb 9c 5e 49 3f
       0.7656902 0.6077338 -0.003971971 0.7865999
000010 d5 db 92 3e d1 aa 6b 3f d9 a3 97 be 05 1c 29 bf
       0.28683344 0.9205752 -0.29617193 -0.6605838
000020 d9 b1 b5 be 78 19 57 3f 8c 91 bf be 2c 1a 0d be
       -0.3548725 0.8402324 -0.3741573 -0.13779515
000030 87 5d 29 3f 16 8f 73 3c 33 13 2d bf 93 28 e5 be
       0.66158336 0.014865657 -0.6760742 -0.44757518
000040 97 9c 02 bc 6f 30 01 3f 9a 1d 47 be 81 f5 a1 3d
       -0.007971904 0.5046453 -0.19444886 0.07908154
000050 9b 4b f8 be 40 32 27 bf 87 bf f7 3e 12 76 83 3d
       -0.48495182 -0.6531105 0.4838831 0.064190045
000060 bf 89 9a 3e 29 dc a6 bc 64 6a f7 3e ac f9 f7 bd
       0.30183217 -0.020368652 0.48323357 -0.12108168
000070 f9 1d 96 be 7b f1 28 3f dd 8e 03 3f 59 dd f4 3e
       -0.29319742 0.6599347 0.5138987 0.47825125
000080 76 87 fa 3e 1b ed c4 3e 47 b0 75 be 1e f3 1f bf
       0.48931473 0.38462147 -0.23993026 -0.6248034
000090 24 02 23 3f 1e 41 0d bf f3 36 00 3f a5 4a 53 3f
       0.6367514 -0.55177486 0.50083846 0.82535774
0000a0 4b 6c 02 3f db 40 f9 bd b2 fc 69 3d 35 f5 56 bf
       0.5094649 -0.12170573 0.057125755 -0.83967906
0000b0 04 c0 d9 be 7e d7 b9 3e fa bc 0f bf 12 99 2f 3e
       -0.4252931 0.3629722 -0.5614773 0.17148235
0000c0 66 10 46 bf ba 3f 67 3f 62 df 34 3f c9 62 6b bd
       -0.7736877 0.90331614 0.70653355 -0.057467256
0000d0 e4 30 67 bf dc 64 13 be 61 34 ab 3e ab 7b c1 3d
       -0.90308976 -0.14393944 0.334384 0.09447416
0000e0 66 53 1a 3f e4 a2 cd 3d 91 8e a2 3c 36 95 11 bf
       0.60283506 0.100408345 0.019843372 -0.568683
0000f0 d2 49 1e be eb 08 79 3d 7f 88 8e 3e ba 3a 51 bf
       -0.15457848 0.06079952 0.27838513 -0.81730235
000100 07 db 03 3f 42 34 65 3f f3 90 43 3e 5e d6 51 bf
       0.51506084 0.89532864 0.19098262 -0.81967723
000110 5a 81 7c 3c dd 12 17 3f ea 05 d6 be 3b 35 14 bf
       0.015411699 0.5901316 -0.41801387 -0.57893723
000120 4e aa 56 3f 77 b1 71 3d 42 e2 5a be b4 8b c3 3e
       0.83853614 0.059007134 -0.21375373 0.38192523
000130 7b 01 64 3f 66 c1 3a bf 3c fa 64 be f6 3e a9 3d
       0.8906476 -0.7295135 -0.22361082 0.08263962
000140 7b 2b dc 3e 12 38 2c be e5 0a 29 3f 95 a9 13 3f
       0.43001923 -0.16818264 0.6603225 0.57680637
000150 2c 5a f1 be cf 6b be 3d ba 39 54 3f e1 a1 c7 be
       -0.47139108 0.092979066 0.82900584 -0.3899069
000160 99 51 11 be 4f 63 0d be dc d8 c9 3e 19 17 01 bf
       -0.14191283 -0.13807414 0.39423263 -0.5042587
000170 1b 59 97 b9 99 d3 1e be 6a 71 fa 3e da 54 86 be
       -0.00028867353 -0.15510406 0.48914653 -0.26236612
000180 4d af 2d 3f 5d 47 53 3e 13 d9 38 3f bd 0b 66 3f
       0.6784561 0.20632692 0.7220623 0.8986166
000190 6e 11 ce 3d 30 ef 1a 3f d3 c2 69 3e 1e 47 e3 be
       0.10061918 0.6052122 0.22828226 -0.44390196
0001a0 ff 33 ae 3e 67 37 1d 3f 51 46 c8 3e 7c 98 09 3f
       0.34024045 0.6141266 0.39116147 0.537483
0001b0 42 0d 23 3f 85 1c 42 bf 3b 74 0b bf dc 9c 26 3f
       0.63692105 -0.7582477 -0.5447423 0.650831
0001c0 56 2c 53 3f d9 1a 85 3e 06 01 6b 3f fe f7 a1 3e
       0.82489526 0.25997046 0.91798437 0.31634516
0001d0 61 40 30 3f b2 8c 62 3f 57 69 22 bf 3a 68 5f bf
       0.68848234 0.88495934 -0.63441986 -0.8726841
0001e0 60 d7 60 bf 5a ed 42 bf 1c 28 2a 3e 6e 69 d8 be
       -0.87828636 -0.7614342 0.16616863 -0.42267936
0001f0 89 50 d9 3e 39 66 28 be c0 3b 63 3f a1 d9 54 be
       0.42444256 -0.16445245 0.88763046 -0.20786144
000200 27 26 c8 be a6 f0 39 3f 4e 9a 6a 3f f8 de 61 3f
       -0.39091608 0.72632825 0.916417 0.8823085
000210 00 6b b7 be a6 41 33 bf 41 13 3d bf 62 65 05 3f
       -0.35823822 -0.70022047 -0.73857504 0.5210782
000220 2b c3 5b 3f 67 38 5b bf 6c 6a b7 3e af de bc 3e
       0.8584468 -0.8563294 0.3582338 0.36888644
000230 bc 36 3d 3f 4d cc 54 3f 79 ff 5d 3f db 91 87 3e
       0.73911643 0.8312424 0.86717945 0.26478466
000240 33 f4 37 bf 89 ca 4e bf eb fe 07 bf cc 7b e5 3e
       -0.71856993 -0.80777794 -0.5312335 0.44821012
000250 9c aa ab 3e 7a 5a ff be 99 0d d0 3e 57 a2 34 3e
       0.33528602 -0.49873716 0.40635374 0.17640053
000260 df f9 2a be 1f 14 37 bf 5c 46 68 3f bc 17 3d bf
       -0.16696881 -0.7151508 0.9073236 -0.7386434
000270 4a d6 5c be 1c e4 b4 3e 9b b6 38 bf 14 d1 02 bf
       -0.2156612 0.35330284 -0.72153634 -0.5110028
000280 70 b4 2d 3f 5d 4c 65 3f b1 d3 32 3f a8 c8 dc bd
       0.6785345 0.89569646 0.69854265 -0.1078046
000290 96 0a 38 bf 89 c7 a7 be a0 ed c6 3e 64 1e 1e 3f
       -0.7189115 -0.3276942 0.38853168 0.6176512
0002a0 e0 6d 38 bf 94 8c 7a be 28 ee 13 3f c2 27 4d 3f
       -0.72042656 -0.24467689 0.5778527 0.8013879
0002b0 1f 3f 3d bf 47 74 31 3f cd 36 e6 3e 7f e5 d9 be
       -0.7392444 0.6931805 0.44963685 -0.42557904
0002c0 ab f0 47 bf 88 c8 93 be b8 ed 60 bf 57 e8 60 3f
       -0.78101605 -0.2886393 -0.8786273 0.8785452
0002d0 08 ba fa 3c 5b 38 d1 be c0 8e 72 be 76 d1 db be
       0.030606285 -0.40863308 -0.23687267 -0.42933244
0002e0 37 74 d4 3e 19 a4 ee be 02 53 43 3f a6 6c d9 3d
       0.41494915 -0.46609572 0.76298535 0.10616426
0002f0 a6 c6 24 bf fa 8c 28 3d 33 b7 31 be a3 dd d2 be
       -0.64365613 0.04115007 -0.17355041 -0.4118472
000300 43 58 ad be b7 5c b7 3d cc de 06 3f a0 3a af 3e
       -0.338564 0.08953231 0.5268371 0.34224415
000310 07 65 32 bf 9d ff 11 bf 30 a3 1b 3f 86 3c fb be
       -0.69685405 -0.5703066 0.6079588 -0.49069613
000320 18 56 60 3e 1e fc 4d 3f 7c d6 0a 3f c6 57 59 bf
       0.21907842 0.80462825 0.5423353 -0.84899557
000330 3b d7 53 bf 02 99 48 bf 4c 56 12 bf 66 91 cd 3e
       -0.8275029 -0.7835847 -0.5716293 0.40149993
000340 ea 21 62 bf f6 67 91 3d d3 db 11 bf 6d f5 dd be
       -0.88333 0.07099907 -0.5697605 -0.43351308
000350 03 03 38 bf a7 78 5e bf 17 1d 69 bf 16 98 6c 3f
       -0.71879596 -0.8690285 -0.9106001 0.92419565
000360 be 25 2e 3f 94 a4 2b bd e5 e0 27 3f a3 67 fb bd
       0.6802634 -0.041905 0.65577537 -0.122756265
000370 89 50 69 3e ab 63 c9 3e 20 4f 42 3f db d5 9f 3d
       0.22784628 0.39333853 0.75901985 0.078044616
000380 89 db 39 3f 31 bd 2c 3f 2f ae b5 3e ff bc 93 3d
       0.7260061 0.67476183 0.35484454 0.072137825
000390 5b 35 0c 3e a5 c0 55 3f c6 b8 10 3e ee 30 1c 3f
       0.13692228 0.8349708 0.14132985 0.6101216
0003a0 af a9 06 3f 12 b4 60 3f f2 80 12 3e 63 45 28 3e
       0.52602667 0.87774765 0.14307001 0.16432719
0003b0 f0 bd 8a be 73 d2 55 bf 9d c3 0e 3e 0d b3 da 3e
       -0.27098036 -0.83524245 0.13941808 0.4271473
0003c0 9d eb 8f be 5f 79 4a 3f 1e 3d 4b 3f 86 29 23 3f
       -0.28109446 0.7909145 0.7939013 0.63735235
0003d0 d4 e9 04 3f 2f 82 68 3f 88 a3 f3 be c3 40 d7 3e
       0.51919293 0.90823644 -0.47585702 0.42041597
0003e0 db 24 48 bf 5b d6 1a bf 8f 19 b5 bd 87 b0 31 3f
       -0.78181237 -0.6048333 -0.088427655 0.69409984
0003f0 a3 92 f9 3e c2 6c 36 bf 05 d5 9a 3e 4a a5 82 be
       0.48744687 -0.712597 0.30240646 -0.2551673

var_embedding.1.bias f4 [64]
000000 19 aa 85 3e 68 30 cf 3d 2a 0e b2 be 98 fe 96 3e
       0.26106337 0.10116655 -0.3477643 0.29491115
000010 0e fc bd 3e 59 89 a0 be ab d4 3f 3e b7 9b 88 3d
       0.37106365 -0.31354788 0.1873347 0.06670325
000020 8f 63 ac 3e ee 9b a7 bd 26 56 c8 bd 81 91 25 be
       0.33669707 -0.08184038 -0.097820565 -0.16168787
000030 80 2b 8d 3e 75 87 09 be 66 07 1e 3e ba 97 9b be
       0.2757225 -0.13430579 0.1543251 -0.30389196
000040 37 1d b6 be 67 07 8a be ac 30 1c 3c 58 d8 70 3d
       -0.35569164 -0.26958773 0.009533089 0.05880007
000050 a7 7f 72 3d f7 3f 1f be 92 b8 c1 3e 20 f0 bf 3e
       0.05920377 -0.15551744 0.37836128 0.37487888
000060 4a 9f d7 3d 7a 80 54 3e db ee a3 bc 56 c2 fe bc
       0.10528429 0.20752135 -0.020011356 -0.031098526
000070 37 ab 9a 3e fd 86 a4 3e 9a 96 84 3d b9 bd fe bd
       0.30208752 0.32134238 0.064740375 -0.124385305
000080 9e fb 92 be d2 85 17 3e 42 d8 a1 be d2 9b c9 bc
       -0.28707594 0.14797142 -0.31610304 -0.024610434
000090 5f ee d0 bd a9 18 92 be 6e 70 a3 3e 9b d0 38 3e
       -0.10201716 -0.2853444 0.31921715 0.18048327
0000a0 0a 55 0c be 79 9e 94 3d 3d e9 37 3e 5c 8d d2 bd
       -0.13704315 0.07256789 0.17960067 -0.102808684
0000b0 b8 5b 2a 3d 54 8b 0b 3e f6 35 6a be 5a 60 eb 3d
       0.041591376 0.13627368 -0.22872147 0.11492987
0000c0 87 bc 9d bd 77 df df bd 65 bc a2 3d 6b 90 af 3e
       -0.07701974 -0.109312944 0.0794609 0.3428987
0000d0 ee fb 03 3e 77 eb 9e 3e a2 07 d2 bd 9e 3d aa 3e
       0.12889072 0.3103902 -0.10255362 0.33250135
0000e0 da 0d a5 3e 94 d3 a0 3d e8 13 8c bd fa d5 85 3e
       0.3223713 0.07852855 -0.06839734 0.26139814
0000f0 81 3c 83 3e 31 e3 a5 3e d2 e6 13 ba ed 29 eb 3d
       0.25632098 0.32399896 -0.0005642 0.11482606

var_embedding.3.weight f4 [64, 64]
000000 1d 39 16 bd c0 7a 4d bd 5c e7 00 3e 52 eb 81 3e
       -0.03667556 -0.05016589 0.12588257 0.25374848
000010 6c 50 96 be 15 d3 68 be 7d 6e 58 3c 11 a2 90 3e
       -0.29358232 -0.22736771 0.013209936 0.28248647
000020 d0 2d 97 be c2 bb 85 bd a0 39 c4 3c 29 a6 82 3e
       -0.2952714 -0.065299526 0.023953259 0.25517395
000030 9f a8 69 bd 94 bf ba 3d 25 be 06 3d ea 77 59 bd
       -0.057045575 0.09118572 0.03289618 -0.053092875
000040 2d 69 8b be 53 db 25 3e 01 44 15 bc e3 a2 28 3e
       -0.2722868 0.16196947 -0.009110452 0.16468386
000050 ad e7 39 be ad 0a 01 be 8b 83 53 be 32 74 80 3d
       -0.18154784 -0.12601729 -0.20655648 0.062721625
000060 81 be 2d 3d ff df 84 bd 31 17 99 be 10 79 25 3e
       0.042418007 -0.06488036 -0.29900506 0.16159463
000070 27 96 73 3e 72 15 87 3e 70 da f6 bd 7f a5 06 be
       0.23787747 0.2638355 -0.120533824 -0.13149069
000080 cf c5 7d 3d 7a 10 73 bc 64 49 4d 3e 14 60 89 3e
       0.061956223 -0.014835471 0.20047528 0.26831114
000090 0a 95 0c 3d 14 d3 04 bd 87 0d ba 3d 79 62 6b 3d
       0.034321822 -0.032427862 0.090846114 0.057466958
0000a0 04 6e 83 bd 5d 34 05 3d 75 45 16 39 1d 7c 84 3d
       -0.06417468 0.03252064 0.0001433099 0.06468985
0000b0 52 c7 99 be c1 f8 fb 3c 68 68 91 be 47 93 04 be
       -0.30034882 0.030758264 -0.28399968 -0.12946807
0000c0 4a fc d3 bd 0a 69 d7 bd 34 da 05 bd ae e8 67 3e
       -0.10350855 -0.105180815 -0.032678798 0.22647354
0000d0 bd ce 01 be ef 85 d6 3d e1 03 ae 3d 51 a1 41 3e
       -0.1267652 0.104747646 0.084968336 0.18909194
0000e0 e8 aa db bd 35 bd a7 bd 5c 55 43 3e 88 7c bc bd
       -0.10725957 -0.08190385 0.19075531 -0.0920344
0000f0 67 df d3 3d bd fa 1e 3e 0f e4 e1 bd 85 59 d9 bd
       0.10345345 0.15525337 -0.11029827 -0.106127776
000100 32 ad 81 3e 45 2c c9 bd 15 2d 88 3d 21 94 b6 3c
       0.2532745 -0.09822897 0.06649224 0.02228743
000110 a0 f5 88 bd d5 69 10 be 92 36 bd bd 7a 2d ab bc
       -0.06687474 -0.14102872 -0.09238924 -0.020895708
000120 7c f9 d0 bd 22 5a aa bd 39 b0 ba 3d f6 a8 97 3e
       -0.10203835 -0.08317973 0.09115643 0.29621094
000130 ac 30 c2 3d e2 7b 29 be 52 cd 19 be b0 30 e1 bc
       0.0948194 -0.16551164 -0.1501973 -0.027489036
000140 8b 39 8e 3e 88 9b 38 3e 4a 57 5c be 41 d1 15 3c
       0.27778277 0.1802808 -0.21517673 0.009144128
000150 70 41 ed 3b a6 89 8d bc 7b ea 5d 3e 86 3b 4e be
       0.007240467 -0.01727755 0.21671478 -0.20139894
000160 36 6f 6e 3e 7e 61 80 be b2 e1 56 be cf fd cb 3d
       0.23284611 -0.2507438 -0.20984533 0.099605195
000170 14 b9 33 3d b2 cb 90 3e 84 18 f5 bd 9d 4c 20 3e
       0.043877676 0.28280407 -0.119675666 0.15654226
000180 dd 3d af bc 64 0d 82 3e df 08 f7 3d f3 af dd 3d
       -0.021391803 0.2540084 0.12062239 0.10824575
000190 76 68 fa bd 8d ac 42 3e 4b dd 9a be fa 95 c3 3c
       -0.122269556 0.19011135 -0.30246958 0.023875225
0001a0 43 39 a1 bd 04 94 35 be 5b 0e 64 be 21 a8 21 3c
       -0.0787225 -0.17732245 -0.22271101 0.009866745
0001b0 90 6b 98 3d 7e 49 39 3e 54 b8 56 3d d5 66 df 3d
       0.07442391 0.18094441 0.052421883 0.109082855
0001c0 df 69 cc bb bb 7c 32 be f4 e8 44 bd 68 db 90 be
       -0.0062382068 -0.17430393 -0.048073724 -0.28292394
0001d0 6e 8a 8e 3e 76 fb cf bc af 0e 5f bd ec 7c 47 3e
       0.27839988 -0.02538846 -0.054457363 0.19481248
0001e0 c4 b9 84 3a c5 81 fb bb f3 b8 32 be 3d 5a fe 3d
       0.0010126163 -0.007675382 -0.17453365 0.12419555
0001f0 25 50 45 3e bb ef 43 bd 06 cf 21 be a5 77 5b 3d
       0.19268854 -0.047836047 -0.1580163 0.0535809
000200 46 10 81 3e 25 12 54 be ef 3b 52 be 14 d3 84 be
       0.25207728 -0.20710047 -0.20530675 -0.2594229
000210 27 41 59 3e 94 ef 9f 3d 37 8e 87 3e a6 7b 0f be
       0.2121626 0.07809368 0.2647569 -0.14012012
000220 32 27 4b 3e 48 a9 9a bd 9e c2 3c bd 26 b0 56 be
       0.1983917 -0.07551819 -0.04608404 -0.20965633
000230 3f fb ef bd 82 9a 6b 3e 28 eb 5f be da b5 18 be
       -0.11717843 0.23008159 -0.21867049 -0.14913121
000240 cf 1f 83 3e 18 36 a8 bd 95 a2 1a be 60 46 1d 3d
       0.25610206 -0.082134426 -0.15101083 0.038397193
000250 70 f6 e1 bc 65 cb 71 be 50 c1 f1 3d c0 6d 15 be
       -0.02758333 -0.23612745 0.118044496 -0.14592648
000260 d6 da 92 3e d1 f3 a7 3d d5 f8 0e 3e f2 8c 38 3c
       0.28682584 0.08200801 0.1396211 0.011264073
000270 9a c3 8c be af c3 03 be 7f 1b c6 bd e8 cd 2e be
       -0.27492982 -0.12867616 -0.09673213 -0.17070735
000280 81 dc 53 be d5 8f 88 3e 14 48 95 3d c1 bd 9d 3d
       -0.20689584 0.26672235 0.072891384 0.07702208
000290 f1 5f 30 3e 43 40 93 be a4 a2 d2 3b 9c d0 87 be
       0.17224099 -0.28759965 0.0064280797 -0.26526344
0002a0 4a 90 f0 3d f8 50 e1 bd c8 df e0 3d e4 7e 7c 3e
       0.11746271 -0.11001772 0.10980183 0.2465778
0002b0 f5 79 04 bd 1e 5a f1 3c 76 b6 36 bc ba b3 c9 bd
       -0.03234287 0.029461917 -0.0111519005 -0.09848733
0002c0 5c e3 33 3e 6b 61 98 be e4 18 03 be 1e e3 af bc
       0.175672 -0.29761824 -0.12802464 -0.021470603
0002d0 8a 15 84 be 47 72 9b be 87 f4 20 be 48 2f 74 be
       -0.25797683 -0.30360624 -0.1571828 -0.23846161
0002e0 ab 8b 9d 3e 53 41 2c 3a c9 f2 c1 bc d9 f7 65 be
       0.3077062 0.00065710134 -0.02367534 -0.22457828
0002f0 a3 e8 8d bd 6a 1e 8b be 21 bf e8 3d 3d 91 03 3e
       -0.069291376 -0.27171642 0.1136458 0.12848373
000300 02 f9 91 be b2 4e 6f 3e d5 a9 53 3e 18 c6 4c 3e
       -0.2851029 0.23369864 0.20670255 0.19997442
000310 4e 35 8c be fd bc 48 bd 28 0c 19 3e ed 08 f3 3d
       -0.27384418 -0.04900836 0.14946043 0.11866937
000320 f8 e9 97 3e 51 f9 87 be fa cc 17 be 45 66 3a be
       0.29670691 -0.265574 -0.14824286 -0.18203075
000330 ad 97 8b 3c 78 8e e0 3d d9 af 18 3e ab 20 e8 bc
       0.017040098 0.10964674 0.1491083 -0.02833589
000340 24 91 1f bd 9b ae c0 3d c3 3c ab bd a6 b5 f6 bd
       -0.038956776 0.09408303 -0.08361199 -0.120463654
000350 60 5d 94 3e 0e b8 cd 3c d9 ae fc bd a1 e2 94 3e
       0.2897749 0.025112178 -0.12338037 0.29079154
000360 46 98 2e 3e e9 10 88 3e 05 dc 07 3e 1a 45 3d 3e
       0.17050275 0.265754 0.13267525 0.18483391
000370 9d f0 2b be f5 87 37 3e 4e 36 28 3e 86 89 2c bd
       -0.16791005 0.17922957 0.16426966 -0.04212334
000380 c9 f2 99 be 7c 13 6b 3e 73 15 81 3e 59 4e b7 bc
       -0.30068043 0.22956651 0.25211677 -0.022376226
000390 84 f6 92 be 96 b9 d0 bd c1 e0 2c 3e 0a ff f6 3d
       -0.28703701 -0.10191648 0.16882612 0.120603636
0003a0 c1 1d 8c bd b8 90 86 3e dd 3b 90 3c e3 41 a9 bc
       -0.068416126 0.26282287 0.01760667 -0.0206613
0003b0 eb 33 22 3e 0f 15 42 be 5d 5d dd bd 5a 66 19 be
       0.15840118 -0.18953346 -0.10808823 -0.1498045
0003c0 f8 c3 4f 3e 5d bd 8c bd 42 54 3a 3d c5 65 1c 3e
       0.202896 -0.06872056 0.04549051 0.15273197
0003d0 2c 42 18 3e 5c 06 85 3e a9 53 5a be b1 10 19 3e
       0.14868993 0.25981414 -0.21320976 0.14947774
0003e0 16 6b 30 3e 3e 39 0d 3e 1c 94 bf 3d 77 cc ad bd
       0.1722835 0.13791367 0.093544215 -0.08486264
0003f0 e1 62 5b be e4 17 1d be c5 02 9b 3e da 13 06 3e
       -0.21424438 -0.15341145 0.3027555 0.1309351

var_embedding.3.bias f4 [64]
000000 f8 f6 a7 3d 29 f7 74 bc 30 49 9f 3d b8 bf ca bc
       0.082014024 -0.014951506 0.07777631 -0.024749622
000010 d4 a2 19 3c d0 3e 8e bd fc c4 6a 3d 77 0f e4 3d
       0.0093772 -0.06945574 0.057316765 0.11135762
000020 30 ef b5 bd e4 00 33 3d cb 34 43 bd cf c9 00 3e
       -0.08883512 0.04370202 -0.04765777 0.12576984
000030 0b 8d d0 3a c9 45 44 bd 10 7f 8a 3d 36 4a ba 3d
       0.0015911175 -0.047918115 0.067625165 0.09096186
000040 37 56 c7 3b 0b 4d 2d bd e9 eb eb 3d ad 17 f0 bd
       0.0060832757 -0.042309802 0.11519606 -0.11723266
000050 05 97 a0 bd 41 f6 ca bb dd 60 be bd ef d3 ff 3c
       -0.07841305 -0.0061939065 -0.09295819 0.031228988
000060 59 0b ad 3d 1e e3 cc bc 5d 2b a8 3d d6 d2 e5 bd
       0.0844943 -0.025010642 0.08211396 -0.112218544
000070 6d 48 81 bd 5d 9e fe 3d 5d 31 18 3c 69 18 60 3c
       -0.06312642 0.12432549 0.009289113 0.013677695
000080 f6 aa 46 3d 58 a3 c7 3c 6a ab 6f 3c 46 00 d8 bc
       0.048502885 0.02436988 0.014628271 -0.026367318
000090 78 5b d1 3c 96 37 53 bc 96 09 60 bd 4a 9c ee bd
       0.025556311 -0.012891671 -0.05469664 -0.116509035
0000a0 9d 28 0c bd d3 99 5b bd 80 95 c0 3c 03 90 da bd
       -0.03421842 -0.053613495 0.023508787 -0.10671999
0000b0 19 a4 ef bd 5a 82 04 3c 52 e4 46 bd c5 47 35 3d
       -0.11701221 0.008087719 -0.048557587 0.044257898
0000c0 53 c5 93 3d 4f ba b2 3d 2b 40 3d bc 01 53 84 3d
       0.07215371 0.08726942 -0.011550943 0.06461144
0000d0 26 35 a2 3d 51 79 62 bd df 5f 4d bd c9 2d db 3c
       0.079202935 -0.055291478 -0.050140258 0.02675523
0000e0 ae f7 fd bc 54 25 e9 bc 4a 4e 99 bd 33 05 e5 bd
       -0.031001892 -0.028460182 -0.074856356 -0.11182632
0000f0 f2 cb e0 3d 1c 56 91 bd 64 ba e2 3d c2 b6 6b bc
       0.109763995 -0.07096502 0.110707074 -0.014386835

conv_v_to_c.feature_module_left.0.weight f4 [64, 64]
000000 1e 24 2f be e4 28 26 be 1e ba fb 3d b4 30 1b 3e
       -0.17103621 -0.16226536 0.122913584 0.15155298
000010 53 f7 8a 3e 04 bb 62 bd 0c 4d 7e 3e 20 b5 1a be
       0.27141818 -0.055354133 0.24834079 -0.15108156
000020 fb 26 66 bd ea 5a 64 bd 51 38 63 3e 20 e8 82 3e
       -0.05618952 -0.055750765 0.22189452 0.25567722
000030 95 2e 9c be 84 01 20 3e cb 67 06 3d f5 9d 5e be
       -0.3050429 0.15625578 0.03281383 -0.21739943
000040 66 3b f9 3d ce 18 79 be 70 af e9 bc 7b ec 83 be
       0.121695325 -0.24325868 -0.028526038 -0.25766358
000050 09 30 1e be c1 ce 6e be 81 c2 9a 3e 12 e9 c3 3d
       -0.15448011 -0.23321058 0.3022652 0.09565939
000060 c0 bf 00 3e fa c3 17 bd e6 cd c1 3d fb bb 71 be
       0.12573147 -0.037052132 0.094631 -0.23606865
000070 f8 27 21 3e 74 d1 79 be 59 a8 bd bd bf c8 69 3e
       0.15737903 -0.24396306 -0.092606254 0.22830485
000080 52 ad 52 be fd d2 5c 3c 90 fb e8 3d bf 3a 99 3e
       -0.20573929 0.013478038 0.11376107 0.29927632
000090 3f 90 23 be 21 fc 6a be 42 cb 65 3e 1a 6f 60 3e
       -0.15972994 -0.22947742 0.22440818 0.21917382
0000a0 a0 c5 82 bd 8f 46 31 3d 5a b7 92 3e 81 5d 25 be
       -0.0638535 0.04328018 0.2865551 -0.1614895
0000b0 d4 59 6c be be 53 0b 3d 16 85 33 be a6 53 63 3e
       -0.23081142 0.03401541 -0.17531237 0.22199878
0000c0 4c d2 88 3e 00 72 8f 3e 79 46 90 3d 74 df a2 3d
       0.26722944 0.28016663 0.070446916 0.079527766
0000d0 c0 df 94 3e d9 37 46 3d 42 71 43 be 4c 64 8f 3e
       0.29076958 0.048393104 -0.19086173 0.28006208
0000e0 e3 ab 28 3e a3 d4 1e 3e 70 f0 5e be e6 c9 89 be
       0.1647182 0.15510802 -0.21771407 -0.2691185
0000f0 5b 0c 89 bd 83 64 83 3e 03 ce 03 3d a5 85 47 bd
       -0.0669181 0.25662622 0.03217889 -0.048711438
000100 da ab 1c 3e 10 93 8b 3e d9 0e 8e 3d 3b b8 9b be
       0.15299931 0.27260637 0.06936426 -0.30413994
000110 53 9d 34 3e b5 40 8c 3e 7b aa 8d be 9b c0 34 3e
       0.1763814 0.27393118 -0.2766913 0.17651598
000120 4f 86 83 3d 7f ab 94 3e 38 85 17 3e e6 b2 80 3e
       0.06422102 0.2903709 0.14796913 0.2513649
000130 cb f6 16 be b0 43 39 3e d1 2d 06 be 59 fd 8c 3e
       -0.14742582 0.18092227 -0.13103415 0.2753704
000140 81 f5 7f 3d 62 dd a4 bd 8a a5 6c be d1 1e 53 bc
       0.06248999 -0.08050038 -0.23110023 -0.012885765
000150 4a 67 29 3e 2f 82 85 be 39 f0 06 3e 86 3e 05 3e
       0.16543308 -0.26075885 0.13177575 0.13012132
000160 e8 5e d6 3c b9 86 63 3e 05 09 08 3e 0b ac dc bc
       0.026168302 0.22219361 0.1328469 -0.026937505
000170 92 3a 9c be 8f ca 86 3e 26 16 0b be bc 7a 00 3e
       -0.30513436 0.26326415 -0.13582668 0.1254682
000180 63 eb 25 3e 43 21 9c 3e da b7 4e 3e 9c 0f f2 bd
       0.16203074 0.30494127 0.20187321 -0.118193835
000190 d6 c2 6c 3e b8 fd 34 be 15 5f ec bd b1 fa 23 be
       0.23121199 -0.17674911 -0.11541573 -0.160136
0001a0 62 f5 ca bd 9e 55 6e 3e 2d 7c 0e be 25 b4 67 3e
       -0.09910084 0.23274848 -0.13914557 0.22627313
0001b0 3d fb 88 be cc 59 20 3d 88 1c 6a be 36 fe 38 3d
       -0.2675418 0.039148137 -0.22862446 0.04516431
0001c0 54 e8 63 be f9 87 07 3e 89 00 3b be ea 77 03 3e
       -0.22256595 0.13235463 -0.18261923 0.12838712
0001d0 a1 da 3b be d1 8d 93 be db a4 38 bd 49 f9 e0 bd
       -0.18345119 -0.28819135 -0.045079093 -0.10985047
0001e0 44 ce 16 3d 5e ab 9b be 6f 25 57 be 53 63 8b 3e
       0.036817804 -0.3040418 -0.21010374 0.27224216
0001f0 c9 8a 45 be 21 46 4e bd 3d 5f 62 bd e1 b4 62 bc
       -0.19291224 -0.05035985 -0.055266608 -0.01383707
000200 5f 88 85 bd 41 35 59 3e 02 ba 9b be b8 59 c6 3c
       -0.06520151 0.21211721 -0.3041535 0.024212703
000210 f0 eb b1 3d b5 79 dd 3d ba 3e 84 3d 09 6d 4a be
       0.0868758 0.108142294 0.06457277 -0.19768156
000220 5e ae 85 3e 1d 18 81 3e 48 50 97 3d 79 9e 44 3e
       0.26109594 0.2521371 0.07388359 0.19201078
000230 87 c2 94 3e 7e dc 68 3e 13 76 b2 3c 43 6d 9b 3e
       0.29054663 0.22740361 0.021784818 0.30356798
000240 46 e3 6a 3e d9 e1 4d be c5 45 63 3e b1 c6 15 be
       0.2293826 -0.20105685 0.22194584 -0.14626576
000250 53 29 86 be 41 ba 84 bd d7 55 59 3e 7b f5 c7 bd
       -0.26203403 -0.064808376 0.21224152 -0.097636186
000260 82 52 3d 3e 3e 64 89 3e f3 35 91 3e 19 60 54 3e
       0.18488505 0.2683429 0.28361472 0.20739783
000270 1a 8b 51 be fe d9 68 3e 72 f0 81 be 41 d2 df bd
       -0.2046322 0.22739407 -0.25378758 -0.109287746
000280 f6 34 67 3e 96 46 b1 3d 22 96 76 bd 2a f4 8e be
       0.22578797 0.08656041 -0.06020177 -0.27920657
000290 ea 21 81 3e 31 a9 95 3e cd d1 18 be 42 5b 29 be
       0.25221187 0.29230645 -0.14923783 -0.16538718
0002a0 8e 50 ea bd 7d d9 7e 3e ed fa 93 be 4d ff c3 3d
       -0.11441146 0.24887653 -0.2890238 0.09570179
0002b0 c0 e1 80 be 22 b2 c1 bd a7 2a 9e bd e8 d8 86 be
       -0.25172234 -0.09457804 -0.07722979 -0.2633736
0002c0 e3 da 87 be a0 eb 17 3e 35 d4 e6 bd f5 a2 82 3d
       -0.26534185 0.14835978 -0.11270944 0.06378738
0002d0 78 4e 49 3e 2f 40 1e 3e a8 5c ae 3d 05 39 34 3e
       0.1965884 0.15454172 0.085137665 0.17599876
0002e0 43 cf 95 3e eb 11 94 3e 8f 4b 09 3e 24 38 83 3e
       0.2925969 0.2891992 0.1340773 0.2562877
0002f0 05 3d 83 3e 28 f5 36 3d fb 32 92 3d af 6f 7d be
       0.25632492 0.044667393 0.0713863 -0.24749635
000300 43 c3 45 3e da 63 8d be 1f ae 21 be 16 04 38 3d
       0.19312768 -0.27615243 -0.15789078 0.04492577
000310 1c fb 24 be 73 06 73 be ee 1b 92 3e a3 07 ae bd
       -0.16111416 -0.23732929 0.28536934 -0.0849755
000320 c8 67 5f be 87 9e 3d 3d fc 77 95 bd 33 ce 5e 3b
       -0.21816933 0.04629376 -0.07298276 0.0033997416
000330 b2 90 90 3e 97 fb 94 be f8 ac 88 be 5e 04 85 bd
       0.28235394 -0.29098198 -0.26694465 -0.064949736
000340 cc 9b 7a 3b 1d 50 a1 3c bf 2f 26 be 34 db 46 3e
       0.0038239835 0.019691521 -0.16229151 0.19419557
000350 e9 85 9d 3c f9 fe cf 3b bd 90 04 be 5e 77 40 be
       0.019228892 0.006347534 -0.12945838 -0.18795535
000360 f3 5a 7a 3c 8a c5 04 3e 96 cb 2d bd 47 4c eb 3d
       0.015280473 0.1296598 -0.042430483 0.11489158
000370 78 f5 d9 bd 8f 96 e4 bc e0 e4 d0 bc 1c 67 f2 3c
       -0.106425226 -0.027903823 -0.025499761 0.029590182
000380 57 e7 b4 3d be f1 e6 bd 64 38 30 3e b6 da f2 bd
       0.08833187 -0.112765774 0.17209011 -0.11858122
000390 73 2c dc bd 6e 2a 84 be 04 1f 35 3e 82 89 3c 3e
       -0.107506655 -0.2581362 0.17687613 0.1841183
0003a0 fb 7d 94 be 45 67 ed bd 1f 3e 4a 3d cc a3 63 be
       -0.29002365 -0.11591963 0.04937565 -0.22230452
0003b0 ba a8 8e be c3 5b 09 bc eb e5 83 be 40 71 12 be
       -0.27863103 -0.008383694 -0.2576135 -0.14301014
0003c0 bc 73 d6 3d 00 0a 78 3e a7 32 99 3e 0d 36 42 3d
       0.10471293 0.24222565 0.29921457 0.047414828
0003d0 cc 31 72 be ec 96 a9 3c 6c ae 06 be 7d cb 8a be
       -0.23651809 0.020701848 -0.13152474 -0.27108374
0003e0 a1 6f 3e 3d ad 2e 28 3d 56 eb 55 be 22 66 0f 3d
       0.046493176 0.04106014 -0.20890555 0.03500951
0003f0 af 5b 04 3e c7 d8 4a 3e 46 4c 20 be 74 a0 3a 3e
       0.129256 0.19809256 -0.15654096 0.1822527

conv_v_to_c.feature_module_left.0.bias f4 [64]
000000 19 2f ac 3d a3 d5 b7 3c 5d fa 57 3d 38 d3 de bd
       0.08407421 0.022440737 0.052729 -0.108801305
000010 a4 66 81 ba ce 12 12 bc 15 6a b8 3d da 59 10 bd
       -0.0009872508 -0.008915616 0.090046085 -0.03524194
000020 98 2f 80 3c 37 b9 9b bd f2 49 cf bd 82 db ad bc
       0.015647694 -0.07603686 -0.10121526 -0.021222834
000030 89 c2 cc 3c ec 05 f9 3d 2f 38 6f 3d f1 73 e8 bc
       0.024995105 0.12159333 0.05840319 -0.028375598
000040 77 5a 0f bd 7f 14 ad bd 13 32 11 bd 16 f1 e0 bc
       -0.034998383 -0.08451175 -0.035448145 -0.027458709
000050 84 aa 75 bd a9 f1 b0 3d cb 8f 45 bd b7 04 46 3d
       -0.05997707 0.08639843 -0.048232835 0.04834434
000060 f0 07 b2 3d 57 33 91 bc 35 a4 98 3d 37 65 d1 3d
       0.0869292 -0.017724676 0.07453195 0.10224383
000070 13 c5 fa bc 73 fb c2 3c b0 e5 96 bd 30 4b 20 bd
       -0.03061155 0.023801541 -0.07368028 -0.039134204
000080 75 10 a3 3d d9 b1 02 bd bb 4d e7 3d 74 b4 ca 3c
       0.07962123 -0.03190789 0.11294123 0.02474425
000090 84 ac 75 3a 54 37 c1 bd d0 cd 64 bc 4c eb a0 3d
       0.0009371715 -0.09434381 -0.013965085 0.07857379
0000a0 b7 07 91 3d 5d 07 8c 3c 4a ce ad bd 74 3e dc bd
       0.070815496 0.017093355 -0.08486612 -0.107540995
0000b0 fd 0d cf bd 88 99 fe bd 2a 72 67 3d bd a0 6e 3d
       -0.1011009 -0.124316275 0.05650536 0.05825876
0000c0 9d 64 e1 3c eb 9b 68 3b 2c 48 a5 bd 75 b7 eb 3d
       0.027513796 0.0035493325 -0.08070406 0.11509601
0000d0 d0 5c 23 3d f7 a9 8f 3d fa 97 ec 3c e7 e5 e6 3d
       0.039883435 0.0701484 0.028881062 0.11274319
0000e0 a0 bc 8d bd e3 c5 f0 3d 68 2b f4 3d 98 28 ef bd
       -0.06920743 0.11756494 0.119223416 -0.116776645
0000f0 f4 2a c4 3d f5 f7 d3 3d 4b ab c9 bd 87 63 39 bc
       0.09578505 0.103500284 -0.09847125 -0.011315233

conv_v_to_c.feature_module_edge.0.weight f4 [64, 1]
000000 e3 0f b5 bf 42 89 46 bf 1d 44 85 3f cb 3e c2 bf
       -1.4145473 -0.7755319 1.0411412 -1.5175413
000010 ed 58 ae 3f dc d6 90 3d 21 ee a1 3e 05 ab ce bf
       1.3620888 0.07072231 0.3162699 -1.6145941
000020 fc 29 57 be b4 85 f7 3f 90 24 3c 3e dd ce 72 3e
       -0.2101211 1.9337678 0.18373322 0.23711725
000030 5c 0c 2a bf d1 13 ab bf 0a 0c e1 be bc 8c 8c 3f
       -0.6642511 -1.3365422 -0.43954498 1.0980449
000040 3d 5b 84 bf 4f 19 57 bf 43 3d 52 3f a6 63 ce 3e
       -1.0340344 -0.8402299 0.8212473 0.403104
000050 f9 b9 e4 3e 08 cb dd 3f a3 4a cf 3f 68 6d e9 be
       0.44673136 1.7327585 1.6194652 -0.45591283
000060 51 c6 cd 3f 75 68 f7 be b1 7c 1d bf 8a f4 13 40
       1.6076146 -0.48321882 -0.6151839 2.3118005
000070 66 9b 9a 3e 0f 24 6c 3f d8 c5 4d bf b9 d2 a1 be
       0.30196685 0.9224252 -0.8038001 -0.3160608
000080 34 1f 06 40 f9 94 b5 bf 80 ac 15 c0 fc 0b ef bf
       2.0956545 -1.4186088 -2.3386536 -1.8675532
000090 dc be 80 bf 44 e6 9f bf 98 95 2e be c2 22 e6 bf
       -1.0058246 -1.2492146 -0.17049253 -1.7979357
0000a0 36 10 6d 3c a9 7a 81 bf d8 92 91 bf 4a 76 90 be
       0.014469197 -1.0115558 -1.1372938 -0.28215247
0000b0 62 cc 81 bf 34 34 f3 3f 39 0b c6 be 1c a4 1c c0
       -1.0140498 1.9000306 -0.38680437 -2.4475164
0000c0 76 2a 21 bf bd 5a 0d c0 d2 34 f5 3e e4 cd 1a c0
       -0.62955415 -2.2086632 0.4789186 -2.4188166
0000d0 15 44 16 bf 31 a0 e1 3f da 8a 23 bf ed 98 01 c0
       -0.58697635 1.7627012 -0.63883746 -2.0249588
0000e0 d9 d1 07 40 f5 74 ce 3f fb f9 0b c0 4e c5 0d 40
       2.122183 1.6129442 -2.1871326 2.2151675
0000f0 59 7b d8 bf 96 03 a9 3d 80 5b 0a c0 30 ca 23 bf
       -1.6912643 0.08252637 -2.1618347 -0.6398039
