im_checkpoints/SCimitation_policy_LB1000.pth (torch_old, 472694 bytes, 71 tensors)

cons_embedding.0.weight f4 [4]
0	0x3f57bf62	0.842764
1	0x3f67a463	0.9048521
2	0x3ea78574	0.32719004
3	0x3ec984ba	0.39359075

cons_embedding.0.bias f4 [4]
0	0x3ea4066b	0.32036147
1	0x3e70cfc2	0.23516753
2	0xbe708842	-0.23489478
3	0xbeacb723	-0.33733472

cons_embedding.1.weight f4 [64, 4]
0	0x3f10f022	0.56616414
1	0xbe42ec6c	-0.190355
2	0xbea79008	-0.32727075
3	0x3f81e84b	1.0149015
4	0xbe4d3719	-0.2004055
5	0x3d9249a7	0.07142954
6	0x3d11e785	0.035621185
7	0xbe850008	-0.25976586
8	0xbf2ba6f3	-0.6705162
9	0x3f44cce5	0.76875144
10	0x3f3d994a	0.74062026
11	0xbe9e19ab	-0.30878958
12	0x3f9622e1	1.1729394
13	0xbf3b0b5d	-0.73064214
14	0xbf893299	-1.0718566
15	0xbdcaa9a6	-0.09895639
16	0xbf4160b8	-0.75538206
17	0x3f53cdb0	0.8273573
18	0xbf2d399f	-0.6766605
19	0x3f476373	0.7788612
20	0xbeb92dc0	-0.36167717
21	0x3f33c06e	0.702155
22	0x3f89cafb	1.076507
23	0xbd93d74a	-0.072187975
24	0xbe4dc564	-0.2009483
25	0x3f1fc82c	0.62414813
26	0x3f84357b	1.0328821
27	0x3e14e2dd	0.14539666
28	0xbee1bff2	-0.44091755
29	0xbdf7c5a0	-0.12098241
30	0xbee14fe0	-0.44006252
31	0xbf52ff1d	-0.8242052
32	0xbd1c59db	-0.03817163
33	0x3d6c5aef	0.05770391
34	0x3f75923b	0.95926255
35	0xbf35a0ee	-0.70948684
36	0x3e70dab8	0.23520935
37	0xbebf280d	-0.37335244
38	0x3e145298	0.14484632
39	0xbee8fe99	-0.45506743
40	0xbf9f34fd	-1.2438046
41	0x3f6dc093	0.9287197
42	0xbf484a66	-0.78238523
43	0x3f1d2b1b	0.613939
44	0xbf0cbf0b	-0.5497901
45	0xbe7dd74e	-0.24789163
46	0x3db87cdb	0.09008189
47	0xbd56c684	-0.052435413
48	0x3e7155bc	0.23567861
49	0xbed64f98	-0.418576
50	0xbf85f205	-1.0464483
51	0x3ec9c6a3	0.3940936
52	0xbf1dfa71	-0.6171027
53	0xbf02b023	-0.51050013
54	0xbe28e0b6	-0.1649197
55	0xbe3b224a	-0.18274799
56	0x3eba2f74	0.3636433
57	0xbf652a93	-0.8951809
58	0xbe6d3cb6	-0.2316769
59	0xbf1dc581	-0.6162949
60	0xbea4db93	-0.32198772
61	0xbe95a5dc	-0.29228103
62	0xbe5bb814	-0.21456939
63	0xbf092130	-0.53566265
64	0xbef14ae5	-0.47127452
65	0xbf317fde	-0.69335735
66	0x3c1a661b	0.009423758
67	0xbe005457	-0.12532173
68	0x3f4c5822	0.7982198
69	0x3e3beb97	0.18351589
70	0x3eb1fa18	0.3476112
71	0xbe9e8556	-0.30961102
72	0x3ec41b66	0.38302153
73	0x3f03a0e1	0.51417357
74	0x3f00b3fa	0.5027462
75	0x3e5ea2fc	0.21741861
76	0xbeb499c1	-0.35273555
77	0x3e70a355	0.23499806
78	0xbf152527	-0.58259815
79	0x3e827891	0.2548261
80	0x3f47e5eb	0.780852
81	0xbdcd6411	-0.10028852
82	0x3eb9a897	0.36261436
83	0x3f8fdc0c	1.1239028
84	0xbf257b52	-0.64641297
85	0x3f12dcc3	0.57368106
86	0xbef6f830	-0.48236227
87	0x3e9c19e2	0.30488497
88	0x3f211b4b	0.6293227
89	0x3f052a5b	0.52017754
90	0xbdbf7990	-0.09349358
91	0xbdd1a2eb	-0.10236152
92	0x3f828f65	1.020001
93	0xbf50935f	-0.8147487
94	0x3f99bb0d	1.2010208
95	0xbf351a8c	-0.7074363
96	0xbf82845c	-1.0196643
97	0xbe2b9e5a	-0.16759625
98	0x3e72b46c	0.23701638
99	0xbfa7e10b	-1.3115553
100	0xbed1355a	-0.40861017
101	0x3d35f9b3	0.044427585
102	0x3e9b4944	0.30329335
103	0x3e71f83e	0.23629853
104	0x3f846660	1.0343742
105	0xbf5dd834	-0.86658025
106	0x3f9cae2c	1.2240653
107	0xbd5ba12d	-0.053620506
108	0x3de8976a	0.11357005
109	0xbf2c54f3	-0.6731712
110	0x3ea88070	0.3291049
111	0xbe6e55e3	-0.2327495
112	0x3f7a9e20	0.9789753
113	0xbf0a8c54	-0.54120374
114	0xbe896682	-0.2683602
115	0x3f8f916a	1.1216252
116	0xbdfa9075	-0.12234584
117	0xbeadbb07	-0.33931753
118	0xbeaadfdc	-0.33373916
119	0xbf40a50d	-0.7525185
120	0xbe736915	-0.23770554
121	0x3f103299	0.56327206
122	0x3e5bd2a4	0.21467072
123	0xbf666712	-0.9000102
124	0xbebdcd61	-0.37070754
125	0xbd6ca8b2	-0.057778068
126	0xbf2637fe	-0.6492919
127	0xbec0ac68	-0.37631536
128	0xbe28b11c	-0.16473812
129	0x3d06f331	0.03294677
130	0xbf521247	-0.8205914
131	0x3eba1dd0	0.3635087
132	0xbe01b1a2	-0.12665418
133	0x3dae69d0	0.08516276
134	0xbe926d51	-0.28599027
135	0x3e122c02	0.142746
136	0x3ed8606c	0.42261064
137	0xbeef192e	-0.46698898
138	0xbf04c46b	-0.5186221
139	0x3e7a18db	0.24423544
140	0x3f1e6a76	0.61881196
141	0x3edb2771	0.4280353
142	0x3f906f5a	1.1283982
143	0x3faab9e6	1.3337982
144	0xbf01483a	-0.50500834
145	0x3f1f2054	0.62158704
146	0xbf2cc890	-0.67493534
147	0xbf980c6c	-1.1878791
148	0xbebd22b4	-0.3694054
149	0x3ef9719b	0.48719487
150	0xbf501ac1	-0.81290823
151	0x3f731ee6	0.9496902
152	0xbfa1b069	-1.2631961
153	0x3fa1bc6a	1.2635624
154	0xbe664877	-0.2248858
155	0x3f1cc004	0.6123049
156	0x3e3e816b	0.18604057
157	0x3e16c12e	0.1472213
158	0xbe10fcc0	-0.14158916
159	0x3f4f3ad0	0.80949116
160	0xbf919306	-1.1372993
161	0x3f5799f3	0.8421928
162	0xbf8cc702	-1.0998232
163	0x3e6263e2	0.22108415
164	0x3d10b906	0.035332702
165	0xbee607ed	-0.44927922
166	0xbf7710af	-0.9650983
167	0xbe355d41	-0.17711355
168	0x3f85f6e3	1.0465969
169	0xbf958b6d	-1.1683174
170	0x3ef34e2c	0.47520578
171	0xbf89bfa9	-1.0761615
172	0xbed0a017	-0.4074714
173	0x3f883871	1.0642225
174	0x3c720675	0.014772047
175	0x3f2839ad	0.65713006
176	0xbf52b67e	-0.8230971
177	0xbe8fe16f	-0.2810168
178	0xbf6b6d13	-0.9196331
179	0x3f448633	0.7676727
180	0x3f803fcf	1.0019473
181	0xbf58e643	-0.8472635
182	0xbf6d0942	-0.9259225
183	0x3f8fedcb	1.1244444
184	0x3f138ed5	0.5763982
185	0xbf192dd2	-0.5983554
186	0xbd418b0d	-0.04725175
187	0xbd988b75	-0.07448474
188	0xbbf9be5e	-0.0076215705
189	0xbf0d7379	-0.5525432
190	0xbf0674df	-0.5252208
191	0xbf54882a	-0.8302027
192	0xbf09f079	-0.5388256
193	0x3f44c2e1	0.7685986
194	0x3f2794bc	0.65461326
195	0x3de410af	0.11135995
196	0xbf87a8cb	-1.0598387
197	0x3f44f0af	0.76929754
198	0x3fa1e1e6	1.2647064
199	0x3f8cb754	1.0993447
200	0x3f2bdc7f	0.67133325
201	0xbf7ef82d	-0.99597436
202	0xbe885ca9	-0.26633194
203	0xbe9be28c	-0.3044628
204	0xbedeadb5	-0.43491903
205	0x3eef6980	0.46760178
206	0x3c060460	0.008179754
207	0x3e1153e1	0.14192154
208	0xbf4fff8b	-0.812493
209	0x3f1d5ed8	0.61472845
210	0x3eb3c929	0.3511441
211	0xbf695468	-0.9114442
212	0xbf70bad3	-0.9403507
213	0x3f5f3f71	0.8720618
214	0x3f81952d	1.012365
215	0xbf2f4ad1	-0.68473536
216	0x3f8bbc3a	1.0916817
217	0xbfa92f42	-1.3217547
218	0xbf6fbe1c	-0.9364946
219	0x3f3a3638	0.7273898
220	0xbeb310c3	-0.34973726
221	0x3c0538a9	0.008131185
222	0xbf3d4a04	-0.73941064
223	0xbdd8f7c2	-0.10594131
224	0xbec33375	-0.38125196
225	0x3f6a0078	0.91406965
226	0xbf67a821	-0.9049092
227	0xbe66e7e4	-0.22549397
228	0xbeaedf03	-0.3415452
229	0x3f23ee37	0.6403536
230	0xbd9424d1	-0.07233585
231	0xbf6fe168	-0.9370332
232	0xbf5dff29	-0.8671747
233	0x3e009c42	0.12559608
234	0xbf423f04	-0.75877404
235	0xbf71a222	-0.9438802
236	0xbed6445f	-0.41849038
237	0xbec54343	-0.3852788
238	0xbf4966b5	-0.78672343
239	0xbf8bf316	-1.0933559
240	0xbd83635c	-0.06415436
241	0x3dbad757	0.09123104
242	0x3e857231	0.26063684
243	0xbdf6deda	-0.12054224
244	0x3f4fca78	0.8116832
245	0xbf128e76	-0.5724863
246	0xbecff0aa	-0.406133
247	0x3e623081	0.22088815
248	0x3f8b4212	1.0879538
249	0xbf32f8c0	-0.6991081
250	0x3d953995	0.072863735
251	0x3efc36a4	0.49260437
252	0xbd538b97	-0.051646795
253	0xbdd143d8	-0.10218018
254	0x3f539c5d	0.82660466
255	0xbf76bcea	-0.9638201

cons_embedding.1.bias f4 [64]
0	0x3e0c6496	0.13710245
1	0xbd0cb22c	-0.034349605
2	0x3dae19dd	0.08501027
3	0x3e92d4c1	0.28677943
4	0x3dfa7458	0.12229222
5	0x3e2a9cb1	0.16661336
6	0x3e47cbbe	0.19511315
7	0xbe587ee1	-0.2114215
8	0xbbfb09a5	-0.007661062
9	0xbdc101a9	-0.09424145
10	0xbd772a23	-0.06034292
11	0xbeecc2f3	-0.46242484
12	0xbdac8ca8	-0.084252656
13	0xbf2387b4	-0.6387894
14	0xbe9f4b6a	-0.31112224
15	0xbe9be210	-0.3044591
16	0xbd1d2aa3	-0.03837074
17	0x3f0b573b	0.5442998
18	0x3ef9d593	0.48795757
19	0xbbc7d783	-0.006098689
20	0x3e7d9d31	0.24766995
21	0x3d156e91	0.036482397
22	0xbd81f05a	-0.063446715
23	0xbc6c31e9	-0.014416196
24	0xbf15c665	-0.5850585
25	0xbcb3b2ff	-0.021935938
26	0xbdd0be3d	-0.10192535
27	0xbec6ebd1	-0.3885179
28	0x3e0a2a9d	0.13492818
29	0xbe4c442c	-0.1994788
30	0x3e9019ef	0.28144786
31	0xbe18df2f	-0.14928888
32	0xbcfd8f40	-0.030952096
33	0xbb5fd005	-0.003415109
34	0xbd4a03a7	-0.04931989
35	0x3edaf2b0	0.4276328
36	0x3e8e5998	0.2780273
37	0x3dde7f23	0.10864093
38	0x3dc234ef	0.094827525
39	0x3e0d6d12	0.13811138
40	0x3b328618	0.002724057
41	0xbe3c54ce	-0.18391725
42	0xbe0c2f54	-0.13689929
43	0x3ed31e3b	0.41234002
44	0xbf1b6e1b	-0.6071488
45	0xba6ae150	-0.0008959966
46	0xbd73d0ee	-0.059525423
47	0xbe820215	-0.25392213
48	0x3e084481	0.13307382
49	0xbe91ea27	-0.28498957
50	0xbe6c3ccd	-0.23070069
51	0x3d778c35	0.060436446
52	0xbc40d5d3	-0.01176973
53	0x3a13f054	0.00056434167
54	0xbe63bd83	-0.22240262
55	0xbdd7b091	-0.10531724
56	0x3ef43c22	0.47702128
57	0x3e9c00ad	0.30469266
58	0xbe86ffdd	-0.26367083
59	0xbea55fd4	-0.32299674
60	0x3c96361c	0.018336348
61	0x3dd65bf6	0.10466759
62	0x3dd973df	0.10617804
63	0xbda1e3c3	-0.0790477

cons_embedding.3.weight f4 [64, 64]
0	0xb9e891ae	-0.00044359028
1	0x3c7a0ec6	0.015262311
2	0x3c46d5aa	0.012135902
3	0xbea09c4e	-0.3136925
4	0xbdaba1a5	-0.083804406
5	0xbd2f4a04	-0.042795196
6	0xbce0d0d3	-0.027443325
7	0x3cae20a8	0.021255806
8	0xbcb2efd7	-0.02184288
9	0x3d66999f	0.05629885
10	0x3e771931	0.24130704
11	0x3edf929b	0.4366654
12	0x3b4cf158	0.0031271782
13	0x3f11d943	0.5697214
14	0x3e9a47c3	0.30132875
15	0x3ddbf35e	0.10739778
16	0x3e911c39	0.28341845
17	0xbefe9dd1	-0.4972978
18	0xbf0e584f	-0.556035
19	0xbd998f36	-0.074980184
20	0xbcfca810	-0.030841857
21	0xbc08ea40	-0.008356631
22	0x3e213123	0.157414
23	0xbe01917e	-0.12653157
24	0x3f28de89	0.6596456
25	0x3d800958	0.06251782
26	0x3e4a0c3b	0.19731228
27	0x3ed90010	0.4238286
28	0xbac4e145	-0.0015020749
29	0x3cb6b47a	0.022302855
30	0xbeeef55d	-0.46671572
31	0x3abcbb73	0.0014399126
32	0xbc5c4e79	-0.013446444
33	0xbc77446c	-0.015091997
34	0xbcb351fb	-0.021889677
35	0xbe3c5f2a	-0.18395677
36	0xbecc547c	-0.39908206
37	0xbcf1778f	-0.029475955
38	0xbda5907a	-0.08084197
39	0xbc9cb6f5	-0.01913021
40	0xbe18fdd8	-0.14940584
41	0x3c197832	0.009367036
42	0xbd6ccfd8	-0.057815403
43	0xbf05326a	-0.5203005
44	0x3ef4a7d6	0.477843
45	0x3d0ef9b1	0.034906093
46	0x3c6a3e83	0.0142971305
47	0x3d0e63e1	0.03476322
48	0x3dbd2d92	0.092372075
49	0x3e98bdf8	0.29832435
50	0x3dc1f95e	0.09471391
51	0xbcabb5d9	-0.020960735
52	0xbd8ee8f0	-0.06978023
53	0x3e2060fe	0.15662
54	0x3eb248ec	0.3482126
55	0xbdcb7b4b	-0.09935626
56	0xbef13869	-0.4711335
57	0xbef0a786	-0.4700281
58	0x3cb11223	0.021615094
59	0x3d55444e	0.052067094
60	0x3c12a634	0.008950759
61	0xbebdf715	-0.3710257
62	0xbe9f8f6d	-0.31164113
63	0x3cf4be8c	0.029876016
64	0x39a865c9	0.00032119293
65	0x3d298578	0.04138705
66	0x3d681158	0.056657165
67	0xbe83e270	-0.25758696
68	0x3e06c7e2	0.13162187
69	0x3c71d02e	0.014759107
70	0x3ca04e8d	0.019568706
71	0xbccbde29	-0.024886208
72	0xbcdd602e	-0.027023401
73	0xbd089d73	-0.03335328
74	0xbdb3bd0c	-0.08776292
75	0xbd8db7f7	-0.06919854
76	0xbc5f3bf7	-0.013625137
77	0xbe129ad6	-0.14316878
78	0xbc6fce49	-0.014636585
79	0x3ccd82d4	0.025086798
80	0x3d73b7ca	0.059501447
81	0xbdc54181	-0.096316345
82	0xbd5e6c91	-0.054302756
83	0xbd084684	-0.033270374
84	0xbc698bd4	-0.014254529
85	0xbdb3689c	-0.08760187
86	0xbe5513a0	-0.20808268
87	0xbd891e8d	-0.0669528
88	0x3d964292	0.07336916
89	0xbe802b21	-0.25032905
90	0x3e21ab9d	0.15788122
91	0xbe28bbc9	-0.16477884
92	0xbcddb1b5	-0.027062276
93	0x395d43fe	0.00021101531
94	0xbdca5853	-0.09880128
95	0x3c8c8143	0.01715148
96	0x3928a3ba	0.00016082721
97	0x3c08b1de	0.008343188
98	0xbcff3f20	-0.03115803
99	0xbdd4b115	-0.10385338
100	0x3d38d662	0.045126326
101	0x3d068bd2	0.032848187
102	0x3d4d0753	0.050055813
103	0x3d58e815	0.052955706
104	0x3da1cc54	0.079003006
105	0x3cbdfdf0	0.023192376
106	0xbdb712c3	-0.089391254
107	0x3e1ac501	0.15114214
108	0xbe544fe6	-0.20733604
109	0xbe4a0c38	-0.19731224
110	0x3cc32d76	0.023825388
111	0xbce07b49	-0.027402537
112	0xbe0575eb	-0.13033263
113	0xbdc63a62	-0.096791044
114	0x3ce42ccf	0.027853398
115	0x3cd79549	0.026316302
116	0xbdf447e5	-0.11927775
117	0xbd1e3078	-0.038620442
118	0x3e927c7e	0.28610605
119	0x3c69f088	0.0142785385
120	0xbd8c4d20	-0.06850648
121	0x3d7bb8f4	0.061455682
122	0xbceccf90	-0.028907567
123	0xbc50c8b5	-0.012743165
124	0x3c1d6adf	0.009608
125	0x3b1a6026	0.0023555844
126	0x3bb3d537	0.0054880637
127	0xbca8c70d	-0.020602727
128	0x3d6bb96a	0.05754987
129	0x3cfa0153	0.03051821
130	0xbc6a586d	-0.014303309
131	0xbe5d9d82	-0.21642116
132	0x3cc0c1c2	0.02352989
133	0xbe624f51	-0.2210057
134	0x3dcf4671	0.101208575
135	0xbcb4307a	-0.021995772
136	0x3d845b9d	0.06462786
137	0xbe5509a5	-0.2080446
138	0x3ed9b64e	0.425219
139	0xbdd55c2b	-0.1041797
140	0x3da0fe9b	0.07861062
141	0xbda81009	-0.082061835
142	0x3e089d79	0.13341321
143	0xbea7dc1e	-0.32785124
144	0x3b7791b9	0.0037776066
145	0x3ceedfcb	0.029159447
146	0xbb1c88ca	-0.0023885244
147	0xbdd39883	-0.10331824
148	0xbe19c690	-0.15017152
149	0xbe383836	-0.17990193
150	0xbd5a396f	-0.05327743
151	0xbdd64196	-0.10461728
152	0xbd2b52b4	-0.04182692
153	0x3e0d9d46	0.13829526
154	0xbc53552a	-0.012898723
155	0x3e72dcc2	0.23717025
156	0xbc91a794	-0.017780103
157	0xbcb20441	-0.021730544
158	0x3e190285	0.14942367
159	0xbca2daa5	-0.019879648
160	0xbd769a09	-0.060205493
161	0xbbfaa2a5	-0.0076487833
162	0xbd9d33b1	-0.07675875
163	0xbe0de77e	-0.13857839
164	0x3cbfbe42	0.023406152
165	0xbcd722b7	-0.02626167
166	0x3e82ec66	0.25570983
167	0xbca32ab8	-0.01991783
168	0xbea0052c	-0.31253946
169	0xbbb1a164	-0.0054208506
170	0xbeaed0ed	-0.34143773
171	0x3bb59eb9	0.005542603
172	0xbebf1626	-0.37321585
173	0x3f047a05	0.5174869
174	0x3d8559c2	0.065112606
175	0xbdb7de92	-0.08977999
176	0xbdccee7b	-0.10006424
177	0xbe7ffadf	-0.24998043
178	0x3ee35497	0.44400474
179	0x3dc553da	0.09635134
180	0xbed3368a	-0.41252548
181	0x3e9048f2	0.28180653
182	0xbe90c011	-0.28271535
183	0xbe547dfe	-0.20751187
184	0x3d8e3c33	0.06945076
185	0x3d61411b	0.05499373
186	0x3dbe64e0	0.09296584
187	0x3bed5e0f	0.0072438787
188	0x3c761afa	0.01502108
189	0xbdde8a78	-0.108662546
190	0xbe86104f	-0.26184317
191	0x3db0b0e0	0.08627486
192	0x3cf5abca	0.029989142
193	0x3b9c1353	0.004763046
194	0x3ce39381	0.027780296
195	0x3ee4a383	0.44656
196	0xbe341a0d	-0.17588063
197	0x3dc554bb	0.09635302
198	0x3d818832	0.06324805
199	0xbc48d8b3	-0.012258696
200	0xbcdaab84	-0.026693113
201	0x3d72d2b6	0.05928298
202	0xbeb8a873	-0.36066017
203	0x3ebfa485	0.37430206
204	0xbd06a450	-0.032871544
205	0x3ec2214d	0.3791603
206	0x3e2a5fae	0.16638061
207	0x3d180f1f	0.037123796
208	0x3f1b540a	0.6067511
209	0xbebbb70d	-0.36663094
210	0xbe591a63	-0.21201472
211	0x3ddbe464	0.107369214
212	0xbc929996	-0.017895501
213	0xbbc5254e	-0.00601641
214	0xbf0e28ef	-0.5553121
215	0x3d73aaaa	0.05948893
216	0x3e6b2b9d	0.22965856
217	0x3f1892ba	0.59598887
218	0xbd276421	-0.040866975
219	0xbd9ebace	-0.07750474
220	0x3e0bdf73	0.13659458
221	0x3c667f7b	0.01406848
222	0xbe697405	-0.22798164
223	0x3d22f109	0.03978065
224	0x3c80d7cb	0.015727898
225	0x3c00704d	0.007839275
226	0x3dcf6b4f	0.10127889
227	0xbd02d782	-0.031943806
228	0xbcebbe5b	-0.028777292
229	0x3d8290b2	0.06375255
230	0x3d674609	0.056463275
231	0x3d4f3502	0.05058766
232	0x3dd1dd7f	0.10247325
233	0xba73a437	-0.0009294184
234	0x3e2792e0	0.16364622
235	0xbe230c3f	-0.1592264
236	0x3da35c90	0.07976639
237	0xbddeb0fa	-0.10873599
238	0xbd8e9304	-0.06961635
239	0xbcce15a3	-0.025156802
240	0xb885f7bb	-6.3880776e-05
241	0x3d6dab3b	0.058024626
242	0xbe781304	-0.24226004
243	0xbd96faaf	-0.07372033
244	0x3db9a269	0.090641804
245	0xbe466fef	-0.19378637
246	0x3dafa68d	0.08576689
247	0xbca591d8	-0.020211145
248	0xbe280789	-0.16409124
249	0xbe8590b5	-0.26086965
250	0x3d622c18	0.055217832
251	0xbdc4ef58	-0.09615964
252	0xbcc92670	-0.024554461
253	0xbd23b136	-0.039963923
254	0xbd7bd843	-0.06148554
255	0xbd20c453	-0.03924973

cons_embedding.3.bias f4 [64]
0	0xbdcbd854	-0.09953371
1	0xbdf00c1d	-0.117210604
2	0xbd1f8d2b	-0.038952988
3	0x3f0878c4	0.53309274
4	0xbd5b8beb	-0.053600233
5	0x3d515cc7	0.05111387
6	0x3d7ae0ca	0.06124953
7	0xbd49e333	-0.04928894
8	0xbdc8f79e	-0.09812854
9	0xbdc700e2	-0.09716965
10	0x3e298805	0.16555794
11	0x3e0d9eb7	0.13830076
12	0xbddb1ba6	-0.10698633
13	0xbc4afbe2	-0.012389155
14	0x3e2f1f95	0.17101891
15	0xbbcadedb	-0.006191117
16	0x3cb71bff	0.022352217
17	0x3dc9045f	0.09815287
18	0xbc7fc11e	-0.015610008
19	0xbd7a3dc7	-0.06109407
20	0xbe3df8e2	-0.18551973
21	0x3baebdc3	0.00533268
22	0xbd374f10	-0.044753134
23	0xbe52b66c	-0.20577401
24	0x3d76f18c	0.06028895
25	0x3e3f51c9	0.18683542
26	0x3daf19c3	0.085498355
27	0x3dc07190	0.0939666
28	0xbe22e8d9	-0.15909137
29	0x3e94b81b	0.2904671
30	0xbd9a15f0	-0.075237155
31	0xbe1a5960	-0.15073156
32	0xbeab9eec	-0.33519685
33	0x3ce9141a	0.028451968
34	0xbd9ebbff	-0.07750701
35	0x3c9bad4e	0.019003537
36	0xbc0b4a94	-0.0085016675
37	0x3e7b6a9f	0.24552391
38	0xbd77b56f	-0.060475763
39	0xbdac9ce7	-0.08428364
40	0x3c487a5e	0.012236206
41	0xbcd0c62c	-0.02548512
42	0xbd5fbd30	-0.054623783
43	0xbdd29cd7	-0.10283821
44	0xbc88ba81	-0.016690494
45	0xbcbb6aac	-0.022878014
46	0x3d36b9a0	0.04461062
47	0x3e1abd35	0.15111239
48	0xbcef9c01	-0.029249193
49	0x3e985866	0.29754943
50	0xbe00f03a	-0.12591639
51	0x3b1bc205	0.0023766768
52	0xbdb48925	-0.08815221
53	0x3e3990cb	0.1812164
54	0xbd7ac67d	-0.06122445
55	0x3e372dd7	0.1788858
56	0x3c2d8676	0.01059114
57	0xbd602926	-0.054726742
58	0xbd547eac	-0.051878616
59	0x3d0bcf84	0.03413345
60	0x3e221d07	0.15831386
61	0xbe0f4e5f	-0.1399474
62	0xbd322f71	-0.043502275
63	0xbda4d192	-0.08047785

var_embedding.0.weight f4 [7]
0	0x3fed769e	1.8551824
1	0x3f866242	1.0498736
2	0x3f959896	1.168719
3	0x3f59d321	0.8508778
4	0x3f9247c4	1.1428151
5	0x3f883586	1.0641334
6	0x3f9cc3ff	1.2247313

var_embedding.0.bias f4 [7]
0	0xbd1ddb58	-0.03853926
1	0xbec356f4	-0.38152277
2	0xbe12af9b	-0.143248
3	0x3ef25c4f	0.4733605
4	0x3d8133e6	0.06308727
5	0x3e196f7a	0.14983931
6	0x3c6b3d54	0.0143578835

var_embedding.1.weight f4 [64, 7]
0	0xbe9b2d40	-0.3030796
1	0xbe9d077c	-0.30669773
2	0xbe06e840	-0.13174534
3	0xbf35705c	-0.7087457
4	0x3f7ed33e	0.9954108
5	0x3f0af2bd	0.5427664
6	0xbf19a1b4	-0.60012364
7	0x3fb6bbdd	1.4276081
8	0xbf29e807	-0.6636967
9	0xbd35bb98	-0.044368356
10	0xbf5e5b0f	-0.86857694
11	0xbf0a2e49	-0.53976876
12	0xbe6be408	-0.23036206
13	0xbf7bfd92	-0.9843379
14	0xbf86b926	-1.0525253
15	0x3effcdc0	0.49961662
16	0x3d89c60f	0.0672723
17	0x3f2639d6	0.64932
18	0x3f6af7f0	0.9178457
19	0xbe203de1	-0.15648605
20	0xbf8f6095	-1.120135
21	0x3dfdd994	0.12395015
22	0x3f81b247	1.0132531
23	0x3e847563	0.2587081
24	0xbed7be3c	-0.42137325
25	0xbdb2aa67	-0.08723908
26	0xbf5b9f76	-0.85790193
27	0x3eebe106	0.46070117
28	0xbf7bc761	-0.98351103
29	0x3eb234de	0.3480596
30	0x3f56aadb	0.83854455
31	0xbe8e3940	-0.27778053
32	0xbec417ae	-0.38299316
33	0xbe501208	-0.20319378
34	0x3f4e46dd	0.8057688
35	0xbf7d991e	-0.99061763
36	0x3ee14b60	0.4400282
37	0x3de3ef25	0.111295976
38	0x3f277ba8	0.6542306
39	0xbf4d4b80	-0.8019333
40	0x3e87d9c4	0.2653333
41	0x3f8e266c	1.1105475
42	0xbf853ca5	-1.0409132
43	0x3f04ed26	0.5192436
44	0xbf3610bf	-0.711193
45	0x3c8ae1b6	0.01695333
46	0x3f08f8a7	0.53504413
47	0xbb0dedc2	-0.0021656607
48	0x3ea70fdf	0.32629296
49	0xbf5d774c	-0.8651016
50	0x3dfbb4ea	0.12290366
51	0xbd2343cc	-0.039859578
52	0xbe39e78e	-0.18154737
53	0xbf725c8d	-0.9467247
54	0x3db19cc2	0.08672477
55	0xbec6112f	-0.38684985
56	0x3ec7d25b	0.39027676
57	0xbfbb7e49	-1.4647914
58	0x3cbd0029	0.023071365
59	0x3ced5976	0.028973322
60	0x3f857e8b	1.0429243
61	0x3f3bb4f2	0.73322976
62	0xbf3d0647	-0.73837703
63	0xbf57c4fc	-0.8428495
64	0xbf84e6d4	-1.0382943
65	0x3f21a958	0.63149023
66	0xbe351394	-0.1768325
67	0x3ecb0aa8	0.39656568
68	0x3f59fd87	0.8515248
69	0x3f48aef8	0.7839198
70	0xbff228ba	-1.8918679
71	0x3dd2bb13	0.10289588
72	0x3e041312	0.128979
73	0xbf51c838	-0.81946135
74	0x3f0533a0	0.520319
75	0x3f2b29cd	0.6686066
76	0xbf77d67b	-0.96811646
77	0xbdeaecfa	-0.11470981
78	0x402f12c6	2.7355208
79	0x40498b55	3.1491292
80	0xbf46c12d	-0.7763851
81	0xbf3e4a49	-0.743321
82	0xbf119ac7	-0.56876796
83	0xbe509afe	-0.20371625
84	0xbf82b868	-1.0212526
85	0x3f647908	0.8924718
86	0x3f101de2	0.562956
87	0x3f210087	0.6289143
88	0xbe2636e6	-0.1623188
89	0x3e50d2b5	0.20392878
90	0xbf60a478	-0.8775096
91	0x3faed099	1.3657409
92	0xbf6ebc4c	-0.9325607
93	0x3e0c3dcb	0.13695447
94	0x3e2b43e5	0.16725118
95	0xbf4b1440	-0.79327774
96	0x3ef11874	0.4708897
97	0xbf260aed	-0.6486042
98	0xbfa3d027	-1.2797898
99	0xbdf3445c	-0.11878273
100	0x3e2acb0f	0.16679023
101	0x3f5a6b3f	0.85319895
102	0xbf3515ca	-0.7073637
103	0xbf2a7065	-0.6657775
104	0xbea8580b	-0.3287967
105	0xbb582f50	-0.0032987185
106	0x3f2877fd	0.6580809
107	0xbf333cfa	-0.7001492
108	0xbf384eb7	-0.7199511
109	0x3dbd3ed2	0.09240498
110	0xbf25caa3	-0.64762324
111	0xbe2a865c	-0.16652817
112	0x3f391878	0.7230296
113	0xbe986bbe	-0.297697
114	0xbf9961c0	-1.1982956
115	0x3f878dc4	1.0590138
116	0x3f66399f	0.8993167
117	0xbec02963	-0.37531576
118	0xbf5a78b9	-0.8534046
119	0x3fbdb77c	1.482162
120	0xbee15f9b	-0.44018254
121	0x3f6798ad	0.9046734
122	0x3eb8cd3e	0.36094087
123	0xbf76fc6b	-0.9647891
124	0x3d4f1589	0.050557647
125	0x3e8342d6	0.2563693
126	0x3eef2124	0.46704972
127	0xbf00e635	-0.5035127
128	0xbfe41e53	-1.7821754
129	0x3f97c7ff	1.1857909
130	0x3f23f925	0.6405204
131	0x3f0a142f	0.5393705
132	0x3e3c5a82	0.18393901
133	0xbf1fe2dc	-0.62455535
134	0xbdd79754	-0.105269104
135	0x3f659203	0.8967592
136	0xbf8b3482	-1.0875399
137	0xbf80cdc7	-1.0062798
138	0xbf4d6c8d	-0.8024376
139	0x3f05504f	0.52075666
140	0xbfc2f9b5	-1.5232455
141	0x3ef3e439	0.47635058
142	0xbd9d6ab9	-0.07686371
143	0xbef98c92	-0.4874006
144	0x3f0fe2a6	0.56205213
145	0x3e9e79e7	0.3095238
146	0x3f979a12	1.1843894
147	0x3fc5d34f	1.5455111
148	0x3eb27ca1	0.3486071
149	0x3f14d994	0.581445
150	0xbe32d278	-0.174631
151	0x3ee81b71	0.45333436
152	0xbf629736	-0.8851198
153	0x3f2414d2	0.6409427
154	0xbfc9e9e8	-1.5774508
155	0x3f043a3b	0.5165135
156	0x3ebb5e1b	0.36595234
157	0x3f208f0c	0.6271827
158	0x3f3b2af9	0.73112446
159	0x3f4b443c	0.7940099
160	0xbefb779b	-0.4911469
161	0xbfafaa76	-1.3723896
162	0xbeaa2df4	-0.33238184
163	0xbed5ac2b	-0.41732916
164	0xbe45a33d	-0.19300552
165	0x3f74723b	0.954868
166	0x3f642fa3	0.8913519
167	0x3d720ef4	0.05909629
168	0x3d9bd9db	0.07609912
169	0x3f3783d3	0.7168552
170	0xbd8796a9	-0.06620533
171	0xbcb684e0	-0.022280157
172	0x3e9a3caf	0.30124423
173	0xbef36230	-0.4753585
174	0x3f4e968b	0.8069846
175	0x3fafccd2	1.3734381
176	0xbf0c03b7	-0.5469317
177	0x3efde3d2	0.49587876
178	0xbe5b22f7	-0.21400057
179	0x3d440ae6	0.047861956
180	0x3f16b93f	0.58876413
181	0xbf79048b	-0.9727256
182	0x3e379eba	0.17931643
183	0x3fd1766e	1.6364267
184	0x3f979d67	1.184491
185	0xc00ea12b	-2.228587
186	0xbfbed9bc	-1.4910197
187	0xbfb27030	-1.3940487
188	0x3d8882f3	0.066656016
189	0x3f9dc73c	1.2326427
190	0xbf531d7b	-0.8246686
191	0x3dad9368	0.08475381
192	0xbf29934f	-0.662404
193	0x3e6508bf	0.22366618
194	0x3e9d97e2	0.3077994
195	0xbfa0c563	-1.2560238
196	0xbf6a7232	-0.915805
197	0xbffc9492	-1.973284
198	0xbf886827	-1.0656785
199	0x3f4768ef	0.7789449
200	0x3f926656	1.143748
201	0x3ebebd6c	0.37253892
202	0x3eb19b8d	0.34688988
203	0xbf64767b	-0.89243287
204	0xbde14fdc	-0.1100156
205	0x3f749d43	0.9555246
206	0x3f01d574	0.5071633
207	0xbf0e32cc	-0.5554626
208	0xbf440cdc	-0.7658212
209	0x3f810934	1.0080934
210	0x3e784fbe	0.24249169
211	0x3ff1a037	1.8877019
212	0x3fcbc836	1.5920475
213	0x3daa1515	0.08304802
214	0x3e036af5	0.1283377
215	0xbf4a76bf	-0.7908744
216	0xbf4f488a	-0.8097006
217	0x3e36f8da	0.17868367
218	0x3f5896ec	0.8460529
219	0xbe09bb3f	-0.13450335
220	0x3d2125df	0.039342757
221	0xbeeb9e49	-0.460192
222	0x3f8ae4b9	1.0851051
223	0x3e8c8b36	0.2744996
224	0x3ef75e42	0.483141
225	0xbd9b8cc9	-0.07595212
226	0x3f75b21a	0.95974886
227	0x3f70810f	0.9394693
228	0x3f3b3944	0.73134255
229	0xbeda0de0	-0.4258871
230	0xbfdd4cd5	-1.7289072
231	0x3f625c12	0.8842174
232	0x3f87aafa	1.0599053
233	0xbf2f1311	-0.6838847
234	0x3e55b4bd	0.20869727
235	0x3f554a8c	0.83316875
236	0x3f1f6854	0.6226857
237	0xbf519998	-0.8187499
238	0xbf362bcb	-0.7116057
239	0x3eb8289b	0.3596848
240	0xbee3c928	-0.44489408
241	0xbeeff0cf	-0.4686341
242	0x3eb7049b	0.357457
243	0x3e8f7141	0.28016093
244	0xbf90d5c7	-1.131524
245	0xbf3d5466	-0.73956907
246	0x3f50799d	0.8143557
247	0x3fa23fb3	1.267569
248	0xbe85b563	-0.2611495
249	0xbf20b6d4	-0.62778974
250	0xbf4061da	-0.7514931
251	0xbf6552de	-0.8957957
252	0x3fe340dc	1.7754169
253	0x3f68bd8d	0.9091423
254	0xbf386cef	-0.7204122
255	0x3f4e44fb	0.80574006

var_embedding.1.bias f4 [64]
0	0xbeb03960	-0.34418774
1	0xbea29248	-0.3175223
2	0xbcdcc8c1	-0.026951196
3	0x3ed3d2c5	0.41371742
4	0xbe952d92	-0.2913633
5	0x3ec13062	0.37732226
6	0xbded040a	-0.11573036
7	0x3e641cc6	0.22276601
8	0xbe49737e	-0.19672963
9	0xbc331c62	-0.01093206
10	0xbd32a01d	-0.043609727
11	0xbe911a7e	-0.28340524
12	0xbe4f628e	-0.2025244
13	0x3dbbc660	0.091686964
14	0xbdb76428	-0.0895465
15	0xbe5a765a	-0.2133421
16	0xbec8eedf	-0.39244744
17	0xbe5127f9	-0.20425405
18	0xbed224a5	-0.41043583
19	0xbd8e4f46	-0.06948714
20	0x3e3e1929	0.18564285
21	0xbeac057d	-0.33597937
22	0x3ed1928f	0.40932128
23	0x3ec4773b	0.38372216
24	0x3c87b704	0.01656676
25	0xbde57078	-0.11203092
26	0x3e0f1e46	0.13976392
27	0xbe0812d1	-0.13288428
28	0xbe0c1c81	-0.13682748
29	0x3ee4eb37	0.44710705
30	0x3e3038a9	0.17209114
31	0xbe60c524	-0.21950203
32	0x3e42785b	0.18991224
33	0x3e5da4ee	0.21644947
34	0xbd43aada	-0.04777036
35	0x3d11a556	0.035558067
36	0x3d5b528f	0.05354553
37	0x3ec97194	0.39344466
38	0xbe697ec4	-0.22802263
39	0xbe82b015	-0.25524965
40	0xbdfd71b3	-0.12375202
41	0xbdbbb0b9	-0.091645665
42	0x3dff92e9	0.12479193
43	0xbe306492	-0.17225865
44	0x3eb9021d	0.36134425
45	0x3ea2885a	0.31744653
46	0xbec2a6c0	-0.38017845
47	0x3d8c13fc	0.06839749
48	0xbec86374	-0.39138377
49	0x3e2766af	0.16347764
50	0x3f1cd70b	0.6126563
51	0x3e50234b	0.20325963
52	0xbd72fdf4	-0.05932422
53	0xbed0712e	-0.4071135
54	0xbe3ab1f7	-0.1823195
55	0x3e7e8258	0.2485441
56	0x3e44e33e	0.19227311
57	0xbe572f27	-0.21014081
58	0x3eaca82e	0.3372206
59	0x3dee88fd	0.11647222
60	0xbde58d20	-0.11208558
61	0xbe4adb29	-0.19810165
62	0x3e4346be	0.19069955
63	0xbe383da9	-0.17992271

var_embedding.3.weight f4 [64, 64]
0	0x3e22a713	0.15884046
1	0xbdd3d77c	-0.10343835
2	0x3f0ac24c	0.54202724
3	0xbd8aaba1	-0.06771017
4	0x3f05a0f8	0.52198744
5	0xbe69a79b	-0.22817843
6	0x3ea8b34e	0.329493
7	0x3eebb31f	0.46035096
8	0x3e6fabd5	0.23405392
9	0x3ed1e5e5	0.40995708
10	0xbe7719d1	-0.24130942
11	0x3d920830	0.07130468
12	0xbd5c68cb	-0.053810876
13	0xbe3133d2	-0.17304924
14	0xbd071494	-0.03297861
15	0x3d4e1d6a	0.05032102
16	0xbe03e547	-0.12880431
17	0x3f141e1d	0.5785845
18	0xbebfe5db	-0.37480053
19	0xbe042bd6	-0.12907347
20	0x3d180c3d	0.037121046
21	0x3e2112e9	0.1572987
22	0xbf09f670	-0.5389166
23	0xbed81b4c	-0.42208326
24	0xbef2f4db	-0.47452435
25	0xbd64b104	-0.055832878
26	0xbe509456	-0.20369086
27	0x3e36e66d	0.17861338
28	0x3e8c5c8d	0.2741436
29	0x3e96c098	0.29443812
30	0xbefa1756	-0.4884593
31	0xbc925bdb	-0.017866066
32	0xbda48ccd	-0.08034668
33	0x3ec114d7	0.37711212
34	0x3ebc1d18	0.36740947
35	0xbe87672a	-0.26445895
36	0x3dbf99a1	0.09355474
37	0x3ea64782	0.3247643
38	0xbe5e4a94	-0.21708137
39	0xbe929087	-0.2862589
40	0xbc3de359	-0.011589848
41	0xbda171c6	-0.07883029
42	0xbd1177bb	-0.035514574
43	0x3eafd191	0.34339574
44	0xbed42cda	-0.4144047
45	0x3e26182b	0.16220157
46	0xbf19b008	-0.6003423
47	0xbd0b8e7a	-0.034071423
48	0x3d4c9fa3	0.04995693
49	0xbebfb4eb	-0.37442717
50	0xbc97b744	-0.018520005
51	0x3f43097c	0.76186347
52	0xbe93a3db	-0.2883595
53	0x3f0cd3bf	0.550106
54	0xbeb9ae4f	-0.362658
55	0x3bf59c03	0.0074954047
56	0x3ed698e6	0.41913527
57	0x3f06575e	0.5247706
58	0x3eb8d058	0.36096454
59	0xbdb15fcb	-0.08660849
60	0xbe5334af	-0.20625566
61	0xbd8f7f69	-0.070067234
62	0xbe346f08	-0.1762048
63	0x3ea309fc	0.31843555
64	0xbea791ee	-0.32728523
65	0xbea5b71c	-0.32366264
66	0xbe996db3	-0.29966506
67	0x3db79fbd	0.089660145
68	0xbebb9df0	-0.36643934
69	0xbf100d4f	-0.5627031
70	0x3ef34692	0.47514778
71	0x3e4284f2	0.18996027
72	0x3e035819	0.12826575
73	0x3eac51ef	0.3365626
74	0xbe3c80b6	-0.18408474
75	0xbe604b7a	-0.21903792
76	0x3b90f74b	0.004424011
77	0xbe13b49a	-0.14424363
78	0x3d9c7e3d	0.076412655
79	0x3bdaa083	0.0066719665
80	0x3e3e144c	0.1856243
81	0x3c36c2af	0.011154815
82	0xbe0aa160	-0.13538122
83	0xbd483c77	-0.04888579
84	0x3eb8c19e	0.36085218
85	0x3e6460f7	0.22302614
86	0xbe64bbb6	-0.22337231
87	0x3b062fa9	0.0020475185
88	0x3ea160f6	0.31519288
89	0x3e8a736d	0.27041188
90	0x3f0c1689	0.54721886
91	0x3eae40e6	0.3403389
92	0xbc62f845	-0.013853137
93	0xbe9cf6ed	-0.3065714
94	0xb98d9576	-0.00027004973
95	0x3b0d578b	0.0021567072
96	0x3edca885	0.4309732
97	0x3e668f1e	0.22515532
98	0xbf01d790	-0.5071955
99	0x3e4190e1	0.18902923
100	0xbf57346a	-0.8406435
101	0x3de61c63	0.11235883
102	0x3ebc6b5d	0.36800662
103	0xbedc6be7	-0.43051073
104	0x3f0375ed	0.51351815
105	0xbd807f47	-0.06274276
106	0xbc80a759	-0.015704798
107	0xbca099b4	-0.019604541
108	0xbf101b38	-0.5629153
109	0xbca3c78d	-0.019992614
110	0x3d721ed2	0.059111424
111	0x3d9c3ece	0.076291665
112	0x3daeb27f	0.08530139
113	0xbc54361b	-0.012952353
114	0x3c79c401	0.015244485
115	0xbee9621f	-0.45582673
116	0x3da4f082	0.08053686
117	0x3f0ba26a	0.545447
118	0x3e6a40c1	0.22876264
119	0xbb738308	-0.0037156958
120	0xbe970a63	-0.29500112
121	0x3e9aaa33	0.30207977
122	0x3dbdef62	0.09274174
123	0xbf0c4225	-0.5478843
124	0x3ecf83dc	0.40530288
125	0xbddafcc3	-0.10692742
126	0xbdb0b159	-0.086275764
127	0xbdc918ee	-0.09819208
128	0x3f059f64	0.52196336
129	0xbe0ca0f6	-0.13733277
130	0xbf283d4b	-0.65718526
131	0xbf00b860	-0.50281334
132	0x3df37a8b	0.118886076
133	0x3f1d721b	0.61502236
134	0xbe00d1bb	-0.12580006
135	0xbd46feb7	-0.04858276
136	0xbe8890a2	-0.26672846
137	0x3f110828	0.5665307
138	0xbf1140bd	-0.5673941
139	0x3de96640	0.11396456
140	0xbef94a72	-0.4868961
141	0xbe90a1bd	-0.28248397
142	0x3d7137ee	0.05889123
143	0xbf08dcaa	-0.53461707
144	0xbf064a98	-0.5245757
145	0x3e6132fe	0.21992108
146	0xbda1f0d9	-0.07907266
147	0x3cce5186	0.025185358
148	0xbe13f355	-0.14448293
149	0x3eb3fe75	0.35155073
150	0xbee69bd0	-0.4504075
151	0xbda3699e	-0.07979129
152	0x3e8592f1	0.2608867
153	0xbec45621	-0.3834696
154	0xbe85593a	-0.26044637
155	0xbf0106f5	-0.5040124
156	0x3f059d82	0.5219346
157	0x3f12f9d9	0.5741249
158	0xbefb2d65	-0.4905807
159	0x3ecfbf9d	0.40575877
160	0xbf3cb9fd	-0.73721296
161	0xbe0e5df7	-0.13903032
162	0xbe3fe0a1	-0.18738033
163	0xbdfeab56	-0.124350235
164	0x3de28c74	0.110619456
165	0x3ed4f7c7	0.4159529
166	0x3d0badbc	0.034101233
167	0x3d297cc1	0.04137874
168	0x3ea0cfa9	0.31408432
169	0xbe104c36	-0.14091572
170	0x3f0e77a4	0.5565131
171	0xbe55d9fd	-0.20883937
172	0x3f0eaec8	0.55735445
173	0xbe48d1fb	-0.19611351
174	0xbe6107bd	-0.21975608
175	0xbee3c182	-0.44483572
176	0xbe69559d	-0.22786565
177	0xbc24802f	-0.010040327
178	0xbdde831d	-0.108648516
179	0x3e9d5bf2	0.3073421
180	0xbf15c225	-0.58499366
181	0x3f29b558	0.66292334
182	0x3f3c36eb	0.735213
183	0x3e6397aa	0.22225824
184	0x3ee9ca5e	0.45662206
185	0x3e19150d	0.14949436
186	0x3e097613	0.13423948
187	0x3eb35306	0.3502428
188	0xbe49fafb	-0.19724648
189	0xbd4cec71	-0.050030176
190	0x3f377864	0.71668077
191	0xbf20d446	-0.62823904
192	0x3e5d16eb	0.21590774
193	0xbd076346	-0.03305366
194	0xbe8cc496	-0.27493733
195	0xbd42f364	-0.047595397
196	0x3f3ea9b1	0.7447768
197	0x3dda7c20	0.10668206
198	0x3ecaeb5c	0.3963269
199	0x3dfe3004	0.12411502
200	0x3e559f46	0.20861539
201	0x3f456dbb	0.7712056
202	0xbede38e2	-0.43402773
203	0xbee4a5bf	-0.44657704
204	0xbec42595	-0.38309923
205	0xbf214fa8	-0.6301217
206	0xbe2ca058	-0.16858041
207	0xbe819476	-0.2530858
208	0xbe8414f5	-0.2579724
209	0x3e730159	0.23730983
210	0x3e7d7c96	0.24754557
211	0xbe0740e6	-0.1320835
212	0x3f7493c7	0.9553799
213	0x3ec362ed	0.38161412
214	0xbe1dd204	-0.15412146
215	0xbd756901	-0.059914593
216	0x3dac75d0	0.084209085
217	0xbff6704b	-1.9253019
218	0xbe490a71	-0.1963289
219	0xbf36d829	-0.71423584
220	0x3db061c4	0.08612397
221	0xbe4a2ab3	-0.19742851
222	0xbf2a1822	-0.66443074
223	0x3de01d93	0.10943141
224	0xbe9e256e	-0.30887932
225	0xbec42755	-0.38311258
226	0x3db7e13a	0.089785054
227	0xbf08a7fa	-0.5338131
228	0xbe76a11e	-0.24084899
229	0x3ec10d65	0.37705532
230	0x3ea3f006	0.3201906
231	0xbe029391	-0.12751605
232	0xbd360da0	-0.044446588
233	0x3f083920	0.53212166
234	0x3d7b742e	0.061390094
235	0x3eb83606	0.35978717
236	0xbd8b1d14	-0.067926556
237	0x3d3a13ed	0.04542916
238	0xbea55191	-0.32288793
239	0xbf0acc3f	-0.54217905
240	0xbf28aaa2	-0.65885365
241	0xbedc0bb6	-0.42977685
242	0xbe873ad8	-0.26412082
243	0xbdd679c7	-0.10472446
244	0xbf799a8e	-0.97501457
245	0x3f210eff	0.6291351
246	0x3ee291b1	0.4425178
247	0xbc97db7b	-0.018537274
248	0x3d34b799	0.044120405
249	0x3e81ecf4	0.25376093
250	0x3e751076	0.2393206
251	0xbe236ef3	-0.15960293
252	0xbee08ac3	-0.43855867
253	0x3e7808f0	0.2422216
254	0xbbe8c18b	-0.0071031502
255	0xbf09df9d	-0.5385683

var_embedding.3.bias f4 [64]
0	0xbe0647a5	-0.13113268
1	0x3e28fea3	0.16503386
2	0xbec11bd0	-0.37716532
3	0xbe4c9a80	-0.19980812
4	0x3e6bdf9d	0.2303452
5	0xbcace09e	-0.0211032
6	0xbdfdd38a	-0.123938635
7	0xbd3afb23	-0.04564966
8	0x3da53963	0.08067586
9	0x3de24a10	0.110492826
10	0xbe7ad09c	-0.2449364
11	0xbe0f94ca	-0.14021602
12	0x3dc01725	0.093794145
13	0x3dcc96be	0.09989689
14	0x3e77962a	0.24178377
15	0xbeaa9531	-0.3331695
16	0x3d8609ee	0.06544863
17	0xbd44ce45	-0.048048276
18	0x3e3cb849	0.18429674
19	0xbe3414f2	-0.17586115
20	0x3e8d5579	0.27604273
21	0xbe7862e8	-0.2425648
22	0xbe51a039	-0.20471276
23	0xbe805ae4	-0.25069344
24	0x3e495fea	0.19665495
25	0x3e60f010	0.21966577
26	0xbe844884	-0.25836575
27	0xbea63c84	-0.32468045
28	0xbdbd871f	-0.09254288
29	0xbdc43cc5	-0.09581903
30	0x3ded2a61	0.11580349
31	0x3c93e6a7	0.01805432
32	0xbd98149d	-0.07425807
33	0x3ee65d54	0.4499308
34	0xbdf71a46	-0.12065558
35	0x3f0cb7fb	0.5496823
36	0xbbd39f20	-0.006458178
37	0x3c34bc03	0.011031154
38	0xbdaadfd6	-0.083434746
39	0xbe5238f7	-0.20529543
40	0x3e247582	0.1606045
41	0x3ea173e6	0.31533736
42	0x3ebb1236	0.3653733
43	0x3ea93afd	0.33052817
44	0x3e220bbb	0.15824787
45	0xbd88fb52	-0.066885605
46	0xbdc01bcc	-0.09380302
47	0xbe25282e	-0.16128609
48	0x3decfe7e	0.11571978
49	0x3e6bd471	0.23030259
50	0xbe4c5b1b	-0.19956629
51	0xbe95edac	-0.29282892
52	0xbe5429d1	-0.20719077
53	0x3e3b2545	0.18275936
54	0x3eaf0341	0.3418217
55	0x3e2b211c	0.16711849
56	0x3dd0dc64	0.10198286
57	0xbdfc9ba9	-0.12334377
58	0xbda60b9a	-0.081076816
59	0xbd6e1027	-0.058120873
60	0x3e8a1777	0.26971027
61	0xbe88cdfe	-0.2671966
62	0xbe837576	-0.25675553
63	0x3cb89203	0.022530561

conv_v_to_c.feature_module_left.0.weight f4 [64, 64]
0	0xbeebc31c	-0.46047294
1	0x3e90af50	0.28258753
2	0xbdc7f573	-0.097636126
3	0x3d927f71	0.07153214
4	0xbc6c768d	-0.014432562
5	0xbd8ee64d	-0.0697752
6	0x3f0017a9	0.500361
7	0x3ef85a33	0.48506317
8	0x3cdd64d5	0.02702562
9	0x3d5a4fd8	0.0532988
10	0x3e17bf54	0.1481908
11	0xbe38e0aa	-0.18054453
12	0xbd89cb56	-0.067282364
13	0xbe0a910a	-0.1353189
14	0x3e8ca882	0.2747231
15	0xbe3b44d4	-0.18287975
16	0xbdc53508	-0.096292555
17	0x3e172ad7	0.14762436
18	0x3d4a2855	0.04935487
19	0x3e949658	0.29020953
20	0x3c67d3fc	0.014149662
21	0x3e2f869f	0.17141198
22	0x3dd36764	0.103224546
23	0x3de6122c	0.11233935
24	0xbd360cb0	-0.044445693
25	0x3def9dfd	0.11700056
26	0x3e14c675	0.1452883
27	0x3e8df7e0	0.27728176
28	0xbc5e1f7d	-0.013557312
29	0x3f09d0f6	0.53834474
30	0x3e333f79	0.17504682
31	0x3e05f26d	0.1308076
32	0xbe47c003	-0.1950684
33	0xbd3dc73f	-0.046332594
34	0xbc85e3a0	-0.016343892
35	0xbd98aa4b	-0.07454356
36	0xbcb98132	-0.022644613
37	0x3e49f186	0.1972104
38	0x3e5ad96a	0.21372
39	0xbe839eef	-0.25707194
40	0xbea00320	-0.31252384
41	0xbdbbe17f	-0.09173869
42	0xbbbcd090	-0.0057621673
43	0xbd3f3d98	-0.0466896
44	0xbdfbbffb	-0.12292477
45	0x3eaf97c0	0.34295464
46	0x3e01d0f7	0.1267737
47	0x3d38e010	0.045135558
48	0xbd9d76c2	-0.07688667
49	0x3ec2b4ef	0.38028666
50	0xbd561083	-0.05226184
51	0x3ea639f2	0.32466084
52	0xbdbeb135	-0.09311143
53	0xbec22d25	-0.37925068
54	0xbce039de	-0.027371343
55	0x3c1b3247	0.009472436
56	0x3ed225b6	0.41044396
57	0x3deac9a8	0.11464244
58	0xbcbd16f2	-0.02308223
59	0xbe3ed672	-0.18636492
60	0xbd93db9a	-0.0721962
61	0xbda8084f	-0.0820471
62	0x3e2774b1	0.16353108
63	0xbd924015	-0.07141129
64	0xbe924fbd	-0.2857646
65	0xbd24d9aa	-0.040246643
66	0x3dcf9a1c	0.10136816
67	0xbe898ced	-0.2686533
68	0xbdb5d1ca	-0.08877905
69	0x3d2d917e	0.04237508
70	0x3eac3693	0.33635387
71	0x3e8a70d2	0.270392
72	0x3d1b8d05	0.037976284
73	0xbe8eedd5	-0.27915826
74	0x3c5bc116	0.0134127345
75	0x3d243ae5	0.04009523
76	0x3d9c0b43	0.076193355
77	0x3ceb447d	0.028719181
78	0xbdb2f635	-0.087383665
79	0xbd16f56b	-0.036855143
80	0x3b480703	0.0030521757
81	0x3c798213	0.015228766
82	0x3c246e9d	0.010036138
83	0x3e404d79	0.18779553
84	0x3db42bdb	0.08797427
85	0xbdba6cad	-0.091027595
86	0x3d20e6fa	0.039282776
87	0xbd840428	-0.06446105
88	0x3c08660a	0.008325109
89	0x3bfe19f7	0.00775456
90	0x3e0d91fc	0.1382522
91	0xbd59f64e	-0.05321341
92	0xbb630669	-0.0034641272
93	0x3e73efb5	0.2382191
94	0xbc1b404a	-0.009475777
95	0xbdd5df80	-0.1044302
96	0xbde32834	-0.110916525
97	0x3e3fa77c	0.18716234
98	0xbd6be59b	-0.057592016
99	0xbdff02b3	-0.12451687
100	0x3d31e4c1	0.043431047
101	0xbdd12eac	-0.1021398
102	0xbde8ab21	-0.11360765
103	0x3d744468	0.05963555
104	0xbd7633f5	-0.060108144
105	0xbdef1cf3	-0.116754435
106	0xbcbdd0c8	-0.023170844
107	0x3c6508ba	0.013979131
108	0x3dbb72e1	0.09152771
109	0xbd5eda9b	-0.054407697
110	0xbdb7b6b9	-0.089703985
111	0x3c4f6a89	0.012659677
112	0xbc8b0444	-0.016969807
113	0x3eb9f255	0.36317697
114	0xbc924c94	-0.01785878
115	0x3eb1bc9b	0.34714207
116	0x3d21aa59	0.039469097
117	0x3d39f9f3	0.045404386
118	0x3d013669	0.03154603
119	0xbd433880	-0.047661304
120	0xbdd9ddb3	-0.10637989
121	0xbdb69ea2	-0.089169756
122	0xbd18df0f	-0.0373221
123	0xbd827261	-0.06369472
124	0x3e4f2b90	0.20231462
125	0xbcf341b5	-0.029694417
126	0x3d05efc6	0.03269937
127	0xbd2535f4	-0.040334657
128	0xbe9cb2eb	-0.30605254
129	0x3ba77667	0.00511055
130	0xbef75c13	-0.48312435
131	0x3d8b0c65	0.067894734
132	0x3e410f43	0.18853478
133	0xbd344f92	-0.044021197
134	0xbe1710f7	-0.14752565
135	0xbe1bcc31	-0.15214612
136	0xbca887ee	-0.020572629
137	0x3f0430d0	0.5163698
138	0xbcfd706b	-0.030937394
139	0x3c9cbc0e	0.01913264
140	0x3d1d85a6	0.038457535
141	0x3cb80f6d	0.022468293
142	0x3d8f1b69	0.0698765
143	0xbc6ac649	-0.014329501
144	0x3c1a7fe7	0.009429908
145	0xbe7b0c24	-0.2451635
146	0xbce95db4	-0.028487064
147	0xbe3b39fe	-0.18283841
148	0x3ddf4acd	0.10902939
149	0xbdfddd92	-0.12395777
150	0x3df42345	0.1192079
151	0x3d8f95a5	0.07010964
152	0x3dab84ce	0.0837494
153	0xbd89ea47	-0.06734138
154	0xbeb97410	-0.3622136
155	0x3c9a4b09	0.018834608
156	0x3d1f26d8	0.038855404
157	0xbdc4b4f0	-0.096048236
158	0xbd6ade4f	-0.057340916
159	0xbcaec988	-0.021336332
160	0x3c47a8cc	0.01218624
161	0xbde68ad2	-0.112569466
162	0xbc33191d	-0.01093128
163	0x3e865a85	0.26240936
164	0x3d3f5392	0.04671056
165	0x3e66ad19	0.22526969
166	0xbdff980c	-0.124801725
167	0xbe05b8ed	-0.13058825
168	0x3d3c6124	0.045991078
169	0x3db435be	0.08799313
170	0x3de549bc	0.11195704
171	0xbc6d0cd3	-0.01446839
172	0xbd35e76b	-0.04441015
173	0x3e75849c	0.23976368
174	0x3db0be40	0.08630037
175	0x3cfdc9c3	0.030979997
176	0x3d2da5d0	0.04239446
177	0xbb9f964a	-0.004870211
178	0xb9f4bf2d	-0.00046681744
179	0xbf3304f0	-0.6992941
180	0x3de0ff6c	0.10986218
181	0xbe9bd80d	-0.3043827
182	0xbe9a21c5	-0.3010389
183	0xbd7c82bd	-0.06164812
184	0xbd86d1e6	-0.06583004
185	0xbe0df54f	-0.13863109
186	0xbb4b48b6	-0.003101868
187	0x3e65fdca	0.22460094
188	0xbf1bfe3c	-0.60934806
189	0xbab10c7f	-0.0013507752
190	0x3d396b75	0.045268495
191	0x3cd30134	0.02575741
192	0x3e52f044	0.20599467
193	0xbccb9610	-0.024851829
194	0x3cd8e0b1	0.026474329
195	0xbe4be43e	-0.19911286
196	0x3b698bfa	0.003563641
197	0xbd35c4b8	-0.04437706
198	0xbc424c37	-0.011858991
199	0x3e4cd922	0.20004705
200	0x3d926d6b	0.07149776
201	0xbe2d70f4	-0.1693762
202	0xbce6d897	-0.02817945
203	0x3c8ed3d5	0.017434994
204	0x3df023aa	0.117255524
205	0xb93751b1	-0.00017482672
206	0xbc2fa66e	-0.010720832
207	0xbd6e2fda	-0.058151104
208	0x3b9fb6c7	0.0048740837
209	0xbe4ef43c	-0.20210356
210	0xbc8bbf83	-0.017059093
211	0xba2cf824	-0.0006598255
212	0x3c8e0b7a	0.017339457
213	0x3cadb65d	0.021205122
214	0x3d6d078f	0.057868537
215	0x3c22bf9e	0.00993338
216	0x3d62cc1d	0.05537044
217	0xbe0df3da	-0.13862553
218	0x3e308285	0.17237289
219	0x3ce4b0b4	0.02791629
220	0x3e5c59b6	0.21518597
221	0x3e15f92d	0.14645834
222	0x3d2a94e8	0.041645914
223	0x3d454103	0.048157703
224	0x3d84e1fa	0.06488414
225	0xbd410021	-0.047119264
226	0xbd032cae	-0.03202503
227	0xbd618118	-0.055054754
228	0x3c7115a8	0.014714636
229	0x3e8d6f6e	0.27624077
230	0xbc6e9d4a	-0.014563868
231	0xbda778ca	-0.081773356
232	0xbd804b34	-0.06264344
233	0x3d45e62b	0.04831521
234	0xbe571c5c	-0.21006912
235	0x3d0e81b2	0.034791656
236	0x3c4f4f97	0.012653253
237	0x3e6f7dc1	0.23387815
238	0x3c841123	0.016121453
239	0xbca443c8	-0.020051852
240	0x3dc9ec40	0.09859514
241	0x3d549325	0.05189814
242	0x3d2dca1a	0.042429067
243	0x3ccb4578	0.024813399
244	0x3c14ee39	0.00909
245	0xbe1481d1	-0.14502646
246	0x3cf76553	0.030199682
247	0x3d86908a	0.065705374
248	0x3dea6a31	0.11446036
249	0xbb1688b6	-0.002296967
250	0xbc920c07	-0.017828
251	0x3d7c7197	0.061631765
252	0x3e72bf16	0.23705706
253	0x3d8d4666	0.06898193
254	0xbd1f3461	-0.03886831
255	0xbdbfd723	-0.09367206

conv_v_to_c.feature_module_left.0.bias f4 [64]
0	0x3eb2f7f8	0.3495481
1	0xbc5041f6	-0.012711039
2	0x3d9d3e84	0.076779395
3	0xbe09c792	-0.13455036
4	0x3d42d08b	0.047562163
5	0x3c483f2e	0.012222094
6	0x3d895eae	0.06707512
7	0x3d11c65e	0.03558957
8	0xbadfaf15	-0.0017065728
9	0x3df51310	0.119665265
10	0x3e8cb3a8	0.27480817
11	0x3e5a8606	0.21340188
12	0x3e9197da	0.28436166
13	0x3c891e74	0.016738154
14	0xbe560e68	-0.20903933
15	0xbd3346a7	-0.04376855
16	0x3e1141a2	0.14185193
17	0x3cdb10e1	0.026741447
18	0xbe144b1a	-0.14481774
19	0xbd0da285	-0.03457882
20	0x3e1d8f33	0.15386657
21	0x3ddb9de9	0.10723478
22	0x3d21ced0	0.039503872
23	0x3e626db6	0.22112164
24	0xbd9ced52	-0.07662453
25	0x3d24df4d	0.04025202
26	0x3e7531aa	0.23944727
27	0x3e778166	0.24170455
28	0x3dc823e7	0.09772473
29	0xbe64b2e1	-0.22333862
30	0x3d410707	0.047125842
31	0xbd787762	-0.060660727
32	0x3e73851f	0.2378125
33	0x3e1fc9a6	0.15604267
34	0x3d809588	0.06278521
35	0x3e27cd35	0.16386874
36	0x3de05e7e	0.10955523
37	0xbbbe0881	-0.0057993536
38	0x3d9fc2c3	0.0780082
39	0x3daf2b91	0.085532315
40	0x3e403ea7	0.187739
41	0x3e171bb2	0.14756659
42	0x3e37029b	0.17872088
43	0x3dcaef5e	0.09908937
44	0x3dfa56d9	0.12223596
45	0xbd30f43e	-0.043201678
46	0x3db850a6	0.089997575
47	0xbe8467c8	-0.2586043
48	0xbcc50df6	-0.024054509
49	0x3df4cae5	0.119527616
50	0xbde9dfe6	-0.11419658
51	0x3dbdf5d0	0.09275401
52	0x3e2d6b1e	0.16935393
53	0xbc10d355	-0.008839448
54	0x3e59d145	0.21271236
55	0xbda13747	-0.078718714
56	0xbe1e57d0	-0.15463185
57	0xbb4e0d44	-0.0031441012
58	0xbe8f9abe	-0.28047746
59	0x3e81c80e	0.25347942
60	0x3ded966e	0.11600958
61	0xbe2bb5a7	-0.16768514
62	0x3d351728	0.044211537
63	0x3e27b3e6	0.1637722

conv_v_to_c.feature_module_edge.0.weight f4 [64, 1]
0	0xbebd9d97	-0.37034294
1	0xbf9a3bda	-1.2049515
2	0x3fe62ddc	1.7982745
3	0x3f0cd4e0	0.5501232
4	0xbe876505	-0.2644426
5	0x3e92c7b9	0.28668
6	0x3e88c35e	0.26711553
7	0xbf149e91	-0.58054453
8	0x3fa89232	1.3169615
9	0x3ff36567	1.901532
10	0x3e62c56f	0.22145627
11	0xbfa2f171	-1.2729932
12	0xbfcc9bce	-1.5985048
13	0x3f1e293b	0.6178166
14	0x3fe9c3d8	1.8262892
15	0x3ea3add0	0.31968546
16	0xbe10a578	-0.14125621
17	0xbf7f2a1e	-0.9967364
18	0x3f89f020	1.0776405
19	0xbee5301d	-0.4476327
20	0x3fac89b8	1.3479528
21	0x3fba611f	1.4560889
22	0xbf673ac2	-0.9032403
23	0xbda6fff9	-0.08154292
24	0xbf8e7ab0	-1.1131191
25	0x3f7cddfb	0.98776215
26	0x3fd580ad	1.6679894
27	0x3f945292	1.1587698
28	0x3fed24d8	1.8526869
29	0xbfa3df20	-1.2802467
30	0xbf3624c8	-0.71149874
31	0xbd1b1c60	-0.037868857
32	0xbf17ed80	-0.5934677
33	0xbf84f3bc	-1.0386882
34	0x400d5bdd	2.208732
35	0x3fafe58e	1.374193
36	0xbd077a6e	-0.033075742
37	0xbfa2bdcf	-1.2714175
38	0xbde606fe	-0.112318024
39	0x3f3cc3d7	0.7373633
40	0xbf2a52ed	-0.66532785
41	0x3f7fd96c	0.99941134
42	0xbff600e6	-1.9219024
43	0x3e028f58	0.12749994
44	0xbf740062	-0.95313084
45	0x4027b72c	2.620555
46	0x3ec5b61e	0.38615507
47	0x3f46e44e	0.77692115
48	0xbf02bc4a	-0.51068556
49	0xbf82971f	-1.0202368
50	0xbf115b78	-0.56780195
51	0x401dce57	2.465719
52	0x3f909856	1.1296489
53	0x3fda3dc5	1.70501
54	0x3f869843	1.0515217
55	0xbf916737	-1.1359624
56	0xbedda391	-0.43288854
57	0x3e951bd0	0.29122782
58	0xbfa0ac53	-1.2552589
59	0xbe910df4	-0.28330958
60	0x3ed03c49	0.40670994
61	0xbfb59980	-1.418747
62	0x3e4b1723	0.19833045
63	0x3d1f844f	0.03894454
