im_state/model_SC_300_IL.pth (torch, 484848 bytes, 71 tensors)

cons_embedding.0.weight f4 [4]
0.80353165 0.8305749 0.6109339 0.50042295
00000000: 40b4 4d3f 8fa0 543f 2a66 1c3f b81b 003f

cons_embedding.0.bias f4 [4]
0.28990707 0.28460068 -0.20399271 -0.24784853
00000000: b36e 943e 2eb7 913e 77e3 50be 01cc 7dbe

cons_embedding.1.weight f4 [64, 4]
0.4447691 0.27049756 0.4520464 0.6166805 0.59451014 -0.112218715 0.4671484 0.21172608
1.0036757 -1.009082 -0.39825007 0.8501117 -0.66547245 0.7183618 0.2715786 0.15604898
0.8814899 -0.22928132 0.940609 -0.36363235 0.1447266 -0.68118334 0.3495197 -1.2263521
1.106926 -0.4066532 0.9733228 0.5519379 1.1385102 -0.94229484 -0.6337987 1.0475252
-0.5589634 0.35255635 0.5635473 -0.99993145 0.49416757 0.7542856 0.753043 -0.9291166
0.6262678 0.21583726 0.07921848 0.16433659 0.34181952 0.051396906 -0.5392291 0.9440912
-0.52399087 1.4147166 0.92270994 0.29921553 -0.8088815 0.77870584 0.7297296 -0.908623
0.010947289 -0.48640668 -0.3459281 -0.37004006 -0.51261836 -0.5729042 -1.4006771 -0.039359342
-0.007565243 0.56785214 0.23938769 0.6034921 0.45058313 0.3261923 -0.6043832 -0.2069575
-0.01943647 -1.0871964 -0.79783696 -0.7152228 1.1241289 -0.74777734 1.1235814 -0.654522
0.64065284 -0.02960738 -0.89899725 -0.053689677 -0.06750026 -0.76780343 0.31020898 -1.2863027
-0.26266465 0.6020031 -0.19217576 -0.46828333 -0.5389185 0.3557445 0.69471 -0.58121276
0.4289925 -0.26238096 -0.28154337 0.58320254 -0.21848537 0.13720518 -0.8287377 0.8695681
1.293479 -0.68228114 -0.045340903 0.1783339 0.025426194 -0.6163292 -0.40039143 0.15765354
0.13421623 0.8384044 0.6675304 1.1384281 -0.92446846 -0.3700716 -1.3820195 -0.6691565
-0.4947229 -0.51473445 -0.72939026 0.07970554 0.026924241 -0.43002668 -0.2124379 -0.39218813
-0.06076501 -0.38064936 0.18219197 -1.0480487 -0.07815189 1.1065747 0.59023345 -0.0656508
0.1414795 -0.639447 0.3271629 -1.1730725 -0.5066106 0.96515995 0.30046064 0.41772002
-0.4648554 -0.21718857 -0.2113859 -0.6098013 -0.6121579 0.39733556 0.25334495 0.72650445
-0.7662325 -0.49512252 -0.80940765 -1.0390943 -0.5803603 -0.016872445 0.49496937 -1.1219778
-0.5081327 0.60518914 0.5580168 -0.515563 0.2580253 -0.69012713 0.039016392 0.3628317
0.21675022 -0.51974976 0.87257975 -0.45585248 -0.6189634 -0.25583386 -1.2717241 0.105195425
0.085156485 0.49344006 1.2488604 -0.57321376 0.265297 1.0162718 0.7727525 -0.59100956
-0.173867 -0.11503565 -0.4163893 0.046577893 0.98915434 -0.50699496 0.09614685 -1.0034331
-0.73828644 1.0530071 0.21589442 -1.2339922 1.2099184 -0.7199618 -0.18107267 0.76843303
-0.58510935 0.13383283 0.4992084 0.70713276 -0.1918078 0.91962075 0.57095283 -0.56077737
-0.20464873 0.951653 0.37357554 0.11137047 1.009459 -1.194946 -0.7082108 0.32394385
0.737364 0.2773135 -0.25241727 0.33171827 -0.39403147 0.7533775 -0.29469675 -0.031842466
-0.47984502 -0.29027194 0.23157462 0.64645 -0.5346713 -0.370097 -0.61878264 -0.54880285
0.8846482 -0.42888373 0.05709569 0.74860114 0.69195366 0.73725486 0.7866328 -0.6890462
-0.8995081 -0.49226028 -0.43282163 0.24947792 -0.87739444 0.80895054 -0.9435812 0.77430606
0.32828492 0.9060708 0.87390774 0.90558374 -0.47837454 -0.6959974 0.43117982 -1.1267523
00000000: c7b8 e33e a87e 8a3e a072 e73e c6de 1d3f
00000010: d131 183f edd2 e5bd 132e ef3e b9ce 583e
00000020: 7278 803f 9929 81bf 6fe7 cbbe eca0 593f
00000030: 675c 2abf 8fe6 373f 5a0c 8b3e 4ecb 1f3e
00000040: 52a9 613f b9c8 6abe c0cb 703f 052e babe
00000050: 3633 143e 0862 2ebf 3ff4 b23e 1bf9 9cbf
00000060: c0af 8d3f d934 d0be af2b 793f cd4b 0d3f
00000070: b4ba 913f 3c3a 71bf a240 22bf 4e15 863f
00000080: 3a18 0fbf 4482 b43e a344 103f 82fb 7fbf
00000090: 8803 fd3e dc18 413f 6dc7 403f 96da 6dbf
000000a0: 1653 203f 7104 5d3e 4c3d a23d da47 283e
000000b0: f802 af3e 9085 523d eb0a 0abf f6af 713f
000000c0: 4424 06bf 6f15 b53f b836 6c3f c732 993e
000000d0: dc12 4fbf 4459 473f 8fcf 3a3f 849b 68bf
000000e0: 425c 333c 4c0a f9be 7d1d b1be e475 bdbe
000000f0: f53a 03bf daa9 12bf 6349 b3bf 4337 21bd
00000100: dce5 f7bb c25e 113f 0c22 753e 757e 1a3f
00000110: d5b2 e63e ad02 a73e dbb8 1abf abec 53be
00000120: 3b39 9fbc 4029 8bbf 0b3f 4cbf d718 37bf
00000130: 75e3 8f3f 566e 3fbf 84d1 8f3f c18e 27bf
00000140: d301 243f 2d8b f2bc af24 66bf b5e9 5bbd
00000150: 943d 8abd c48e 44bf b6d3 9e3e 91a5 a4bf
00000160: fb7b 86be e01c 1a3f b9c9 44be d5c2 efbe
00000170: 90f6 09bf 2524 b63e 84d8 313f 5cca 14bf
00000180: e8a4 db3e cc56 86be 7426 90be c34c 153f
00000190: a1ba 5fbe 847f 0c3e 2728 54bf 049c 5e3f
000001a0: b890 a53f faa9 2ebf 62b7 39bd 299d 363e
000001b0: 984a d03c c0c7 1dbf 1b00 cdbe ee6f 213e
000001c0: fb6f 093e aca1 563f 46e3 2a3f 03b8 913f
000001d0: f7a9 6cbf 067a bdbe 04e6 b0bf d74d 2bbf
000001e0: 524c fdbe a3c5 03bf 52b9 3abf a83c a33d
000001f0: 3a90 dc3c 752c dcbe 5289 59be e2cc c8be
00000200: bbe4 78bd 79e4 c2be 8890 3a3e 7626 86bf
00000210: 190e a0bd 3da4 8d3f 8a19 173f ed73 86bd
00000220: 01e0 103e ccb2 23bf e581 a73e 3d27 96bf
00000230: 3bb1 01bf b914 773f fad5 993e 66df d53e
00000240: 8701 eebe ae66 5ebe 8c75 58be f01b 1cbf
00000250: 61b6 1cbf 916f cb3e 6eb6 813e 32fc 393f
00000260: d027 44bf b380 fdbe 5735 4fbf 0b01 85bf
00000270: 7e92 14bf 1538 8abc a06c fd3e f89c 8fbf
00000280: fc14 02bf aded 1a3f 30da 0e3f f0fb 03bf
00000290: e41b 843e 2cac 30bf a7cf 1f3d 14c5 b93e
000002a0: c5f3 5d3e 520e 05bf 6361 5f3f 7f65 e9be
000002b0: 6374 1ebf a8fc 82be dbc7 a2bf b370 d73d
000002c0: 8666 ae3d 2da4 fc3e a8da 9f3f 23be 12bf
000002d0: 02d5 873e 3215 823f 1cd3 453f 674c 17bf
000002e0: 310a 32be d097 ebbd fa30 d5be 76c8 3e3d
000002f0: 3839 7d3f 6cca 01bf a4e8 c43d 7f70 80bf
00000300: 5700 3dbf f0c8 863f 6d13 5d3e 75f3 9dbf
00000310: 9bde 9a3f 6b4f 38bf 1d6b 39be 07b8 443f
00000320: bac9 15bf 790b 093e 3e98 ff3e a706 353f
00000330: 4469 44be 446c 6b3f f729 123f 1b8f 0fbf
00000340: 708f 51be 889f 733f 4b45 bf3e 3316 e43d
00000350: f435 813f fef3 98bf 4e4d 35bf f8db a53e
00000360: e3c3 3c3f 09fc 8d3e d63c 81be fad6 a93e
00000370: 7ebe c9be 59dd 403f 7ee2 96be 3f6d 02bd
00000380: 3fae f5be 869e 94be e621 6d3e bf7d 253f
00000390: 38e0 08bf 5b7d bdbe 8a68 1ebf 587e 0cbf
000003a0: 4e78 623f a696 dbbe 2cdd 693d 53a4 3f3f
000003b0: e023 313f bcbc 3c3f c460 493f 5565 30bf
000003c0: 2a46 66bf 8a09 fcbe cc9a ddbe 2477 7f3e
000003d0: ec9c 60bf 6217 4f3f 8a8e 71bf ec38 463f
000003e0: f614 a83e 42f4 673f 6bb8 5f3f 56d4 673f
000003f0: 82ed f4be e32c 32bf 9ac3 dc3e 6b39 90bf

cons_embedding.1.bias f4 [64]
0.049772196 0.02427576 -0.032545973 -0.14287181 0.06929395 -0.10556494 -0.14603685 0.12277039
-0.09167492 0.5860547 0.37398338 0.19003458 -0.010917103 -0.098497204 -0.013905866 -0.0015190861
0.038541235 0.7073157 -0.06857536 -0.06010672 0.7034472 -0.22319593 0.3610546 -0.2460288
0.061754547 0.06352543 0.32322112 -0.18164426 -0.04577942 0.03170655 -0.2486275 -0.025025617
-0.039867472 0.29605368 -0.08684138 -0.010220751 -0.12134235 -0.4135304 -0.08055601 -0.24344225
-0.052361574 -0.3153294 -0.38091344 0.039164763 -0.058773573 0.4997882 0.01050834 0.49707884
0.3750172 0.16187793 -0.62937886 0.28000227 0.20161983 0.14251265 0.55277 0.0803292
-0.1763209 0.09666297 0.045427036 0.14506896 -0.62479866 0.125774 0.066620424 -0.5121076
00000000: eedd 4b3d f5dd c63c ed4e 05bd fd4c 12be
00000010: fde9 8d3d 6e32 d8bd af8a 15be 0b6f fb3d
00000020: 0fc0 bbbd ae07 163f c07a bf3e 6d98 423e
00000030: a6dd 32bc e7b8 c9bd 6ed5 63bc 121c c7ba
00000040: 6add 1d3d a412 353f 3d71 8cbd 7732 76bd
00000050: 1e15 343f 798d 64be 26dc b83e f9ee 7bbe
00000060: 56f2 7c3d 9f19 823d 3d7d a53e f400 3abe
00000070: 3383 3bbd bade 013d 3598 7ebe 8602 cdbc
00000080: 134c 23bd 5994 973e e5d9 b1bd f074 27bc
00000090: 5782 f8bd 42ba d3be 8dfa a4bd ed48 79be
000000a0: 1779 56bd db72 a1be 1607 c3be 3b6b 203d
000000b0: 8fbc 70bd 3de4 ff3e 2c2b 2c3c 1e81 fe3e
000000c0: 4102 c03e 54c3 253e f91e 21bf 755c 8f3e
000000d0: 6e75 4e3e d6ee 113e 5682 0d3f a383 a43d
000000e0: 778d 34be 3cf7 c53d b311 3a3d f58c 143e
000000f0: cef2 1fbf e6ca 003e 4a70 883d 7c19 03bf

cons_embedding.3.weight f4 [64, 64]
0.017668849 0.06045281 -0.32228076 -0.023080597 -0.12303928 -0.08453527 -0.26797807 -0.5387929
0.06782272 0.0074930894 0.03835834 0.06572312 0.34452158 -0.056860007 -0.08402063 0.06088052
-0.017811943 -0.18397745 -0.13671012 -0.5819183 -0.078612864 0.16232245 0.0015767664 0.028644219
-0.061046507 -0.013108684 -0.7771641 0.004086268 0.13766716 0.107159846 -0.033175915 -0.051302318
-0.08072949 -0.15159228 -0.19881621 0.024824148 0.13691323 0.24638593 -0.004915639 0.20694235
0.09398211 0.16525644 0.26804954 0.121191256 -0.112346105 -0.038704645 0.031980272 -0.29620448
0.08382632 -0.47467628 -0.14769305 -0.21663764 0.094998516 -0.76898986 0.13951164 -0.24091062
-0.0025906018 -0.13791367 -0.12775242 0.010928012 -0.06939713 0.44050333 0.052767064 -0.06893511
-0.03379491 -0.056431293 0.03073081 0.14737369 -0.0149023095 -0.10914881 0.087613575 -0.07015811
-0.044037964 0.2822821 0.19553529 -0.096972436 -0.04354574 -0.06626282 0.04329801 -0.0028471197
-0.0254484 -0.078840055 0.17784561 -0.3705008 -0.15810004 -0.06948214 0.024855327 -0.013644582
0.02964546 0.106725596 -0.30365092 0.048940107 -0.0006383763 -0.059876345 -0.049797844 0.05835683
-0.083728656 -0.2436284 0.03877058 0.14700346 -0.028992992 0.0141858375 0.030751247 0.18979305
-0.11509346 0.08421111 0.17434832 -0.32635874 -0.00357756 0.08979131 -0.00484906 -0.02398342
-0.27809817 -0.12586395 -0.15089554 0.020331072 -0.20266029 -0.24248838 -0.0969055 0.23374799
0.26030943 0.06114697 0.034956936 -0.12979966 0.0988821 0.00038455398 -0.12589218 0.100887045
0.039965767 -0.073900476 0.23054172 0.15729013 -0.24739434 0.06587255 -0.034262452 -0.2678173
0.019823655 -0.4729718 -0.46392435 -0.031736773 0.32020438 0.03922099 -0.024572827 0.08156573
0.00060204364 -0.120564826 0.04504385 -0.16766497 -0.37319562 0.24089657 -0.28321376 0.16426106
-0.044277094 0.011256916 -0.3452188 0.17650369 -0.15620902 -0.13019188 -0.119525656 0.0081650615
-0.023261983 -0.48366565 0.2388823 0.12247208 0.026112184 0.29752365 0.057568684 -0.068862654
-0.020953072 0.2648468 0.42605755 0.14060079 -0.007877628 -0.40672278 -0.02240234 -0.41126856
0.07953754 -0.2313691 0.35026687 -0.4984509 -0.27121097 -0.4843424 -0.35920066 0.000101586535
-0.096556164 -0.14431116 0.22307046 -0.13191517 0.43579385 -0.039883852 -0.064579196 0.33493692
0.05041261 0.13695209 0.12054867 -0.07592368 -0.103873454 0.09418085 -0.09017568 0.5391479
-0.15716153 0.14953509 0.027401946 0.08282278 -0.6314483 -0.29405543 0.1052738 -0.033004608
0.02588843 0.15730819 0.15241863 1.2595012 -0.02013684 -0.010727644 -0.23185873 -0.15370353
0.022010654 0.031956214 0.5121659 0.14715357 -0.0072181714 -0.09851119 -0.11190687 0.07198301
0.22675672 -0.21665353 0.06968709 -0.121924944 -0.13851197 -0.120123334 -0.062294707 0.13114044
-0.10419506 -0.019629998 0.22273166 0.0063953786 0.13381536 0.11911505 -0.049934193 0.4505345
-0.2308891 0.5922699 0.0052066543 -0.16465886 -0.27578807 0.6472258 -0.18900773 0.13793877
-0.21356237 0.09330795 0.16836394 0.017637186 0.22763088 -0.3662855 0.08506889 -0.03472636
00000000: 43be 903c 5e9d 773d fc01 a5be 8513 bdbc
00000010: 05fc fbbd d420 adbd 6c34 89be 55ee 09bf
00000020: a3e6 8a3d 9788 f53b a21d 1d3d d899 863d
00000030: 2265 b03e 0ae6 68bd 0213 acbd da5d 793d
00000040: 5aea 91bc 9664 3cbe bdfd 0bbe 99f8 14bf
00000050: c8ff a0bd db37 263e 80ab ce3a 48a7 ea3c
00000060: e70b 7abd cec5 56bc 3af4 46bf 1ae6 853b
00000070: 9ff8 0c3e 9f76 db3d 78e3 07bd 6122 52bd
00000080: 8155 a5bd 023b 1bbe 7a96 4bbe 035c cb3c
00000090: fb32 0c3e 984c 7c3e 5e13 a1bb b2e8 533e
000000a0: b179 c03d fc38 293e ca3d 893e 1f33 f83d
000000b0: b715 e6bd c388 1ebd bffd 023d 1da8 97be
000000c0: 22ad ab3d c508 f3be d93c 17be 42d6 5dbe
000000d0: 958e c23d 85dc 44bf 24dc 0e3e 46b1 76be
000000e0: 16c7 29bb 3e39 0dbe 88d1 02be 680b 333c
000000f0: 1520 8ebd a789 e13e 4722 583d da2d 8dbd
00000100: 886c 0abd 8024 67bd 2ebf fb3c 21e9 163e
00000110: d128 74bc 6989 dfbd bf6e b33d 0eaf 8fbd
00000120: 2761 34bd 4887 903e 673a 483e 7c99 c6bd
00000130: 055d 32bd cdb4 87bd 4159 313d be96 3abb
00000140: 2a79 d0bc e576 a1bd 291d 363e 48b2 bdbe
00000150: fae4 21be a74c 8ebd 669d cb3c 868d 5fbc
00000160: 09db f23c f392 da3d 2278 9bbe 6c75 483d
00000170: b558 27ba e640 75bd d3f8 4bbd 9207 6f3d
00000180: ee79 abbd b979 79be e6cd 1e3d 1388 163e
00000190: b682 edbc b76b 683c 0aea fb3c 1c59 423e
000001a0: 1fb6 ebbd e076 ac3d 5e88 323e 7e18 a7be
000001b0: 7f75 6abb 82e4 b73d dde4 9ebb e178 c4bc
000001c0: e262 8ebe 7be2 00be 5c84 1abe 598d a63c
000001d0: 2e86 4fbe e04e 78be 6476 c6bd a25b 6f3e
000001e0: 4747 853e 3f75 7a3d 012f 0f3d 34ea 04be
000001f0: b382 ca3d f69d c939 e1e9 00be de9d ce3d
00000200: 25b3 233d 2259 97bd 2113 6c3e aa10 213e
00000210: f154 7dbe 30e8 863d c956 0cbd 591f 89be
00000220: 3865 a23c 5c29 f2be 7e87 edbe 6bfe 01bd
00000230: d4f1 a33e 30a6 203d f44c c9bc ef0b a73d
00000240: 77d2 1d3a b1ea f6bd e67f 383d 5eb0 2bbe
00000250: 7f13 bfbe 97ad 763e 6501 91be 0d34 283e
00000260: e65b 35bd ee6e 383c 85c0 b0be 62bd 343e
00000270: 42f5 1fbe 0551 05be dec9 f4bd c0c6 053c
00000280: ea8f bebc 06a3 f7be 909d 743e a4d2 fa3d
00000290: 38e9 d53c 0555 983e 24cd 6b3d dd07 8dbd
000002a0: c7a5 abbc 009a 873e 3724 da3e a7f9 0f3e
000002b0: 2b11 01bc f83d d0be 1d85 b7bc cb91 d2be
000002c0: 94e4 a23d 05ec 6cbe 2e56 b33e f534 ffbe
000002d0: 2adc 8abe bafb f7be 26e9 b7be db0a d538
000002e0: 3dbf c5bd 4ec6 13be 956c 643e c514 07be
000002f0: 5f20 df3e 405d 23bd 1942 84bd da7c ab3e
00000300: 747d 4e3d 2b3d 0c3e 39e2 f63d e07d 9bbd
00000310: 9bbb d4bd e4e1 c03d 07ae b8bd 9905 0a3f
00000320: f4ee 20be ba1f 193e 0c7a e03c fd9e a93d
00000330: 99a6 21bf 6f8e 96be ca99 d73d d72f 07bd
00000340: f913 d43c 6615 213e a113 1c3e 5637 a13f
00000350: 04f6 a4bc 00c3 2fbc 606c 6dbe 7564 1dbe
00000360: b04f b43c 85e4 023d 4e1d 033f 6daf 163e
00000370: 6986 ecbb 3cc0 c9bd 6e2f e5bd d46b 933d
00000380: ea32 683e 6cda 5dbe 1bb8 8e3d c9b3 f9bd
00000390: 15d6 0dbe 3903 f6bd bc28 7fbd ae49 063e
000003a0: 3864 d5bd 17cf a0bc c513 643e 5390 d13b
000003b0: e506 093e 97f2 f33d cc87 4cbd 75ac e63e
000003c0: 316e 6cbe 009f 173f 959c aa3b 559c 28be
000003d0: 1834 8dbe 97b0 253f 3e8b 41be d23f 0d3e
000003e0: 18b0 5abe 3d18 bf3d 9967 2c3e dc7b 903c
000003f0: 1218 693e c689 bbbe 9938 ae3d 3a3d 0ebd

cons_embedding.3.bias f4 [64]
0.007144614 -0.098823674 0.008316101 0.09487876 0.072770394 0.051075988 -0.00504026 -0.06955073
-0.13280532 0.045225553 -0.03592092 -0.032577153 0.15918012 -0.020450827 -0.16368099 0.12274802
0.04924922 -0.0916066 0.020588206 0.060219206 -0.0116311265 -0.13720383 0.0603976 -0.037063856
-0.00090602034 0.102627166 0.16062373 -0.056368124 -0.02414358 0.040525325 -0.08194832 -0.0020332264
-0.046053804 0.039203893 -0.005696627 -0.10598844 0.057590704 -0.16188374 -0.062461257 0.08572444
0.007782755 -0.00072307565 0.10687512 -0.035993136 -0.05836458 -0.12267851 0.35472894 0.07968005
0.08489324 0.10331599 0.15644516 0.0032019767 0.13129963 -0.02612453 -0.079854034 -0.03009258
0.043351658 0.03823013 0.18399754 -0.10785954 -0.036795754 0.08711663 -0.18804309 0.08196643
00000000: 5e1d ea3b 1164 cabd 4140 083c cc4f c23d
00000010: a508 953d 0e35 513d c428 a5bb 9d70 8ebd
00000020: 1efe 07be 6e3e 393d d121 13bd 9f6f 05bd
00000030: 1d00 233e 7e88 a7bc fd9b 27be 5063 fb3d
00000040: 8db9 493d 3e9c bbbd 99a8 a83c 6aa8 763d
00000050: 7b90 3ebc 297f 0cbe 7963 773d 45d0 17bd
00000060: ff81 6dba 312e d23d 8c7a 243e 43e2 66bd
00000070: c2c8 c5bc e2fd 253d 85d4 a7bd e13f 05bb
00000080: eaa2 3cbd 4394 203d c5aa babb 7810 d9bd
00000090: 3be4 6b3d dac4 25be 60d7 7fbd 4c90 af3d
000000a0: 7b06 ff3b c98c 3dba 58e1 da3d 8a6d 13bd
000000b0: b30f 6fbd df3e fbbd 089f b53e 4b2f a33d
000000c0: 82dc ad3d 5597 d33d 2933 203e 41d8 513b
000000d0: 6973 063e 1c03 d6bc 838a a3bd b784 f6bc
000000e0: 8291 313d 3297 1c3d da69 3c3e 76e5 dcbd
000000f0: 25b7 16bd 346a b23d 5e8e 40be 04de a73d

var_embedding.0.weight f4 [7]
1.7150894 1.0775023 1.1347584 1.0027643 1.0272629 0.9971482 1.1514074
00000000: 0d88 db3f 98eb 893f c33f 913f 955a 803f
00000010: 5a7d 833f 1b45 7f3f 5161 933f

var_embedding.0.bias f4 [7]
-0.08269396 -0.16873209 -0.21720393 0.18906109 0.21783781 0.11245726 0.05491697
00000000: 735b a9bd 1bc8 2cbe b56a 5ebe 3b99 413e
00000010: e010 5f3e fe4f e63d 9ef0 603d

var_embedding.1.weight f4 [64, 7]
1.4279947 0.33949527 -0.56831026 -0.46643263 0.19559556 -0.24877822 0.095636584 -0.27022898
1.8792729 1.2520512 -0.8640157 -1.0100077 -0.9585418 -0.8859221 -0.55936104 1.1533917
0.99665207 -1.0227574 -0.04413844 -0.4474425 -0.33830935 -0.024760878 0.33254385 0.9970149
0.9247798 -0.22933833 -0.2627039 -1.4000417 -1.2092935 -0.15760596 1.0064888 -0.41578752
0.49463326 -0.19108391 -0.8989919 -0.015703807 0.94759095 0.008277411 -0.8299382 -0.82399535
0.14163072 -0.19868638 1.0632448 -0.93231314 -0.606327 0.30310017 -0.11450662 -0.673751
-0.7590149 0.8958671 0.42483208 -0.32825643 0.82714397 0.082679324 -0.7260028 -0.47251806
-0.82126397 1.295669 1.1902671 -0.645744 0.038864315 -0.71892685 -0.9048136 0.06301847
0.66893196 0.8720432 -0.3840304 0.6280782 -0.64900976 -1.4092023 1.0954707 -0.18068196
-0.22905895 0.856587 0.61188763 -0.8008571 -0.7633506 -0.44026828 0.7454391 -0.6394839
0.87452435 -0.75897086 -0.942313 0.641236 1.1477698 0.12402963 0.61190075 -0.5682897
0.007041081 0.13865985 -0.4877218 -0.2575314 0.9673081 0.07281478 -0.8858084 -0.7810481
-0.96689767 -0.26364234 0.67241824 -0.32273418 0.24898912 -0.6806901 -0.73252094 0.7709303
0.40421805 -1.0621543 -0.667666 0.5054709 0.5505081 0.8468661 0.002052924 -0.9969457
1.1689245 -0.10262543 -0.12386653 0.76216805 -0.06871363 -0.970139 -0.41859144 -1.5646507
-0.5486492 -0.36066216 0.137655 -0.102279596 -0.107786216 -0.60305107 1.2123415 -0.7454677
0.7707868 -0.14119619 -0.04772382 0.5505866 -0.8367955 0.16608754 0.98515195 1.5123521
-1.1028132 -0.40998834 -0.5955069 -0.43697578 0.050652202 -0.23546584 1.0041485 -0.7402204
-0.8721654 -0.4281336 0.8887118 0.360027 -0.69872427 0.77868855 -0.7114742 -0.8162093
0.088978514 -0.47037435 -0.12349926 -1.488439 -1.4449877 -0.4408185 0.52539486 0.44979092
0.48450363 -1.0745263 0.4611351 -0.63610363 0.75730336 -0.23337126 0.5065425 0.050160747
-0.21414801 0.103522606 0.18577048 -0.21265686 -0.3521588 0.7242014 -0.2464859 -0.5214113
0.05661034 0.92857754 -0.5278925 0.22690336 -0.1247879 -1.1821845 -1.3442936 -0.6858989
0.20013598 0.13690926 -0.0012455769 0.47085932 -0.5557016 0.03478104 -0.107545845 -0.73763585
0.18383695 -0.88614917 -0.25358182 -0.5469988 -0.08880917 0.3329628 -0.3757588 -0.5817065
0.9958223 0.5326866 0.5946989 0.0070480756 -0.7738374 0.65914476 -0.008882047 0.11015598
0.07883541 -0.027827324 0.90006286 -0.7316524 -0.46157196 0.8590639 -0.18011299 0.9139466
0.39382678 -0.84904283 0.4172183 0.8437862 -0.44245607 0.47266388 0.5821807 -0.050633255
-0.7652719 -0.8316018 0.22930689 -0.667132 0.78886205 0.14064322 -0.26122978 -1.2446244
-0.08658422 -0.16935992 -0.38971493 -0.2729891 -0.77378386 0.7694558 -0.6979323 -0.86524045
0.4335687 0.7590828 0.11934322 -0.3005672 -0.17093843 1.2215263 -0.11935452 0.023394024
-0.56101847 -0.6326989 0.7005855 -0.947259 -0.4797843 -0.003205306 0.71520996 -0.06404857
00000000: 88c8 b63f 53d2 ad3e c87c 11bf 42d0 eebe
00000010: 344a 483e b8bf 7ebe 1ddd c33d 745b 8abe
00000020: 048c f03f 3743 a03f 2230 5dbf ef47 81bf
00000030: ff62 75bf cacb 62bf 4932 0fbf 57a2 933f
00000040: 9724 7f3f b7e9 82bf 82ca 34bd 2f17 e5be
00000050: e236 adbe 53d7 cabc 3043 aa3e 5e3c 7f3f
00000060: 5ebe 6c3f abd7 6abe 2081 86be 9134 b3bf
00000070: 21ca 9abf 7563 21be a0d4 803f 1ae2 d4be
00000080: 9240 fd3e 80ab 43be 5524 66bf 45a5 80bc
00000090: 5295 723f fa9d 073c d476 54bf 5cf1 52bf
000000a0: a507 113e 7174 4bbe 6818 883f 13ac 6ebf
000000b0: 3f38 1bbf f22f 9b3e 7282 eabd f27a 2cbf
000000c0: cd4e 42bf 8c57 653f 9783 d93e 3a11 a8be
000000d0: b5bf 533f c753 a93d 52db 39bf e3ed f1be
000000e0: 5b3e 52bf 7bd8 a53f ac5a 983f 7b4f 25bf
000000f0: 3030 1f3d 970b 38bf dda1 67bf d40f 813d
00000100: 203f 2b3f 393e 5f3f a29f c4be bcc9 203f
00000110: 8125 26bf be60 b4bf 6238 8c3f b104 39be
00000120: 6e8e 6abe 4949 5b3f aba4 1c3f f904 4dbf
00000130: f26a 43bf d86a e1be 19d5 3e3f 38b5 23bf
00000140: d4e0 5f3f ea4b 42bf 6d3b 71bf 0b28 243f
00000150: 1fea 923f 3f03 fe3d 87a5 1c3f 6f7b 11bf
00000160: deb8 e63b d9fc 0d3e acb6 f9be 28db 83be
00000170: 81a1 773f ea1f 953d 57c4 62bf c5f2 47bf
00000180: 9b86 77bf 21fc 86be 9a23 2c3f 6a3d a5be
00000190: 01f7 7e3e b541 2ebf 7e86 3bbf b05b 453f
000001a0: abf5 ce3e acf4 87bf 29ec 2abf 8a66 013f
000001b0: 19ee 0c3f 37cc 583f 598a 063b d537 7fbf
000001c0: 519f 953f 482d d2bd bcad fdbd 721d 433f
000001d0: bbb9 8cbd 085b 78bf 9e51 d6be 7946 c8bf
000001e0: 4674 0cbf b6a8 b8be 6ff5 0c3e f777 d1bd
000001f0: 05bf dcbd 8e61 1abf 022e 9b3f f9d6 3ebf
00000200: 4952 453f bc95 10be 0d7a 43bd 3ef3 0c3f
00000210: 3b38 56bf da12 2a3e eb32 7c3f c194 c13f
00000220: fc28 8dbf fee9 d1be 2473 18bf 4abb dfbe
00000230: af78 4f3d f51d 71be f087 803f 167f 3dbf
00000240: 3b46 5fbf 5434 dbbe 9e82 633f 7555 b83e
00000250: 98df 32bf 2258 473f 2c23 36bf 18f3 50bf
00000260: 5e3a b63d e8d4 f0be 2eed fcbd 2b85 bebf
00000270: 5bf5 b8bf f6b2 e1be 4780 063f ff4a e63e
00000280: dc10 f83e 148a 89bf e619 ec3e b0d7 22bf
00000290: a2de 413f e0f8 6ebe c5ac 013f 5b75 4d3d
000002a0: 9e49 5bbe a903 d43d 9e3a 3e3e b8c2 59be
000002b0: 294e b4be 4365 393f cd66 7cbe 367b 05bf
000002c0: 3ee0 673d 42b7 6d3f f623 07bf 5b59 683e
000002d0: cc90 ffbd d251 97bf d011 acbf 1297 2fbf
000002e0: 72f0 4c3e f131 0c3e a042 a3ba 7914 f13e
000002f0: 7642 0ebf 9076 0e3d ff40 dcbd b4d5 3cbf
00000300: c13f 3c3e acda 62bf 7ad5 81be 1d08 0cbf
00000310: 95e1 b5bd 1a7a aa3e 7563 c0be b8ea 14bf
00000320: 36ee 7e3f 265e 083f 303e 183f 8bf3 e63b
00000330: 351a 46bf b6bd 283f 0186 11bc 7599 e13d
00000340: 7674 a13d 21f6 e3bc 856a 663f 924d 3bbf
00000350: 2953 ecbe 9deb 5b3f 8a6f 38be 68f8 693f
00000360: aaa3 c93e df5a 59bf a39d d53e 5f02 583f
00000370: 9a89 e2be 0001 f23e cb09 153f d164 4fbd
00000380: dce8 43bf dbe3 54bf 6dcf 6a3e 2ac9 2abf
00000390: ddf2 493f c704 103e e9bf 85be da4f 9fbf
000003a0: 1153 b1bd b06c 2dbe b788 c7be 3ac5 8bbe
000003b0: b316 46bf 0efb 443f b1ab 32bf 6680 5dbf
000003c0: b7fc dd3e 4053 423f 386a f43d f2e3 99be
000003d0: 7c0a 2fbe f95a 9c3f 2570 f4bd d3a4 bf3c
000003e0: e89e 0fbf 8ef8 21bf 9259 333f 917f 72bf
000003f0: 4aa6 f5be 1c10 52bb 0018 373f e62b 83bd

var_embedding.1.bias f4 [64]
-0.0048024594 0.026652783 0.38592228 -0.1786531 -0.12717015 -0.518532 0.12867443 0.18319152
0.2589681 -0.48171255 0.2211195 0.1943507 -0.055583052 -0.4185297 -0.37854418 0.09088928
0.21248794 0.08711909 0.16589592 0.041545138 -0.15123445 -0.1779918 0.09236828 -0.13906744
-0.05821325 -0.072039016 0.33051568 0.40883392 0.031944476 0.24117118 -0.21190542 0.3613984
0.069063574 0.17915584 0.47675538 0.17484768 -0.11789353 0.30115232 -0.04835051 -0.10606131
0.23977734 -0.19780056 0.28344563 0.20572406 -0.10242918 0.23231539 0.23270892 0.22096145
0.038042616 0.12329701 -0.20950243 0.03014662 0.3379961 0.39767498 0.21425928 0.21647404
-0.088866584 0.38602635 -0.12743998 0.047660764 -0.3767591 -0.38319308 -0.39754832 -0.16394682
00000000: f35d 9dbb f056 da3c 9b97 c53e d7f0 36be
00000010: e438 02be 83be 04bf 3bc3 033e 8f96 3b3e
00000020: 7897 843e 07a3 f6be 266d 623e df03 473e
00000030: 0eab 63bd 8649 d6be 8bd0 c1be 2924 ba3d
00000040: 7096 593e 7e6b b23d 9fe0 293e 3c2b 2a3d
00000050: 34dd 1abe 7b43 36be 952b bd3d b267 0ebe
00000060: 0471 6ebd 3189 93bd 5a39 a93e ae52 d13e
00000070: 36d8 023d 94f5 763e bcfd 58be 3609 b93e
00000080: 3471 8d3d a174 373e 4819 f43e 450b 333e
00000090: 2a72 f1bd a330 9a3e 2f0b 46bd ac36 d9bd
000000a0: 3188 753e 3b8c 4abe c91f 913e 54a9 523e
000000b0: 64c6 d1bd 16e4 6d3e 3f4b 6e3e b843 623e
000000c0: 93d2 1b3d 2583 fc3d ce87 56be 0bf6 f63c
000000d0: d30d ad3e 0e9c cb3e c966 5b3e 5fab 5d3e
000000e0: afff b5bd 3fa5 c53e a07f 02be ef37 433d
000000f0: 92e6 c0be e231 c4be 748b cbbe ade1 27be

var_embedding.3.weight f4 [64, 64]
-0.44211704 -0.3018235 -0.12643106 -0.25338653 0.13564801 0.22208144 0.42173693 0.34672517
-0.2816375 -0.34607217 -0.20546794 0.49274743 0.5130696 0.057314094 -0.16810744 -0.21926959
0.31335908 0.3630925 0.52235365 -0.018963719 -0.10599201 0.05003107 -0.08078607 -0.13796468
0.1168834 -0.13662432 0.3890244 -0.06786781 -0.12639706 -0.18383749 -0.0012491387 -0.1059752
-0.28129598 0.3068084 0.17971504 0.47084555 0.40649915 -0.17616579 -0.46659178 0.14326146
0.34828964 0.32277668 -0.15290563 -0.3766037 0.17571004 0.10914782 0.0024016516 0.028428841
-0.33308622 -0.31225255 0.07141538 0.07812778 -0.0502282 -0.16539246 0.40156734 -0.5012561
-0.09393535 0.08715421 0.13692151 0.2784031 -0.23470971 -0.055284254 0.0012889153 0.064678
-0.3712851 -0.3299808 -0.21489711 -0.19065781 0.034030207 -0.16222106 0.14163642 -0.47634646
0.22786692 -0.2561362 -0.19946261 -0.09999907 -1.1367961 -0.27781996 -0.25160128 -0.0049176035
-0.37237838 -0.22287908 -0.08008459 -0.12243012 0.22458859 -0.5816974 0.028078625 0.08894513
-0.11226182 -0.34366456 -0.29409423 -0.14522943 0.3392793 -0.00093421823 -0.021669578 0.5066992
-0.17600551 -0.12251314 -0.009599811 -0.327934 0.017456293 -0.26351696 0.108372875 -0.15831348
-0.11601831 0.003886716 -0.61497873 -0.034502182 -0.13008781 -0.3429147 0.08903566 -0.05424335
0.1801032 0.06729456 0.65699524 -0.13516974 -0.15673713 0.46388897 0.17878766 -0.17647198
-0.010525933 -0.04570502 -0.30172265 0.355216 -0.26718432 0.33386505 -0.11222278 0.016643897
0.5322008 0.22680008 -0.3054836 0.4328984 -0.4037379 0.00053714035 0.11895538 0.22817986
-0.31924093 0.33203617 -0.15918355 0.022802241 0.39352465 0.08794758 -0.05564431 0.33361584
0.3898239 -0.23956883 -0.1756678 0.21982919 0.1331046 -0.07043085 0.019752204 -0.46935216
0.26829273 0.142126 -0.039992966 0.35186037 -0.2511824 0.25224012 -0.14902166 -0.19710656
-0.16888468 0.17940271 0.10732862 -0.18204254 0.005521193 0.6390102 -0.14294444 -0.17683369
0.31198707 -0.34096006 0.19978167 -0.35635534 0.42784053 0.7141517 -0.23356573 -0.02137764
-0.020461626 -0.10495963 -0.43136522 0.14759694 0.020348253 -0.48540452 -0.35051984 -0.14202075
-0.53433156 0.041897435 0.27811438 -0.5102958 -0.13882716 -0.51370853 0.23700932 0.027709512
0.19440112 0.22241886 0.18566416 -0.012703483 -2.53839 -0.29553026 0.2429384 -0.30062687
0.04050462 -0.40659782 -0.07408496 0.09913644 -0.20963466 0.09684438 0.69350326 -0.25619826
-0.07422161 -0.0052450625 -0.32850713 0.25760517 0.17618561 -0.19074625 0.101526104 0.07559633
-0.33402136 -0.45296326 -0.027553624 0.20067972 0.45958695 0.18102789 -0.16454041 -0.6513646
-0.24487734 0.15029812 -0.33712688 0.07312933 -0.05370382 -0.16086079 -0.32034513 -0.14053443
-0.49534258 -1.9050993 0.257423 -0.024589548 0.44898373 -0.24207793 -0.022027973 -0.22060223
0.92002255 0.07775676 0.20087281 -0.43865138 -0.06498902 -0.08263389 -0.5293544 -0.33563805
0.15250903 -0.32637817 -0.061798118 0.14778572 0.1366665 -0.22673272 -0.16526207 0.27979234
00000000: 2a5d e2be 9c88 9abe 2577 01be e1bb 81be
00000010: 50e7 0a3e 5169 633e e7ed d73e f685 b13e
00000020: ca32 90be 5f30 b1be 3066 52be 6449 fc3e
00000030: 8858 033f 2fc2 6a3d 5b24 2cbe 3588 60be
00000040: 9a70 a03e 43e7 b93e f8b8 053f cd59 9bbc
00000050: 5712 d9bd 61ed 4c3d 2b73 a5bd 9d46 0dbe
00000060: 9060 ef3d 3fe7 0bbe 352e c73e 47fe 8abd
00000070: 3b6e 01be e53f 3cbe 24ba a3ba 8709 d9bd
00000080: 0706 90be fe15 9d3e 3807 383e ab12 f13e
00000090: a820 d03e ce64 34be 1ee5 eebe 22b3 123e
000000a0: 0553 b23e fc42 a53e 4b93 1cbe 33d2 c0be
000000b0: 55ed 333e e488 df3d 0765 1d3b 9ae3 e83c
000000c0: 478a aabe 91df 9fbe 3a42 923d 7501 a03d
000000d0: 16bc 4dbd a45c 29be 3c9a cd3e 5252 00bf
000000e0: 2d61 c0bd e87d b23d 2735 0c3e da8a 8e3e
000000f0: be57 70be be71 62bd d2f0 a83a e675 843d
00000100: 1519 bebe 3ef3 a8be fd0d 5cbe cd3b 43be
00000110: 4263 0b3d 471d 26be 2309 113e afe3 f3be
00000120: f255 693e 4924 83be ed3f 4cbe 50cc ccbd
00000130: 8982 91bf 6b3e 8ebe e2d1 80be d923 a1bb
00000140: 61a8 bebe 6a3a 64be 6403 a4bd a5bc fabd
00000150: 8dfa 653e 1fea 14bf 2505 e63c dd28 b63d
00000160: 86e9 e5bd cdf4 afbe 8593 96be 06b7 14be
00000170: 04b6 ad3e 53e6 74ba 6684 b1bc 0ab7 013f
00000180: ca3a 34be 2be8 fabd 8748 1dbc f7e6 a7be
00000190: 8000 8f3c b2eb 86be 99f2 dd3d ee1c 22be
000001a0: 029b edbd 46b8 7e3b 3f6f 1dbf 2952 0dbd
000001b0: bd35 05be 8492 afbe 5458 b63d 462e 5ebd
000001c0: f96c 383e bbd1 893d d730 283f f069 0abe
000001d0: b37f 20be db82 ed3e 1d14 373e 12b5 34be
000001e0: f674 2cbc 3035 3bbd 647b 9abe dfde b53e
000001f0: 62cc 88be 5cf0 aa3e 0fd5 e5bd c858 883c
00000200: 503e 083f 483e 683e 5968 9cbe dca4 dd3e
00000210: bcb6 cebe e1ce 0c3a e19e f33d fba7 693e
00000220: 8c73 a3be a500 aa3e 0301 23be c4cb ba3c
00000230: 107c c93e dc1d b43d 4aeb 63bd b2cf aa3e
00000240: 0097 c73e 8851 75be 42e2 33be e71a 613e
00000250: 924c 083e 0d3e 90bd 60cf a13c ed4e f0be
00000260: aa5d 893e 7a89 113e aacf 23bd 0b27 b43e
00000270: fb9a 80be 9e25 813e 2299 18be 4dd6 49be
00000280: 1bf0 2cbe 58b5 373e 1ccf db3d 5c69 3abe
00000290: 20eb b43b 2c96 233f 0760 12be e413 35be
000002a0: c5bc 9f3e 5192 aebe 9193 4c3e 3574 b6be
000002b0: ea0d db3e a5d2 363f db2b 6fbe 2920 afbc
000002c0: 249f a7bc 13f5 d6bd e7db dcbe a723 173e
000002d0: 61b1 a63c f186 f8be 5677 b3be e36d 11be
000002e0: f4c9 08bf a59c 2b3d 0265 8e3e bfa2 02bf
000002f0: b528 0ebe 6782 03bf 92b2 723e 0fff e23c
00000300: 1611 473e c5c1 633e bf1e 3e3e 4522 50bc
00000310: fb74 22c0 be4f 97be d8c4 783e c4eb 99be
00000320: 2ce8 253d 972d d0be dbb9 97bd 0c08 cb3d
00000330: 78aa 56be 5956 c63d 6e89 313f 6b2c 83be
00000340: 8001 98bd c6de abbb 1632 a8be d3e4 833e
00000350: 006a 343e fc52 43be ebec cf3d 40d2 9a3d
00000360: d904 abbe cdea e7be 23b8 e1bc fc7e 4d3e
00000370: fb4e eb3e 605f 393e 487d 28be d5bf 26bf
00000380: 20c1 7abe c0e7 193e e59b acbe d5c4 953d
00000390: 89f8 5bbd b1b8 24be 4704 a4be 42e8 0fbe
000003a0: 8b9d fdbe 4bda f3bf f3cc 833e 0570 c9bc
000003b0: 32e1 e53e 47e3 77be 0274 b4bc 8de5 61be
000003c0: 9986 6b3f f03e 9f3d 9ab1 4d3e ea96 e0be
000003d0: f718 85bd f53b a9bd c583 07bf c0d8 abbe
000003e0: 542b 1c3e 0a1b a7be 0620 7dbd 2455 173e
000003f0: 4ef2 0b3e 9f2c 68be 763a 29be f140 8f3e

var_embedding.3.bias f4 [64]
0.17956182 -0.0712315 0.266228 -0.10639052 -0.043415748 -0.014515133 0.2193241 -0.06581779
-0.016258666 -0.044379544 -0.0523793 0.032414667 0.0028912344 0.20870408 0.15200627 0.007274835
-0.10762353 -0.5935765 -0.016170986 0.058489665 0.002025507 0.3031449 -0.17420949 -0.12819952
0.21382387 -0.20990875 0.23375136 -0.043781664 -0.20370147 0.06962472 -0.25524363 -0.1780691
0.15751906 0.23713848 -0.14564402 0.19115068 0.119575135 -0.09259255 -0.088646956 0.23860364
0.077929206 -0.034207158 0.0100152325 -0.2077936 -0.02329587 0.18933028 -0.06138924 -0.20657933
-0.18017668 0.041790236 0.01083426 0.02315225 0.03065236 0.04934259 0.026998362 -0.0029288488
-0.18864219 0.19137035 0.10712976 0.24404486 0.10530807 0.12096112 -0.06966781 -0.090679795
00000000: 0edf 373e d2e1 91bd 094f 883e 46e3 d9bd
00000010: b6d4 31bd e1d0 6dbc 7f96 603e 7acb 86bd
00000020: e530 85bc 53c7 35bd ad8b 56bd 3ec5 043d
00000030: dd7a 3d3b 86b6 553e 88a7 1b3e bd61 ee3b
00000040: ba69 dcbd a1f4 17bf 0479 84bc dc92 6f3d
00000050: 5ebe 043b cf35 9b3e f963 32be bc46 03be
00000060: a5f4 5a3e 52f2 56be 845c 6f3e 6754 33bd
00000070: 1e97 50be 6897 8e3d 4baf 82be bf57 36be
00000080: ad4c 213e 6ed4 723e b523 15be 01bd 433e
00000090: cfe3 f43d 2aa1 bdbd 898c b5bd 8354 743e
000000a0: 5999 9f3d ce1c 0cbd ee16 243c d8c7 54be
000000b0: fbd6 bebc ccdf 413e 4973 7bbd 8889 53be
000000c0: 3c80 38be 3d2c 2b3d 2e82 313c caa9 bd3c
000000d0: a81a fb3c 751b 4a3d ab2b dd3c eef1 3fbb
000000e0: 6b2b 41be 97f6 433e d966 db3d e5e6 793e
000000f0: c2ab d73d 77ba f73d ffad 8ebd 54b6 b9bd

conv_v_to_c.feature_module_left.0.weight f4 [64, 64]
0.15013641 0.10827127 -0.15504311 -0.16547431 -0.092753805 0.026757946 -0.15005305 -0.047399584
-0.029700734 -0.040227782 -0.28629884 0.053814106 -0.4131945 -0.2755831 0.13141352 -0.17076528
0.108664535 0.11319052 0.073467985 -0.17833605 -0.1267536 0.07124522 0.09604594 -0.21868765
0.09262288 0.11096196 0.13317011 -0.22386347 0.009238633 0.074089706 0.17067671 -0.0780292
-0.2196591 -0.013125036 -0.13554709 -0.19775589 0.091334745 0.059578456 -0.125947 0.06271637
-0.04637472 -0.41939148 -0.047537584 -0.0548939 0.1306871 0.15482116 -0.26831263 -0.16302606
0.14711154 -0.39045492 -0.39896706 -0.04448779 0.0064540193 0.38113335 -0.33401746 0.13086627
0.1466967 0.016612716 -0.20589837 0.17257546 -0.3687591 0.2107436 -0.09672229 0.044771865
0.15796159 0.08279786 0.009388274 -0.025992177 0.17553326 0.22498724 -0.105728894 -0.14147574
-0.015351254 -0.15124944 0.04310194 0.06947354 0.0949183 0.18818903 0.041907653 -0.08645666
-0.028641302 0.1566697 0.15645334 0.13428488 -0.06076765 0.067487136 -0.062276784 -0.028376581
0.22030579 0.030370783 -0.12240819 0.05215902 0.059726518 0.31254485 0.16063271 -0.042612012
-0.047210444 -0.07341074 0.04611913 0.08295248 -0.14012897 -0.21468051 0.21625762 -0.04286611
-0.12934907 0.10715598 -0.06974422 -0.010737251 -0.030673517 -0.26800025 -0.02637842 -0.061919283
0.07484469 -0.03623317 -0.20183797 0.20280184 0.11981681 0.1415664 0.009221474 0.057473063
0.027765123 -0.08424017 0.05336555 -0.029370451 0.2815727 -0.15736274 0.010658954 0.024357585
-0.07063513 -0.06550538 0.06194103 -0.5343976 0.019621734 -0.3526133 0.0827154 0.0050728973
0.08906407 -0.032193106 -0.22534344 0.062814884 0.0062758657 -0.3406115 0.3348889 -0.020686442
-0.10583415 0.0010195429 0.028030666 -0.37292513 -0.050228376 -0.065679155 0.08015934 0.01810247
-0.008959001 -0.03437611 0.060893666 -0.2807467 0.0601465 -0.0168355 0.082906015 0.041742954
-0.03868924 0.09266836 -0.4003262 -0.36089987 0.09935179 -0.025903398 0.027102701 0.30946213
0.04571104 -0.30366886 0.079137556 0.032136362 0.038277443 0.14403486 0.1097279 0.0673822
0.004087078 -0.40731725 0.105406895 -0.30409282 -0.24526222 0.111360006 0.028364697 -0.119941935
0.08839955 0.06775483 0.047388244 -0.10377046 0.0038640748 -0.062329944 -0.22655228 0.080181025
0.13015193 0.25555038 -0.17571057 -0.53134376 -0.07233622 -0.4822018 0.08652888 0.020971611
0.15231827 0.06054978 -0.1289573 0.31605065 0.28152797 -0.11884 -0.34534666 -0.18042448
-0.0241054 -0.1854608 -0.23548037 -0.051689126 0.13236159 -0.1566812 0.3576556 -0.022816524
0.049223904 -0.03382759 0.18086168 -0.28562152 0.13306601 0.4358962 0.12436725 0.12832694
0.055357933 -0.02580078 -0.18950646 -0.27139568 0.07803205 -0.09348192 -0.23895817 0.23920347
0.21036203 -0.1886276 0.105900146 -0.008977631 -0.027782207 -0.23147194 0.03355035 0.035357986
0.020100145 -0.29038832 -0.079142235 -0.01849775 0.10727276 -0.05515551 0.39687142 -0.14213589
-0.02877651 0.036010504 0.004483447 0.014322732 0.25290537 -0.058522888 0.31127384 0.21764778
00000000: 5cbd 193e 54bd dd3d 9fc3 1ebe 1972 29be
00000010: b5f5 bdbd 7b33 db3c 82a7 19be 1126 42bd
00000020: f44e f3bc e3c5 24bd c395 92be 2e6c 5c3d
00000030: 3b8e d3be 3a19 8dbe 4491 063e 18dd 2ebe
00000040: 838b de3d 6ed0 e73d 6276 963d ba9d 36be
00000050: b2cb 01be 04e9 913d bcb3 c43d a8ef 5fbe
00000060: 11b1 bd3d 0640 e33d bf5d 083e 773c 65be
00000070: a35d 173c 58bc 973d e0c5 2e3e c6cd 9fbd
00000080: 51ee 60be 640a 57bc dbcc 0abe 8580 4abe
00000090: b60d bb3d 8a08 743d 40f8 00be 7171 803d
000000a0: 6bf3 3dbd 7bba d6be c5b6 42bd 6dd8 60bd
000000b0: d7d2 053e 7089 1e3e 4660 89be 4ef0 26be
000000c0: 68a4 163e b5e9 c7be 6945 ccbe d438 36bd
000000d0: 3d7c d33b e923 c33e 5604 abbe cf01 063e
000000e0: a937 163e 6417 883c 06d7 52be 9fb7 303e
000000f0: fecd bcbe 2ccd 573e 5616 c6bd b462 373d
00000100: afc0 213e ed91 a93d 46d1 193c 8ced d4bc
00000110: febe 333e 0e63 663e 6488 d8bd 04df 10be
00000120: d383 7bbc 22e1 1abe a98b 303d 2548 8e3d
00000130: 8764 c23d a0b4 403e 5ca7 2b3d 3010 b1bd
00000140: 2aa1 eabc 066e 203e 4e35 203e fa81 093e
00000150: 80e7 78bd b236 8a3d f115 7fbd 0176 e8bc
00000160: d797 613e 26cc f83c 25b1 fabd b2a4 553d
00000170: cba3 743d e105 a03e e77c 243e ef89 2ebd
00000180: bd5f 41bd 5f58 96bd 6ae7 3c3d fde2 a93d
00000190: f87d 0fbe 35d5 5bbe a372 5d3e 6094 2fbd
000001a0: 1574 04be 9874 db3d 0fd6 8ebd 4beb 2fbc
000001b0: 0747 fbbc 5437 89be 8e17 d8bc 139f 7dbd
000001c0: 2c48 993d 3c69 14bd 9dae 4ebe 49ab 4f3e
000001d0: 8462 f53d c8f6 103e aa15 173c e068 6b3d
000001e0: af73 e33c 1c86 acbd d695 5a3d 4d9a f0bc
000001f0: 4c2a 903e b323 21be e5a2 2e3c 8f89 c73c
00000200: 27a9 90bd af27 86bd e1b5 7d3d 48ce 08bf
00000210: c2bd a03c bb89 b4be b166 a93d 8c3a a63b
00000220: 3967 b63d ebdc 03bd 6ec0 66be 17a5 803d
00000230: c7a5 cd3b a164 aebe 8f76 ab3e 9d76 a9bc
00000240: 93bf d8bd 2fa2 853a 91a0 e53c 0bf0 bebe
00000250: 45bc 4dbd cb82 86bd 942a a43d a24b 943c
00000260: c6c8 12bc f7cd 0cbd a36b 793d 08be 8fbe
00000270: 2d5c 763d 9aea 89bc a1ca a93d a9fa 2a3d
00000280: 9c78 1ebd e9c8 bd3d 8ef7 ccbe dec7 b8be
00000290: f478 cb3d 5d33 d4bc 7c06 de3c d271 9e3e
000002a0: 803b 3b3d 7c7a 9bbe df12 a23d 6ba1 033d
000002b0: cfc8 1c3d e07d 133e 05b9 e03d aeff 893d
000002c0: e5ec 853b e38b d0be 92df d73d 0eb2 9bbe
000002d0: 0526 7bbe b710 e43d 155d e83c 1ea4 f5bd
000002e0: d30a b53d 0bc3 8a3d 2d1a 423d 9b85 d4bd
000002f0: 6b3c 7d3b af4d 7fbd 52fd 67be f335 a43d
00000300: 8c46 053e 80d7 823e 79ed 33be 2506 08bf
00000310: 0325 94bd 28e3 f6be 0e36 b13d a8cc ab3c
00000320: 52f9 1b3e 0c03 783d 620d 04be 64d1 a13e
00000330: 6f24 903e 6362 f3bd 47d1 b0be 32c1 38be
00000340: b078 c5bc 70e9 3dbe c421 71be fab7 53bd
00000350: cc89 073e 0971 20be a31e b73e b8e9 babc
00000360: 019f 493d cd8e 0abd ce33 393e fc3c 92be
00000370: 7542 083e c92d df3e 42b4 fe3d 2368 033e
00000380: 00bf 623d 285c d3bc fb0d 42be 60f4 8abe
00000390: 44cf 9f3d 7373 bfbd 73b1 74be c1f1 743e
000003a0: 2569 573e 9827 41be 2de2 d83d ea16 13bc
000003b0: 8397 e3bc fb06 6dbe 186c 093d 89d3 103d
000003c0: 0fa9 a43c c7ad 94be 5315 a2bd 9888 97bc
000003d0: d2b1 db3d beea 61bd bb32 cb3e 128c 11be
000003e0: b7bc ebbc c07f 133d e1e9 923b e4a9 6a3c
000003f0: d07c 813e b2b5 6fbd 495f 9f3e 0fdf 5e3e

conv_v_to_c.feature_module_left.0.bias f4 [64]
-0.09784452 0.006927484 0.007520437 -0.017645169 0.073960565 -0.057471808 0.17040394 0.12761673
0.14596409 0.20345654 -0.093414746 0.034595963 0.13533683 0.24749292 0.020411959 0.067715496
0.042832203 -0.07966199 -0.044188187 -0.26268423 -0.0925203 0.13174856 0.026377248 -0.045809835
0.14571798 -0.034114346 0.055924553 0.13570201 0.05662283 0.08958712 -0.032859866 0.06833836
0.11502165 -0.10883888 0.018542226 -0.04103221 0.023610689 0.1735062 0.19817276 0.05748749
0.11244435 -0.029523209 -0.011404827 -0.013716501 -0.05432226 0.15546109 0.30442894 0.10484429
0.11585964 -0.09680676 -0.07845819 -0.17201662 -0.05521905 -0.067563355 -0.01177209 -0.03543614
0.07469244 0.20149451 0.10541223 0.019197034 0.054841716 -0.15538242 0.14506932 0.07897472
00000000: b562 c8bd f3ff e23b ff6d f63b 9a8c 90bc
00000010: a378 973d 8f67 6bbd 5f7e 2e3e f6ad 023e
00000020: 9c77 153e e956 503e 3b50 bfbd 7fb4 0d3d
00000030: bd95 0a3e c96e 7d3e fb36 a73c 6cae 8a3d
00000040: d270 2f3d d325 a3bd acfe 34bd 8c7e 86be
00000050: 487b bdbd 18e9 063e 1915 d83c 18a3 3bbd
00000060: 1837 153e 7cbb 0bbd 2511 653d 78f5 0a3e
00000070: 57ed 673d 7479 b73d 1198 06bd fbf4 8b3d
00000080: 7990 eb3d ebe6 debd dee5 973c 6411 28bd
00000090: 346b c13c 9cab 313e cded 4a3e 0178 6b3d
000000a0: 3949 e63d a8da f1bc 50db 3abc 2dbb 60bc
000000b0: 0581 5ebd 3131 1f3e 1cde 9b3e 9ab8 d63d
000000c0: d247 ed3d 9f42 c6bd b0ae a0bd 2025 30be
000000d0: 5f2d 62bd a85e 8abd b9df 40bc 7c25 11bd
000000e0: 5af8 983d 9454 4e3e 5ee2 d73d 1943 9d3c
000000f0: b5a1 603d 921c 1fbe 0d8d 143e 7fbd a13d

conv_v_to_c.feature_module_edge.0.weight f4 [64, 1]
-1.9410349 0.88154626 -1.2965381 -0.42059758 2.7996333 2.0977747 1.0343424 -0.29729196
-1.3207359 -1.5340887 0.7579114 -1.3030235 0.8535605 -0.366429 2.0275235 0.00182782
0.7850662 -0.1096115 -0.75769895 0.9978771 -1.9117781 0.65770626 -1.3283925 0.06260804
-0.23166421 -1.0396043 2.8786154 1.0980408 0.7095529 0.52754307 -0.30489793 -1.5886041
-1.562584 0.15285288 -0.015166003 0.08332576 -0.31452253 -0.61662585 -2.0348797 -1.6949909
0.88996536 2.1318076 -1.6553968 -0.5027374 1.2935765 0.11399589 0.6202873 -0.09118206
2.7575088 -0.25834906 0.98610955 0.3200941 0.7894918 1.6643515 -1.0342903 -1.4060813
-0.4388073 2.1012495 1.7746699 1.4539932 -0.76931864 1.6703881 0.9348513 1.41304
00000000: d573 f8bf 04ad 613f f6f4 a5bf 9158 d7be
00000010: 312d 3340 f141 0640 5565 843f a736 98be
00000020: e00d a9bf 055d c4bf 7b06 423f 79c9 a6bf
00000030: f182 5a3f 959c bbbe f2c2 0140 7693 ef3a
00000040: 19fa 483f fe7b e0bd 8ff8 41bf e074 7f3f
00000050: 25b5 f4bf 705f 283f c408 aabf a538 803d
00000060: 6239 6dbe c111 85bf 3c3b 3840 9a8c 8c3f
00000070: 42a5 353f 100d 073f 951b 9cbe 6157 cbbf
00000080: c102 c8bf 7785 1c3e d47a 78bc b2a6 aa3d
00000090: 1909 a1be 31db 1dbf 783b 02c0 76f5 d8bf
000000a0: c5d4 633f 896f 0840 0be4 d3bf 66b3 00bf
000000b0: ea93 a53f ad76 e93d 26cb 1e3f a9bd babd
000000c0: 067b 3040 5446 84be ad71 7c3f 60e3 a33e
000000d0: 221c 4a3f 7809 d53f a063 84bf 79fa b3bf
000000e0: 5aab e0be df7a 0640 6228 e33f 731c ba3f
000000f0: 11f2 44bf 47cf d53f 6a52 6f3f 7fde b43f

conv_v_to_c.feature_module_right.0.weight f4 [64, 64]
-0.0178906 -0.115260415 0.23900437 -0.17480388 0.18785027 0.15489297 -0.09164854 0.26992318
-0.073202945 0.07293689 0.079945795 -0.16404 -0.19967993 0.049695272 -0.11441288 -0.1828231
0.16443357 0.07051367 -0.05854984 -0.1409804 -0.10415135 -0.29636028 -0.3952877 -0.047965173
-0.101128675 0.15949912 0.15792415 -0.06332577 -0.1693624 0.036793806 -0.22344042 0.13061972
0.3389291 0.036714274 0.1203127 0.080373615 -0.3713742 0.36822549 -0.15320447 0.12900877
0.20501922 -0.15295528 0.05406821 -0.04253047 0.27078637 -0.14123063 0.061563514 -0.23497644
-0.027716793 0.070396915 0.4136562 0.098151274 -0.34685153 0.103862375 0.38538036 0.2960482
-0.19285788 0.10291837 0.23209563 0.39019695 -0.15303977 -0.2917782 -0.22015382 -0.20644696
0.029051742 0.08200893 0.0642341 -0.6301931 0.13294993 0.2047179 0.004587905 0.08787653
0.05913152 0.0034234116 0.31153658 -0.5187599 -0.02387999 0.056077417 -0.24138652 -0.0017265044
-0.20045225 -0.16383544 0.07943648 -0.05591452 0.30629486 -0.008226964 -0.028560359 0.19911496
-0.11676904 -0.2398975 -0.041674014 0.33176178 -0.23385493 0.2863419 0.17885992 0.0992317
0.18758637 0.06349467 0.13686948 0.5903627 0.009682131 0.014387852 -0.75218713 0.018482419
0.043100044 -0.27765772 0.21891299 -0.14697276 -0.12917913 -0.101752125 0.08815997 -0.005954865
-0.35280654 -0.099238634 0.13076504 -0.11287655 -0.4726806 0.18863896 -0.018514814 0.14340588
-0.114903785 -0.06620381 0.31969008 -0.18593064 0.19247381 0.1415671 0.07493799 -0.38561282
0.18562765 0.12614025 -0.19178152 -0.13985465 -0.31540948 -0.45405772 0.10600187 0.5252971
0.06154591 -0.42205364 0.07391729 -0.38208643 -0.61243427 0.34220165 0.0779671 0.08454068
-0.5176281 -0.14389083 0.32638854 -0.31106168 -0.1317419 0.30245203 -0.20271772 -0.889316
-0.03481872 0.12136398 -0.011390389 0.16402824 -0.17463855 0.09543459 -0.047912855 -0.053877883
-0.03547639 0.320818 0.081351 0.04806309 0.2999339 -0.27952254 -0.08937342 -0.0041832263
0.25558463 0.020253394 0.30014828 0.095013745 -0.12283904 -0.07868499 0.23789941 0.08588551
-0.23473136 0.009995424 -0.28202435 0.21763931 0.0738997 0.028264126 -0.3769223 -0.33714157
-0.10027031 0.09884874 0.25232875 -0.6383018 -0.06503627 0.18927611 -0.04086999 0.12798074
-0.4060886 0.29338893 -0.38380653 0.26201606 0.0034216351 0.10386425 0.1404866 -0.6529961
-0.078498624 -0.31654614 -0.06366332 -0.1623277 -0.30517012 -0.4952241 0.02034421 -0.40463018
0.4312236 0.22132497 -0.22880358 0.5234213 -0.24053481 -0.14497057 0.2372844 0.049592447
0.2344592 0.40218195 0.5052291 -0.1696195 0.005593911 -0.42895836 0.4308558 0.5690384
-0.028313935 -0.49358332 -0.15054676 -0.3341493 -0.10469479 -0.04297774 -0.2235334 0.3466918
0.12943158 -0.28583202 0.17212702 -0.15917093 0.22920749 0.16375586 -0.28447992 0.027288496
-0.20099056 -0.19946869 0.489389 -0.29911673 0.118037835 -0.123653725 0.37590253 0.19288468
-0.5493511 -0.31062987 -0.1571889 0.023618542 0.08585903 0.01612612 0.08848479 0.15453462
00000000: 4f8f 92bc a70d ecbd 90bd 743e caff 32be
00000010: d25b 403e 439c 1e3e 3bb2 bbbd 5f33 8a3e
00000020: 6deb 95bd f05f 953d 9fba a33d 1afa 27be
00000030: e578 4cbe 458d 4b3d 4d51 eabd fb35 3bbe
00000040: 4661 283e 7969 903d f5d1 6fbd 2a5d 10be
00000050: 4e4d d5bd 89bc 97be 2663 cabe 2177 44bd
00000060: 8d1c cfbd bd53 233e deb6 213e f1b0 81bd
00000070: 566d 2dbe 1ab5 163d 91cd 64be 2dc1 053e
00000080: 1d88 ad3e b561 163d 8166 f63d ec9a a43d
00000090: c224 bebe 0d88 bc3e a2e1 1cbe e01a 043e
000000a0: 8ff0 513e 4fa0 1cbe a176 5d3d 6e34 2ebd
000000b0: 83a4 8a3e c39e 10be 062a 7c3d aa9d 70be
000000c0: 540e e3bc 422c 903d bfca d33e 8903 c93d
000000d0: 8696 b1be ccb5 d43d 9350 c53e a193 973e
000000e0: 897c 45be dec6 d23d 7aaa 6d3e e5c7 c73e
000000f0: 75b6 1cbe f463 95be 0170 61be d566 53be
00000100: ebfd ed3c 4cf4 a73d 2b8d 833d 5654 21bf
00000110: 0724 083e 92a1 513e 2356 963b 9cf8 b33d
00000120: e533 723d 515b 603b b981 9f3e 73cd 04bf
00000130: f89f c3bc 6fb1 653d 072e 77be e04b e2ba
00000140: 5b43 4dbe 7ac4 27be 98af a23d a006 65bd
00000150: aed2 9c3e 63ca 06bc 6af7 e9bc cbe4 4b3e
00000160: 9b24 efbd b1a7 75be 5fb2 2abd aedc a93e
00000170: ab77 6fbe 689b 923e 0e27 373e fd39 cb3d
00000180: a416 403e 7e09 823d 8327 0c3e 0322 173f
00000190: cda1 1e3c 06bb 6b3c 568f 40bf 7168 973c
000001a0: ac89 303d 2729 8ebe ba2a 603e 0780 16be
000001b0: 8947 04be 6b63 d0bd 378d b43d 0721 c3bb
000001c0: 0fa3 b4be a03d cbbd 45e7 053e d22b e7bd
000001d0: 3103 f2be 922a 413e 61ac 97bc fed8 123e
000001e0: ad52 ebbd dd95 87bd 6bae a33e 9a64 3ebe
000001f0: db17 453e f7f6 103e 1779 993d 0b6f c5be
00000200: 2d15 3e3e e92a 013e 6062 44be 0f36 0fbe
00000210: 5a7d a1be 417a e8be 8217 d93d df79 063f
00000220: 9017 7c3d 6a17 d8be f361 973d d5a0 c3be
00000230: 7ec8 1cbf 0e35 af3e 37ad 9f3d aa23 ad3d
00000240: 4683 04bf 1e58 13be 661c a73e 7a43 9fbe
00000250: 59e7 06be feda 9a3e 3c95 4fbe 37aa 63bf
00000260: 139e 0ebd ae8d f83d c19e 3abc 05f7 273e
00000270: 73d4 32be 3673 c33d 4540 44bd 0eaf 5cbd
00000280: b14f 11bd 4242 a43e 5a9b a63d cddd 443d
00000290: f090 993e 941d 8fbe 6909 b7bd 7213 89bb
000002a0: fddb 823e 72ea a53c 09ad 993e 9196 c23d
000002b0: 0993 fbbd 9925 a1bd e79b 733e bee4 af3d
000002c0: 6b5d 70be d9c3 233c 7f65 90be d7dc 5e3e
000002d0: ba58 973d 2b8a e73c f6fb c0be d29d acbe
000002e0: 855a cdbd 3571 ca3d 3c31 813e bf67 23bf
000002f0: bc31 85bd 99d1 413e 4a67 27bd 620d 033e
00000300: d8ea cfbe 1337 963e 4a82 c4be f826 863e
00000310: 833d 603b c8b6 d43d b8db 0f3e c12a 27bf
00000320: e3c3 a0bd 5612 a2be ea61 82bd 3c39 26be
00000330: 423f 9cbe 038e fdbe e7a8 a63c b02b cfbe
00000340: 57c9 dc3e 03a3 623e 7c4b 6abe f0fe 053f
00000350: c24e 76be 2a73 14be affa 723e 7321 4b3d
00000360: 1316 703e cbea cd3e b256 013f bcb0 2dbe
00000370: 204d b73b 6ea0 dbbe 2299 dc3e 80ac 113f
00000380: a0f2 e7bc f4b6 fcbe ee28 1abe 9e15 abbe
00000390: 396a d6bd 6d09 30bd f1e5 64be 9681 b13e
000003a0: b689 043e 9358 92be 1142 303e b4fd 22be
000003b0: 5eb5 6a3e 9eaf 273e 5aa7 91be 208c df3c
000003c0: 78d0 4dbe 8541 4cbe 3291 fa3e d425 99be
000003d0: d2bd f13d 2a3e fdbd 4c76 c03e 9083 453e
000003e0: 46a2 0cbf e10a 9fbe 21f6 20be ac7b c13c
000003f0: dcd6 af3d ed1a 843c 8337 b53d 533e 1e3e

conv_v_to_c.feature_module_final.0.weight f4 [64]
0.66260505 0.9255758 1.0942945 1.1115376 0.66880846 0.6194522 1.4677876 0.71793544
0.81394804 0.27041516 1.2255203 0.7717472 0.8007465 1.7070444 0.55421025 1.0728968
1.0031371 0.59378207 1.0441178 1.3454663 1.2112093 0.44358763 0.70513827 1.6250023
1.7128779 1.1518376 1.0596483 0.894311 1.5934911 0.6541569 0.65997833 1.1883845
1.224562 1.1590382 1.41733 1.3152232 1.1861911 1.0485481 0.43451306 0.4116499
1.1412749 0.63307726 1.0019557 0.8669014 0.6604664 0.511489 0.23083654 1.3023373
0.6114894 1.000517 0.7331759 1.4282638 1.273716 0.6318473 0.7352053 1.2992351
0.61314416 0.6544885 0.6568925 0.6943296 0.5987831 1.26247 0.4880089 1.384153
00000000: 7ca0 293f 89f2 6c3f d811 8c3f dd46 8e3f
00000010: 0837 2b3f 6b94 1e3f 77e0 bb3f 9eca 373f
00000020: e65e 503f db73 8a3e d9dd 9c3f 3991 453f
00000030: b9fd 4c3f 6e80 da3f b9e0 0d3f af54 893f
00000040: cc66 803f 1a02 183f a7a5 853f 3d38 ac3f
00000050: e808 9b3f eb1d e33e f183 343f 1300 d03f
00000060: 953f db3f 6a6f 933f 8ea2 873f 91f1 643f
00000070: 84f7 cb3f d476 273f 57f4 283f fc1c 983f
00000080: 73be 9c3f 5d5b 943f 126b b53f 3c59 a83f
00000090: 1cd5 973f d336 863f 7f78 de3e c7c3 d23e
000000a0: 4c15 923f 5a11 223f 1640 803f 40ed 5d3f
000000b0: 5314 293f f1f0 023f 6a60 6c3e fdb2 a63f
000000c0: 928a 1c3f f110 803f 6ab1 3b3f 59d1 b63f
000000d0: 2009 a33f bfc0 213f 6a36 3c3f 564d a63f
000000e0: 04f7 1c3f 8f8c 273f 1b2a 283f 96bf 313f
000000f0: d949 193f 9e98 a13f 4ddc f93e ed2b b13f

conv_v_to_c.feature_module_final.0.bias f4 [64]
-0.36170435 -0.013698053 -0.29103953 -0.07788205 -0.187274 -0.2754972 0.05154691 -0.1558734
-0.07478772 -0.6298026 -0.29882097 -0.12537442 -0.069114566 0.02706339 -0.32505733 -0.01595482
-0.35425708 -0.27877903 -0.16900846 0.0031176833 -0.27471083 -0.43456355 -0.35420534 0.092248976
-0.3030551 -0.23752785 -0.114839874 -0.11575731 0.08213128 -0.5657858 -0.5052882 0.03783021
-0.001108688 -0.14518206 0.0852482 0.019454168 -0.16590443 -0.33756956 -0.57855 -0.57686615
-0.34763417 -0.28112558 -0.07020782 -0.18755452 -0.16421418 -0.43368578 -0.6391854 -0.14627902
-0.13605145 -0.08327144 -0.2511896 -0.14475401 -0.25400856 -0.36315498 -0.2647719 0.057831857
-0.28264338 -0.5080782 -0.23621498 -0.22285621 -0.36682862 -0.4461265 -0.5372531 0.045673337
00000000: 5031 b9be cc6d 60bc 2203 95be a080 9fbd
00000010: c1c4 3fbe f80d 8dbe da22 533d 479d 1fbe
00000020: 4e2a 99bd be3a 21bf 10ff 98be 2762 00be
00000030: f08b 8dbd 0bb4 dd3c ea6d a6be afb3 82bc
00000040: 2f61 b5be 20bc 8ebe 8e10 2dbe 0c52 4c3b
00000050: e6a6 8cbe 1d7f debe 675a b5be 08ed bc3d
00000060: 0a2a 9bbe 803a 73be 2b31 ebbd 2b12 edbd
00000070: 7234 a83d 57d7 10bf 915a 01bf daf3 1a3d
00000080: 6551 91ba 9baa 14be 9c96 ae3d 595e 9f3c
00000090: dae2 29be ebd5 acbe da1b 14bf 80ad 13bf
000000a0: 1bfd b1be b1ef 8fbe 1ec9 8fbd 4b0e 40be
000000b0: c327 28be 100c debe a8a1 23bf 2bca 15be
000000c0: 1251 0bbe 378a aabd ec9b 80be 653a 14be
000000d0: 690d 82be 73ef b9be 2f90 87be 19e1 6c3d
000000e0: a2b6 90be 6a11 02bf 57e2 71be 6b34 64be
000000f0: f6d0 bbbe b16a e4be 6b89 09bf f713 3b3d
