im_state/model_SC_800_IL.pth (torch, 484848 bytes, 71 tensors)

cons_embedding.0.weight f4 [4]
000000 1e 2e 5d 3f e0 b7 61 3f aa 85 ed 3e 6f 2d f0 3e
       0.86398494 0.88171196 0.4639104 0.46909663

cons_embedding.0.bias f4 [4]
000000 8b ab 8f 3e 57 37 78 3e 21 9b 50 be 4e 2f 60 be
       0.28060564 0.2423986 -0.20371677 -0.21893045

cons_embedding.1.weight f4 [64, 4]
000000 5d 0b 7c bf 3f c4 a8 3f b2 f7 46 be bb 94 a5 bb
       -0.9845484 1.318489 -0.19430426 -0.0050531304
000010 1e c1 1d 3f 57 b5 01 be 83 19 22 3f 11 0a b1 3e
       0.616228 -0.12666832 0.6332018 0.34577993
000020 e6 fc 8b be ec 51 02 bf 62 89 85 be 3b f1 94 bf
       -0.27341384 -0.5090625 -0.26081377 -1.1636118
000030 0f 81 9d be 7b 8c 81 3e 72 6a 18 3d ef b2 06 be
       -0.30762526 0.2530249 0.03721089 -0.13154195
000040 bb 9e a5 3e d1 2f 00 bf 2f 92 39 3f 11 f1 83 bf
       0.32347664 -0.5007296 0.72488683 -1.0307943
000050 b9 cc dd 3d ea 56 db 3e 14 96 97 3f 70 99 60 be
       0.108300634 0.42839748 1.1842675 -0.21933532
000060 41 8a 42 bf 68 fa d8 3e e4 44 93 bf f9 91 50 bf
       -0.7599221 0.42378545 -1.1505399 -0.81472737
000070 42 5f 77 bf f6 21 7e 3b 98 34 8e be 2b c4 be bf
       -0.96629727 0.0038777567 -0.277745 -1.4903616
000080 b7 86 0f bf bd 75 49 3f d7 e1 eb be 6e c9 21 bf
       -0.56064934 0.7869528 -0.4607074 -0.6319798
000090 91 97 65 3e c2 52 1f 3f f9 17 64 3f 9a 59 21 bd
       0.22421099 0.62235653 0.8909908 -0.03939209
0000a0 6a 80 16 bf 0e 68 a4 be f1 95 d6 be 34 60 a2 bf
       -0.58789694 -0.32110637 -0.4191127 -1.2685609
0000b0 f5 40 49 bf 78 1b 2c 3f a1 84 3b 3e 9d 9d 42 3f
       -0.7861474 0.67229414 0.18312313 0.7602175
0000c0 00 8d 95 bf e6 1d 40 3f 4c 26 83 bf 3f 28 81 bf
       -1.1683655 0.7504562 -1.0246062 -1.0090407
0000d0 dd 9e ac 3e cd 1c 07 3e 03 7a 83 3f 2b 95 0b be
       0.33714953 0.1319458 1.027161 -0.13631122
0000e0 cc eb 87 3f ad 7d d6 be 02 d2 18 3f 29 08 19 3f
       1.0618834 -0.41892758 0.59695446 0.59778076
0000f0 27 d4 29 bf 19 1c 02 3f 83 6a 34 bf 7b f4 34 bf
       -0.66339344 0.50824124 -0.70475024 -0.7068555
000100 7f 30 c4 be 08 2a ab 3e 81 cc 01 3f 64 e8 14 bf
       -0.3831825 0.33430505 0.50702673 -0.581671
000110 2e 13 78 3f 80 04 29 be 6c e7 7b 3f 14 42 1f bf
       0.96904266 -0.16505623 0.98399997 -0.622102
000120 09 3f 70 3f bc 5e 4b bf 09 b0 bf 3d a3 d5 02 bf
       0.93846184 -0.7944143 0.09359748 -0.51107234
000130 68 db cc bd e2 ea 38 bd 6f b6 2d bf 25 61 da 3e
       -0.10002786 -0.045145877 -0.67856497 0.4265224
000140 8e 12 b5 be b6 b8 04 3f db 00 20 be d8 87 e0 3e
       -0.3536572 0.51844347 -0.15625326 0.4385364
000150 21 36 20 3f 64 66 0a bd dc 56 0b bf 37 80 86 3d
       0.62582594 -0.033789054 -0.5442941 0.06567424
000160 83 13 9e bf f1 5d 98 3f c8 c9 fc 3e 60 1a 11 bf
       -1.2349705 1.1903669 0.49372697 -0.5668087
000170 a4 ef 09 bf 52 52 0c 3f 2e 41 76 bf 49 4c 43 be
       -0.5388129 0.5481311 -0.96193206 -0.19072069
000180 2c b0 09 bf bf 14 24 3f 7a a5 7b 3e c8 2c 7a 3f
       -0.5378444 0.64094156 0.24574843 0.9772458
000190 c9 1c 50 bf 5a 22 e7 3e 89 00 2a 3d ad af c3 be
       -0.8129392 0.45143396 0.041504417 -0.38219967
0001a0 e7 40 ab 3e fc 17 bc bd 28 74 b7 3e 91 b9 b0 3d
       0.33447954 -0.09184262 0.35830808 0.08629144
0001b0 81 d4 2b 3f 0e e4 35 bf 2c bb 5d bf 9b 49 0d bf
       0.6712113 -0.7105111 -0.86613727 -0.5519044
0001c0 3e 1d eb be 5f 2d 23 3e cd bc 2a bf 17 0a d2 3d
       -0.45920748 0.15935276 -0.6669434 0.10255831
0001d0 be 28 1d 3f 2b 4f 44 3d 43 fa 80 bd d3 35 a6 3f
       0.6139029 0.047927063 -0.06297734 1.2985176
0001e0 1d 7d 56 be 79 97 4c 3e 4e d0 49 3e 78 2b 61 be
       -0.20946164 0.19979657 0.19708368 -0.21989238
0001f0 3f 7d de bd 16 f2 00 3f 63 ba 42 3f c8 fb 06 bd
       -0.108637325 0.50369394 0.76065654 -0.03295496
000200 21 8a 56 bf f9 7f fc 3d a7 d8 8d bf 7f 14 64 be
       -0.8380452 0.12329096 -1.1081742 -0.22273444
000210 9b 41 71 3f 53 15 45 3f 01 29 42 3f 27 4f 90 3f
       0.9424073 0.76985663 0.75843817 1.1274155
000220 6c f4 71 bc d5 fd 6a 3e 25 22 15 bf d8 2c 78 3f
       -0.014767747 0.22948392 -0.58255225 0.96943426
000230 c9 fd fd 3e 6f 48 32 3e 0b e5 af 3e de 7f 29 bf
       0.49607685 0.17410444 0.34354433 -0.66210735
000240 f0 07 9d 3e e9 44 35 3e 53 19 0d 3f 84 7a b2 3e
       0.30670118 0.17702068 0.55116767 0.34859097
000250 65 62 ba 3d 31 aa 37 be c6 33 27 bf 56 48 fb 3e
       0.091007985 -0.17936017 -0.65313375 0.49078625
000260 13 12 76 bf 75 99 4c 3f be 27 9e 3d f2 59 89 3e
       -0.9612133 0.79921657 0.07722424 0.26826435
000270 2c 69 07 3f 74 ff e4 be df 27 0d be 4a 72 9c 3e
       0.52894855 -0.44726145 -0.13784741 0.30555946
000280 89 d8 fe 3e 5f 02 54 bf b1 a7 a8 bf c5 d3 f3 be
       0.49774578 -0.8281612 -1.3176175 -0.47622505
000290 7e 00 7e 3f 2a ac bd 3e 24 bf 3b 3f c1 ff 08 be
       0.992195 0.37045413 0.7333853 -0.13378812
0002a0 41 3c d1 3c aa a6 9e 3f d4 be 34 3f 28 34 63 3f
       0.025541427 1.2394612 0.7060368 0.8875146
0002b0 c6 e4 9f 3e 97 82 e7 be ff c4 44 bf e6 a3 04 3f
       0.31229228 -0.4521682 -0.7686309 0.5181259
0002c0 9f 63 ee 3e c5 d3 86 bd 13 4b 0e 3f 31 c6 be 3e
       0.4656038 -0.065833606 0.55583304 0.37260583
0002d0 d6 a2 35 bf d4 71 55 3e 6d c2 1e be a2 31 a4 be
       -0.7095159 0.20844203 -0.15503855 -0.32069117
0002e0 90 d0 af 3e c4 5c ad 3e d2 8c 3f bf 2a 87 9c 3f
       0.34338808 0.33859837 -0.7482425 1.2228749
0002f0 85 f3 82 3f 37 5a 80 bf 54 9c ff 3e e1 39 4f be
       1.0230566 -1.0027531 0.49923956 -0.20236923
000300 4a 16 3d be f7 8e d6 be f3 b6 a0 be 61 25 4c bf
       -0.18465534 -0.4190595 -0.3138958 -0.79744536
000310 e7 10 e1 3e aa 90 ae be d2 84 35 3e ab be 6d 3c
       0.43958208 -0.34094745 0.17726448 0.014510791
000320 86 4a 43 bf 72 87 12 bd 8f 1e 0f bf d9 52 6d bf
       -0.7628559 -0.035773702 -0.55906004 -0.9270454
000330 85 60 bd be a8 c2 a8 3e 52 a6 0b 3f 17 c6 1e bf
       -0.369877 0.3296101 0.5455066 -0.6202101
000340 ee 3b e3 3e 78 b8 32 be 73 f0 0e bf 12 6e 22 3e
       0.4438166 -0.17453182 -0.55835646 0.15862301
000350 c7 be 09 bf 83 73 ca 3e 1c 47 23 bf 89 9e b5 3e
       -0.5380673 0.39541253 -0.6378038 0.35472515
000360 25 10 3d 3e a7 b6 23 bf c6 d5 7c bf bc 63 27 3e
       0.1846319 -0.6395058 -0.9876369 0.1634664
000370 fc ae 6c be e9 60 15 3e 34 52 1b be 86 d2 47 bb
       -0.23113626 0.1458775 -0.15168077 -0.0030490472
000380 26 f1 d9 bd 70 33 e3 3e c4 0c 10 bf fd f5 84 3f
       -0.106416985 0.4437518 -0.5626948 1.038757
000390 5f ec bd be 63 25 99 3f 69 e6 84 3f cd 13 e2 3d
       -0.370944 1.1964535 1.0382816 0.11038933
0003a0 18 76 5d bf 6c fe 6d 3f 44 3b 72 be c8 2b da 3e
       -0.8650832 0.9296634 -0.2365542 0.42611527
0003b0 a4 5f 4c bf f8 5c 18 be 99 0e 37 bf 92 ad 86 bf
       -0.79833436 -0.14879215 -0.7150665 -1.052172
0003c0 e3 22 70 bf a7 7e 71 3f 72 71 4f 3f 39 b0 73 bf
       -0.9380323 0.9433388 0.8103248 -0.9519077
0003d0 71 1e 22 3f d7 88 76 bf da 7b 50 bf 5c 09 83 3e
       0.633277 -0.9630255 -0.8143898 0.25593078
0003e0 9c ea 97 bf 86 38 7a 3f de ca 29 bf 45 d4 ec 3e
       -1.1868472 0.977425 -0.66325176 0.462557
0003f0 58 67 aa 3e 33 f2 62 bf 9f ef fa be 70 a0 02 bf
       0.3328197 -0.88650817 -0.4901094 -0.5102606

cons_embedding.1.bias f4 [64]
000000 f3 ab 6e 3e 1b 21 4c 3d 39 67 ea bd 07 46 0b bc
       0.23307781 0.04983626 -0.114454694 -0.008500583
000010 79 c2 14 bd 0e c5 85 3d 16 42 94 3e f4 22 16 be
       -0.036318276 0.06531726 0.2895667 -0.14661771
000020 63 1f d2 3e 20 65 93 3e 20 35 0a be 67 9d 9e be
       0.4103957 0.2878809 -0.13496828 -0.30979463
000030 06 18 87 3e 79 0d 81 3d 9f e4 b3 3d 56 9e 83 3e
       0.26385516 0.06301398 0.087838404 0.25706738
000040 1b dd 2b bc 88 db c6 3e 25 d0 46 3e 37 d2 39 bc
       -0.010489727 0.38839364 0.19415338 -0.011341623
000050 80 6f f8 3c 76 59 f9 3e ac db 95 bc 6d 1e 96 3e
       0.030326605 0.48701066 -0.018293224 0.29320088
000060 5f b1 7c be 8d 17 0d be e7 28 06 3d d3 a3 b1 3e
       -0.24677037 -0.13778515 0.03275385 0.346953
000070 d9 ac 18 bd a5 d6 d3 3d d0 17 98 bb ef 2e 53 3d
       -0.037274215 0.103436746 -0.0046415105 0.05155843
000080 d0 df ba bd c1 45 0a 3f 9b 4b 1f 3d e8 ca f4 3e
       -0.0912472 0.54012686 0.038890462 0.47811055
000090 40 ce 8f 3d af d0 9f bb 64 b6 42 be fc 60 55 3c
       0.07021761 -0.004877172 -0.19014889 0.013023611
0000a0 d7 a3 88 3e b4 55 2b 3f bd 61 b0 3e d2 69 3f bc
       0.266875 0.6692765 0.34449568 -0.011682944
0000b0 ab 2d 81 3b 47 aa 41 be ef c1 98 3e 87 5a 74 bd
       0.0039422116 -0.18912612 0.2983546 -0.059656646
0000c0 1c 51 b3 bd 38 41 34 3c ab a3 e9 bd ed c5 25 bc
       -0.08755705 0.0110018775 -0.1140817 -0.01011799
0000d0 41 53 8a 3e 45 15 61 bc 51 49 68 bd 8c 18 58 bc
       0.27016643 -0.013737981 -0.056710545 -0.013189446
0000e0 bd 2e bb 3d 74 4b 4b 3e 9d e5 0e bc 9f b2 0d be
       0.09139774 0.19853002 -0.008721736 -0.1383767
0000f0 6a 63 d3 3c df 0d 53 bd 3a 13 99 bd 05 73 a6 bd
       0.02580424 -0.0515269 -0.0747437 -0.08127407

cons_embedding.3.weight f4 [64, 64]
000000 ed 7c e9 bc e9 d4 61 bd ac c7 3d 3d b0 92 06 3c
       -0.028501952 -0.055134688 0.046333 0.008213684
000010 39 ad 33 3c 3e f5 8e bc cb 10 48 bc 76 c3 2e bc
       0.0109665925 -0.017450925 -0.012211035 -0.010666719
000020 b7 24 a8 bd 2d 17 09 be 25 76 f0 ba b5 bc 89 3e
       -0.08210128 -0.13387747 -0.0018345757 0.26901785
000030 5f 3d b2 3c c9 a3 26 3d a5 57 f3 bd e0 f8 fb bc
       0.02175778 0.04068354 -0.11881951 -0.030758321
000040 55 9e 31 bd e5 94 ba bd 0d 6b 6c be 77 bb 05 bd
       -0.043363888 -0.09110431 -0.23087712 -0.032649484
000050 af 77 c4 bb f6 1b 87 bd 77 0d 6d be e0 79 e4 3d
       -0.0059957127 -0.0659713 -0.23149668 0.11156058
000060 50 fc 57 bd a3 75 02 bd 7a 2e 99 39 1e ca f8 bd
       -0.05273086 -0.03185047 0.00029217062 -0.12147926
000070 5b 4b 49 bd ca 53 86 bc 3e a8 1e 3c 26 5d c0 3c
       -0.04914413 -0.016397376 0.009683667 0.023481917
000080 56 8f 70 bc 82 cd f7 3d dd 5a 74 bb b8 24 29 bd
       -0.014682611 0.120997444 -0.0037285604 -0.041294783
000090 aa 8f 01 3d 88 3f a4 3a c3 fd b8 3d ac 6c 3c 3d
       0.03163115 0.0012531141 0.09032776 0.046002075
0000a0 f2 4b 8c 3e 38 8d 69 3e 66 9d 8b bd a6 4d 2d bd
       0.27401692 0.22807777 -0.06817131 -0.04231038
0000b0 52 c4 fc bc dd 92 0d bd fd cd b1 bd 53 be 18 be
       -0.030855332 -0.034563888 -0.08681867 -0.14916353
0000c0 d0 92 d2 bb d0 27 4f 3c 12 dd 00 3d c1 14 ca 3b
       -0.006426193 0.012643769 0.03146083 0.006167025
0000d0 0b 6e 72 3d 80 36 d5 3c 76 29 c9 3b 67 cc 99 3c
       0.059186976 0.026026964 0.0061389757 0.018774224
0000e0 40 fa 2d 3d ef fb 5b 3d 30 c5 1c be ad 59 a5 bc
       0.042474985 0.05370706 -0.15309596 -0.020184362
0000f0 34 19 0f 3e 8f eb 8c bd d0 b5 9f be b1 91 ee bc
       0.13974458 -0.06880867 -0.311934 -0.029122205
000100 18 2b 41 3f c0 5d 58 bd 0a d1 1d bd f9 4c 61 3c
       0.7545638 -0.052823782 -0.038529433 0.013751262
000110 c7 7a e0 bb 96 c0 a1 3d d2 2d 61 bd 53 94 b1 3c
       -0.0068505737 0.07898061 -0.05497534 0.021677172
000120 57 36 86 3d 15 70 fb bc 8d fa 80 bc 73 b7 0f 3e
       0.06553333 -0.030693093 -0.015744472 0.14034824
000130 e5 ef 47 3e bf 68 a5 bb f3 3d 9e bc 9d 9c 6e bd
       0.19525106 -0.005047887 -0.019316649 -0.058254827
000140 fe d3 b9 bc 7e c5 74 3d cf ff 46 3d ca 21 68 bd
       -0.022684094 0.059758656 0.0485838 -0.05667285
000150 fc 8a 68 3d 2c a4 bd 3c b0 74 c1 3e c6 35 97 3d
       0.05677317 0.023149572 0.37784338 0.07383303
000160 f0 fc c3 bd 7b d4 89 bd fe e0 87 3c 88 bb 08 3b
       -0.095697284 -0.067299806 0.016586777 0.002086373
000170 82 5c a9 3b 48 69 2a bd d3 fa b6 3b fe 3f 02 bd
       0.0051684985 -0.04160431 0.0055841 -0.03179931
000180 59 6a 09 3c e9 02 3d 3e bf e2 c8 bc fe b3 7a bc
       0.008387172 0.18458141 -0.024522183 -0.015301703
000190 e7 14 59 3d e3 11 4f bc ba da a1 3d a6 50 63 3d
       0.05299845 -0.012638542 0.07903047 0.055496834
0001a0 35 d7 92 3d 6f 99 67 3e 5d 61 2b 3e 9b 2d 3c 3d
       0.07169954 0.22617124 0.1673636 0.04594193
0001b0 90 33 8c 3c 66 76 20 be c9 a2 ee 3d a7 28 da be
       0.01711443 -0.15670165 0.116521426 -0.4260914
0001c0 2f 20 87 3c 21 60 08 3d 88 00 30 bd 96 bb 3c 3b
       0.016494839 0.0332948 -0.042969257 0.0028798333
0001d0 df ff 0c be 55 a8 a1 bd c8 fd 3b 3b 00 bd 0c bc
       -0.13769482 -0.07893435 0.00286852 -0.008589983
0001e0 85 fa 1f 3d 40 e1 57 bd 5f 19 d8 3a 1b 17 61 bd
       0.039057273 -0.05270505 0.0016487053 -0.054953676
0001f0 89 80 a8 3e 07 93 03 3e 33 c5 66 3d af d1 b1 3c
       0.32910565 0.12849055 0.056340408 0.02170643
000200 0a c5 9e be 4b 38 f6 3d ba df 02 bd cf 4e a6 ba
       -0.31009704 0.12022456 -0.031951644 -0.0012688282
000210 29 7a 0b bd e6 2d 49 3c ce 33 55 3e ac 04 a8 bd
       -0.034052048 0.012279009 0.20820543 -0.08204016
000220 d1 48 b2 bd 0a d0 85 bd a5 88 58 3b af b8 28 3e
       -0.08705295 -0.06533821 0.003304043 0.16476701
000230 15 4e 3a 3e 59 b6 17 3b 6a 07 76 3d 2b ca eb bd
       0.18193848 0.002314946 0.060065664 -0.1151317
000240 11 60 c7 3d 57 12 7a be 55 7c 4c 3d 66 69 a8 3c
       0.0973512 -0.24421059 0.04992326 0.02055807
000250 55 80 dc bc 07 fa b6 3d 32 8b fa bd f8 d1 7c 3e
       -0.026916662 0.08934408 -0.12233581 0.24689472
000260 e4 70 0f be da 9f 05 be e4 60 a2 bc 23 12 13 be
       -0.14007908 -0.1304926 -0.019821592 -0.14362387
000270 3d c8 52 3c ec 25 21 3d b8 4b 10 3c 46 dc c8 3c
       0.012865123 0.039342806 0.008807115 0.024519097
000280 5b ef 16 bd bc 8d 8c be f1 5b 35 3c 6a 6a 61 be
       -0.03684936 -0.27451885 0.011069284 -0.2201325
000290 ad d3 5d bc 7e 16 16 3c 9d 41 0f bd af 44 c9 3c
       -0.013539237 0.009160636 -0.034974683 0.024568884
0002a0 e7 3e 46 be 8e cc 9c 3e d0 26 24 3d 23 c1 82 bc
       -0.19359933 0.30624813 0.040076077 -0.015961235
0002b0 09 e4 6d bb 13 2f 22 3e 9a ed c1 3d 3a fa 10 be
       -0.003629925 0.1583827 0.09469147 -0.14157954
0002c0 53 96 8b bc 9e 49 e2 3a 3f bd 46 bd 8a d1 09 bb
       -0.017039454 0.0017264371 -0.048520323 -0.0021029436
0002d0 03 44 d8 3d cb 02 c9 3c ca a9 69 bc c0 50 e6 ba
       0.10559847 0.024537465 -0.014261672 -0.0017571673
0002e0 a9 15 9c bd f7 04 51 3d 8b da 64 be c9 c8 77 3a
       -0.07621319 0.051030125 -0.22348993 0.00094522216
0002f0 2a 98 73 3e 41 d1 c1 3d dc 8f 9e bc 78 e6 9c bd
       0.23788515 0.0946374 -0.019355707 -0.07661146
000300 9c 6f 2c bf fa 73 42 3e 2b 4f 05 3e 46 32 35 3d
       -0.673578 0.18989554 0.13018481 0.044237398
000310 26 74 d4 bc 86 09 20 be d1 68 33 be f7 b8 85 3d
       -0.02593429 -0.15628633 -0.17520453 0.0652942
000320 08 db f9 bd 6a 3f 3e 3e 72 7d 3a bc ea 8d 9e bd
       -0.1219998 0.18578878 -0.011382448 -0.07741912
000330 1a fa 2b bd f3 9c db 3d 07 6e 65 3d 3a 89 6c 3e
       -0.041986562 0.10723295 0.056013133 0.23099223
000340 de 4c 86 3d 13 68 44 3e f8 e9 92 3e ad 99 7a bb
       0.0655763 0.19180326 0.2869413 -0.003823857
000350 1a 54 97 bd af 7c e9 bc d7 41 af bf a1 4d 22 be
       -0.07389088 -0.028501837 -1.3691968 -0.15849926
000360 ae 4e 63 be 92 ed 04 bd bb 55 6f bd b8 c1 8d 3e
       -0.22197983 -0.032453127 -0.05843137 0.27686858
000370 ee a0 1f bd 4f f4 88 3c 0f 5a 9c bd 53 a6 dc 3c
       -0.038971834 0.016718058 -0.07634365 0.026934778
000380 0a 12 c6 3c 71 d4 2a 3e 15 3b 7e bd 4c bd 50 3e
       0.024178524 0.16682602 -0.062068064 0.20384711
000390 8f 47 17 bd 9c 9e 44 bd 33 61 18 be 99 9f f4 3d
       -0.036933478 -0.048002824 -0.14880829 0.11944503
0003a0 99 fe e1 3e fd 2d 26 be 32 10 23 bc 84 f2 aa ba
       0.44139555 -0.1622848 -0.009952592 -0.0013042246
0003b0 9b 60 04 3d 0d 3b 73 be 8f 52 88 3e 0b 56 21 3f
       0.032318693 -0.23752995 0.26625487 0.63021916
0003c0 9b 27 56 3d 37 be ce 3b d8 71 63 bd 9f 51 bf 3c
       0.052283864 0.0063092965 -0.05552849 0.02335435
0003d0 65 26 4a be 73 82 ff 3d e8 9a 88 3d d6 24 51 3c
       -0.19741209 0.12476053 0.06670171 0.01276513
0003e0 fd e1 b2 bd 15 57 e7 bc 69 22 fc 3d 2a 71 06 be
       -0.0873451 -0.028239766 0.12311251 -0.13129106
0003f0 c5 51 c4 be 29 36 48 3d 8c 40 8a bf ec ae 58 3c
       -0.38343635 0.048879776 -1.0800948 0.013225298

cons_embedding.3.bias f4 [64]
000000 8d 1d 64 3a 95 5b 70 3c bd 9e 19 bc 71 9d 0c bd
       0.0008701913 0.014670272 -0.009376225 -0.034329835
000010 77 e4 4b ba dd d0 45 ba e2 b5 7b 3b d9 d6 38 bb
       -0.00077778794 -0.00075460767 0.003840797 -0.002820423
000020 10 dd ca 3b c2 79 b6 bc 03 13 47 3b f7 d5 16 3c
       0.0061909035 -0.022274856 0.0030376322 0.009206287
000030 36 d7 ec bb 07 77 85 b8 6c 39 e3 bb 51 07 5b 3c
       -0.0072278036 -6.364105e-05 -0.0069343355 0.013368444
000040 55 ee e3 bc 23 fd 09 bb 11 89 cb 3b 5c 88 f4 bb
       -0.027823607 -0.0021055422 0.006211408 -0.0074625444
000050 54 c5 2a 3c 50 d8 1a 3b e3 92 a1 3b 8c 9f ea 3a
       0.010423023 0.0023627467 0.0049308403 0.0017900332
000060 42 4f a6 bb b4 19 9a bb 87 85 d2 3b 86 16 8f 3b
       -0.0050753662 -0.004702771 0.006424609 0.0043666987
000070 56 37 33 3b 61 2b a5 b9 cd c9 b3 3b 8a 17 41 bd
       0.0027346215 -0.00031503572 0.005486703 -0.04714159
000080 86 43 b4 bb 9d 6e a7 3c 7f 34 25 3c 43 92 90 3c
       -0.0055012135 0.020438487 0.010083317 0.017647868
000090 95 83 02 bc 88 b4 61 bb 9f ce 2d ba ae 90 21 3c
       -0.007965942 -0.003443988 -0.0006630215 0.0098611545
0000a0 4e 80 a1 bc 48 2c c6 3c 38 7b f1 bc 9d f4 56 bc
       -0.0197145 0.024191037 -0.0294777 -0.013119844
0000b0 a3 1b 01 bc 44 60 ff ba 1c 29 b3 ba 72 30 33 3b
       -0.007880124 -0.0019483645 -0.0013668868 0.0027342108
0000c0 e5 ae 89 ba 63 a2 db 3c 00 81 64 bc c3 82 24 bc
       -0.0010504393 0.02681083 -0.013946772 -0.010040942
0000d0 52 d3 b5 39 7a 53 a0 bb 67 07 03 3c 45 e9 05 3b
       0.00034680456 -0.0048927637 0.00799737 0.002043323
0000e0 ad 54 09 3c a2 34 b3 3c 32 be 12 bc 9c 93 3f bb
       0.008382005 0.021875683 -0.008956479 -0.002923227
0000f0 0c fa dc 3c bd 45 11 bc 46 fe 25 3c 15 e8 ee bc
       0.0269747 -0.008866725 0.010131424 -0.0291634

var_embedding.0.weight f4 [7]
000000 97 b3 e5 3f d6 4a 91 3f 58 4e 8a 3f e9 76 84 3f
       1.7945431 1.1350963 1.0805159 1.0348788
000010 97 4c 84 3f f4 05 70 3f b4 39 8a 3f
       1.0335873 0.93759084 1.079886

var_embedding.0.bias f4 [7]
000000 2b 48 37 bd fe 59 41 be e7 df a2 be 14 0a ed 3d
       -0.04474656 -0.18881986 -0.3181145 0.11574188
000010 15 d1 2e 3e e1 06 47 3e ed 86 ec bc
       0.17071946 0.19436218 -0.028872931

var_embedding.1.weight f4 [64, 7]
000000 7f 4f 50 bf bb ad c8 3e db 2e 45 bf c0 48 3a bf
       -0.813713 0.39195046 -0.7702462 -0.7276726
000010 10 b4 cb 3e 22 2b 62 bf ec c0 95 3f e9 2d 4d 3b
       0.39785814 -0.88347065 1.16995 0.0031307882
000020 ec 70 35 3f 8d 7f 3a bf 23 fa 09 3e 76 21 a2 3d
       0.7087543 -0.7285088 0.13474326 0.079165384
000030 0d 89 4d be 50 d0 3f 3c 72 00 3e 3e 8d 0b 1e 3d
       -0.20071812 0.01170738 0.18554857 0.038585234
000040 ec 10 16 3f 8d 3c e3 3e 67 e9 f8 bc 05 8a 22 3f
       0.5861957 0.44382134 -0.030384732 0.6349185
000050 66 61 a2 3e fe 7f ed 3e 11 80 07 3f 84 87 f2 3e
       0.31714934 0.46386713 0.5292979 0.47369015
000060 28 b6 99 3d 9e 0f 6a 3f 2f 4d 13 be 63 4e 0c 3f
       0.07505447 0.9143008 -0.14384912 0.5480711
000070 f6 fe 68 be 6b 79 35 3e 0a 1c 64 3f e8 dc 19 3f
       -0.2275351 0.17722099 0.89105284 0.601027
000080 f3 d2 31 bf 25 e1 3c 3f 8c 53 27 3f 77 d1 48 be
       -0.6946251 0.73781043 0.6536186 -0.19611154
000090 c1 07 99 3f 52 40 34 3f 47 01 56 bf 7b bc 20 bd
       1.1955491 0.70410645 -0.835957 -0.03924225
0000a0 1f 92 ae 3e fa 19 3e bf 1b 06 c8 3f af ac ce be
       0.34095857 -0.7425839 1.5626863 -0.40366122
0000b0 00 84 9a bd 41 4e 6c bf 90 fa 9a be 99 75 f1 be
       -0.07544708 -0.92306906 -0.3026929 -0.47160032
0000c0 49 0f 9f 3e a1 a9 95 3f 61 46 22 be 24 4c 3e 3f
       0.3106635 1.1692392 -0.1584716 0.7433493
0000d0 ef c2 71 bf 43 6e 4d bd a7 dd c3 bd 7f 62 a7 be
       -0.9443807 -0.050153982 -0.09563761 -0.32692334
0000e0 8c 0a 92 bf 64 77 d8 3d 87 7e 1f 3e 51 be 36 3c
       -1.1409469 0.10569647 0.1557561 0.011153773
0000f0 2d 57 f9 3e 62 75 f9 be cb 26 60 3f 02 1c c0 3f
       0.48699322 -0.48722368 0.87559193 1.5008547
000100 7b 27 64 bf 05 7b 63 bf 28 b9 0b 3e 7a 02 52 bf
       -0.8912274 -0.8885959 0.1364485 -0.8203503
000110 e6 bc 2e bf d9 69 81 be 4c 0e 06 3f d4 3a 37 3f
       -0.68256986 -0.25276068 0.52365565 0.7157414
000120 f9 3d 09 3f 73 51 fa be 0a d8 88 bf a4 05 41 bf
       0.5361019 -0.48890266 -1.069093 -0.7539923
000130 34 a4 60 3f bd 81 06 bf db b8 99 bd 4c 95 83 bc
       0.87750554 -0.52541715 -0.075059615 -0.016062401
000140 48 4c 87 3f ec f4 82 3f da 77 66 3f a8 83 ae be
       1.0570154 1.0230994 0.9002663 -0.3408482
000150 89 85 76 3e 2a 4a a8 bf bf b9 e8 bf e0 ad 42 3f
       0.24074377 -1.3147633 -1.8181685 0.7604656
000160 a9 eb 16 be a9 09 bf be e6 9b 83 3f 06 88 36 3e
       -0.14738335 -0.37312058 1.0281951 0.17825326
000170 e4 8a 44 be 84 cc 52 3d 14 40 49 bd 7a 7b 01 bf
       -0.19193608 0.051464573 -0.049133375 -0.50579035
000180 0c 6f 77 3e 96 62 04 be 7c c1 8f 3f ad 1e bf 3e
       0.24163455 -0.12928233 1.1230922 0.3732809
000190 da 2a e3 bd 12 7e 41 3f c8 d7 ab be 01 f2 4c 3e
       -0.11092158 0.75582993 -0.33563066 0.20014192
0001a0 b2 ce 08 3f 45 da 50 bf c4 26 b0 3d 6c 10 cd be
       0.5344039 -0.8158305 0.08601144 -0.4005159
0001b0 95 61 24 3f 35 8b 3b 3e 8e 9f 61 3f 00 ae 42 3e
       0.642114 0.18314822 0.88134086 0.19011688
0001c0 64 8f 81 bf 66 7a 6a 3f bf c2 88 3f 3e d3 05 bd
       -1.0121884 0.91593015 1.0684432 -0.03267216
0001d0 dc b9 47 3f 0c 65 4b 3f 68 cc 56 bf ef 34 9b 3f
       0.78017974 0.7945106 -0.8390565 1.2125529
0001e0 d4 dc 17 3f fc cd 96 3e a9 a2 36 3e b5 8e 0c 3f
       0.5932133 0.2945403 0.17835487 0.54905254
0001f0 01 26 c9 3e ce 06 63 3d 49 f2 94 3f 05 da 7b 3e
       0.39286807 0.05542641 1.163644 0.24594887
000200 b4 8e 3f 3f 8a 97 e4 3d b8 63 ea be bc d4 69 bd
       0.7482712 0.11161716 -0.45779204 -0.057087645
000210 32 41 6a 3e 1e 99 6b 3f 04 2e ca be 97 79 66 be
       0.22876433 0.92030513 -0.39488232 -0.2250732
000220 1d 50 42 bf f7 fa 4c bf 7e 20 66 bf 6a d3 30 be
       -0.75903493 -0.8007044 -0.8989333 -0.17268148
000230 6a b5 56 3f fc 44 12 3f d3 e9 22 bf f3 15 10 3f
       0.83870566 0.5713651 -0.6363804 0.5628349
000240 f4 00 b4 3e 0e 33 ed 3e 78 83 1a bf ed 0d 2e be
       0.35156977 0.46328014 -0.60356855 -0.169975
000250 51 38 b0 bf b3 d6 09 c0 a8 89 30 3f de 62 00 3f
       -1.3767186 -2.1537292 0.68960047 0.5015086
000260 67 86 87 3e 67 0d 10 3f 20 29 f4 be 8b ac a2 bc
       0.26469728 0.5627045 -0.47687626 -0.019857666
000270 8d 66 59 3f 39 12 3d be 07 2d 76 bf e7 b5 24 3e
       0.84922105 -0.18463983 -0.96162456 0.16085015
000280 d5 19 36 bf c3 30 0b bf 1f f5 bb 3c 74 5f 11 bf
       -0.71133167 -0.5437128 0.022944031 -0.56786275
000290 53 01 fb be 2e 68 a7 bd 17 51 0e 3f 92 6c e7 be
       -0.49024448 -0.081741676 0.55592483 -0.4520002
0002a0 f1 6d 98 bf 3b a7 83 3e 8e 77 5b 3f 61 d1 a8 3e
       -1.1908551 0.25713524 0.857293 0.32972243
0002b0 ed 4f 7e 3f 10 2b bb bd 54 4c c6 3e 55 1c 84 bf
       0.9934071 -0.09139073 0.3873011 -1.0321146
0002c0 83 ae 8e bf 86 c3 29 bf 3a cc 15 3e 7a 46 ca 3e
       -1.1147007 -0.6631397 0.14628688 0.39506894
0002d0 a9 e1 8a 3f 4d 18 75 3f be 3a 96 3e 79 08 57 bf
       1.0850116 0.95740205 0.29341692 -0.83997303
0002e0 d1 f4 76 bf 95 f2 45 3f 6b 56 96 3c 81 d9 38 bf
       -0.9646731 0.77323276 0.018351754 -0.72206885
0002f0 6b c8 5d bf 3b fd be 3f 0a 61 7c 3e 73 2b ca 3e
       -0.8663394 1.492103 0.24646392 0.39486274
000300 9d 8c 42 3e c9 b8 97 39 5d 3b 25 3f ff 16 12 bf
       0.18998952 0.0002893864 0.64543706 -0.5706634
000310 c0 29 43 3e 5c f3 f2 3e 91 5d 14 3e 50 67 4a 3f
       0.19058895 0.47451293 0.14488818 0.7906389
000320 50 bb d1 bc 59 80 85 3e 52 b7 a4 3e 46 a9 99 3f
       -0.025602013 0.26074484 0.32171112 1.2004783
000330 66 76 f9 3c 0f 43 f8 bd 50 d5 23 bf 1e e7 9a be
       0.030451965 -0.121221654 -0.63997364 -0.30254453
000340 7f af 54 be a4 34 a6 bc 65 10 40 bf 77 67 d4 3e
       -0.20770071 -0.020288773 -0.75025016 0.41485187
000350 46 6d 09 bf 98 6b 67 bf fa 7b ad 3e a4 ee 26 bf
       -0.53682363 -0.9039855 0.3388365 -0.65207887
000360 cc 3e 04 3f 2a 9e bc 3f f1 03 67 3f 5d e7 27 bf
       0.5165832 1.4735768 0.9024039 -0.6558741
000370 cd fe c0 3d 1c a7 2c be 6e f1 c9 be 25 23 de 3e
       0.094235994 -0.16860622 -0.3944201 0.43386188
000380 9b 39 19 3f 07 51 7f bf 77 7c 77 bf e9 9d 29 3f
       0.59853524 -0.9973301 -0.96674293 0.66256577
000390 46 69 5f 3f 05 f0 54 bd bd 03 8e 3f 8e 1d ad 3f
       0.8727001 -0.051986713 1.1094891 1.3524644
0003a0 55 a1 c0 be 9d ee b9 3e 58 c6 84 bf b3 2e 27 be
       -0.37623087 0.3631486 -1.037303 -0.16326408
0003b0 38 8a 83 bf 65 a2 df be 1b 4d a5 3e 3a c7 2f 3f
       -1.0276556 -0.43678585 0.3228539 0.6866337
0003c0 f5 f9 75 be a4 3b 92 3e 05 2c 39 3f 2a 45 2c 3f
       -0.24021132 0.28561127 0.72332793 0.67293036
0003d0 6e c0 6e bf 82 c5 0b bf a2 77 43 3e 3d 90 20 be
       -0.93262374 -0.5459825 0.19088605 -0.15680023
0003e0 7e fe 79 bf 16 3b c9 3e 2d 6b 35 3e 9d a5 35 3f
       -0.9765395 0.39302891 0.17716666 0.7095583
0003f0 1f be 60 3f a4 03 0a bf a8 66 09 3f e4 5a aa bd
       0.877901 -0.53911805 0.53672266 -0.08318117

var_embedding.1.bias f4 [64]
000000 cf 23 58 3e a4 5d bb bd fe 49 2d 3d 2a 5e 04 bf
       0.2110741 -0.0914872 0.042306893 -0.5170618
000010 44 10 49 be 1a da 94 3d 91 66 42 3e 49 f5 79 3e
       -0.19635111 0.07268162 0.18984438 0.24409975
000020 50 73 c2 3e d7 dd 8c 3e 67 01 bf 3f 01 f3 01 bf
       0.379786 0.27513 1.4922303 -0.5076142
000030 ed 04 91 be 45 79 98 be 19 7e 64 3d 53 54 d1 3e
       -0.2832407 -0.2978002 0.05578432 0.40884647
000040 fd 46 38 bd c9 c6 34 3e 10 ba 7f 3d 1f 98 94 bd
       -0.044989575 0.17653956 0.062433302 -0.07255577
000050 32 ef 6b 3c a8 19 ad be 0d 72 9f be cf 15 9f 3e
       0.01440029 -0.33808637 -0.311417 0.31071326
000060 71 1d 93 3e 8d 25 c3 be 62 32 61 3d 57 32 b5 3d
       0.287334 -0.38114586 0.05497969 0.08847492
000070 36 52 9a 3c d6 dc 21 3e e1 95 e9 bd 63 6d b9 be
       0.01883803 0.15806898 -0.1140554 -0.36216268
000080 e7 18 d2 3e 0f aa 86 3e 14 2d b1 3e 9c 11 92 3e
       0.41034624 0.2630162 0.34604704 0.2852906
000090 a7 93 00 be 4a ed b2 3e 09 c8 64 bd d5 8a a0 3e
       -0.12556325 0.34946662 -0.05585483 0.3135592
0000a0 4e 77 c8 bd ce c4 64 3e e9 e0 2c be 6f 66 b2 3e
       -0.097883806 0.223407 -0.16882671 0.34843776
0000b0 0c 3b 6e bd d4 ca 59 3e 5e d5 12 3e 32 9d b3 bd
       -0.05816178 0.21268779 0.14339206 -0.08770217
0000c0 f9 04 e4 bc f9 ee ab be fc db 14 be de 88 af 3e
       -0.027834402 -0.3358076 -0.14537042 0.3428411
0000d0 5d 38 f4 3d c9 25 0c 3e 9e 2c 44 3e 74 97 81 bd
       0.11924813 0.13686289 0.19157645 -0.063277155
0000e0 a7 e0 e6 3d c4 cb 77 3e 4e b7 d3 be f0 d2 4b 3e
       0.11273318 0.24198824 -0.41350788 0.19904685
0000f0 97 4e 67 be 5e 14 94 be 67 b8 4c 3e 79 14 c8 3e
       -0.22588573 -0.2892179 0.19992219 0.3907812

var_embedding.3.weight f4 [64, 64]
000000 a9 1c b0 3e c2 50 07 bc 43 67 81 bc 51 49 53 be
       0.34396866 -0.008259 -0.01579631 -0.20633437
000010 f6 ea 57 3e 6e 3c 92 bd 1f 12 a1 be b8 38 fe be
       0.21085724 -0.07140432 -0.31459138 -0.49652648
000020 31 fb 0b 3c 24 b3 3b be 23 f0 58 bd f2 75 cd bd
       0.008543775 -0.18330055 -0.052963387 -0.10032262
000030 c8 d7 b2 3e 62 d7 27 be 49 b2 5b be 9a 87 05 3f
       0.34930253 -0.16390756 -0.21454729 0.52160037
000040 61 d7 a4 3e 4c 07 14 bf d4 76 62 be 98 38 18 bf
       0.3219557 -0.57823634 -0.22115642 -0.59461355
000050 7c d6 7d be 02 16 1f bc 1c e1 eb 3d 22 05 32 3e
       -0.2478885 -0.009709837 0.115175456 0.1738477
000060 98 c9 20 3f 31 30 ba 3e ed f6 52 3e 98 8e c6 be
       0.6280761 0.36364892 0.20602007 -0.38780665
000070 7a 6e b1 3c 1d f5 92 bf 4d e9 54 3e 1b 38 45 bf
       0.021659125 -1.1481053 0.20792122 -0.77038735
000080 09 49 89 bd 9f 68 42 bf 4e ab c1 bd ef df 0b be
       -0.067033835 -0.7594089 -0.09456502 -0.13659643
000090 fe 6a 47 3e 14 bd dd 3e c1 44 d0 be de 63 1f bc
       0.19474408 0.43308318 -0.40677455 -0.0097284
0000a0 8e fa dd 3c e2 90 45 be c3 ee f0 3d a7 e2 48 3d
       0.027097013 -0.1929355 0.1176429 0.049044278
0000b0 9d ff 44 3e 08 73 8b be 7d b5 40 bd 79 74 92 be
       0.19238134 -0.272362 -0.04704808 -0.28604487
0000c0 f2 ae 8f 3e 7b 11 ae 3e eb e7 8c 3e e2 c4 17 be
       0.2806316 0.33997712 0.2752069 -0.14821199
0000d0 6a cc e3 bc d3 43 03 3f 39 2e 38 be 9f f8 cb 3d
       -0.027807433 0.51275367 -0.17986383 0.0995953
0000e0 0b 8d a3 be 6d a0 86 be fa 8b 65 be f2 e1 a8 bd
       -0.31943545 -0.2629427 -0.22416678 -0.08246221
0000f0 73 e7 13 3e 4e 0a 0e bf e3 4f c1 be 13 dd 93 b9
       0.1444376 -0.55484474 -0.3775626 -0.00028202738
000100 f5 dc 66 3e ad c8 3e 3b 38 f7 59 3c 6b be 59 3e
       0.22545226 0.0029111311 0.01330357 0.21264045
000110 13 f7 55 3e 55 8e e1 3d 62 97 b8 3e 90 5e 8f bb
       0.20895033 0.11013476 0.36052996 -0.0043752864
000120 c6 bf 9f 3e 85 69 20 3e 5b e7 08 3e 6a fc b1 be
       0.31201 0.15665253 0.13369505 -0.3476289
000130 81 30 86 3e b3 8c 28 be 2d a4 9c 3d 66 75 54 3e
       0.2620888 -0.16459922 0.076485015 0.20747909
000140 b0 4c cd 3e 88 c8 72 3e 39 02 70 3e 26 02 ad bd
       0.4009757 0.23709309 0.23438348 -0.084476754
000150 c6 ce 01 bf 46 e7 67 be f1 66 ba bd 97 ce 2e 3e
       -0.50706136 -0.22646818 -0.09101666 0.17070995
000160 3b 67 98 3d 8b bf af bd 80 08 89 bf 6a 4b ad 3e
       0.07441565 -0.08581456 -1.0705719 0.338466
000170 8a 94 10 3d 6f 72 18 bd 99 4a e6 3e 44 aa ac bd
       0.035297908 -0.037218507 0.44978788 -0.08430913
000180 69 30 ac 3d 3a 43 94 3e 4e 4d d1 be 6a 79 c6 ba
       0.08407671 0.2895754 -0.4087929 -0.0015142385
000190 16 71 de bd 63 f7 4d be ce ba 31 be e0 54 bd bb
       -0.10861413 -0.20113902 -0.17356417 -0.00577794
0001a0 9d 8b 98 3d 3c 95 88 bd 56 e1 99 be cb 7b 61 bd
       0.07448504 -0.06669089 -0.3005473 -0.0550497
0001b0 96 41 1b 3e be c7 2e 3e fb b2 18 3f 08 8b 4f 3d
       0.15161738 0.17068383 0.596481 0.0506697
0001c0 0d fe d2 3e c6 1d 96 3d a7 03 c3 be 93 bb ff 37
       0.4120945 0.073298976 -0.38088724 3.0485715e-05
0001d0 c7 3a c1 be 2f 45 62 be d7 e8 65 3b 8f cc 7f bd
       -0.37740156 -0.22096704 0.003508141 -0.06245094
0001e0 14 a8 6e 3e db 28 c7 3e c3 2d a2 bd 0b 4c f6 3d
       0.23306304 0.38898358 -0.079188846 0.12026223
0001f0 a8 b2 1e 3f 80 96 a0 3e 92 8e eb 3d 13 a2 bf 3e
       0.6199136 0.31364822 0.115018025 0.3742834
000200 8b 38 0f be 16 e4 a6 3c 57 bf f4 3c 6e 74 4e bd
       -0.13986413 0.020372432 0.029876394 -0.050404005
000210 df 6a d0 be 90 d7 52 bf bd 56 61 be 5b 05 20 be
       -0.40706536 -0.8236017 -0.22005744 -0.15627043
000220 f5 d8 3d be 0b aa 52 3e ae 62 09 3e 49 d9 8e 3e
       -0.18539794 0.20572679 0.1341655 0.2790015
000230 6d 48 f5 3e 70 23 97 3e be 58 1f bc 1b 48 62 bd
       0.4790682 0.29519224 -0.009725748 -0.055244546
000240 94 41 0b bc 6d 14 5b be 65 73 36 3d 1c cc 99 be
       -0.008499522 -0.2139451 0.044543643 -0.30038536
000250 4a 1a 47 3e cd 01 91 3f 3c a8 bf be 15 00 c3 3e
       0.19443622 1.1328675 -0.3743304 0.38086
000260 7e 13 99 be 73 01 76 bd 02 78 17 3e ff 12 5c 3e
       -0.29897684 -0.060059976 0.14791873 0.21491621
000270 26 6a 9e 3c 59 a7 a8 be 91 b0 35 3e 98 7b 87 be
       0.019337725 -0.32940176 0.17743136 -0.26461482
000280 5e 7c 5f 3f e2 ae cf be 9b de 3c 3e 5a 70 45 be
       0.87299144 -0.40563112 0.18444292 -0.1928114
000290 9a d6 7b 3e f7 79 89 be 4b 3b 9e be 50 f8 e2 3e
       0.24593583 -0.26850864 -0.30904612 0.44330072
0002a0 bb c2 ba 3d e4 7c ce be 3e 24 32 be 85 39 8f 3f
       0.09119173 -0.4032966 -0.17396638 1.1189429
0002b0 d8 4c 19 3e 92 ff 09 bd 98 7f 84 be 93 08 06 c0
       0.1497072 -0.033690996 -0.25878596 -2.0942733
0002c0 00 bb 44 bf 26 57 a6 3e b2 7c 11 bd 23 5c cf 3e
       -0.7684784 0.32488364 -0.03551931 0.40499982
0002d0 9b 7e 79 3e ec 79 85 3c 59 24 a2 3e 35 85 5c 3e
       0.24364702 0.016293488 0.31668356 0.2153519
0002e0 0e 30 13 3e 1d 48 29 bf ef 4f ed bd 76 6e 85 be
       0.143738 -0.6612566 -0.11587512 -0.26060838
0002f0 d2 8f 3b be 01 15 a1 3c b5 24 99 b9 97 d0 a5 bd
       -0.18316582 0.019663336 -0.00029209783 -0.08096426
000300 01 fa 08 bf 86 f7 e8 3c aa 49 ac 3c 82 26 42 be
       -0.53506476 0.02843834 0.02103122 -0.18960002
000310 86 06 a8 be a2 40 af 3e a0 f7 d0 3d 6c 91 02 be
       -0.32817477 0.34228998 0.10203481 -0.12750787
000320 61 c4 1c bf 6a 12 af bc 90 dd 62 be 56 27 5c bc
       -0.6123715 -0.021371085 -0.22154832 -0.013437113
000330 58 e6 ed bc 0f ad 7b 3e d2 0f 94 bd a8 9d 94 3e
       -0.0290405 0.24577735 -0.0722958 0.29026532
000340 e6 12 28 3e f8 11 98 3e bd a9 36 be 98 41 ff bb
       0.16413459 0.2970121 -0.17838188 -0.007789802
000350 9c 73 24 3f 84 7a 8f 3e 81 c7 9f 3e 76 74 ac 3c
       0.64238906 0.2802316 0.31206897 0.021051627
000360 90 62 ef bd 5a 9b 21 3e 5d e6 51 3e c6 40 ba 3e
       -0.11688721 0.15781918 0.20498033 0.36377543
000370 e6 18 c7 bb 6a b6 da 3e 60 c1 ed be 74 0f bc 3d
       -0.006075966 0.42717296 -0.46436596 0.09182635
000380 31 d0 3c bd cd 30 2e be cd fc b9 3d 1e 24 c2 be
       -0.046096984 -0.17010804 0.09081421 -0.3791818
000390 84 67 70 3d 45 c3 4a be 8f aa 0d 3e 4d e3 45 be
       0.05869247 -0.19801052 0.13834594 -0.1932499
0003a0 86 25 05 3e aa 50 73 3e 85 52 34 be 9a aa 45 3e
       0.13002595 0.2376124 -0.17609604 0.1930336
0003b0 c5 11 4a 3d 09 af ec bd 4c bf fa 3d b5 1b 41 3e
       0.049333353 -0.11556823 0.12243518 0.18858226
0003c0 78 8b 5d be e0 36 3e 3e e8 63 44 3e 88 75 11 3e
       -0.21635234 0.1857562 0.19178736 0.14204991
0003d0 85 e5 3a be f7 01 af be f9 31 f2 3d fd 28 40 be
       -0.18251617 -0.34181187 0.11825938 -0.18765636
0003e0 30 0b 02 be a7 db bf bd 68 79 8c be fd dc 85 3e
       -0.1269958 -0.09368067 -0.27436376 0.26145163
0003f0 3f 54 27 be 00 4e 01 3e a4 36 4d 3e 5a 81 11 bf
       -0.16340731 0.12627411 0.20040375 -0.56838

var_embedding.3.bias f4 [64]
000000 cc 77 1a be 11 0c 3f 3e 33 15 5a be a1 a8 0d bd
       -0.15084761 0.18656947 -0.2129715 -0.034584645
000010 cc b3 ef 3d 80 9a 50 be 33 64 70 3d 95 64 85 bd
       0.117042154 -0.20371437 0.058689307 -0.06513325
000020 b8 31 55 be b2 97 96 3e e9 d5 5f 3e 26 e5 70 bd
       -0.20819747 0.2941261 0.21858944 -0.058812283
000030 7d 62 03 bd 5e ee 40 be 6d e9 01 be ae 6e 3e bd
       -0.032076348 -0.1884093 -0.12686701 -0.04649227
000040 66 73 9b bd d6 10 24 3d 90 ab 2e be d3 39 3f be
       -0.0759037 0.04005512 -0.17057633 -0.18674402
000050 b1 1a 55 3c 04 4b be bd 14 b0 97 3e 1d c8 b9 bd
       0.013006852 -0.09291652 0.29626524 -0.09071372
000060 59 0b fe bb e5 92 3a 3d 57 95 82 3e 53 3e 58 be
       -0.0077528176 0.045550246 0.25504562 -0.21117525
000070 6f 8a 34 be 72 28 f7 39 4d 76 04 be 9e aa d8 3d
       -0.17630933 0.00047141645 -0.12935753 0.10579418
000080 3e 57 8b bb c9 d9 bc bc 0b 01 26 3f 24 0e 9a bd
       -0.0042523434 -0.023053067 0.6484534 -0.07522228
000090 10 03 a1 bd e0 27 e3 be 37 4b 1d 3e 7f af 9b be
       -0.07861912 -0.4436636 0.15360723 -0.3040733
0000a0 83 5c 12 be c4 b5 e7 3e d9 9a f5 3c 08 1b cb 3e
       -0.14293103 0.45255864 0.029981064 0.3966906
0000b0 dd 57 52 3e 78 bd 00 be 37 d3 ee bd ed 54 7b be
       0.2054133 -0.12572277 -0.1166138 -0.24544115
0000c0 a1 82 96 3d 75 bd e6 ba ec a9 2a be a7 22 4d bc
       0.07349134 -0.001760407 -0.16666383 -0.012520469
0000d0 f5 0d 04 be e1 36 61 be 90 cd bb 3d ac 3d 5c be
       -0.12895949 -0.21993591 0.09170067 -0.21507901
0000e0 e4 27 84 bc 69 01 14 be 8e aa f5 be 63 93 1d 3d
       -0.016132303 -0.14453663 -0.47981685 0.038470637
0000f0 5c 33 45 bd 38 65 08 3e c9 dd 10 be 03 46 01 bd
       -0.048144683 0.13319862 -0.14147104 -0.03156091

conv_v_to_c.feature_module_left.0.weight f4 [64, 64]
000000 c1 25 1a bd 26 85 4c 3e df 39 a3 bd f0 78 42 be
       -0.03763366 0.19972667 -0.079700224 -0.18991446
000010 f8 ae 30 3d 44 57 6a bd cb d1 36 be 5d c0 00 3d
       0.043135613 -0.05721213 -0.17853467 0.031433452
000020 17 c4 d9 bd dc 43 48 be 13 da 87 3c fc 3d a5 bd
       -0.10633104 -0.19557136 0.016583478 -0.08068463
000030 31 29 9d 3d 76 19 2a bc 4d db e4 3b aa 14 ea 3c
       0.07673872 -0.010382047 0.0069841505 0.028574307
000040 94 44 be be dd 4b 1c 3d c1 22 c5 bd f6 3a ae bd
       -0.37161696 0.038158286 -0.096257694 -0.0850734
000050 75 32 88 3b c6 fe 93 3c ce 8c 1c 3d 56 37 b5 bb
       0.0041564056 0.018065821 0.03822022 -0.005530278
000060 ac 0a ae 3c bd 57 86 3d a8 8b 82 3d 75 01 ce ba
       0.021245323 0.065597035 0.063742936 -0.0015716987
000070 6d c4 b4 bc 30 1f bf bc af 1e 07 3e c4 13 65 be
       -0.02206632 -0.023330301 0.13195299 -0.22370821
000080 bc c4 9f bd 0b 70 8a 3e f9 86 27 3d 9f 25 d3 3e
       -0.07801196 0.27038607 0.040900204 0.4123964
000090 e6 f5 75 be eb de 10 ba 2d 87 80 3d c6 c7 42 bb
       -0.24019584 -0.00055263814 0.06275783 -0.0029721125
0000a0 ab 68 9d 3c f0 20 9b 3e 0e 78 79 be 60 5a 88 3e
       0.019214949 0.30298567 -0.24362203 0.2663145
0000b0 72 8f 0b 3d d7 91 ec 3d a7 2d 5f be 51 9c 9d 3d
       0.034072347 0.11551254 -0.21794759 0.076958306
0000c0 89 0d 5f bd 8c ba 76 3d 9a f1 b2 3e 75 36 24 be
       -0.054456268 0.0602365 0.34949952 -0.16036399
0000d0 08 25 96 3e 69 be b7 3d 80 fc bb 3c 55 f2 f0 3c
       0.29325128 0.08971865 0.02294755 0.029412428
0000e0 a9 b7 19 bd b0 02 c8 3e ef f2 aa bd a1 99 1b 3d
       -0.037528668 0.3906455 -0.08347117 0.03798831
0000f0 52 22 56 3e c7 01 46 3d fd 87 57 3e 0e 15 d6 3d
       0.2091153 0.04834154 0.21047969 0.104532346
000100 9f a0 ca bd b4 cf bf 3e d4 c8 40 be 62 a2 a6 be
       -0.09893917 0.37463152 -0.1882661 -0.32545763
000110 4f b9 67 3c 18 06 5f bd ec 60 06 be 3c c1 9c bd
       0.014143302 -0.05444917 -0.1312291 -0.07654044
000120 52 ac fc bd 53 12 93 be b8 a9 ef 3c 07 22 1d bc
       -0.12337555 -0.28724918 0.029255733 -0.009590632
000130 36 7d 91 3d 52 b4 a3 3d 27 bb 5e 3d 82 3d 56 3d
       0.0710396 0.07993378 0.0543777 0.052304752
000140 77 66 ad be 9e c0 3d 3d 72 cf 07 be ee 7f 62 bc
       -0.33867237 0.046326272 -0.13262728 -0.013824446
000150 c1 75 d4 bc 87 ba 33 b9 11 09 b4 bd 94 2f b5 3d
       -0.025935056 -0.00017140257 -0.08790792 0.088469654
000160 82 25 02 bd 7b 9e b3 3b bf 7c 28 bd 58 f8 7f bd
       -0.03177405 0.005481539 -0.041134592 -0.0624927
000170 ec 1b 69 3d 9f a4 40 bd ec 64 cc 3e ee 4d d9 be
       0.056911394 -0.047031995 0.39920747 -0.42442268
000180 2b aa be bd fd 2a 8e 3e 49 68 5c 3c 05 60 2c 3e
       -0.09309801 0.27767172 0.013452598 0.16833504
000190 72 22 a8 be 49 27 a3 be 24 f5 84 bd 1a 02 9c 3d
       -0.3283878 -0.3186591 -0.06492069 0.07617588
0001a0 8b 9d 70 bd e8 d9 09 3e 3d 19 74 bc 08 be 94 be
       -0.058743995 0.13462031 -0.014898595 -0.29051232
0001b0 dd ef 38 3d 0a 68 b5 3e 9d 5c b0 bd 7a 3c 48 bd
       0.045150626 0.35430938 -0.086114146 -0.0488858
0001c0 8f 51 96 3d 4f 7d 11 3d 94 80 8d 3d 79 94 26 be
       0.07339775 0.035519894 0.0690929 -0.16267575
0001d0 bf b2 24 3e 25 bc 41 be ee 36 8f 3c 99 66 72 bd
       0.16083811 -0.18919428 0.017482247 -0.059179876
0001e0 1e 50 fb bd 3d 5a 9a 3e 95 79 a1 bd 62 f5 53 3d
       -0.122711405 0.3014697 -0.07884518 0.051747687
0001f0 98 df 93 3e ab af 7c 3d c1 7c a3 3d 51 5e 46 3e
       0.28881526 0.061690968 0.07982779 0.19371916
000200 e9 6d 5f 3d 5b f8 c6 3e 4e 4d 2d be 6c 1b 2a be
       0.054548178 0.38861355 -0.1692402 -0.16612023
000210 91 40 27 be 91 61 fa 3d 34 93 30 3d f1 49 bd 3d
       -0.16333224 0.122256406 0.043109134 0.09242619
000220 6f af 3f be 09 83 f0 bd 9f e6 45 3e 2f 6d 55 3e
       -0.18719266 -0.11743743 0.19326256 0.20842431
000230 62 c8 bc 3c 97 a5 f3 bc c5 af 1d bd d4 f4 83 3e
       0.023044769 -0.029742045 -0.038497705 0.25772727
000240 72 1a 8b be 1a c9 3a bc 3f 36 88 be d0 a9 80 3d
       -0.27168614 -0.011400485 -0.26603886 0.06282389
000250 ef c8 c7 3c 61 10 d1 3d c8 d1 aa bc 10 7e 43 be
       0.024387805 0.10208202 -0.020851985 -0.19091058
000260 8c c9 b0 bd 36 38 96 3d e4 94 47 be 5b 1c 0a be
       -0.08632192 0.0733494 -0.19490391 -0.13487379
000270 16 59 f4 3d a5 48 c4 bd 02 f4 ad 3e 0e 38 c8 be
       0.11931054 -0.09584168 0.33975226 -0.39105266
000280 bf 1c 6c bd e7 3a cc 3e 54 38 30 3c e4 a2 91 3e
       -0.057644602 0.3988869 0.010755617 0.28444588
000290 64 9d 98 be 96 47 49 3e 46 c9 c6 3d ad de 0c 3e
       -0.2980758 0.19656214 0.097063586 0.13756819
0002a0 00 8d 84 be fa 3a ab 3e 07 7d 3e be 0c c1 9a be
       -0.25888824 0.33443433 -0.18602382 -0.30225408
0002b0 c6 08 26 3e bd 63 62 bd bd fd 3d be 8b fc 8b bc
       0.16214284 -0.0552709 -0.18553825 -0.017088195
0002c0 f3 fd 1b 3d ff eb e9 3c fa b8 2a 3f c2 79 5d be
       0.03808398 0.028554915 0.666885 -0.21628478
0002d0 b1 11 bc 3e 1c 11 3b be 0b 4a 08 be 71 3e 1d be
       0.36732247 -0.18268245 -0.13309495 -0.15355851
0002e0 45 f9 ed bd e7 e5 47 3e 7f 2b 0e be ce 51 5b bc
       -0.1161981 0.19521295 -0.1388378 -0.013386203
0002f0 d1 c4 f2 3e 67 a3 4b 3e df 15 a9 bc 7e 75 21 3e
       0.47415784 0.19886552 -0.020640312 0.15767476
000300 ae db ec bd 26 40 07 be 3c 50 2d bd 67 5d d9 ba
       -0.11565338 -0.13208064 -0.042312846 -0.0016583622
000310 1e 51 bc bb 2b 4f 9b be f8 f2 b3 3d 82 d6 07 3d
       -0.0057469746 -0.30333838 0.08786577 0.033163555
000320 ae f1 88 bd 68 1a 41 3e ab 3f 59 bd d0 11 7b be
       -0.06686722 0.1885773 -0.053039234 -0.24518514
000330 91 1e 82 be 83 1b 02 3d 0c 8b d7 3d 5c 1e 57 3e
       -0.25413945 0.03176452 0.10524568 0.21007675
000340 63 20 92 be b4 1d bd 3d 59 13 11 3d d0 3c f6 3c
       -0.28540334 0.09234181 0.035418842 0.030058295
000350 01 71 78 3e 62 9c e5 3d f5 43 2e 3e cc 16 58 bc
       0.24261858 0.11211468 0.17018111 -0.013189029
000360 39 fc 9a be dd bb d4 3c 09 ec 54 3e 37 d9 3d be
       -0.30270556 0.025968486 0.20793165 -0.18539892
000370 09 b9 8f bb 91 ef d5 3d 91 f1 82 bc 15 51 b7 3d
       -0.0043860716 0.10446084 -0.015984328 0.08951012
000380 f2 54 41 bc d9 49 52 3e 3c bb c4 3d 1c c6 f2 3e
       -0.011800038 0.20535983 0.096060246 0.4741677
000390 e3 92 a2 be 03 44 a4 3d 85 fa 00 3e f7 f6 e0 3d
       -0.3175269 0.08020785 0.12595566 0.10984605
0003a0 56 c4 8b be 2a a0 6b 3e c2 03 96 be 54 f4 0d 3e
       -0.2729823 0.23010316 -0.29299742 0.13862735
0003b0 af 64 1a 3d 9f 0a 04 be 5a 3b cc be 38 18 c7 3d
       0.037693676 -0.12894677 -0.39889032 0.09721416
0003c0 b9 56 22 3e d0 8b cb bd 54 37 f3 3e f2 7e 45 be
       0.15853395 -0.099387765 0.4750315 -0.19286707
0003d0 58 ad af 3e dc 21 42 3e fe 28 ad bc d0 a3 9a 3c
       0.34311938 0.18958229 -0.02113771 0.01887694
0003e0 d6 88 73 be 44 ba 82 3e a6 d4 6d bd 3d 42 ce 3c
       -0.23782668 0.25532734 -0.058064125 0.02517807
0003f0 a1 9c c6 3b 1d a2 51 3e 39 b9 09 bd e4 2b 54 3e
       0.006061152 0.20471998 -0.033623908 0.20719868

conv_v_to_c.feature_module_left.0.bias f4 [64]
000000 5e 1a 5b 3c ab 27 8e bc 50 34 59 3e 86 59 f7 bd
       0.013372986 -0.0173529 0.21211362 -0.12077622
000010 95 ec 23 bd a2 ec 1b be 2e 16 88 3d 1d 97 5b 3e
       -0.040020544 -0.15226987 0.066448554 0.21444364
000020 5e 55 24 3e b8 44 4a 3d aa b7 c3 3d 2a 1f a3 3d
       0.1604819 0.04938194 0.095565155 0.079649284
000030 a0 ce 64 3e e2 09 17 bd b4 18 b0 bd 53 1c b2 bd
       0.22344446 -0.03687466 -0.08598462 -0.08696809
000040 2a 70 7e 3d 38 6e 23 bc 1a 5f e3 3d 9a 6f 17 be
       0.062118687 -0.009975009 0.111021236 -0.14788666
000050 c6 d6 a8 bb 7a 7b bf bd 13 8c 10 3d 9e 44 04 3e
       -0.005152556 -0.09349723 0.035289835 0.129168
000060 5a 4d ad be bf e4 2e 3e 7f c1 90 3e ef 70 fa be
       -0.33848077 0.17079447 0.28272626 -0.48914286
000070 15 96 11 be d1 56 f8 3c 54 c9 52 bd 6f 2f 70 be
       -0.14217408 0.030314835 -0.051461533 -0.23455594
000080 57 34 09 3e 25 4a fc bd 56 c2 ea bc 9d d1 44 3e
       0.13398872 -0.123188294 -0.02865712 0.19220586
000090 43 b2 a1 3c b4 83 27 3c 7d 60 81 3d aa 6a 18 3c
       0.019738322 0.010224272 0.06317232 0.009302774
0000a0 eb 89 8c 3e fe e7 23 be 1f f1 3b 3e b2 56 07 bc
       0.27448973 -0.16006467 0.18353699 -0.008260416
0000b0 b4 5f 1b be 48 9a a0 bb 86 29 a3 3d 4e 55 6d 3e
       -0.15173227 -0.0049012043 0.07966904 0.23177072
0000c0 a8 d3 0e 3d bf 5b 72 3e 32 52 c0 3d 28 14 58 3e
       0.03486982 0.23667811 0.093906775 0.21101439
0000d0 5b cc 68 3e 5a 79 73 3e 22 f4 34 be 2c b8 e4 3d
       0.22734205 0.2377676 -0.17671254 0.111679405
0000e0 e8 3a e1 bd c7 24 5d 3e 52 aa 11 3d 22 21 14 3e
       -0.109975636 0.2159606 0.03556282 0.14465764
0000f0 af b7 2f bd 61 8d e6 bd 6e fd 8f 3d b9 5f 29 be
       -0.042899784 -0.11257435 0.0703076 -0.16540422

conv_v_to_c.feature_module_edge.0.weight f4 [64, 1]
000000 68 2d c1 3f 3a 63 81 bf c3 69 ce bf 5d b1 74 3f
       1.5091982 -1.0108407 -1.6126026 0.95583135
000010 c3 a5 01 40 93 b3 69 bf 5d 74 22 c0 3f e1 19 bf
       2.0257423 -0.91289634 -2.5383523 -0.60109323
000020 32 47 ce 3f 30 68 ba 3d 50 c0 1f bf d3 5a 0d c0
       1.6115477 0.091019034 -0.6240282 -2.2086685
000030 d2 87 98 3f c5 58 d9 bf ff 8a c4 bf de bb 84 bf
       1.1916449 -1.6980215 -1.5354918 -1.0369833
000040 ca 16 c9 be 25 6a 84 bf 3a f7 d7 3f c2 f4 1a 40
       -0.392752 -1.0344893 1.6872323 2.4211888
000050 ff 69 2e bf cf 71 d6 3f 20 7e d6 bf 5e 7b dd bf
       -0.6813049 1.6753482 -1.675724 -1.7303274
000060 46 c3 40 bf e2 a0 80 bf f2 19 c7 3f 74 b2 12 bf
       -0.75297964 -1.0049098 1.5554793 -0.5730355
000070 a2 8e 82 3f a0 b8 06 3c 3c de 02 3e dc 14 12 40
       1.0199778 0.008222729 0.12780088 2.2825232
000080 49 c4 8b bf 74 c7 1a 3f d8 40 00 be fe b6 73 bf
       -1.0919276 0.6046059 -0.12524736 -0.952011
000090 ee 2c b7 3f 5e 4a 72 bf be 09 0d bf 71 13 17 3f
       1.4310586 -0.94644725 -0.5509299 0.5901404
0000a0 22 e2 d1 3f de 5c 22 3f 5c d2 a5 bf 78 c4 57 3f
       1.6397135 0.63422954 -1.2954822 0.8428416
0000b0 32 26 a5 3e 45 4e 75 bf 91 e8 38 bd eb 8a 0b c0
       0.32255703 -0.95822555 -0.045143668 -2.1803539
0000c0 bd 12 77 3f 8e f9 17 c0 dc 03 f7 bf 5e 3e 71 bd
       0.9651297 -2.3746066 -1.9298053 -0.05889737
0000d0 a1 c7 df 3f 17 03 18 40 83 f9 5a bf 39 bd 18 c0
       1.7482797 2.3751886 -0.85536975 -2.3865492
0000e0 1c 19 97 3f b0 2e 4e bf 20 d6 8c bf c8 72 2b 3f
       1.1804538 -0.8053999 -1.1002846 0.6697202
0000f0 26 dd ad 3f f8 e8 47 bf fa 7d e6 be 6d 1e 6d 3f
       1.3583114 -0.7808986 -0.45017987 0.9262455
