im_state/model_SC_r=30_IL.pth (torch, 484848 bytes, 71 tensors)

cons_embedding.0.weight f4 [4]
000000 b9 55 6f 3f 1d 89 6d 3f 9b 07 fd 3e f8 75 d4 3e
       0.9349018 0.92787343 0.49419865 0.41496253

cons_embedding.0.bias f4 [4]
000000 24 8e 1a 3e 4a ff 38 3e 21 8c 6a be fe a9 c9 bd
       0.15093285 0.18066135 -0.22905017 -0.098468766

cons_embedding.1.weight f4 [64, 4]
000000 1a c2 1a bf 03 1a 12 3f 5b d3 13 be f8 b2 48 bd
       -0.60452425 0.5707094 -0.14436094 -0.048998803
000010 fb f9 98 3e 91 fd 05 be b7 fb 70 3f f1 ce 8e bf
       0.2987822 -0.13085009 0.94134086 -1.1156904
000020 9c ec 95 be 34 f0 41 bf e1 8c 54 bf 63 40 a7 bf
       -0.2928208 -0.75757146 -0.83027464 -1.3066524
000030 23 84 b0 be fd a7 80 3e 19 ae 53 be 6b be 68 bf
       -0.34475812 0.25128165 -0.20671882 -0.90915555
000040 3a 99 8b 3e 95 a3 0a 3f df 37 96 bd 13 e9 5e be
       0.2726534 0.54155856 -0.07334875 -0.21768598
000050 9f 1a 04 3f da ce 9a 3e 82 04 6d 3f 18 e2 36 3f
       0.5160312 0.3023594 0.92585003 0.7143874
000060 b4 74 20 3f d3 01 b0 be c5 fd 98 bd c7 35 41 3f
       0.62678075 -0.34376392 -0.07470278 0.7547268
000070 de 1b 9d bf 16 f5 67 3f 6a 74 b6 3e 11 91 17 bf
       -1.2274129 0.90608346 0.35635692 -0.5920573
000080 8c 65 07 bf 36 6f 49 3f fd 10 4d bf 6c ef 90 3f
       -0.52889323 0.7868532 -0.8010405 1.1323066
000090 94 af 77 be 14 79 59 3f 67 ec 4a 3e 46 f3 a4 3f
       -0.24188071 0.84950376 0.19816743 1.2886741
0000a0 92 15 92 3f 47 b4 48 bf 7b b5 45 3f a3 b8 3b be
       1.1412833 -0.7840008 0.7723004 -0.18332152
0000b0 ed b2 25 3f 86 dc 0a be 27 b0 6c 3e 7a ca 63 3f
       0.64726144 -0.13560686 0.23114072 0.8898083
0000c0 5a af 3f 3e e1 28 7c bd 7f d2 9f be d5 7d aa be
       0.18719235 -0.061562423 -0.31215283 -0.33299127
0000d0 f0 2b 21 3f 2e 7a 76 bf d5 0a 51 bf 0d d4 34 3f
       0.6295767 -0.9628018 -0.81657153 0.70636064
0000e0 37 9b 24 3d fe c2 00 bf 33 35 ba 3d 6f de 8f bf
       0.040187087 -0.50297534 0.09092178 -1.1239756
0000f0 db 31 61 3e 61 17 28 3f ba 52 7a 3e 0e f3 3e 3f
       0.21991675 0.65660673 0.2444562 0.7458962
000100 60 f1 4c 3f c9 c1 6a 3e 8d bd 22 be e0 34 a1 3f
       0.8005581 0.22925486 -0.1589262 1.2594261
000110 8e aa 30 3f 98 93 27 bf b9 18 15 be 3e 70 9d 3e
       0.69010246 -0.65459585 -0.14560212 0.30749696
000120 bf 32 00 3f ab 47 9c be 60 8a 0a bf a9 24 8e 3f
       0.5007743 -0.30523428 -0.54117393 1.1104938
000130 df af 63 3d d6 83 09 bf 4f b4 79 be 35 ab e9 3c
       0.055587646 -0.5371679 -0.24385189 0.02852402
000140 11 ce 04 bf 2a c7 73 be 92 96 b4 bf d7 dc 5d bd
       -0.5187693 -0.23806444 -1.410845 -0.054165687
000150 56 e8 29 3f 75 ef f1 be a7 e7 78 bf 3d c7 a2 3b
       0.6637014 -0.47253004 -0.97228473 0.0049675987
000160 a1 00 11 3f 80 64 99 3e 16 8e 55 3d 24 14 b6 be
       0.56641585 0.29959488 0.052137457 -0.3556224
000170 a2 9f 42 3f 7f e1 fe be ea a8 b2 be c0 de 7e 3f
       0.7602483 -0.49781415 -0.34894496 0.9955864
000180 56 88 40 3e 6b 92 56 bf f7 6f 10 3d ea 3a 22 bf
       0.18802008 -0.83817166 0.035263028 -0.63371146
000190 36 83 dd 3e 2a 25 0c bf 50 d1 16 bf ae a5 26 bf
       0.43264169 -0.5474421 -0.58913136 -0.6509656
0001a0 15 31 a8 be 48 9a 7d 3f db 29 f9 bd 04 0c 41 3f
       -0.32849947 0.9906354 -0.121661864 0.7540896
0001b0 2a 06 28 bf e5 b3 26 3e 75 85 3f bf 90 16 e1 be
       -0.65634406 0.16279562 -0.74813014 -0.43962526
0001c0 f6 eb d5 3e 77 30 98 bd 71 09 9d 3e 39 21 79 3f
       0.41781586 -0.07431119 0.30671266 0.9731632
0001d0 c1 92 a9 3d ee 4c 20 bf 55 e7 84 bf 92 ed be 3c
       0.08279944 -0.62617385 -1.0383097 0.023306642
0001e0 57 fb 31 bf 0b e7 32 bf 02 90 c4 3e 40 69 54 3f
       -0.6952414 -0.69883794 0.3839112 0.829731
0001f0 e6 d5 41 bf 0e 7a 34 3f a8 1c 07 3f 1b 54 47 bf
       -0.7571701 0.7049874 0.527781 -0.7786271
000200 4f d0 0d 3e 04 4b b4 3e 04 bb f8 bd f2 1c 6f bd
       0.13848995 0.35213482 -0.121450454 -0.058377214
000210 3a 67 7f 3f ba e6 86 bf 70 20 5c bf e4 1a fd 3d
       0.99766886 -1.0539162 -0.85986996 0.123586446
000220 90 e3 5c 3f eb 58 29 bf c5 25 7f bf a6 64 43 3f
       0.8628473 -0.66151303 -0.99667007 0.7632545
000230 6f 39 11 3f 59 1c 41 be 65 66 28 3f a4 b9 82 bf
       0.5672826 -0.1885847 0.6578124 -1.0212903
000240 e0 83 04 bf fe 14 70 3f 09 c7 77 3f 5d 62 ee be
       -0.51763725 0.9378203 0.9678808 -0.4655942
000250 d9 92 47 be e3 6d 22 bf f1 76 23 bf a2 5c 3f be
       -0.19489612 -0.63448924 -0.63853365 -0.1868768
000260 fb 06 20 3f 47 38 5f bf ba 74 22 bf 5a aa 40 3f
       0.6251065 -0.8719525 -0.6345936 0.75259936
000270 e8 f1 10 bf df 96 87 3f 06 32 3f 3f 94 2e 8b be
       -0.5661912 1.0592917 0.74685705 -0.27183974
000280 52 f7 9d be a9 bd 8e 3f 8c b5 86 3f c3 0e d9 3e
       -0.30852753 1.115163 1.0524154 0.42394075
000290 62 1a c3 3e 98 5c 4b 3e 2f 5c 10 3f 91 24 c4 be
       0.38106066 0.1985954 0.5639066 -0.38309148
0002a0 ea 95 60 3f 2e 33 00 bf a0 3b 68 3e 63 b7 81 bd
       0.8772875 -0.50078094 0.22678995 -0.06333806
0002b0 e5 56 2a 3f a5 c4 17 be 60 7c 46 3e 61 89 73 3f
       0.6653884 -0.14821108 0.19383383 0.951315
0002c0 dd 70 af bf cd 14 66 3f 8b e2 42 bf 0e 76 74 bd
       -1.3706318 0.8987549 -0.7612693 -0.0596829
0002d0 7e b5 87 3e 1f 5b c9 bd 5a ca 54 3f ae 30 f2 be
       0.26505655 -0.09831833 0.83121264 -0.47302765
0002e0 f8 ef 98 be 87 a0 7d 3f cb 62 29 3f 52 8b 88 3f
       -0.29870582 0.9907307 0.6616637 1.0667517
0002f0 d6 bb 5d bf db 11 90 3f d1 8e 02 bf 40 49 2b 3f
       -0.8661474 1.1255449 -0.5099917 0.66908646
000300 2e ed 68 bf 3f ae 1f 3e f4 97 77 bf 5d 4f 4e bf
       -0.9098691 0.15593813 -0.9671624 -0.8058985
000310 87 a8 d1 3e a8 b6 51 3f c2 bb 04 be a3 ef 2c 3f
       0.4094889 0.81919336 -0.12962249 0.67553157
000320 89 74 1b 3f b1 89 78 be 1d 93 24 bf cf 3d e7 3e
       0.60724694 -0.24271275 -0.6428698 0.45164344
000330 82 0f c9 ba 8a dc 0c 3f a4 9d 96 3f 20 6f 2e be
       -0.0015339705 0.55024016 1.1766858 -0.17034578
000340 0b 66 2a bf 6e 26 ed 3e f1 9d d3 be bb 20 e3 3d
       -0.66561955 0.46318382 -0.41331437 0.11090227
000350 c8 b6 b4 be f7 65 80 3f cd 3f 6e 3f db 63 14 3f
       -0.352957 1.0031117 0.930661 0.5796487
000360 42 20 30 3e 26 04 12 bf f9 10 c3 be cb aa 5f bf
       0.17199805 -0.5703758 -0.38098887 -0.87369984
000370 83 5a d7 be e2 6b 92 be e1 91 38 bf c6 c0 40 bf
       -0.42061242 -0.28597933 -0.72097594 -0.7529415
000380 aa ce 1e 3f db 72 87 bf 67 e6 af be 39 f2 b5 3e
       0.62034094 -1.0581926 -0.3435547 0.35536364
000390 8a da 42 3f 5f d4 57 3f ff 12 b4 bd 8c cf 8e 3f
       0.76114714 0.8430843 -0.08792686 1.1157088
0003a0 c7 05 9b bd af 18 4f be 15 5e 94 bf 55 da 40 3f
       -0.07569461 -0.2022426 -1.1591212 0.7533315
0003b0 3f 29 37 bf 08 bc a4 3f 84 51 9d 3e 2c bb e4 3e
       -0.7154731 1.2869883 0.30726254 0.4467405
0003c0 70 56 15 be a6 a1 e8 3e 01 8c 49 bf 0a 3a 1a 3f
       -0.14583755 0.45435828 -0.78729254 0.6024481
0003d0 fd 6e 6c 3f df 6f 38 bf 24 79 12 3e d1 53 47 3e
       0.92356855 -0.720457 0.14304024 0.19465567
0003e0 06 7b 4b bf 1a a4 34 3e f8 6b 86 bf 5f b8 22 be
       -0.79484594 0.17640725 -1.05017 -0.15890644
0003f0 b8 da bd 3e 22 87 14 3f 16 69 8e 3f ad c6 53 3f
       0.37080932 0.58018696 1.112582 0.8272503

cons_embedding.1.bias f4 [64]
000000 a3 be 01 bd e0 1d 88 3e 7d df 20 be 4e da 78 3e
       -0.031675946 0.26585293 -0.15710254 0.24302027
000010 59 70 f5 3e 04 cf 2f 3e 16 68 3d 3d 35 dd 84 be
       0.47937277 0.17168814 0.046241842 -0.25950018
000020 f8 31 94 bc 44 3c 37 bd cf 81 6c 3e ff 29 b1 3d
       -0.018090233 -0.04473521 0.23096393 0.08650588
000030 0b 6b 9b 3e 5a 0c 3b be 7c 7b 02 bb d7 a7 4a 3e
       0.30355105 -0.1826643 -0.0019910028 0.19790588
000040 1f 0c bc 3e 5e 09 04 3d c7 e8 9d bc 9d 62 92 be
       0.36727998 0.032235496 -0.019276036 -0.2859086
000050 44 5a 5b be d2 dc e9 3e ab 5a 9e 3e 04 b1 2e 3d
       -0.21421152 0.45676285 0.3092855 0.042649284
000060 04 bf 23 be 81 e4 1c be fb b8 6d 3e 99 58 aa bd
       -0.15990835 -0.15321542 0.23215096 -0.0831768
000070 c5 a9 d3 bd 96 2c 05 be 7c ef 55 bf 9c f1 c1 bb
       -0.10335115 -0.1300529 -0.8356855 -0.0059186947
000080 98 d9 b8 3e fe bd 7b 3e 99 75 89 3e 0d b7 f6 3e
       0.3610351 0.24584195 0.26847532 0.48186532
000090 5b 2b 11 3e c3 77 c1 be ee 6b 3f be 08 ae 43 3e
       0.14176695 -0.37786683 -0.18693516 0.19109356
0000a0 18 09 0c 3e 64 c2 d4 3e 4f 2d 99 3e ee 8c b0 3d
       0.13675344 0.41554558 0.2991738 0.0862063
0000b0 30 d6 82 be d5 86 e0 bc 6a e0 48 bd b1 df c3 3c
       -0.25554037 -0.027408043 -0.049042143 0.023910375
0000c0 77 ad f4 bd 9c a5 3c 3f 64 0e 9e 3e 9a 51 18 3e
       -0.11947148 0.736902 0.30870354 0.14874879
0000d0 66 18 0f be 4d 05 7f 3b 7b 51 d8 3d da 64 08 be
       -0.13974151 0.0038913072 0.10562416 -0.13319722
0000e0 46 32 88 be 1a fa 41 3f 9b b4 12 be b8 0d e3 3d
       -0.26600856 0.7577225 -0.14326708 0.11086601
0000f0 a8 60 66 3e ca 69 3d 3e 13 b3 49 be f2 d4 39 3e
       0.22497809 0.18497387 -0.19697218 0.18147638

cons_embedding.3.weight f4 [64, 64]
000000 d1 04 57 3d fe d2 26 bd 64 dc 07 be 61 70 fc 3d
       0.052494828 -0.04072856 -0.13267666 0.12326122
000010 25 04 4c 3c 86 06 10 ba c4 cb 36 3c 42 a5 39 ba
       0.01245216 -0.0005494136 0.01115698 -0.0007081815
000020 ae 98 d3 bd 95 29 76 3e d8 a3 c7 be 79 73 62 3c
       -0.10331856 0.240393 -0.3899219 0.013821476
000030 ca 0b ed bd 59 ab 7e be f3 19 08 3c 3c 76 0e bb
       -0.11574514 -0.24870051 0.008306968 -0.0021737954
000040 3e 3b cd bd ca a6 9f 3e 47 da 7c bd 11 4b e0 3d
       -0.10021065 0.31181937 -0.061731603 0.10951818
000050 52 9a ff 3a 3a 47 73 bd 7a ed 2d be 00 da 8c be
       0.0019500947 -0.0593941 -0.16985121 -0.2751007
000060 82 41 07 be b4 15 37 be 79 3d 95 bd 52 d7 fe 3d
       -0.13208583 -0.17879373 -0.072871156 0.12443413
000070 2b eb 80 3b 29 06 81 3d 4e c8 9c be 4f 8c 4a 3e
       0.003934284 0.06300003 -0.3062157 0.19780086
000080 74 6e 19 3e c1 17 46 3e c4 cc 2a 3e 46 bc 55 be
       0.14983541 0.19344999 0.16679674 -0.20872602
000090 69 43 8d 3e 64 71 d0 bd 96 6a ee 3d 49 a0 28 be
       0.27590492 -0.101778775 0.116414234 -0.16467394
0000a0 85 e0 0b 3e da 94 97 3e 40 3e 93 3e c4 e6 4f bd
       0.13659866 0.29605752 0.2875843 -0.050757185
0000b0 8b 2a 66 bd f5 45 01 be a3 69 31 3d 72 cd 74 3d
       -0.056192916 -0.12624343 0.043313634 0.05976624
0000c0 62 54 01 bd ba 8f df 3d 2a fd b8 3e 9a 34 b3 3d
       -0.031574614 0.109160855 0.3613065 0.08750267
0000d0 ec ee bc bd d7 88 29 3c 50 db 61 3e 07 d4 0d 3d
       -0.09225258 0.010347567 0.22056317 0.034626033
0000e0 bf 3b 89 bd ca b3 8d 3e 8f cd ee bc e7 c5 b3 bd
       -0.06700849 0.2767623 -0.029150752 -0.08777981
0000f0 95 2e 1f bd d7 c5 d4 3d 83 63 3f 3d a0 63 d2 3b
       -0.038862783 0.103892975 0.04672576 0.0064205676
000100 42 02 b5 3c b7 57 7d 3e b7 62 01 be 42 8e e7 bd
       0.022095803 0.24740492 -0.12635313 -0.113064304
000110 9a c0 8a bd 4c b5 bc 3d 2d a3 7d 3e 14 a6 f4 3d
       -0.06775017 0.09214267 0.24769278 0.119457394
000120 87 4f 98 3d 6d 02 20 be 74 ba 5b be c5 f5 92 bd
       0.07437044 -0.15625925 -0.21457845 -0.07175783
000130 b3 22 0b be d9 74 52 ba e6 cb 0f bd da 83 7c be
       -0.13587455 -0.0008028276 -0.035106562 -0.24659672
000140 08 58 07 bd fb fd 58 be ef c5 db 3a 04 8f d3 bd
       -0.033042938 -0.21190636 0.0016767363 -0.103300124
000150 e5 7e 56 3e 45 b3 5b be 20 91 76 bd 3e 23 f8 3d
       0.20946844 -0.21455105 -0.060196996 0.12116097
000160 5b 4d 65 3e c2 65 07 be 0c e3 8b 3d 46 74 ac be
       0.2239279 -0.13222411 0.06830415 -0.3368246
000170 7c e1 4f 3d d8 e7 de 3d f8 47 6e be 5e dd 6f be
       0.050752148 0.108840644 -0.23269641 -0.23424289
000180 32 5b 85 bd 00 fe 88 be 6d d0 81 bd 7b da 0e 3e
       -0.06511535 -0.26756287 -0.06338582 0.13950531
000190 c4 f7 90 3d c7 0e a7 3e e3 c6 15 bb a5 8d 36 3e
       0.070785075 0.32628462 -0.0022854141 0.1782747
0001a0 44 ea 79 be 80 23 39 3e 72 a0 23 be 3f 32 af 3c
       -0.24405771 0.18079948 -0.15979174 0.021386264
0001b0 d6 1d 99 3e fd 99 7d 3d 69 e4 3c be 0d 75 df 3e
       0.29905576 0.061914433 -0.18446507 0.4364399
0001c0 0c b9 03 be ed b0 5e 3d 35 c0 34 3e e5 c9 cc bd
       -0.12863559 0.05436795 0.17651446 -0.09999446
0001d0 c1 4d c9 be ee 56 bb bd f1 ae 85 3e dd b5 65 bc
       -0.39317134 -0.0914744 0.26110032 -0.01402041
0001e0 55 08 4a be 4d 88 1e 3e a2 ca 9c 3d cf 39 8d 3e
       -0.19729741 0.15481682 0.07655837 0.27583167
0001f0 69 13 32 bd 24 b4 7f 3e ac b2 69 bd 16 79 6b bc
       -0.043475542 0.24971062 -0.05705516 -0.014372131
000200 4e 53 c2 3c 2a b4 26 3e f9 b5 7e bd 43 80 28 3e
       0.023721363 0.16279665 -0.06218526 0.16455178
000210 e5 9c 36 3d 31 10 f5 3c ce dd c0 3c 38 03 35 bc
       0.04458322 0.029914947 0.023543265 -0.011048131
000220 fa df fe 3d f6 09 3d 3e 6a cb 5c 3e 72 d8 12 be
       0.12445064 0.18460831 0.21561971 -0.1434038
000230 a7 af 11 be 8b fa 7c 3d 62 a6 a5 bc a8 4a 3e 3e
       -0.14227162 0.061762374 -0.02022094 0.18583167
000240 c1 ca dc bd 6b cd a9 3c 82 53 14 bd f0 b9 54 3d
       -0.1078086 0.020727834 -0.03621245 0.051935136
000250 99 1c 85 3d b5 0a c0 3d c3 35 38 3e ca 59 0e 3c
       0.06499595 0.09377042 0.17989258 0.0086884
000260 2b 56 4a 3e 2c 62 85 3d 13 93 89 bd bc 81 09 3d
       0.19759433 0.065128654 -0.06717505 0.03357099
000270 dd ef 19 bd 32 fe 91 bc 8e c9 98 3d 5b a9 a7 bd
       -0.037582267 -0.017821405 0.074603185 -0.08186599
000280 13 52 07 3e 97 0f 5c 3c 8b ae 95 3d a7 85 05 be
       0.13214903 0.013431451 0.07308682 -0.13039266
000290 cb e0 69 bd 28 38 02 3a 92 b6 eb 3d 82 8d b8 3d
       -0.057099145 0.00049674744 0.11509432 0.090113655
0002a0 96 c1 80 3d ba c0 a2 bd 4a eb 63 3c 9e 3a 83 3c
       0.062869236 -0.07946916 0.013911078 0.016019162
0002b0 11 58 28 3e de e0 19 be 63 2c 54 be 92 d4 64 be
       0.16439845 -0.15027186 -0.20720057 -0.22346714
0002c0 d7 30 06 be 17 23 0b 3e ae c4 bb 3c fe 9e 2f bb
       -0.13104568 0.13587604 0.022920933 -0.0026797648
0002d0 bc d5 30 bb 43 66 a3 3d f1 49 ab bc 5b 2e 22 bd
       -0.0026982864 0.07978489 -0.020909281 -0.03959499
0002e0 55 91 63 bc 35 94 00 bd b7 6c f0 bc 83 f2 f3 bd
       -0.01388963 -0.03139134 -0.029348714 -0.1191149
0002f0 ad 08 46 be cf a4 1d be cb 92 b0 3b df ac 07 3d
       -0.19339247 -0.153949 0.005388593 0.033123847
000300 9c de 13 be 79 39 0a be e1 31 6b bd ae f1 66 bd
       -0.14440387 -0.13498487 -0.057420615 -0.056382827
000310 3a d4 a3 3d e4 c8 22 bd 6b 4c 6f bd 2a 5f cd 3e
       0.079994634 -0.039742365 -0.058422487 0.40111667
000320 f5 9a 0c 3e e9 41 8d be 2b fc da bd df 2c b7 bc
       0.13730986 -0.27589348 -0.106926285 -0.022360263
000330 37 b7 6c be c5 91 02 be b4 46 7c 3d b5 d1 e8 bd
       -0.23116766 -0.12750919 0.061590865 -0.113681234
000340 2b e6 27 be 2d 10 8b 3e 21 05 a7 bd e9 ef 6a 3c
       -0.16396396 0.2716078 -0.08155275 0.014339426
000350 51 04 cb bd fe 69 91 be 14 35 4a 3e 3c c4 ae 3e
       -0.09912933 -0.28401178 0.1974681 0.3413409
000360 4b ca 92 be 5c 91 67 be 15 df 01 3f 99 de 27 3e
       -0.28669962 -0.22614044 0.5073102 0.16393508
000370 bf c5 bc bc 4a 3b 8c 3d af 54 63 3e 8b 36 12 be
       -0.023043511 0.06847246 0.22200273 -0.14278619
000380 10 75 ee bc 52 e3 54 be b2 8b 1a 3e e5 5f 14 3e
       -0.029108554 -0.20789841 0.15092352 0.14489706
000390 7f 0a b4 3d 6a e9 7e 3d 54 6a 00 be 1c af 26 3e
       0.087910645 0.06223432 -0.12540561 0.16277736
0003a0 ae 4c 01 be 1b 66 bc bd 69 07 90 3e 2c cf ac 3c
       -0.12626907 -0.091991626 0.28130654 0.021094881
0003b0 1e 31 17 3d 6b c0 cd bd ce 7d 54 be 65 d6 f0 bd
       0.036912076 -0.100464664 -0.20751116 -0.117596425
0003c0 a0 de d4 3c 99 a3 2a 3e 37 1f 87 3e 9b 58 23 be
       0.025985062 0.1666397 0.26391003 -0.15951769
0003d0 d7 32 95 bd 90 54 1d 3e fb 21 d0 3d b4 65 48 3d
       -0.072850876 0.1536429 0.10162731 0.048925117
0003e0 e4 d8 16 3e 28 1a 77 3e 90 e0 b2 bc 7a cd c2 bd
       0.14731175 0.24131072 -0.021835595 -0.09511848
0003f0 3b d5 85 be 85 86 a1 be 1b 63 56 bd 4b 43 b4 bc
       -0.26139244 -0.31547943 -0.052340608 -0.022004744

cons_embedding.3.bias f4 [64]
000000 2d ff 8a 3d d4 74 c7 bc bd 91 8e 3d a1 2e 90 bd
       0.06786952 -0.0243477 0.06961391 -0.07040144
000010 db b2 29 bd 85 c5 9f 3d 71 96 85 bd 89 66 15 3e
       -0.041430335 0.07801346 -0.06522835 0.14589895
000020 10 0a 15 be a0 53 08 be d5 a6 24 ba 16 dc 3e bd
       -0.1455462 -0.1331315 -0.00062809634 -0.04659661
000030 b8 9b 27 3b f7 77 97 bd 11 54 db 3c 42 18 17 bd
       0.0025574993 -0.07395928 0.026773484 -0.03688837
000040 44 7d 18 3e e1 37 26 ba bc f2 a0 3c 64 40 92 3c
       0.14891535 -0.0006340724 0.019646995 0.01785297
000050 a5 8f 75 3d 33 05 2b be a2 42 10 bd f4 b8 ec bd
       0.059951443 -0.16701202 -0.035219796 -0.115587145
000060 2f 36 ed 3c c2 d9 c9 3e 21 c9 41 be 90 88 28 bb
       0.0289565 0.3942395 -0.18924381 -0.0025716163
000070 1b d9 26 3b 14 cd a9 bd fd 2a 28 bd 61 1f 00 3e
       0.0025458995 -0.08291069 -0.04105662 0.1251197
000080 9d d2 84 3b 93 41 db 3b 33 83 47 3e bb 71 16 bc
       0.0040534274 0.0066911667 0.19483642 -0.009182389
000090 2f 0a b0 3b f6 45 11 3d 2e 23 84 3d c4 59 0d be
       0.0053723077 0.03546711 0.064520225 -0.13803774
0000a0 4e bf 95 bd 35 25 de 3c f1 34 91 3e 7b 30 3e 3c
       -0.07311879 0.027117351 0.28360704 0.011608238
0000b0 2d df fc 3c b4 98 7c bc af 84 b3 bd a7 eb 3b 3d
       0.030868137 -0.015417267 -0.08765542 0.045879032
0000c0 7d 18 1e bd 90 9d fd 3c 92 b5 94 bd 39 08 dc 3c
       -0.038597573 0.03095892 -0.07261194 0.02685939
0000d0 e8 e9 bc 3e 3f bb da 3d 01 59 f7 bd 00 aa c1 3a
       0.36897206 0.106802456 -0.12077523 0.0014775395
0000e0 96 92 5f 3b d1 0d 40 3d 10 5a 80 3d a7 73 13 bd
       0.0034114472 0.046888176 0.06267178 -0.035998967
0000f0 f5 fb 95 bd 0a 37 98 bd 9a b4 fa ba ba 36 f7 3b
       -0.073234476 -0.07432373 -0.001912731 0.0075443657

var_embedding.0.weight f4 [7]
000000 cb 08 d2 3f 23 3a 8e 3f ef 9d 95 3f 70 77 81 3f
       1.6408933 1.1111492 1.1688823 1.0114574
000010 74 ac 6b 3f e1 df 84 3f 58 51 92 3f
       0.9206002 1.0380822 1.1431074

var_embedding.0.bias f4 [7]
000000 89 57 a2 bc 69 2e ee bd cc 09 45 be 72 44 2a 3e
       -0.01981713 -0.11629946 -0.19242018 0.16627672
000010 d3 20 be 3d dd 4b 89 3d fc 39 0d bd
       0.092836045 0.06703923 -0.034479126

var_embedding.1.weight f4 [64, 7]
000000 d5 27 a6 bf bf ff 13 3f 66 8b e3 bd 73 05 23 3f
       -1.2980906 0.5781211 -0.111105725 0.6368019
000010 2c ae 67 3e 2d 67 1a 3d a4 28 67 3f b8 02 a3 3f
       0.22625035 0.037696052 0.9029639 1.2735205
000020 ca 7e c1 3e 0b 2a fd bd 76 44 bc be a0 f8 45 3e
       0.37792045 -0.12361535 -0.36770982 0.19333124
000030 f1 ce 4a 3f d0 db 4f bf 58 3a 9b 3f 8c 99 a8 3e
       0.7922202 -0.8119478 1.212718 0.32929647
000040 28 18 28 bf e5 42 29 3f 7b a1 36 3e 07 c6 48 3d
       -0.6566186 0.661177 0.17835037 0.04901698
000050 c5 f8 ba be 5c 81 46 3e 4f cc 55 be e5 65 78 bd
       -0.3651792 0.19385284 -0.20878719 -0.06064405
000060 bd 90 61 bf bd 95 3f 3f e0 ac 33 bf c5 4d eb 3d
       -0.8811148 0.7483786 -0.7018566 0.11489443
000070 b1 af 05 bf 42 a4 3c bf b1 fd 22 3f ea 55 42 3d
       -0.5222121 -0.7368814 0.6366835 0.047445215
000080 d3 69 09 be 78 6f c5 be 2b 2a 03 be 0a f7 46 be
       -0.13419275 -0.38561606 -0.12809055 -0.19430175
000090 3f 07 13 3f fc f0 33 bf 4e 04 27 3f ba 12 21 bf
       0.5743293 -0.7028959 0.65240943 -0.629192
0000a0 40 7e 3e bf 26 db 7a 3f b0 d3 74 3f bd 71 b5 3e
       -0.7441139 0.97990644 0.9563551 0.35438338
0000b0 7b f3 d9 be bb 47 5b bf c1 9d a1 3e fb 3b e6 be
       -0.42568573 -0.85656327 0.3156567 -0.44967636
0000c0 95 72 ba bd 8c 3e 3b be aa c3 9a 3f 02 58 89 3f
       -0.09103886 -0.18285578 1.2090962 1.0729983
0000d0 89 d9 cd 3e 29 5c 53 be 0e 8e 2b be 54 09 3c 3e
       0.4020503 -0.20640625 -0.16753408 0.18362933
0000e0 13 ec ae bf 80 64 f1 be 78 08 d3 3c 58 6e ce 3e
       -1.3665794 -0.47146988 0.025760874 0.4031856
0000f0 95 f0 4c bf 84 63 f9 be 5e 02 2f 3f 12 a0 1d 3f
       -0.800546 -0.48708737 0.6836299 0.6157237
000100 bc 18 96 3e 09 55 65 3d 63 39 04 bf 2a ed 4f 3f
       0.29315746 0.0559893 -0.51650065 0.8122126
000110 b5 59 bd 3e 2d f9 78 3f bd dd 04 3f 3f 7b 37 3f
       0.36982504 0.9725521 0.51900846 0.71672434
000120 71 9d e7 3d 56 1c 37 3f 95 92 18 3f 5a 0b 57 be
       0.113093264 0.7152761 0.59598666 -0.21000424
000130 fa 51 c0 3e 9d fb 90 3d bc 77 0a 3f 26 4b de 3f
       0.37562543 0.070792414 0.5408895 1.7366683
000140 65 ea 8a bf 52 f7 8e bd ac f3 c9 be 57 da 7a bf
       -1.0852782 -0.06980766 -0.3944372 -0.9798941
000150 80 27 7a bf 2f 53 d6 3e 77 69 27 3f 04 6b d7 3e
       -0.9771652 0.4186034 0.653953 0.42073834
000160 75 a4 3f bf fc 0b 10 3f be 5c 42 bf b3 cf 1d 3e
       -0.74860317 0.56268287 -0.75922763 0.15411262
000170 ee 20 0c be b1 82 8f 3e a2 6b 54 bd 62 d7 03 bf
       -0.13684437 0.28029397 -0.05186046 -0.51500523
000180 e2 60 2a 3f be b6 3d 3e dc 9c a6 bd 9f 4f 50 bf
       0.6655408 0.18526742 -0.08135387 -0.8137149
000190 bf f8 cc be 78 8a a7 3e ba 8a 4c 3f 1a 28 06 bf
       -0.40033528 0.3272283 0.7989918 -0.5240494
0001a0 2d 2a 86 3f a6 e2 ec 3e 44 49 b3 3e 03 14 65 be
       1.0481621 0.4626667 0.35016835 -0.22370915
0001b0 ca 27 23 bf 70 58 f4 3e 1e 00 4c bf f0 9b 12 bf
       -0.6373259 0.47723722 -0.7968768 -0.5726919
0001c0 63 5a 8b bf 35 10 f7 be 65 a5 31 3f 6e 26 21 bf
       -1.0886959 -0.48254552 0.69393 -0.62949264
0001d0 c6 72 88 3f 18 3b c3 3e 26 e2 25 3e 12 ab 93 3f
       1.0660026 0.38131022 0.1619955 1.1536582
0001e0 a0 65 94 3f 21 23 47 3f 8e c4 16 3f e5 f7 42 bf
       1.1593513 0.7778798 0.5889367 -0.7615951
0001f0 a8 f7 c5 be 6c bc 7b be 8e e3 ad 3f 8c 91 2a bf
       -0.3866551 -0.24583596 1.3585069 -0.66628337
000200 26 16 d3 3e 3f 7c f5 be b9 f6 40 be b0 b3 31 3f
       0.41227835 -0.47946355 -0.18844117 0.69414806
000210 60 c1 8f 3e 6e 03 a8 bd 98 b1 3f bf aa ae 0e 3f
       0.2807722 -0.08203779 -0.7488036 0.55735266
000220 30 bf 61 be fa 98 94 3e d5 3c 13 bf c0 8d c4 bd
       -0.22045588 0.29022962 -0.575147 -0.09597349
000230 f7 08 e1 be 4c 96 92 3f ed b8 3e 3f 9d 19 ee 3e
       -0.43952152 1.1452117 0.74500924 0.46503916
000240 5a 90 48 3d 8c 41 22 3f 27 f8 12 bf 73 29 90 3f
       0.04896579 0.63381267 -0.574099 1.1262649
000250 7e e4 41 bf 59 63 35 bf fc 00 f4 be 35 07 17 3f
       -0.75739276 -0.7085472 -0.47657 0.5899537
000260 c5 01 e9 be 73 39 ee 3d cf 3d 9b 3d 79 3a aa bf
       -0.45509163 0.11632051 0.075801484 -1.3299094
000270 30 23 61 bf c6 d0 34 3f 2a ca ef 3c 01 b1 af bc
       -0.87944317 0.70631063 0.029271204 -0.021446707
000280 8d 04 42 3f d2 b0 d4 3e 11 ab 65 bf 94 9b 03 3f
       0.75788194 0.41541153 -0.8971415 0.5140927
000290 1a b1 40 be 99 d2 43 3e 00 2a 7b 3f 86 1d e1 be
       -0.18817559 0.19123305 0.9811096 -0.43967837
0002a0 a1 72 a8 bf c3 c9 98 3e 64 3f de 3e 63 a6 2d 3f
       -1.3159982 0.29841432 0.43407738 0.6783201
0002b0 19 e9 f1 3e f7 06 6a 3f 0b 6f d7 bd dc 59 89 be
       0.47248152 0.9141688 -0.10519227 -0.2682637
0002c0 d6 fe e2 bd 61 87 60 3f 88 e5 40 bf 37 72 dc be
       -0.11083762 0.8770657 -0.75350237 -0.4305589
0002d0 a2 2c fa 3e 6b f1 fe 3b e9 5d e5 be 5d 1b 2e bf
       0.48862177 0.007780244 -0.4479821 -0.68010503
0002e0 ca c7 13 3e c7 f2 2a 3f a8 f5 1d bf 53 1c 86 3d
       0.14431682 0.667767 -0.61702967 0.06548371
0002f0 59 0c 09 bf 8c 2c 8b 3f eb af 17 3f bc 31 b3 3e
       -0.53534466 1.087297 0.59252805 0.34998882
000300 d9 1f 88 be b6 50 89 3e 29 32 41 be f9 50 22 3e
       -0.26586798 0.2681939 -0.18866791 0.15851201
000310 f7 4a 01 3f f6 f9 9c be b4 58 57 3f 97 20 52 be
       0.5050501 -0.30659455 0.84119725 -0.20520245
000320 e5 e8 42 3f 8b 80 4b 3f 54 ba 88 bf 6d 70 8a bf
       0.7613662 0.79493016 -1.0681863 -1.081556
000330 6f 51 d7 bd d4 0d 13 3e 60 66 0c 3d 87 bc 72 3f
       -0.10513579 0.14360744 0.03427732 0.9481892
000340 8b 2c 4c bf 27 74 ab be a3 e1 ce 3e 44 87 4d 3f
       -0.7975547 -0.33487055 0.40406522 0.80284524
000350 f4 f3 79 bf 71 ac 52 3f 09 79 f8 be 8c dc 95 3e
       -0.9763787 0.82294375 -0.48529842 0.29269826
000360 ea 96 69 bf 99 22 1a 3f 12 48 24 be 9d 19 1e bf
       -0.912459 0.6020904 -0.16043118 -0.6175783
000370 5b 15 90 3e e4 b5 07 3f 42 ff 16 3f b7 3b 86 bf
       0.28141293 0.5301192 0.5898324 -1.0486974
000380 0a ec 2c 3d e1 85 e5 3e dc 15 6e be 38 81 9b 3d
       0.042217292 0.44828704 -0.23250526 0.07593006
000390 fa fa d0 be 97 83 54 3f 29 73 8e 3f f0 e9 5e 3f
       -0.4081648 0.8301329 1.1128894 0.8707571
0003a0 32 f5 a1 bf 64 a1 ba 3e bf d6 61 3f 56 cb f9 3d
       -1.2652953 0.36451256 0.882183 0.121969864
0003b0 1d 63 05 3f c0 21 18 3f 35 0f 24 bf 61 ac 4b be
       0.5210436 0.594265 -0.64085704 -0.19889976
0003c0 a2 34 8b 3f eb f6 1b 3e 54 87 75 bc c5 cc 20 bf
       1.0875437 0.1523091 -0.014985878 -0.62812454
0003d0 cc c2 ac bd 79 87 21 bf 9f 79 f4 be 5e 5e 17 be
       -0.08435592 -0.6309734 -0.4774904 -0.14782092
0003e0 f3 ad de be 1e 70 4b bf bb c9 83 bf f5 2b 5d 3f
       -0.43492088 -0.7946795 -1.0295938 0.863952
0003f0 c9 8a 25 bf 3d e3 70 3e 2a b3 21 3e 75 b1 8e 3e
       -0.64664894 0.23524185 0.15791002 0.27869764

var_embedding.1.bias f4 [64]
000000 11 2f b1 3e da ec 8b 3e 38 06 16 bd b7 ee f1 3d
       0.3460622 0.2732914 -0.036627024 0.11813109
000010 6c b4 9f bd 18 79 55 be 77 1a 07 3d 4d 15 d0 3e
       -0.077980846 -0.20846975 0.032984223 0.4064125
000020 1f 34 17 3e 0a 69 d4 3c 49 a3 07 be 7a 94 20 bd
       0.14765976 0.025928993 -0.13245882 -0.0392041
000030 c0 82 c0 3e 1b 3c 6c bd 28 72 bc bd 95 1c b7 3e
       0.37599754 -0.05767451 -0.09201461 0.35763994
000040 0e 0d e5 be 4d 2a da 3e 73 c0 35 be cd da 31 be
       -0.44736522 0.42610398 -0.17749195 -0.17368622
000050 d3 4f 12 bd 7e bd 3a be ee 7d f3 3e 25 4f 34 be
       -0.035720658 -0.18236348 0.47557014 -0.17608316
000060 c5 3b 95 3e 4b b1 d6 be 11 62 0a 3f e6 4e e8 bc
       0.29147163 -0.4193214 0.5405589 -0.028357934
000070 e0 b2 38 bd e8 85 9e be cd a0 5e be 2d ae 61 be
       -0.045092463 -0.30961537 -0.21741028 -0.22039099
000080 da ec 04 3e 8d 26 b0 be 0e c8 2e 3e ce 1a e9 bd
       0.12980977 -0.34404412 0.17068502 -0.11382066
000090 e0 a2 a6 be b0 c0 f1 bb bc 3e cd 3e 4a 85 c3 3d
       -0.3254614 -0.0073777065 0.40086925 0.09546907
0000a0 0b 15 88 be c5 68 4c 3e ad 07 69 be bb 9a 02 3f
       -0.26578555 0.19961841 -0.22756834 0.5101735
0000b0 59 4a 7b 3e a0 18 bd be 81 3f 88 be 5f ff d2 3e
       0.2454008 -0.3693285 -0.2661095 0.41210458
0000c0 3a 0f 08 3e 72 2f 05 be 94 00 cc 3e 6d 9a d1 be
       0.13287058 -0.1300638 0.3984419 -0.4093813
0000d0 2a 2f 15 be 40 5d cd bc 6a 95 8d be 55 92 46 3c
       -0.14568773 -0.02506888 -0.27653056 0.012119849
0000e0 a4 79 39 be a1 1c a5 3e 44 ab c2 be 4b d2 01 bd
       -0.18112808 0.32248405 -0.3802129 -0.03169469
0000f0 8c a1 1d 3e 38 3b 37 be 77 ed bd bd f3 2e a4 3e
       0.15393656 -0.17893684 -0.092738084 0.3206707

var_embedding.3.weight f4 [64, 64]
000000 ca cd 50 3e 28 b4 04 3e 43 54 28 be ea 45 a9 be
       0.20391002 0.12959349 -0.16438393 -0.33061153
000010 74 66 b3 3e 33 ad 09 be e4 da 25 3d df af f7 bd
       0.35039103 -0.13444977 0.040491953 -0.120940916
000020 49 c5 0b be 9e b1 45 3d f2 0d 5c bd 9a c8 bf 3e
       -0.13649477 0.048265092 -0.053724237 0.37457734
000030 37 6d d1 be f1 cf 3b 3d e6 ef a7 3e 38 62 03 3d
       -0.40903637 0.045852605 0.32800215 0.03207609
000040 fa c1 b3 3e c6 88 75 3e cf ee ce 3d 48 b2 6a 3d
       0.3510893 0.23977956 0.10104143 0.05729893
000050 38 1f 6a 3d 24 9c 80 be b2 c9 45 3e 14 c1 1b 3e
       0.05715868 -0.25119126 0.19315222 0.15210372
000060 29 41 d7 bd 4f 6b 04 bc ea 83 03 3e e5 d1 9c be
       -0.10510475 -0.008082225 0.1284329 -0.30628887
000070 fa 61 b3 bd 7a 89 e4 bd 61 c9 04 3d c2 da 6f 3e
       -0.08758922 -0.11159034 0.032418612 0.23423293
000080 17 b4 b2 3e 9f 32 8b 3c ff cf 40 3e d9 0c 64 3e
       0.34903023 0.016991911 0.18829344 0.22270526
000090 c5 3d 67 3e 78 6f 46 3c 4c b7 ea 3e 96 3c 77 3d
       0.22582157 0.012111537 0.4584297 0.060360514
0000a0 c9 49 9e bd 42 c3 62 3e 30 b5 4d be 1c b3 66 bd
       -0.07728917 0.22144797 -0.20088649 -0.056323156
0000b0 0c 46 fb bd 89 af 2c bd 25 52 a5 3e 77 07 47 be
       -0.1226922 -0.04215959 0.32289234 -0.19436441
0000c0 49 ba f4 3c f9 07 10 ba a6 ae 53 bd 9e 2e 98 3e
       0.029873984 -0.0005494352 -0.05168023 0.29723066
0000d0 49 ec 6b 3c f4 b4 4f be ec 44 2a bf 27 1d 55 ba
       0.0143995965 -0.20283872 -0.66511416 -0.0008129649
0000e0 a1 43 6f bd 3f d4 0a 3e 97 d0 ad be 24 fa 20 3e
       -0.058414105 0.13557528 -0.33948204 0.15720421
0000f0 fe 9c b7 be d4 65 8b 3e 4c 28 8d 3e 6f 7e a2 be
       -0.35861963 0.27226126 0.27569807 -0.31737086
000100 af 5f c6 be 4e 85 d7 3e 49 5f 9e 3e c7 f8 9f 3d
       -0.38744876 0.4209389 0.30932072 0.078111224
000110 23 6e 16 bd 8f a3 f7 be 96 36 03 3f 8f 5e 85 3e
       -0.03672613 -0.48366973 0.51255167 0.26048705
000120 d2 1e ad be 20 a2 e0 3d a5 c4 af 3e fa 66 0e be
       -0.33812577 0.10968423 0.34329715 -0.1390647
000130 61 45 3e bd 4d 91 5f be 80 8e 79 3d 3d 27 ae 3e
       -0.046452884 -0.21832772 0.060926914 0.3401431
000140 96 54 17 bf eb fd f5 3e 26 b3 ef 3e 60 8d 98 bd
       -0.5911344 0.48045287 0.46816367 -0.0744884
000150 e1 08 fd 3b de 94 c5 3e 2c b9 94 3e fc 76 62 be
       0.0077220057 0.3859014 0.29047525 -0.22115701
000160 d7 06 53 3d 14 ce a4 3d 0e db 86 bc 84 68 c8 3e
       0.051520195 0.08047119 -0.016461875 0.3914224
000170 36 00 ed 3e 28 9e a8 be 6b 63 5d 3d 81 03 af be
       0.46289223 -0.32933164 0.05404989 -0.3418236
000180 09 78 ae be 33 fe 8b be c4 d1 1c 3d a0 c6 ba 3d
       -0.34075955 -0.27342376 0.038285986 0.09119916
000190 fb 67 66 3d b5 bb 13 3e 70 7d aa 3e c7 99 c2 be
       0.056251507 0.14427073 0.33298826 -0.38007948
0001a0 31 19 46 be ba 65 7e bd 58 04 6b 3d c0 3c fa bd
       -0.19345547 -0.062108733 0.05737719 -0.122186184
0001b0 c3 8b 0e 3e 57 2f 5a 3e 38 90 c0 3d f8 12 04 be
       0.13920502 0.21307121 0.094025075 -0.12897861
0001c0 8c 90 7c 3d 2f 27 3e 3e 44 87 87 be de be 40 3e
       0.06166129 0.18569635 -0.26470387 0.1882281
0001d0 88 06 ea be 46 ec 40 bf 55 d4 c2 be f9 02 89 bd
       -0.45708108 -0.75360525 -0.3805262 -0.0669002
0001e0 80 57 2d 3e 9d 9b ca bb 39 95 a0 3e 12 c9 32 3e
       0.1692791 -0.0061831013 0.31363848 0.17459515
0001f0 16 8a 07 3e d0 77 75 be 6d 62 3c 3f c4 3d eb 3d
       0.1323627 -0.23971486 0.73587686 0.1148639
000200 b0 9e d4 3c 7f 68 fc 3e 02 5e a2 3e c7 17 6e be
       0.025954574 0.49298474 0.31712347 -0.23251258
000210 57 0e af be bc e0 98 bf 61 30 60 3c 92 5b 25 be
       -0.34190628 -1.1943583 0.013683409 -0.16148213
000220 10 87 4c 3e 3b 56 1d bf 27 77 bd 3e 8b 86 79 3e
       0.19973397 -0.614597 0.3700497 0.2436773
000230 7d 1a 0f 3f 7a 7a 57 bf eb 90 ca be 42 3e ab 3e
       0.5589979 -0.8417126 -0.3956369 0.33445936
000240 2b 53 c3 bd d1 4e ba 3e 4f 03 65 be 75 b5 98 be
       -0.095373474 0.36388257 -0.22364543 -0.2982594
000250 ee da 39 3e 02 48 f2 be 69 b5 39 be a3 cf c1 bd
       0.18149921 -0.47320563 -0.18135609 -0.09463432
000260 33 2c f3 3e 5f 2e 4d ba 4b da 04 3f 39 7e b1 3e
       0.4749466 -0.0007827039 0.5189559 0.34666613
000270 d2 b3 70 3f 8a c9 d2 bd e8 50 60 3f a3 df a8 3e
       0.94024384 -0.10292347 0.87623453 0.3298312
000280 ac 76 fb be 44 65 25 3e c8 e6 d0 3c 72 ab 73 bf
       -0.49113977 0.16151911 0.02550067 -0.9518348
000290 1b 4e 3b bd ff bd 02 3f 29 1f 07 3f c1 05 40 be
       -0.045728784 0.5107116 0.5278192 -0.18752195
0002a0 21 09 59 be 61 6a af 3e 85 ef 91 3e fb d8 5c 3e
       -0.21194889 0.34260848 0.2850305 0.21567146
0002b0 59 84 1f 3f 2a 7c 09 3f d2 a9 0b bd 00 20 ee 3e
       0.6231132 0.53705084 -0.0340975 0.4650879
0002c0 43 df b5 3e 91 b7 47 bd f6 20 20 be 7e 01 36 3e
       0.35521898 -0.048759047 -0.15637574 0.17774007
0002d0 2a de 6e be 3d 06 93 3d 1f 82 6b 3d 65 87 49 3e
       -0.23326936 0.07178924 0.05749714 0.19680555
0002e0 33 79 9c be 14 1e 85 3e 80 86 1a 3f 72 1a ab 3d
       -0.30561218 0.2599951 0.6036148 0.083546534
0002f0 c1 8e aa 3e 5f 52 28 be d4 07 39 bd 0e fe 07 be
       0.33312038 -0.16437672 -0.04517348 -0.13280508
000300 b9 f0 c4 3d 6e c0 5e bf 70 91 14 3e 91 b4 31 3d
       0.09616227 -0.87012374 0.14508605 0.043385092
000310 7b 17 31 3e a1 9e 4d 3f a1 eb ce be af 4f 46 3e
       0.17294113 0.80320174 -0.40414146 0.19366334
000320 6a 0b aa 3e d9 23 fd 3e 25 44 89 be 5c 32 bc 3b
       0.33211833 0.49441412 -0.26809803 0.005743308
000330 37 c9 13 bf 2a 3a 0d 3f 49 d1 7c 3e ff 50 24 be
       -0.57728904 0.55166876 0.24689211 -0.16046523
000340 a9 66 1d 3f e4 fb 85 be 36 b7 b8 3e 72 d0 c5 3e
       0.6148477 -0.2616874 0.3607728 0.38635594
000350 c1 a5 72 bd 6e 82 04 3e 32 2c 81 3e 57 e0 80 be
       -0.059240106 0.1294038 0.2522903 -0.25171158
000360 94 4a f6 bd 5f 33 2e bd ca 41 21 bf c6 f1 80 bd
       -0.120259434 -0.04252946 -0.6299101 -0.062961146
000370 18 3e 34 bf 21 e3 53 3d bd bc 33 bf d6 04 0f bd
       -0.7040725 0.05173028 -0.70209867 -0.03491672
000380 85 11 43 3f 3e 75 ea 3e 33 34 0a 3e 1b f7 0f 3f
       0.7619861 0.45792574 0.13496475 0.5623643
000390 a3 56 92 3d 9f 48 8d be ff 64 88 bc a2 c8 05 3f
       0.07145431 -0.27594468 -0.016649721 0.52259266
0003a0 da bc 46 3e f5 c7 98 be 1c 08 a4 3d a1 b6 06 be
       0.19407979 -0.29840055 0.08009359 -0.13155605
0003b0 e8 55 16 bf c3 fa 68 bd 49 fb f0 3c 85 32 c3 bc
       -0.5872483 -0.05687977 0.029416697 -0.0238278
0003c0 07 a9 eb be 3c 89 5d 3d ad 4f f4 3d 6f 2b d1 bb
       -0.46027395 0.054085955 0.119292594 -0.0063833515
0003d0 8f b6 db bc 00 ab df 3c 04 72 08 3d fc ad eb bd
       -0.02682045 0.027303219 0.03331186 -0.11507794
0003e0 7f bd 21 3e 80 eb ec be 93 75 83 be 12 74 f9 3e
       0.15794943 -0.46273422 -0.2567564 0.48721367
0003f0 c8 17 57 be 2f 05 cb 3e 85 d0 09 bf 67 15 04 3d
       -0.21005166 0.39652392 -0.538338 0.032246973

var_embedding.3.bias f4 [64]
000000 76 14 7f be fb 73 b6 3d eb 84 9a 3e 48 82 92 be
       -0.24910149 0.0890884 0.30179533 -0.28615022
000010 7e a1 9a bd 75 68 9e bd 05 d2 46 be 49 c7 de bc
       -0.075503334 -0.07734767 -0.19416054 -0.027194636
000020 8e 51 f6 bd ee a9 22 be a4 56 2b 3e 10 29 2a be
       -0.12027274 -0.15885136 0.1673227 -0.16617227
000030 e4 ba 9d bd 10 95 03 be 4c 29 98 bd c7 72 3e be
       -0.07701662 -0.12849832 -0.07429752 -0.18598472
000040 8c 19 eb 3c 33 3a 98 bc dd 56 80 3e 58 65 ed bd
       0.028698705 -0.018582439 0.2506627 -0.115915954
000050 cf b2 3e 3d 18 70 f8 3b 51 d1 6d 3d 94 f9 52 3d
       0.046557244 0.007581722 0.058060948 0.051507547
000060 00 6b c5 3c ba 8a 88 3d 11 39 89 be 5f 4e 86 be
       0.024098873 0.06667085 -0.2680135 -0.26231667
000070 af 3c 1b be c7 ab d3 3d d4 a7 b4 3d 0b 0b f7 bd
       -0.15159868 0.10335498 0.08821073 -0.12062653
000080 a8 ef fe bc 43 d8 63 3d 5b 4c 81 bd f2 e5 e6 3d
       -0.031120136 0.055626165 -0.06313392 0.11274327
000090 25 b1 6e 3e d3 24 5c bd 8f 6a 28 bd 41 d8 b6 3d
       0.23309763 -0.053746056 -0.041117247 0.08927966
0000a0 88 a2 52 bc 74 8e 0d be c2 ee 05 3e ee ba 07 3d
       -0.012856133 -0.13823873 0.1307936 0.033137254
0000b0 81 30 2c bb ad 49 54 3c c2 96 71 3e c4 ac 9f be
       -0.0026274028 0.012957019 0.23592666 -0.31186497
0000c0 03 9e 67 3e b3 e2 3d bd 9c 9b 6b be f9 11 37 3e
       0.2261887 -0.046358775 -0.23008579 0.1787795
0000d0 ec fe 34 3e c4 8a 6e 3c 56 3f 8f 3e 8d 1a 09 be
       0.1767537 0.0145594515 0.2797801 -0.13389035
0000e0 b3 ad d1 3d b9 f2 0c be 0a 08 d1 3d a6 28 d0 bb
       0.102382086 -0.13764466 0.102066115 -0.006352502
0000f0 43 71 8a be 14 8a ff 3c 47 57 14 3e cf c0 01 be
       -0.27039537 0.03119377 0.14486419 -0.12671207

conv_v_to_c.feature_module_left.0.weight f4 [64, 64]
000000 51 a9 53 be 4d 27 ac 3d 4b 30 f7 bd 8a 30 cc bd
       -0.20670058 0.084059335 -0.12069758 -0.099701956
000010 4b 71 30 bd c2 78 a4 bd df a5 c4 bd 81 86 2f bc
       -0.043076795 -0.08030845 -0.0960195 -0.010713221
000020 6e 36 e0 bd be e3 ad 3d aa d3 13 be 3f 5b 27 3e
       -0.10947882 0.08490704 -0.14436212 0.16343401
000030 3d b6 a5 3c c3 1c 22 be 25 5d 75 3d 84 a2 06 be
       0.0202285 -0.15831284 0.059903283 -0.13147932
000040 a5 53 cc bd 92 87 ff 3c 41 27 c8 3c bb d1 b8 bd
       -0.099768914 0.031192575 0.02443278 -0.09024378
000050 8f 26 a8 3e 4d 27 29 bc 62 78 0c bd 53 1d ac 3e
       0.32841918 -0.010324311 -0.034294493 0.33616123
000060 e3 f4 55 3e 29 dd 7e 3e 7f 3f a7 3e 90 75 53 3d
       0.20894198 0.24889053 0.3266563 0.05162579
000070 a3 d3 ac 3d 5e 46 ea 3d f6 86 d1 3e 2e 30 9f bc
       0.08438804 0.11439203 0.4092328 -0.019432154
000080 f8 e3 18 3e 36 fb b5 be e9 69 5d bd ef 4c 05 3c
       0.14930713 -0.3554322 -0.054056082 0.008136018
000090 ed 2a 38 3d dd d6 e5 bd bb 5b c0 3c 07 80 10 be
       0.044962812 -0.112226225 0.02348124 -0.14111339
0000a0 69 22 eb bd 88 36 15 3e 51 c8 cf 3d e7 f8 55 3d
       -0.114811726 0.14571583 0.10145629 0.052239325
0000b0 0b 4c 3a bd b2 63 8d 3e 20 08 4a 3e 4f 99 16 3e
       -0.045482676 0.27615124 0.19729662 0.1470692
0000c0 eb c8 a5 3e ab 32 5a be 91 13 ba 3d d9 81 ac bd
       0.3237985 -0.21308391 0.09085763 -0.08423204
0000d0 d7 7b 88 3e ae 09 8a 3e a2 92 2f 3e 24 5e 92 bd
       0.26656982 0.2696051 0.1714578 -0.07146862
0000e0 9c 44 20 bd c1 fe eb bd cf 27 d9 3d 6d 35 d4 3c
       -0.03912793 -0.115232 0.10603296 0.025904382
0000f0 92 1c 68 3d dc e5 10 3e ec 37 e7 bd 73 f7 aa be
       0.05666787 0.14150184 -0.11289963 -0.33391914
000100 f2 4a 4a 3e a7 61 d7 bb de 2a 71 3d 5a b3 91 be
       0.19755152 -0.0065729204 0.058878772 -0.28457147
000110 0b 69 5c 3e cb 31 3c bd 8a 49 f9 3d 52 4e 24 3d
       0.21524446 -0.045945924 0.121722296 0.040113755
000120 9a 43 4f 3e c0 40 57 be 85 af 36 3d 4a a2 bc bd
       0.20240632 -0.21020794 0.044600982 -0.09210642
000130 e4 09 e4 bd c6 3b 2a 3d 77 f4 55 b9 b0 3a 50 be
       -0.11134699 0.04156091 -0.00020404333 -0.20334888
000140 c5 6c 99 be 90 34 eb bd 07 73 5b be 95 4d 88 3e
       -0.29965797 -0.11484635 -0.21430598 0.2662169
000150 25 46 2c bf cd 6e dc 3c 6c 0e e7 3e 40 ed 05 bf
       -0.6729453 0.026908303 0.4512819 -0.5231514
000160 7d 9e 9d be af 66 66 bd c0 3f 07 bf 47 3b 10 be
       -0.3078498 -0.05625027 -0.5283165 -0.14085113
000170 2f 48 07 be 83 d6 e5 3d 07 68 29 bf d4 f0 33 3e
       -0.1321113 0.112225555 -0.6617436 0.17572337
000180 57 87 ca be 6a 9e 6a bd 08 40 7b 3d 0e 89 7c bd
       -0.3955638 -0.05727998 0.06134036 -0.061654143
000190 c3 c2 bb bd e8 c6 46 bd 36 e6 f1 bc f2 e3 18 3e
       -0.09168007 -0.048529536 -0.029528718 0.14930704
0001a0 85 55 c3 3e 77 34 a7 be 36 c0 bb 3d 73 56 f6 3c
       0.38151184 -0.32657215 0.09167521 0.03007052
0001b0 e8 c5 75 3e 9a 6c c4 be c4 cc 12 be 0a 9c 91 be
       0.24001276 -0.38364106 -0.14335924 -0.2843936
0001c0 94 7d aa be 91 be ad 3e 19 5e e5 be 55 b5 31 bd
       -0.33298934 0.33934453 -0.44798353 -0.043385822
0001d0 aa ef 85 3b 91 36 c7 3d 96 4e 1f be 59 21 35 3e
       0.004087408 0.097272046 -0.15557322 0.17688502
0001e0 9a a2 0f be 3c 28 80 3c 7a 73 3b be 16 ee 29 be
       -0.14026871 0.015644185 -0.1830577 -0.16594729
0001f0 5d ec b3 3e 57 7b 3b 3e 37 93 6b ba 44 09 f4 bd
       0.35141268 0.18308769 -0.00089864753 -0.1191583
000200 6e d1 91 3e 72 0b 2a bd 63 be e9 3d f4 50 c3 bc
       0.28480095 -0.04151482 0.114132665 -0.023842312
000210 a4 ac 12 be 92 3f a1 3d 4c 6a 29 bd 71 e9 ca 3d
       -0.1432367 0.07873453 -0.04136114 0.09907807
000220 ac a0 d8 3d 8e c4 8b 3e c0 31 88 bd 12 6c 7f bd
       0.10577521 0.27298397 -0.06650114 -0.062358923
000230 f5 34 67 3e 0e d2 88 be cd 30 db bd 3d 1e 3c be
       0.22578795 -0.2672276 -0.107026674 -0.1837091
000240 ae c4 55 3e fd 58 eb bd 7e 8f 96 bc a9 58 a7 3c
       0.20875809 -0.114915825 -0.01837897 0.020428019
000250 7a 48 e7 bd e7 48 91 3c f5 ee 15 3e 39 7c 2d 3e
       -0.11293121 0.017734958 0.14641936 0.16941918
000260 57 d1 c4 bc 6a 6c 07 3e 91 16 0e 3e fa 1b 0d 3e
       -0.024025602 0.1322495 0.13875796 0.13780203
000270 f3 66 0c be 1e f4 44 be 49 84 6f bd 72 93 29 3e
       -0.13711147 -0.19233748 -0.058475766 0.16560152
000280 a9 97 8e be c3 0d 68 be 8b 24 91 3d ef f3 ce 3a
       -0.27850083 -0.226615 0.07087048 0.0015789251
000290 b1 c6 70 3d ac 75 b6 bc a3 9c 82 3d 4b d6 38 be
       0.058783237 -0.022272907 0.06377532 -0.18050496
0002a0 7f eb 27 3e ab cf 2a bd 4b 0d 75 be 9a ca 90 3d
       0.16398428 -0.041701954 -0.23930852 0.07069893
0002b0 47 a0 84 bd e0 f9 32 3d 90 c6 93 bd 8d 40 8f be
       -0.06475883 0.04369533 -0.07215607 -0.27978936
0002c0 bf c7 90 be eb 5b a7 3e 03 1f 4d 3e ea d4 5e bb
       -0.28277394 0.32687315 0.20031361 -0.0034001418
0002d0 c2 fb a6 3d 75 ae 4f 3c e3 a8 21 be 03 b9 f6 3d
       0.08153488 0.012675871 -0.15787081 0.12047007
0002e0 bd 07 45 be 99 f1 ba bc 18 c3 ce bc a3 8d 8f bc
       -0.19241233 -0.02282028 -0.025239512 -0.017523592
0002f0 60 16 37 3d b1 5f 7c 3d d5 f4 7e 3d 94 c6 5f be
       0.044699073 0.061614696 0.06224521 -0.21853095
000300 53 88 6f be e6 62 a9 3c 47 a8 9f bd 44 5f 4a 3d
       -0.23391847 0.020677041 -0.07795768 0.04940726
000310 07 2d 82 3c ce 76 59 bc d4 47 86 bc 9b 3a 96 3d
       0.015890611 -0.013272954 -0.016391672 0.07335397
000320 3e 9d af bd 12 6f c4 3e bb 72 68 3d 9d 1d a1 bd
       -0.085749134 0.3836599 0.05675004 -0.078669764
000330 21 4c d5 3d 46 67 bb bd 4f bc a1 3d 39 f8 91 3d
       0.10414911 -0.09150557 0.07897245 0.07127423
000340 cb 77 ce bc 7c e9 2a 3d bf 21 35 bd fb 57 b2 be
       -0.025203606 0.041726574 -0.044221636 -0.3483275
000350 03 11 80 bd f3 a1 31 bc 52 5f c2 bd 74 ef 67 bd
       -0.06253245 -0.010841834 -0.09490837 -0.056624845
000360 eb 1d 97 3d 24 6d 4a 3a 3c af 5d 3d 3c 0c 1f 3c
       0.07378753 0.00077219517 0.054122195 0.009707507
000370 ad 70 d5 3c 8d a1 1c bc a2 54 ac bd ca d3 37 3c
       0.026054705 -0.009560001 -0.0841458 0.011219928
000380 05 26 45 3c 68 c1 1d 3e 8a 2b ab be c1 1b 99 3d
       0.01203299 0.1540581 -0.33431655 0.07475997
000390 f0 00 34 ba c4 72 94 bd a0 1b 26 bd c1 dd 09 3d
       -0.0006866595 -0.07248452 -0.04055369 0.033658747
0003a0 e5 b8 fc bd 07 f6 de 3d fb 4a ac 3d ee 18 2e bd
       -0.12339953 0.1088677 0.08412739 -0.042504244
0003b0 0b ad 37 be 30 78 de bd 1a 0d 92 bc 2e ee 62 bc
       -0.17937104 -0.10862768 -0.017828513 -0.013850732
0003c0 c9 3e b3 be a5 6e aa bd f5 8e 08 3d ff 1f 0b 3d
       -0.3500884 -0.08321885 0.03333946 0.03396606
0003d0 82 40 5e be cc 8f 6e be 60 3c 7b 3d 5f a1 83 bd
       -0.21704295 -0.23297042 0.061336875 -0.064272635
0003e0 b3 84 80 3c 81 f1 0e bd 74 25 15 be 42 32 22 bc
       0.015688276 -0.034898285 -0.14565068 -0.009899678
0003f0 ba 41 1c bd 76 c3 d1 bb 11 f6 2a bd b6 85 e6 3d
       -0.03814862 -0.0064014746 -0.041738573 0.11255972

conv_v_to_c.feature_module_left.0.bias f4 [64]
000000 65 54 ef 3d d7 b4 80 3c af 05 0c bd 04 de 90 be
       0.11686019 0.015711231 -0.034185108 -0.28294384
000010 d0 15 3f bd 36 d4 3b be 9e ae a9 3d cb c1 d3 3d
       -0.04665166 -0.18342671 0.08285259 0.103396975
000020 2d 7a 83 bb 21 23 4d 3e 32 31 d9 3d 68 a5 23 be
       -0.004012367 0.20032932 0.106050864 -0.15981066
000030 41 47 48 bd 2f 4a bd 3d c2 2a cd 3d 86 87 13 be
       -0.048896078 0.09242665 0.10017921 -0.14407167
000040 7c c6 d8 bd 64 5c 56 3e 97 35 b2 3e 88 4b c5 bd
       -0.10584733 0.20933682 0.3480651 -0.09633547
000050 76 81 df bd 63 45 2d 3e 88 3b 77 3e c0 5e b7 bc
       -0.109133646 0.16921 0.24143803 -0.022384048
000060 1c f2 24 3e e0 b8 6b 3e 0d b1 ed 3b 99 12 81 bd
       0.16107982 0.23019743 0.007253772 -0.06302375
000070 5f 77 2a 3e 46 04 c0 bc 79 e2 d1 3d 8e 33 05 3e
       0.16647099 -0.023439538 0.10248274 0.13007948
000080 98 31 a4 bd f9 b9 02 bd 0d 13 00 bd ff d9 8c be
       -0.08017272 -0.03191564 -0.03126817 -0.27510068
000090 1b f3 2b 3e ba a1 b2 bd 01 0d 62 bc 0a bc a2 3d
       0.16791956 -0.08722253 -0.013797046 0.07946022
0000a0 85 b6 5a be 06 10 15 3d 5b ba b6 3d 8d 67 94 bc
       -0.21358688 0.036392234 0.08922263 -0.018115783
0000b0 e3 bc a6 bb a1 37 f7 bc 0e f5 4c 3e 7e 78 78 3d
       -0.005088435 -0.030177893 0.20015356 0.060661785
0000c0 7e 49 bb 3c 40 4a a8 3d a8 73 12 3b de 7b 80 3e
       0.022862192 0.08217287 0.0022346769 0.25094503
0000d0 36 d4 48 3e b7 19 b1 3d bf 0d 6b 3c 27 ad 6a 3d
       0.19612202 0.08647483 0.014346539 0.057294037
0000e0 33 fd 08 be b6 04 1e 3e e8 95 e3 bc 26 d1 bf 3d
       -0.13377838 0.15431485 -0.027781442 0.09366064
0000f0 e6 ac f2 bd 1c 1c 9c bd 96 ed a2 3d e5 70 fa 3d
       -0.11849384 -0.07622549 0.07955472 0.12228564

conv_v_to_c.feature_module_edge.0.weight f4 [64, 1]
000000 70 ff 7a bf b3 2d 53 bf 03 fd 9e 3a 28 4d 34 3f
       -0.98046017 -0.82491606 0.0012129847 0.7043023
000010 6e 08 f3 3e c8 5f 70 3e bc 14 26 3f 54 9e ae bf
       0.4746737 0.23474038 0.6487539 -1.3642068
000020 24 21 ff bf 41 cc e5 3f 06 ab 81 bf 3a df a0 bf
       -1.9931989 1.7952958 -1.0130317 -1.2568123
000030 9d f9 81 3e 54 73 21 bf 7b 18 c7 bf 7e 72 35 bf
       0.25385752 -0.630666 -1.5554346 -0.70877826
000040 29 22 a5 bf 46 62 78 3f b1 da e4 bf cb c3 8e 3f
       -1.290105 0.97024953 -1.7879239 1.1153501
000050 9d c0 2e 3d a7 86 ca 3f 3f 15 d4 bf ee a3 dd bf
       0.04266416 1.5822343 -1.6568984 -1.7315652
000060 1e 7e 93 3f 92 72 f1 3f 87 e4 0e c0 c4 0d 30 bf
       1.1522863 1.8863089 -2.2326982 -0.68771005
000070 7b 6d 77 3f 5c 07 d2 3f 22 15 e8 bf 82 6e c0 bf
       0.9665143 1.6408496 -1.8131449 -1.5033724
000080 83 46 0b 40 5e 1b 8c bf 4f 8a 5a 3f 9c ff d3 bd
       2.1761787 -1.0945852 0.8536729 -0.10351488
000090 38 b9 8a 3f ca 77 ef 3e 62 74 19 bf 9e e0 81 3f
       1.0837774 0.4677108 -0.5994321 1.0146673
0000a0 53 0c 9e be 8c be 67 be f1 9c fb be f3 14 8c 3f
       -0.30868778 -0.22631282 -0.49143174 1.0943893
0000b0 73 89 04 c0 d5 de 97 bf cf 0a 3c 3f 2f 23 8d bf
       -2.0708892 -1.1864878 0.7345399 -1.1026362
0000c0 4f 39 96 3f 6c 7c cf bf 87 a6 aa bf eb 72 fa be
       1.1736239 -1.6209846 -1.333207 -0.489158
0000d0 78 80 5e bf 89 a8 38 bf 44 ca cb bf 19 f9 e3 3e
       -0.8691478 -0.72132164 -1.5921102 0.44525984
0000e0 a4 84 d6 3f 0e 6f ed 3f bd 02 7e be 5b d1 8b 3f
       1.6759229 1.8549516 -0.24805732 1.0923265
0000f0 a8 58 26 c0 c6 82 8d bf 65 20 aa bf 1d a4 9d 3e
       -2.5991611 -1.1055534 -1.3291136 0.3078927
